outputs/exp_0003_20251213_123043/runs/seed0/h5/UniformReplay/model_final.pt (torch, 71493 bytes, 7 tensors)

gru.weight_ih_l0 f4 [192, 1]
000000 ce 58 ce 3d 8e 49 12 3d 95 fe 1e be c2 50 23 be
       0.10075532 0.03571468 -0.15526803 -0.15948775
000010 c5 ca 2f 3d 26 c3 7c 3c 78 3e 5d 3d 45 7b 32 3e
       0.042917985 0.015427386 0.054014653 0.17429836
000020 54 07 0d 3d c0 8b 53 3d 08 75 17 be 10 b7 05 3b
       0.034430817 0.051646948 -0.14790738 0.0020403303
000030 bb 29 bb bd 94 0f a2 bd d6 2e 59 bd ef 59 de 3b
       -0.09138819 -0.079131275 -0.05302318 0.0067856233
000040 df 67 67 3c 1f 29 b1 3d ca 35 5e bd f3 db e6 bd
       0.014123886 0.08650421 -0.054250516 -0.11272421
000050 e2 fc e1 3d 01 d6 d7 3d c9 fd fb bd f6 02 0c 3e
       0.11034562 0.10538865 -0.12304265 0.13673005
000060 66 0d e4 3d c9 b7 cf 3d 69 30 11 3d 20 73 01 be
       0.11135368 0.10142476 0.03544656 -0.12641573
000070 81 51 62 bd d5 79 c7 bd 33 16 4d bd 5b dd 1a 3e
       -0.05525351 -0.097400345 -0.05007 0.15123503
000080 82 16 53 be e2 c9 98 bd 02 32 40 be 33 fc fb bc
       -0.20614055 -0.07460381 -0.18769076 -0.030759906
000090 98 dc 34 be b1 38 f2 3d 3b 96 19 3e 19 ee 8a 3d
       -0.17662275 0.11827219 0.14998715 0.06783695
0000a0 a9 67 7a 3d dc 85 5f bb 1b ff 4e 3e c4 28 14 be
       0.061134014 -0.0034106886 0.20214503 -0.14468676
0000b0 fe 07 40 be 09 9a c7 bd ff be 39 3d 7a dd a5 3d
       -0.18753049 -0.09746177 0.045348164 0.08098884
0000c0 45 ad 82 bd be d5 22 be 29 bb 5d 3c e6 37 2a 3e
       -0.06380705 -0.15901849 0.013533392 0.16622886
0000d0 65 fb db 3b a4 d2 ca bb 5b ef 09 3d 48 03 fc bd
       0.006713318 -0.006189661 0.033675533 -0.12305313
0000e0 12 5a 82 bd ab 3e 21 be ef 77 c4 bd 53 b8 70 bc
       -0.06364836 -0.15746562 -0.09593188 -0.014692384
0000f0 39 88 30 bc 4b 66 96 3d 5c ed aa bd 63 04 7c 3d
       -0.0107746655 0.073437296 -0.08346054 0.06152762
000100 fa e7 a2 3d 2d 7d 42 3d 97 d2 b2 bd c5 20 a2 bc
       0.07954402 0.04748266 -0.08731573 -0.019791016
000110 c1 86 d6 38 2f 7f 00 3e 19 a9 b6 bd bc c4 c8 bd
       0.00010229415 0.12548517 -0.089189716 -0.09803149
000120 a1 84 71 3d 85 9e de 3d d0 8e ab 3d 73 bf f2 3d
       0.058964375 0.10870079 0.08376849 0.11852922
000130 d1 5d c2 bb a8 0e c1 bd 9b b8 42 3d 08 e9 a6 bd
       -0.005931594 -0.094266236 0.047539335 -0.08149916
000140 4c 58 16 bd 1e 0a f9 3d 0a fb b8 3d 45 41 18 be
       -0.0367053 0.12160133 0.09032257 -0.14868648
000150 98 93 86 3c 3e f3 20 bc 5a 21 10 bd 92 e3 b5 bd
       0.0164278 -0.009823618 -0.035188057 -0.08881296
000160 c1 9b 27 bd 3b 94 44 3d 3d ff 59 3c ac 6a eb 3c
       -0.040920023 0.047992926 0.013305482 0.028737389
000170 52 b5 2d 3d e0 3f 19 bd 5b 42 15 be f3 d3 e9 bd
       0.04240925 -0.03741443 -0.14576094 -0.11417379
000180 c9 ee 2c 3d 59 0b 65 bc 70 05 f6 bd a9 08 91 bd
       0.04221991 -0.013979756 -0.12012756 -0.0708173
000190 57 11 f2 3b 75 96 03 3d e5 00 3d bd de bc 00 be
       0.007387321 0.03212591 -0.04614343 -0.12572047
0001a0 65 91 82 bd 7e 03 03 bd 9c 02 3e bd 01 29 29 be
       -0.06375388 -0.031985752 -0.046389207 -0.16519548
0001b0 8e 6e 90 3d 73 8b d2 3d 03 03 21 bc eb 23 43 3c
       0.07052337 0.10280504 -0.009827378 0.011910419
0001c0 cb ce 20 be fe a7 36 3d 7c d1 8f 3d b2 61 22 bd
       -0.15703885 0.044593804 0.07022378 -0.03964395
0001d0 5c 72 08 be 07 d7 56 bc 17 ec 25 3d 83 bf 83 3d
       -0.13324875 -0.01311279 0.040508356 0.06433012
0001e0 d1 6d 33 bb bd ad e5 ba 32 08 3c 3d 3d 4b 16 3d
       -0.0027378688 -0.0017523092 0.045906253 0.036692847
0001f0 4a 4a bd bd e0 c1 3d 3a db 04 9e bd 37 d9 d8 bd
       -0.09242685 0.00072386675 -0.0771577 -0.105883054
000200 99 e3 dc bd e6 16 fb bd 30 a0 67 bd 0f b4 5a 3d
       -0.10785598 -0.12260227 -0.05654925 0.053394374
000210 e3 53 21 be 6d bb 0c bd f7 cc ca 3d 25 59 99 bd
       -0.15754656 -0.03435843 0.09902375 -0.07487706
000220 98 29 6b bd 0a 9f 7e bd c5 e3 51 3c 48 d9 04 3e
       -0.057412714 -0.06216339 0.012810652 0.12973511
000230 64 af 26 3e 55 93 f6 3d b6 a1 53 3e 9e 6c c5 bd
       0.16277844 0.1203982 0.20667157 -0.09639858
000240 5f 49 31 be ed f1 f3 bd fc 3d 23 3e d9 55 3a bd
       -0.17313145 -0.11911378 0.15941614 -0.045492027
000250 b4 3e 12 be 0c f6 4a be 69 89 1d be 2c f2 0f be
       -0.14281732 -0.19820422 -0.15384449 -0.14057225
000260 62 70 e5 bd a5 f9 4d 3e 49 96 90 3b 7b 46 51 be
       -0.11203076 0.20114763 0.0044124466 -0.20437042
000270 61 ce 26 3e 19 72 8d bd dd ac 89 bd d2 5d 67 bd
       0.16289665 -0.06906528 -0.06722424 -0.05648596
000280 b7 ca 98 bd 07 7d 0b 3b d7 86 e1 bd 98 a8 f9 bd
       -0.0746054 0.002128424 -0.11012047 -0.1219036
000290 59 58 24 bd 64 38 54 3d 91 fd f2 bd 3b b1 91 3d
       -0.040123317 0.05181159 -0.1186477 0.07113882
0002a0 46 14 29 be d0 fe b9 3d 0e 3c 06 3e 65 3a 07 bc
       -0.1651164 0.09081805 0.13108847 -0.008253668
0002b0 8e 8a a3 3e 5c 87 a1 3d ed 8f 09 be 73 06 40 3e
       0.31941646 0.07887146 -0.1343381 0.1875246
0002c0 ca 44 c5 bc 9f 18 88 bc 41 09 ec 3d aa bc fa bd
       -0.024080653 -0.016613303 0.115252025 -0.12243016
0002d0 ee 02 10 3c 30 86 a6 bd 6e ea 04 3e 4c e8 e8 3c
       0.008789761 -0.08131063 0.12980053 0.02843108
0002e0 a2 92 a0 3d 37 70 f0 bb 57 d1 ac bd 2a 33 e4 bd
       0.07840468 -0.007337596 -0.08438366 -0.11142571
0002f0 14 3e 04 be e6 5c 01 3e 12 d2 de 3d b6 20 d6 3d
       -0.12914306 0.12633094 0.108799115 0.10455458

gru.weight_hh_l0 f4 [192, 64]
000000 84 db 16 be c9 14 e8 bc f8 e1 0d bd 04 47 63 3c
       -0.14732176 -0.028330224 -0.03463933 0.013871912
000010 6f 35 32 be bc ec 07 bc 73 da 4f bd 95 18 76 bd
       -0.17403196 -0.008296188 -0.05074544 -0.060082037
000020 59 bd 4c bd d7 51 ff 3d 4e ec 18 be 9d 4e 5f 3d
       -0.049985263 0.124667816 -0.14933893 0.05451833
000030 ea 46 a0 bc c3 c7 03 3e fd 08 a2 3c 73 2f 90 3d
       -0.019565064 0.12869172 0.019779677 0.070403
000040 54 46 b8 3c 42 1e e9 bc 71 34 89 3d 2b 14 96 bd
       0.022494473 -0.02845681 0.066994555 -0.073280655
000050 d5 b0 06 3d e0 5b c5 bd 38 45 28 bd 46 35 07 3c
       0.032883484 -0.096366644 -0.041081637 0.0082524475
000060 24 53 69 bd ed 37 b5 bc 4d b7 1e 3e a2 5d 6d be
       -0.056964055 -0.022121394 0.15499611 -0.2318025
000070 86 ae fa 3c 06 df be 3d 0e 79 ad 3c fc 80 7a bd
       0.030600797 0.09319882 0.021175887 -0.061158165
000080 68 b4 8d bd 82 e5 fe 3b 75 11 72 bd 6f 08 74 bd
       -0.069191754 0.0077788243 -0.05909868 -0.059578355
000090 ce eb 2a bd c1 a1 18 3d c8 85 6f bd 33 32 26 3e
       -0.041728787 0.037263636 -0.058477193 0.16230087
0000a0 3c bf 75 bd 2e da a1 3d d7 c2 32 3e 9e fe 8a bd
       -0.05999683 0.079029426 0.17457138 -0.067868456
0000b0 14 cb 26 3d ba a5 68 bd 02 a5 0b be 0e f4 97 bc
       0.040721014 -0.056798674 -0.13637164 -0.018548992
0000c0 1b e7 9a bc a5 c9 9b 3d d0 21 91 3c cb 4c 79 bd
       -0.018909028 0.0760682 0.017716318 -0.06086425
0000d0 c5 11 e5 3d 75 64 39 be 62 a2 19 3e fe 40 51 bd
       0.1118503 -0.18104728 0.1500335 -0.051087372
0000e0 50 75 9b 3c 7d 08 18 3d 18 9e c0 bd c8 ac 89 bc
       0.018976837 0.03711747 -0.09405154 -0.016806021
0000f0 f4 ee 1a 3d 0b 21 a8 bd 13 a3 99 bd 5a d5 74 bd
       0.03782554 -0.082094274 -0.07501807 -0.05977378
000100 41 f4 a1 bd 7a 3e b3 3d 17 18 56 bc b9 72 a0 bd
       -0.07907916 0.08752151 -0.013067267 -0.078343816
000110 b7 69 fd bc 03 ab c5 3d a6 37 2b 3d 9b b4 06 3e
       -0.030934198 0.096517585 0.041801117 0.13154833
000120 49 e8 8a 3d f9 6d 07 3d 84 d7 9c bd 06 97 f9 3b
       0.06782586 0.033063862 -0.07658294 0.0076168803
000130 ee 88 6c 3d 0f 6c 19 3b a5 65 fd bc f8 0e 8d bc
       0.057747774 0.0023410355 -0.030932257 -0.017219052
000140 bf fb a1 bd 5d e3 62 3d fe 8f 5d bd 53 a5 ba bd
       -0.07909345 0.05539261 -0.0540924 -0.09113564
000150 13 16 10 3e 4c 10 45 bd 1d a6 6b bd ee c8 cd 3d
       0.1407092 -0.048111245 -0.057531465 0.1004809
000160 20 7d 9d 3d 49 74 e9 bc d4 aa 7b bd 8f f6 f5 3d
       0.07689881 -0.028497832 -0.06144221 0.12009918
000170 dd df d9 bc 2e b0 a3 3c 9b e7 6c ba 37 1d 0e 3d
       -0.026596004 0.01998147 -0.00090371975 0.03469583
000180 b9 63 06 3d e9 a0 d1 bd 5e 88 e0 bd 60 24 84 3d
       0.032809947 -0.10235769 -0.1096351 0.064522505
000190 71 19 72 bc c1 93 19 bd ce 0f e3 3a 3d a3 d7 bd
       -0.0147765735 -0.037494425 0.0017323436 -0.10529182
0001a0 d1 69 fb 3d e4 48 38 be 4d 39 ea 3c 66 21 e0 bd
       0.12276042 -0.17996556 0.028591776 -0.1094387
0001b0 ad b4 aa 3c 3f 43 15 bb bc 68 9d bd 5e 17 72 bd
       0.020838106 -0.0022775677 -0.07685992 -0.059104316
0001c0 68 57 fd bb 6d 39 1b be 4a b2 72 3d 2b 1f b7 3d
       -0.007731367 -0.15158625 0.05925206 0.08941492
0001d0 21 52 ef 3d fb bc fc 3c 14 94 e1 bd f7 f5 4b bd
       0.11685587 0.030851832 -0.11014572 -0.049795117
0001e0 14 73 d5 3d a0 58 e4 3c 6b d0 98 3d ca fe 96 3d
       0.1042234 0.027874291 0.074616276 0.07372816
0001f0 90 ab dc bd aa 55 e4 3a 22 82 0a 3c ff 8d 46 bd
       -0.107749104 0.0017420549 0.008453878 -0.04847526
000200 c9 ab 22 3d ea fa a6 3c 6a c5 95 bd ec 9c e9 3c
       0.03971461 0.020383317 -0.07313044 0.028517209
000210 99 09 0b 3e 53 cb 1f 3e 0c 8b ed 3b e5 3c 20 3d
       0.1357788 0.15604906 0.0072492417 0.039120574
000220 84 b4 d1 3d 58 5e 23 bd 51 06 0f be ca 80 1f be
       0.10239509 -0.039884895 -0.13967253 -0.15576473
000230 f2 32 03 3e 6e 45 14 3d 9d 41 55 bd 1a 42 bd 3d
       0.12812403 0.036199026 -0.052064527 0.092411235
000240 a6 c5 07 3e 82 ad fd 3d b4 c9 af 3d 23 23 07 3e
       0.1325899 0.123866096 0.08583394 0.13196997
000250 bc e2 d5 3c 39 2e e6 bc 35 ab 5f 3d 19 7d c4 3d
       0.026109092 -0.028098213 0.054606635 0.09594173
000260 7c 43 8a bd 0b 88 07 3e a5 a0 d3 3d e1 2f d0 3d
       -0.06751153 0.1323549 0.10333375 0.10165382
000270 f1 df ee bd 5e 95 01 bd ba 3c 1b bb 70 fd bc 3d
       -0.11663807 -0.03163659 -0.002368732 0.09228027
000280 b1 ce 44 3c 43 11 90 37 ec 68 41 3c 44 c7 96 3d
       0.01201217 1.7174176e-05 0.0118048005 0.07362226
000290 8d e7 27 bd 54 62 1f 3d 27 f2 de bd 78 72 14 bb
       -0.04099231 0.038912132 -0.10886031 -0.0022651237
0002a0 8b 32 85 bd 7c bb 3a be 27 bf 02 be 49 eb 12 3d
       -0.06503781 -0.18235582 -0.12768231 0.035868917
0002b0 94 78 f5 3d 78 63 a7 3d a4 65 b3 3d 82 95 1e be
       0.11985889 0.08173269 0.08759621 -0.1548672
0002c0 1a 9f d7 bd ce d0 1b bd b2 fd a5 bd 49 8e e7 3d
       -0.10528393 -0.03804093 -0.08105029 0.113064356
0002d0 14 42 8d bd b5 d1 6a bd b5 5c f2 bd 84 e0 c8 bd
       -0.06897369 -0.0573289 -0.11834089 -0.09808448
0002e0 77 19 b7 3d 03 7e 19 3e 07 e2 c0 3d 2f 95 f8 3d
       0.08940404 0.14989476 0.09418111 0.121378295
0002f0 19 7b aa 3d 4f 71 ca bc 6d ab 40 3d 59 66 c7 3d
       0.0832426 -0.024712233 0.047038484 0.09736318
000300 5f 59 3d 3d 22 81 16 3e 3a 5c 7c 3d 77 fe e8 bc
       0.04622781 0.14697698 0.06161139 -0.02844165
000310 3d 84 1f 3d 00 a4 b9 3d 5a 16 33 bc 31 90 74 bd
       0.03894447 0.09064484 -0.010930622 -0.059707824
000320 71 c4 a2 bd bb 3f 4a be 58 b1 5f bd 8a 1d 6d bd
       -0.079476245 -0.19750874 -0.054612488 -0.0578895
000330 3e 2e 55 3d dc 42 30 bd 2c 57 50 bd 91 5b a1 3d
       0.052046053 -0.043032512 -0.050864384 0.07878793
000340 c8 09 f8 3d ec 37 5d 3d b2 bf 27 bd 19 0e d7 3d
       0.121112406 0.05400841 -0.0409543 0.10500736
000350 1e 72 95 3d 61 ba 8d bd 83 d4 74 3e 7c d7 b2 3d
       0.07297157 -0.069203146 0.23909192 0.08732507
000360 f3 58 50 3d 08 74 25 3e be 37 39 be 19 ae d0 3d
       0.05086608 0.16157544 -0.1808767 0.101894565
000370 78 b3 97 3c 4c a9 dc 3d 04 65 92 bd cb 1c 32 3d
       0.018518195 0.10774478 -0.071481735 0.04348449
000380 bc 47 b4 bd b5 66 ef 3d 17 43 75 3d e7 61 91 3e
       -0.08802745 0.11689512 0.059878435 0.28395006
000390 dd 37 cc bb 32 40 ca bd 33 a5 c6 bd 3c c6 87 3d
       -0.0062322454 -0.098755255 -0.09699478 0.06629607
0003a0 cf 5b b9 3d 85 48 24 39 ce fd a2 3c 42 ad f3 bd
       0.09050714 0.00015667274 0.019896414 -0.11898281
0003b0 d5 7c 4d bd 74 54 14 3c 66 cc 88 bd b2 01 8e bd
       -0.050167877 0.009053338 -0.06679611 -0.06933917
0003c0 22 b7 09 3e 2d 50 10 3d fa 4a 62 be 25 db 18 3b
       0.13448766 0.03523271 -0.22098914 0.002332398
0003d0 b7 69 fb bc 0b e2 08 bd 23 d1 8a 3c ba 87 05 be
       -0.030690057 -0.033418696 0.016945427 -0.13040057
0003e0 a0 17 b2 bd 43 ee 6a be d2 d3 9a bb e0 05 2c 3d
       -0.08695912 -0.22942452 -0.004724958 0.04199779
0003f0 18 44 6b bd a6 97 2a 3e 89 c6 2f bc 53 b6 5e 3d
       -0.057437986 0.16659412 -0.010728487 0.054373097

gru.bias_ih_l0 f4 [192]
000000 b1 fc 27 3d e3 c1 f7 3d 0b d3 18 bd 5a 8a bb 3d
       0.04101247 0.12097528 -0.03731064 0.09157248
000010 3b e0 3e be 37 ab 1c bd 28 59 f1 3b 26 6a 08 be
       -0.18640225 -0.03824922 0.0073653646 -0.13321742
000020 a8 b6 8a 3d 7e 7c 3f 3e f4 dc fa 3d 55 a5 26 be
       0.0677312 0.18699834 0.12249175 -0.16274007
000030 45 0d 96 3d 94 c9 fb 3d d8 68 61 3c e7 24 09 be
       0.0732675 0.12294307 0.013757907 -0.13392983
000040 5b 2e d0 3c 42 f6 1a 3e 5b cf 91 bc 87 1e 53 bd
       0.025412729 0.15133002 -0.01779907 -0.051542785
000050 ef 9d af 3d 0c 38 0c 3d e5 df af 3d a7 61 2e 3e
       0.08575045 0.034233138 0.08587626 0.17029439
000060 8b 7c 5d bc 20 0a 67 3d b0 ec c2 bd 89 ee c0 3c
       -0.013518463 0.05640614 -0.09517801 0.023551242
000070 8d 3f a9 3c 5c 33 2d 3d 74 5c 59 bd 82 03 35 3e
       0.020660186 0.04228531 -0.053066686 0.1767712
000080 81 f1 38 3e 72 95 e7 3b de b4 a9 bc e5 69 29 3e
       0.18060876 0.007067376 -0.020716127 0.16544302
000090 2c 83 b6 3d 0a 60 cf bc f5 3c a8 bc b8 4c 8a 3d
       0.08911738 -0.02531435 -0.02053688 0.06752914
0000a0 21 27 7a 3d 37 43 8a bd f9 4a a4 3c 74 7f 7d 3d
       0.061072472 -0.067511015 0.020055281 0.061889127
0000b0 3c e5 21 3d 2f 1f 58 3e e8 78 a3 3d c9 e3 9f 3d
       0.039525256 0.21105646 0.079820454 0.078071184
0000c0 fe 30 9a 3d 67 59 b8 bd ae 17 f1 3d 04 e0 60 3d
       0.07528876 -0.09001427 0.11772095 0.054901138
0000d0 9b 28 ec bc 5f a5 62 3d d8 f7 ff 3b a3 41 eb bd
       -0.028827956 0.05533349 0.0078115277 -0.114871286
0000e0 d6 b8 80 3b 64 22 4e 3e b0 ed 70 bd 2a 59 89 3d
       0.003928284 0.20130306 -0.058820426 0.0670646
0000f0 ad cf 44 bc 97 e8 e9 bc f2 5c 9f 3d 66 0d c4 bd
       -0.012012404 -0.02855329 0.077814 -0.09572868
000100 94 ad 09 3e 41 bc 88 bd 55 0e c2 bd 3b 4f b5 bd
       0.13445121 -0.066765316 -0.0947539 -0.08853003
000110 80 53 63 be 67 ca ee 3d de 39 a1 3c bc 93 e3 3d
       -0.22199821 0.11659699 0.019680914 0.111121625
000120 27 f3 83 bc 78 00 be 3d a5 05 a1 bd ba 38 dc 3d
       -0.016107155 0.09277433 -0.07862405 0.10753007
000130 32 b5 89 be a9 62 69 3c 40 d1 31 3e 19 cb 08 be
       -0.26896054 0.014244714 0.17364979 -0.13358726
000140 f5 be c4 be 07 96 cb 3c d9 72 94 3d f4 1e 4a ba
       -0.3842694 0.024851812 0.07248468 -0.0007710301
000150 c1 01 43 be fa 44 dd be 62 d4 8d be c5 65 56 3e
       -0.19043638 -0.43216687 -0.27701098 0.2093726
000160 69 d3 0d bd 6c f6 0d bf eb e5 f1 bc 32 d4 1f bd
       -0.034625445 -0.55454135 -0.029528579 -0.039020725
000170 b0 3a a9 be f2 11 0d 3e 7a 0b fb bd c3 88 c4 3a
       -0.33052588 0.13776377 -0.12258048 0.0014994371
000180 a2 55 c2 3d 37 32 35 3e da ec 5e be a9 3e bc 3d
       0.094889894 0.17694937 -0.21770039 0.09191639
000190 a3 fe f5 bd 24 a4 8c bd 9b 08 b1 3c 1a 30 c6 3d
       -0.12011459 -0.06867245 0.021610549 0.096771434
0001a0 ad b2 a2 3d c1 52 19 3e 37 ca 37 3e 8c c3 c9 3d
       0.07944236 0.14972974 0.17948233 0.09851751
0001b0 7e 9e e3 be 94 20 06 ba 72 8a f2 3d 76 d6 dd 3d
       -0.44456857 -0.0005116549 0.118428126 0.10831921
0001c0 c4 68 c9 3b ed 53 87 bc 40 36 04 bd 51 f3 21 3e
       0.0061465222 -0.016519511 -0.0322783 0.15815474
0001d0 f9 55 92 bd 7e cc 23 3e af a2 ab bd b1 ab 5f bc
       -0.07145304 0.15995976 -0.08380639 -0.013651774
0001e0 37 bb ba bd 6c 08 5e 3e a6 45 99 3c 77 97 07 bd
       -0.0911774 0.216829 0.018709969 -0.033103433
0001f0 4c 52 f4 3d e7 9c 2e be 17 23 43 bb cf 2b ce 3c
       0.119297594 -0.17052041 -0.0029775554 0.025167374
000200 83 32 a8 3d 12 e5 83 bd c4 04 bd bc 27 70 41 3d
       0.08212759 -0.06440176 -0.023073561 0.047226097
000210 0d 49 20 bd 70 e7 90 bd af 36 0d 3e 44 2d b0 3d
       -0.039132167 -0.07075393 0.13790391 0.08602384
000220 1d 01 b0 bd df 00 be 3d ee fd cf bb 2e 39 0e be
       -0.08593962 0.0927751 -0.0063474094 -0.13889
000230 84 36 2a bc c9 94 a0 3d 0c 7e ae 3c 31 b0 25 be
       -0.010388974 0.078408785 0.021300338 -0.16180493
000240 ca 3a 28 be 1f 36 e8 bc 15 cf ae 3d 33 77 3a be
       -0.16428676 -0.02834612 0.085355915 -0.18209533
000250 25 c9 15 be 6a a4 e8 bd bc 28 ec bc f0 ab 78 3d
       -0.14627512 -0.113594845 -0.028828017 0.060710847
000260 5a 4d 35 3e d0 39 f2 3d 90 87 a9 3d 22 ba ef 3d
       0.17705289 0.11827433 0.082778096 0.11705424
000270 1e 95 a3 bd 55 2d 1b bd 17 54 12 be 85 d0 34 be
       -0.07987426 -0.03788503 -0.1428989 -0.17657669
000280 8f aa e4 3d 6b b4 2f bd 47 1c cb 3d 99 83 b1 3d
       0.11165344 -0.04289667 0.09917503 0.086676784
000290 f0 f0 ba bd 5c 6e 41 3d 4e c9 42 bc f6 00 40 3c
       -0.091279864 0.047224388 -0.011888815 0.011718979
0002a0 75 6b a7 bb a7 1f c4 bd 20 67 e4 bd 19 96 46 3e
       -0.0051092454 -0.0957635 -0.11152482 0.19393195
0002b0 c9 da bf 3d 79 5b 7d 3c 6d b2 56 3d ec 6b 89 bd
       0.09367902 0.015463703 0.052416254 -0.067100376
0002c0 10 c9 28 3d 50 70 23 be 53 89 ee bd 89 0b e2 bc
       0.041207373 -0.15960813 -0.11647286 -0.027593391
0002d0 2d 40 0d bc b3 34 92 bc 37 7b 60 3b 11 dd 70 3d
       -0.008621258 -0.017847395 0.003425313 0.058804575
0002e0 01 23 40 3e 30 c2 92 3c ad 6a 20 be 0f 30 e4 bd
       0.18763353 0.017914861 -0.15665694 -0.11141979
0002f0 88 cf 13 3c 16 6b 76 bd 47 ef 0a bc 32 bc 8f bc
       0.009021647 -0.06016072 -0.0084799 -0.017545793

gru.bias_hh_l0 f4 [192]
000000 4f d8 bd 3d e7 7d 66 bd ab 72 dd 3d 3b 6a 25 3e
       0.09269773 -0.056272414 0.10812887 0.16153805
000010 16 34 bd 3b bc c1 1a 3e 95 fd b4 3d 58 5b 05 be
       0.0057740314 0.15112966 0.088374294 -0.13023126
000020 8f 55 f8 3d ad 83 9d bc a7 5f f5 3d c6 28 a4 3d
       0.12125694 -0.019227827 0.11981135 0.080155894
000030 c1 f8 20 3d 45 d0 b2 3c b2 e3 af bd 26 37 02 be
       0.03929973 0.021827826 -0.08588351 -0.1271635
000040 24 68 8c 3d ee 4d 9c 3d a2 82 85 bc c1 d4 6e 3d
       0.06855801 0.076320514 -0.016297642 0.058308367
000050 30 b6 3c 3b a3 b8 09 be 88 b5 df 3d 0f de 4e bd
       0.0028795116 -0.1344934 0.10923296 -0.05050474
000060 17 c2 28 3e fa 63 c7 bd 91 8d ea 3d 6a 62 28 3e
       0.1648029 -0.09735866 0.11452783 0.16443792
000070 7b 3f a0 bb 37 c4 83 3c af 6f 02 3e e1 89 20 3e
       -0.00489038 0.016084773 0.12737916 0.15677597
000080 e4 12 83 bd cf 8d 1b 3e 69 5b 52 3e 12 96 19 3e
       -0.064000875 0.15190814 0.20542683 0.14998654
000090 b8 a3 e8 bd 75 71 b6 3c 98 02 00 3d 93 65 f5 3d
       -0.11359352 0.022270897 0.031252474 0.11982264
0000a0 4d a0 97 bd b6 e8 74 bd f4 3a df 3d e5 4d a5 3d
       -0.07403622 -0.059792243 0.10899916 0.08071498
0000b0 37 d8 35 bc 9f 77 64 3c fc aa 77 ba af f5 12 3e
       -0.011098913 0.0139445355 -0.0009447781 0.14351533
0000c0 84 96 c8 3d 06 98 cb 3c 82 53 bb 3c 2e 99 c1 3d
       0.097943336 0.024852764 0.022866968 0.09453045
0000d0 55 47 14 3e c0 b5 02 3b 63 90 98 3d 4d b6 99 3d
       0.14480336 0.0019944757 0.074494146 0.07505474
0000e0 65 7c bd bc a7 26 d1 bc 42 e4 23 bd 51 9a 25 bd
       -0.023130605 -0.025531126 -0.040012605 -0.04043037
0000f0 8e 4e 5a 3c 3e 0b 07 3e ae 60 42 3c bc 7c f4 3d
       0.013324393 0.13187882 0.011863871 0.11937854
000100 9e 80 b4 bd a4 8a 20 3e 85 83 ee bd 7a ac ad bd
       -0.08813594 0.15677887 -0.11646179 -0.08480163
000110 98 d2 26 bd 72 80 c5 bb 63 86 00 3d b4 17 e8 3d
       -0.04072818 -0.0060272748 0.03137816 0.11332646
000120 b4 5d 50 3c ba fd ab 3d d3 c4 32 3d c7 70 f7 3d
       0.012717653 0.08398004 0.043644737 0.120820574
000130 7a d3 4e be 40 aa cc 3c 25 9a 00 3d 22 37 18 bd
       -0.2019786 0.024983525 0.031397004 -0.037161954
000140 7c ac 93 be 27 3c bd 3d 5b 5a 95 bd 6a 9a 93 bd
       -0.28842533 0.09239989 -0.072926246 -0.072071865
000150 6f 3d fc bc c7 82 dd be 30 fc d7 be 77 ea 4f 3d
       -0.030791013 -0.43263838 -0.4218459 0.050760712
000160 55 06 ac bb 33 f9 0b bf 5c 59 fd 3d f2 f5 c6 3d
       -0.0052497783 -0.5467712 0.123705596 0.09714879
000170 19 a0 8d be c5 13 c6 3d 83 45 46 3c 91 a0 e7 3d
       -0.27661207 0.096717395 0.012101534 0.113099225
000180 7d 9f 07 3e 2b 50 58 3d 26 c6 1f be 7b 33 28 3e
       0.13244434 0.05281083 -0.15602931 0.16425888
000190 86 b0 dc 3c 84 f8 e4 3d b0 0e c1 3d 78 0c b8 3d
       0.026939642 0.11180213 0.094266295 0.08986753
0001a0 27 a2 9e 3d 06 a2 d0 3c 33 89 e8 3c 12 88 05 be
       0.07745772 0.025467884 0.028385734 -0.13040188
0001b0 74 59 e7 be a7 ad 94 3d d6 37 14 3e ea b2 78 bd
       -0.45185435 0.07259684 0.14474425 -0.0607175
0001c0 fc 72 f3 3d df eb 1b 3e ca 1a 5d 3d 15 64 8c bd
       0.11887166 0.15226696 0.053980626 -0.06855027
0001d0 8c 4b 1c 3c a8 0c 77 3b 60 15 3a bd 6c 8f d3 bb
       0.009539496 0.0037696753 -0.04543054 -0.006456306
0001e0 2b 01 dd bd 97 99 87 3d 44 89 c4 bb e5 c7 2c bd
       -0.107912384 0.06621092 -0.0059978087 -0.04218282
0001f0 d6 75 94 3d 9f ae 81 be e8 0a 23 bc cd 9c d1 bd
       0.07249038 -0.25328538 -0.009951331 -0.102349855
000200 d8 1a 2a bd 45 67 25 be 6b 4a d1 3d cf dd 00 be
       -0.041529506 -0.16152675 0.10219272 -0.12584613
000210 85 87 48 3d a1 12 88 bd 58 47 8a b8 0b 25 0a be
       0.048957366 -0.06644178 -6.5936416e-05 -0.13490693
000220 f2 43 e9 bd cb 95 0f 3e 08 d3 1a 3e 27 81 f8 3c
       -0.11389913 0.14021985 0.15119565 0.030335022
000230 34 dc c6 3d c4 42 1a 3e 2a 10 e5 3c 95 5d 91 3d
       0.09709969 0.15064532 0.02796181 0.070979275
000240 31 f5 2d bc 5c 66 ae bc 8a fb 9b 3d 91 63 84 bd
       -0.01061754 -0.021289043 0.07616337 -0.06464303
000250 21 e8 e8 bd f8 42 74 3c 1b 02 be 3d 7b cd 37 3d
       -0.113724 0.014908545 0.09277745 0.044873696
000260 e0 e5 3b 3e c1 a0 fd 3d 6c 93 d2 bb 4f d0 60 3c
       0.18349409 0.12384177 -0.0064262655 0.01372154
000270 97 46 b1 3c ee f3 14 3e 45 28 19 be ab e6 1f be
       0.021640105 0.14546177 -0.14956768 -0.15615337
000280 ed 69 a3 bd 2a 4b 36 bd a3 7d 1b 3e 49 fe 34 3e
       -0.07979188 -0.044505276 0.15184645 0.17675127
000290 9d 6e b2 bc 48 94 47 bd 2c 97 35 3d 51 23 1f 3d
       -0.02178126 -0.048725396 0.04433362 0.03885204
0002a0 db 21 3c bd 58 9c 5b bd 8c 1b 09 3e 35 7c 9d 3d
       -0.045930725 -0.053615898 0.13389415 0.07689706
0002b0 7a e9 ca bd d3 bd ff 3d f4 27 3c bd 3a f4 05 be
       -0.09907813 0.12487378 -0.04593654 -0.13081446
0002c0 55 3c b4 bd fb cc b7 bd c8 2e dd bd e8 90 1c be
       -0.0880057 -0.08974644 -0.107999384 -0.15289652
0002d0 74 c2 27 3d 6c 5b 5d bb 17 72 16 bd a3 ec 03 3a
       0.04095693 -0.0033776416 -0.0367299 0.0005032515
0002e0 68 3d d7 bc 13 b4 0d 3d 8f bb 45 be c4 61 18 be
       -0.026274398 0.03459556 -0.19309829 -0.14881045
0002f0 89 8c 0b bc d6 58 17 be 3c 29 de bd 4d bc d4 bd
       -0.008517393 -0.14779982 -0.108477086 -0.10387478

head.0.weight f4 [64, 64]
000000 dc 23 0a bd b5 88 a1 3d 59 11 b5 3d c8 cc 04 be
       -0.033725604 0.07887403 0.088411994 -0.12968743
000010 f8 5f 3b 3e 99 57 05 bb f5 13 22 3d 1a d3 1f 3c
       0.18298328 -0.0020346402 0.039569814 0.00975492
000020 8d 4d dd 3d d7 e1 eb ba 9c f2 ce bc 4f c6 8f bd
       0.10805807 -0.0017996383 -0.02526217 -0.07020246
000030 25 1a 1e bd 04 5f 86 3c ef 7d d5 bd c1 b6 e3 3d
       -0.038599152 0.016402729 -0.104244106 0.11118842
000040 bd f5 ed 3d ea e0 22 3e cf b8 24 be 50 99 02 bd
       0.116191365 0.1590611 -0.16086124 -0.03188449
000050 cd 53 5c 3d 88 10 3e 3e bf 27 7c 3d bd 2e ec 3d
       0.053790856 0.18560994 0.061561342 0.11532352
000060 a0 bd 18 3e dc db 9a 3d bb b7 b6 3c a4 f5 11 3d
       0.14916086 0.07561466 0.022304406 0.03563465
000070 e9 ee e3 bd 1b 49 3b 3e b1 e9 f3 bc 33 35 e5 3d
       -0.11129553 0.18289606 -0.029774519 0.111917876
000080 a2 72 9f bd a9 a2 d2 3d 5f 8c 08 3d b7 2a 93 bd
       -0.07785536 0.10284931 0.033336993 -0.071858816
000090 8e dd e2 3d 8c 19 40 3d e2 93 bd bc ea 38 8b 3d
       0.110774145 0.046899363 -0.023141805 0.06797965
0000a0 2d 61 59 bd 3e d3 92 3c 1d 8c 04 bd f3 71 08 3e
       -0.05307119 0.017922994 -0.032360185 0.13324718
0000b0 60 df b7 3b 76 94 22 bd d9 65 70 3e 64 18 dd bd
       0.005611345 -0.039692365 0.23476352 -0.10795668
0000c0 bb a3 e9 3d 33 d6 9e 3d 74 6c 3d be f4 05 41 3c
       0.11408182 0.07755699 -0.18498403 0.0117812045
0000d0 5e 6c 07 be cd e9 8d 3c 22 bf 1d be 8b 6f ce 3c
       -0.13224933 0.017323399 -0.15404943 0.025199672
0000e0 e7 bb d1 bd 9e 30 a9 3c dc a9 74 ba ba 5d e9 3d
       -0.10240918 0.020653065 -0.00093331723 0.1139483
0000f0 f5 6a 19 3e 90 29 82 bc 10 32 bd bd 82 4f 82 bd
       0.14982207 -0.01588896 -0.09238064 -0.06362821
000100 2c e5 3c 3d b9 25 10 3e 1a e8 a8 3d b0 94 97 3d
       0.046116993 0.1407689 0.08247395 0.07401407
000110 b1 f6 ce bd 27 2e cb 3b 58 d6 20 3d 6d 77 5f 3b
       -0.101056464 0.00620057 0.039266914 0.0034098283
000120 09 b5 d5 bd 52 82 76 bd e3 76 1d be 3b a9 9f 3d
       -0.1043492 -0.060182877 -0.15377383 0.0779595
000130 04 5c c6 3d 6a 1d 7c 3d 09 2d e6 3d ae 78 86 bd
       0.09685519 0.06155149 0.112390585 -0.065659866
000140 46 bc 4f 3d 54 17 b6 3d 6c 24 97 bd 37 ae dc bd
       0.05071666 0.08891168 -0.07379994 -0.10775416
000150 9c f4 93 bc fa 22 48 bd 2d 28 91 3d 24 dc 92 3d
       -0.018060975 -0.04886148 0.07087741 0.07170895
000160 08 93 29 3d 0d f9 89 bc 0b de b3 3c 5d ef 09 be
       0.041399986 -0.01684239 0.021956464 -0.13470216
000170 4d 26 a5 3d 4e 55 48 bd f8 71 57 bd f7 8a e2 bd
       0.08063946 -0.048909478 -0.052598923 -0.11061662
000180 86 c8 c0 3d 25 ca 26 be c5 3b ac bb 7e a4 8b bd
       0.09413247 -0.1628805 -0.0052561485 -0.06818484
000190 34 02 9b bc b5 6a 19 bc ea 0f f3 bd 5e c8 37 3d
       -0.018921949 -0.00936382 -0.1186827 0.04486882
0001a0 cc 2c d4 3d bd 87 f2 3c da 9d a7 ba 31 0f 82 3d
       0.10360107 0.02960574 -0.0012788132 0.06350554
0001b0 89 b5 d5 3c 7d 33 d3 3d e5 e9 38 bd 9b 6a c4 3d
       0.02608754 0.10312555 -0.045144934 0.09590646
0001c0 c0 12 4b 3d 05 f5 87 3d 29 18 27 3e c6 97 61 bd
       0.04957843 0.06638531 0.1631781 -0.055076383
0001d0 44 1b 70 bd 1e c0 1b 3d 04 2d 14 3d 03 e3 a8 bc
       -0.058619753 0.038025014 0.036175743 -0.02061606
0001e0 90 5b c2 bb cd d4 90 3c 59 96 0e 3e 87 cb a9 bd
       -0.0059313253 0.017679596 0.1392454 -0.08290773
0001f0 ab 6a 87 bd 94 b6 20 3d f6 2c 4c bd 34 21 46 bc
       -0.06612142 0.03923662 -0.049847566 -0.012092877
000200 e4 a3 98 bd 27 d9 fd ba 4a 19 2d be ad 8d 23 be
       -0.07453135 -0.0019367085 -0.16904178 -0.15972014
000210 2a 6e 5a be ad 04 b3 3c f0 0e e4 3a e7 68 b0 bd
       -0.21331087 0.021852816 0.0017399471 -0.086137585
000220 dc 90 c5 bd 50 e5 f6 bc f3 86 ec bc f0 51 61 bd
       -0.0964677 -0.030138642 -0.028872943 -0.055009782
000230 63 9c 08 3d d3 18 ed bd 25 57 8d 3c c1 7d 34 bd
       0.033352267 -0.115770005 0.017253468 -0.04406524
000240 e9 06 57 bc 09 02 f3 bc bc 18 34 3e 1f a1 60 bd
       -0.013124206 -0.029664056 0.1758756 -0.054841157
000250 7b d1 9c 3c 20 8f 63 be 9f 57 bf bd 8e 03 82 3d
       0.019142857 -0.22222567 -0.09342884 0.06348334
000260 60 19 f5 3d 44 de 0f 3e 51 6e 8c bd b4 1b 67 bd
       0.119677305 0.14049631 -0.06856979 -0.056422904
000270 6b 48 a2 3b 28 05 ba 3d 28 e1 c5 3d 65 51 a3 3a
       0.0049524806 0.09083015 0.09662086 0.001246017
000280 4b ee 1b be 0d b6 3f 3e 73 3a 48 bd da d2 ad 3c
       -0.1522762 0.1872179 -0.048883867 0.021218706
000290 d9 52 2b be 49 37 d6 3d e1 4f 5d bd 68 6d ea bd
       -0.16730823 0.104597636 -0.054031257 -0.11446649
0002a0 87 4b 92 3d 46 90 02 3e 63 5b 9e 3d 82 93 0c 3e
       0.07143312 0.12750348 0.077322744 0.13728145
0002b0 37 b2 01 3e 36 4a 9c bd ad 33 c6 bd 3f 34 1e 3d
       0.1266564 -0.07631342 -0.09677825 0.038624045
0002c0 60 dd a6 bd e1 4d 8f 3c de b5 f4 bd f7 33 a9 3d
       -0.08147693 0.01749319 -0.11948751 0.08261865
0002d0 00 10 66 bd 0d 64 6a 3d 71 4a e7 bc 27 fc 38 3d
       -0.056167603 0.057224322 -0.028233739 0.045162346
0002e0 e9 ec 1e 3e e6 cd fb bc 8e 1a af bd 8c 86 df bd
       0.15520062 -0.030737828 -0.08549987 -0.10914335
0002f0 4d 88 a5 bd 19 a7 96 3d b8 00 27 3e 02 f0 2a bd
       -0.08082638 0.0735609 0.16308868 -0.041732796
000300 3f a5 89 bd 4b a6 bf bd 2f ef 01 3d f6 99 3a bc
       -0.06720971 -0.0935789 0.031722244 -0.011389246
000310 dc aa 98 3d b3 37 68 bd e5 02 11 bd bb 15 f5 3d
       0.07454464 -0.056693744 -0.03540315 0.119670354
000320 c6 6b 47 bd 93 f9 62 bd 8e 8d fa bc 96 ff ab bd
       -0.048686765 -0.055413794 -0.030585077 -0.083983585
000330 c5 06 fc 3c ea a1 b0 bd 8b 41 59 bd 8e fd 7c 3c
       0.030764947 -0.08624633 -0.053041022 0.0154413115
000340 8b 5c 59 3d 10 30 8a bd a9 6a 1c be 95 d8 ab bd
       0.05306677 -0.067474484 -0.15275063 -0.08390919
000350 a6 40 29 ba 04 4b ac 3d 13 02 b8 bc 43 93 8b 3d
       -0.0006456472 0.084127456 -0.022461927 0.06815197
000360 66 ba 54 bd 97 f4 a0 3d a6 b2 db 3d 87 78 1c bc
       -0.051935576 0.07859152 0.10727434 -0.00955022
000370 7f 7a 81 bd 6d 16 64 bd 07 b0 be 3d ff 35 9c 3c
       -0.063221924 -0.05568545 0.09310918 0.019068716
000380 b8 86 a2 bd 30 bb f8 3c a1 e0 9f 3d 93 4b 11 be
       -0.07935852 0.030362695 0.078065164 -0.14188986
000390 06 99 44 3d 84 55 74 3d 63 53 5b 3d a3 50 11 ba
       0.047997497 0.059651867 0.05354632 -0.0005543327
0003a0 43 ca b2 bc ad f0 a6 3c f0 01 a0 3b a2 c3 93 bd
       -0.021824962 0.020378435 0.0048830435 -0.072150484
0003b0 2f 02 00 3d ed a1 e6 3d fe 07 81 bd 2c 62 8b bd
       0.031252082 0.11261354 -0.063003525 -0.06805834
0003c0 71 7a 8a bd c0 59 82 bd 33 cd 15 3d 67 77 00 be
       -0.06761635 -0.06364775 0.036572646 -0.12545548
0003d0 43 56 91 bd a1 d2 b5 3b 98 ad 56 38 0c ea c4 3c
       -0.07096531 0.0055487906 5.1183248e-05 0.024037383
0003e0 70 b2 2a bd 35 38 dc 3d 88 39 c1 3d 38 b2 87 ba
       -0.041674078 0.10752908 0.09434801 -0.0010352796
0003f0 2e fd 0e 3b 0b 0c 0a be 4e 92 0f be a3 11 c0 bd
       0.0021818387 -0.13481157 -0.14020655 -0.09378364

head.0.bias f4 [64]
000000 ac d4 df 3d 37 8e bc 3c 59 be e4 3d de 97 9c bd
       0.10929236 0.023017032 0.111691184 -0.07646154
000010 16 b1 a9 bb e4 7f 96 3d 7a 97 e7 bd 6e 98 bb ba
       -0.005178581 0.07348612 -0.11308189 -0.0014312395
000020 f2 10 89 bc 1b 9e be 3d 1f e0 55 3c 3c b8 a8 3c
       -0.016731713 0.093075 0.013053923 0.020595662
000030 91 d7 e5 bc 4a 1e e5 3d 4f 61 d8 3d 35 a8 15 3d
       -0.028056892 0.11187418 0.10565435 0.036537368
000040 8f 2a 5d 3e 85 b7 39 bd 42 96 8d bd ec d3 86 3c
       0.21598266 -0.045341033 -0.06913425 0.016458474
000050 9f 08 d3 3d 9c 45 97 bd d2 33 7e 3d cc 02 00 bd
       0.10304379 -0.07386324 0.06206114 -0.031252667
000060 78 44 8c ba 15 5b 88 3d b9 b7 8e 3d 5d 8c 93 bd
       -0.0010701558 0.066579975 0.06968636 -0.072045065
000070 88 7e d2 bb c4 20 ca 3d 23 d4 de 3d e6 2d 7b bd
       -0.006423775 0.09869531 0.108803056 -0.06132307
000080 41 cf 0d bd 80 e8 b1 bc 95 55 18 3e fc 0f 9f bb
       -0.03462148 -0.02171731 0.14876397 -0.0048542004
000090 f7 1c 76 3d 70 e8 5c 3c da 60 32 3d 25 9d b2 bd
       0.060086217 0.013483152 0.043549396 -0.08721379
0000a0 76 02 03 be c5 bb fa bc 3a f8 e9 3d 05 14 03 3e
       -0.12793908 -0.030607114 0.114242986 0.12800606
0000b0 6b 7f 95 bd 2c a1 ec bd a0 32 8e 3d 52 d1 07 bd
       -0.07299694 -0.115541786 0.0694325 -0.033158608
0000c0 2e 52 09 3e 55 3b e8 3d 43 20 b9 bc eb 7d f0 3c
       0.13410255 0.11339442 -0.022598391 0.029356917
0000d0 fb d2 fe 38 a9 0e 9c bc 56 8c 01 be 22 6e 33 bc
       0.00012150962 -0.01904996 -0.1265119 -0.010951551
0000e0 8a 8e 79 bd ac a3 2f bd 6f 09 18 3d f6 25 8a bd
       -0.06092695 -0.0428807 0.03711837 -0.06745522
0000f0 d2 85 e5 ba 1d 7c 4c 3d 54 25 e3 3d 82 1e 32 3e
       -0.0017511195 0.04992305 0.11091104 0.1739445

head.2.weight f4 [1, 64]
000000 78 4e 5c bd 6c af 99 3d e9 3e 00 be 95 58 16 bb
       -0.05378577 0.07504162 -0.12523998 -0.0022940983
000010 32 91 3d 3c c4 ea 28 be 2b d4 4f 3e 29 6a fc 3d
       0.011570262 -0.16495806 0.2029578 0.12324936
000020 69 49 c0 3d 24 cd ad 3d 3f 1f 47 3d e1 18 fe bd
       0.09389002 0.08486393 0.048613783 -0.12407089
000030 b9 3c c8 3d 89 84 c5 bd fb 83 01 3d 03 f8 6a be
       0.09777207 -0.0964442 0.031620007 -0.22946171
000040 d8 6c b1 bd 76 d8 3e bd 48 7b 8f bd a0 27 98 be
       -0.086633384 -0.046593152 -0.07005936 -0.2971773
000050 80 9f 9b bd 14 52 31 be 84 72 79 be 59 c2 21 be
       -0.075987816 -0.17316467 -0.2436009 -0.15796794
000060 d8 3d 71 3e f9 47 d4 3d 02 f5 c8 bd c0 54 bb 3d
       0.23558748 0.1036529 -0.098123565 0.09147024
000070 f3 3d 0d 3d 0b df c8 bd 81 4b d4 bd 6c 2a 88 3d
       0.034482908 -0.09808167 -0.10365964 0.06648716
000080 9e db 92 ba c2 de 32 3d 9a da cd bd 22 8a fc 3d
       -0.0011204367 0.04366947 -0.100514606 0.12331034
000090 32 c8 0f be d8 86 26 3d e8 8a 23 be 55 11 86 3d
       -0.14041212 0.04065594 -0.15970957 0.065462746
0000a0 b2 9f 81 3c 1d 82 46 be b9 c5 f5 bd 30 83 fa bd
       0.015823219 -0.19385572 -0.12000603 -0.12232053
0000b0 c3 eb b6 b9 a8 24 92 3d e6 0f a6 bd 73 87 02 be
       -0.000348894 0.07135898 -0.08108501 -0.12746982
0000c0 10 9b 4d be c1 34 58 bd fd c1 da 3d 38 99 46 be
       -0.20078683 -0.052784685 0.106815316 -0.19394386
0000d0 4c cb a0 bd ca 33 e5 3d 16 a4 12 3e 30 a4 e4 bd
       -0.07851276 0.111915186 0.14320406 -0.11164129
0000e0 44 74 22 be cd a0 09 3e 76 af 07 be b2 f8 47 3d
       -0.15864664 0.13440247 -0.13250527 0.04882116
0000f0 6f 41 30 be 87 a2 10 3e c8 c1 5e bc 54 c6 e1 bd
       -0.17212461 0.141245 -0.013596006 -0.11024156
