outputs/exp_0002_20251212_235529/runs/seed2/h1/DriftRPL/model_final.pt (torch, 71493 bytes, 7 tensors)

gru.weight_ih_l0 f4 [192, 1]
0	0x3d61ebd5	0.055156548
1	0xbb31104e	-0.0027017775
2	0x3d514d86	0.051099323
3	0x3ccf7c22	0.025327746
4	0x3daa6d27	0.083216004
5	0x3d55fdcf	0.052244004
6	0x3c838563	0.016054815
7	0xbdb5fe65	-0.088864125
8	0x3d67bd65	0.056577105
9	0xbdbce1ec	-0.09222779
10	0x3cd8c2b7	0.026460035
11	0x3d29665e	0.04135739
12	0xbd65c804	-0.056098953
13	0x3e02b344	0.12763697
14	0x3d1e2319	0.03860769
15	0x3d59d1d0	0.05317861
16	0x3dacfe7e	0.08446978
17	0xbde18996	-0.110125706
18	0xbd3dc221	-0.046327714
19	0x3e04ee28	0.12981474
20	0xbdd404de	-0.10352491
21	0xbc54a7dd	-0.012979475
22	0x3c1e8c92	0.009677069
23	0x3d955fb2	0.07293643
24	0xbc7dc8fe	-0.015489815
25	0x3d761c15	0.060085375
26	0x3cb7137f	0.022348164
27	0xbda80c40	-0.082054615
28	0xbd636f2d	-0.055525947
29	0xbd8873be	-0.06662701
30	0xbdfaf3a4	-0.12253502
31	0xbd82f82b	-0.063949905
32	0x3d719b28	0.05898586
33	0x3de75eaf	0.11297356
34	0x3d1c91b4	0.03822489
35	0xbce43fb8	-0.027862415
36	0x3dadd8e1	0.08488632
37	0xbd0b0738	-0.03394243
38	0x3ac3c41c	0.0014935764
39	0xbd2f4eda	-0.042799808
40	0xbc3c7117	-0.011501572
41	0xbdbe74d6	-0.092996284
42	0x3d78f5ff	0.060781475
43	0x3d79059a	0.060796358
44	0x3c32ebd1	0.010920481
45	0x3d99c30f	0.075079076
46	0x3d706f67	0.05869999
47	0x3b811c15	0.003940115
48	0x3d176df3	0.03697009
49	0x3d14eb3b	0.036357146
50	0x3db8f76d	0.09031568
51	0x3db33a94	0.08751407
52	0x3db1450c	0.08655748
53	0x3dd418b5	0.10356275
54	0xbaa559d5	-0.0012615273
55	0xbc8c7c77	-0.017149193
56	0xbb85c447	-0.004082236
57	0x3dccf3f9	0.100074716
58	0x3c8bb606	0.017054569
59	0x3e187b61	0.14890815
60	0x3d3c5354	0.045977905
61	0xbdb3a129	-0.08770973
62	0x3d8d06d9	0.06886072
63	0x3e065112	0.13116863
64	0x3debdfac	0.115172714
65	0x3a9ea223	0.0012102764
66	0x3d321334	0.043475345
67	0xbdf1c13b	-0.11804434
68	0xbd17c632	-0.03705425
69	0x3d853307	0.06503873
70	0xbde2f2ac	-0.11081442
71	0x3ddc194c	0.107470125
72	0xbdc5f891	-0.09666551
73	0x3d2b8aed	0.041880537
74	0xb90438ad	-0.00012609614
75	0x3cd6e071	0.026230069
76	0x3b35b79b	0.0027727846
77	0xbdd4d9b3	-0.10393085
78	0xbcc61672	-0.024180625
79	0xbda9ade7	-0.08285122
80	0x3ddfc463	0.1092613
81	0xbd109bf9	-0.035304997
82	0xbdf98030	-0.12182653
83	0x3d048302	0.0323515
84	0x3d75cd45	0.060010213
85	0xbd56e4e8	-0.052464396
86	0xbc0debe1	-0.008662195
87	0x3d641b66	0.05569019
88	0xbda5c905	-0.08094982
89	0xbd807cdb	-0.06273814
90	0xbcdc7f67	-0.026916219
91	0xbdbd1b54	-0.09233728
92	0x3da3288b	0.07966717
93	0x3c06ca35	0.008226921
94	0x3d9cd0d5	0.07657019
95	0x3d8726d5	0.065992035
96	0xbdbdf1a5	-0.09274606
97	0xbd9b0de4	-0.07571009
98	0xbdac8bf8	-0.084251344
99	0xbd17cf05	-0.037062664
100	0xbd2c3b4c	-0.042048737
101	0xbcffc8b1	-0.031223627
102	0xbdf1708c	-0.11789045
103	0x3d2f4727	0.042792466
104	0x3d99ebe5	0.075156964
105	0x3d13b8d6	0.036064945
106	0x3d8e3180	0.06943035
107	0x3dc9e95f	0.09858965
108	0xbe13e2b7	-0.14441954
109	0x3c96e3f9	0.018419253
110	0x3df3849d	0.11890528
111	0xbde7146b	-0.11283191
112	0xbd75a593	-0.059972357
113	0xbc5ace84	-0.013354901
114	0xbda68204	-0.08130267
115	0xbd146ee0	-0.03623855
116	0xbc96f5c6	-0.01842774
117	0x3dd229bf	0.10261869
118	0xbb97fd17	-0.004638325
119	0x3d90a529	0.07062752
120	0x3da95d8b	0.08269795
121	0x3d3552e5	0.044268508
122	0xbe016cae	-0.12639114
123	0x3da5cfa2	0.080962434
124	0x3d9b1397	0.07572096
125	0xbdaf2f8f	-0.08553993
126	0xbd2cb80e	-0.042167716
127	0x3d9f1407	0.07767492
128	0xbe1262f1	-0.14295556
129	0xbe05ccf1	-0.1306646
130	0xbde0eb25	-0.1098235
131	0x3d77184d	0.06032591
132	0xbd91f90f	-0.07127582
133	0xbe0663ef	-0.13124059
134	0x3d917988	0.07103258
135	0x3da59814	0.08085647
136	0x3cd14c27	0.025549008
137	0xbe04e268	-0.12976992
138	0x3e11881a	0.14212075
139	0xbcfbc4cd	-0.03073349
140	0xbde95ac1	-0.11394263
141	0xbd13282a	-0.035926975
142	0x3dd26763	0.10273626
143	0x3da0e469	0.07856066
144	0xbccb0b67	-0.02478571
145	0x3dbfab76	0.093588755
146	0xbe0cdd51	-0.137563
147	0x3de24a8d	0.11049376
148	0x3e15eac5	0.14640339
149	0xbdcb1d90	-0.09917748
150	0x3d58300e	0.052780204
151	0xbd29a7d8	-0.041419834
152	0xbdc2792b	-0.09495767
153	0x3c93f513	0.018061196
154	0xbcaa5540	-0.020792603
155	0xbdf6cd2f	-0.120508544
156	0xbded23e0	-0.11579108
157	0xbc614bd8	-0.013750993
158	0x3e0ffb39	0.14060678
159	0x3cff7778	0.031184897
160	0xbdd75540	-0.10514307
161	0x3ddb0a0c	0.10695276
162	0xbc3b77f6	-0.011442175
163	0xbe10cbe8	-0.14140284
164	0x3ce5d515	0.028055707
165	0x3d8b7ddb	0.068111144
166	0xbdc4c1f6	-0.096073076
167	0x3c721ce1	0.014777393
168	0xbdaa0e05	-0.08303455
169	0xbdeadb02	-0.11467554
170	0xbd92f611	-0.0717584
171	0x3d110c12	0.0354119
172	0x3d896c44	0.06710103
173	0xbd419fad	-0.04727142
174	0xbe0b76b1	-0.13619496
175	0x3b0a9e18	0.002115136
176	0xbe005b03	-0.12534718
177	0xbbb7381f	-0.005591407
178	0x3de1ab79	0.11019034
179	0x3d24d357	0.040240612
180	0xbdcec571	-0.10096253
181	0xbc018ea5	-0.007907544
182	0x3d9104f5	0.070810236
183	0x3d726ee2	0.059187777
184	0xbe07620c	-0.13220996
185	0xbd564451	-0.052311245
186	0xbd2267e3	-0.039649855
187	0x3cb8d61d	0.022563035
188	0x3df91f60	0.121641874
189	0x3da498af	0.080369346
190	0x3d8fcf5f	0.07021975
191	0xbdead8af	-0.1146711

gru.weight_hh_l0 f4 [192, 64]
0	0x3d7ad561	0.06123865
1	0x3cb29577	0.021799786
2	0xbd855c9d	-0.06511805
3	0xbd21dd82	-0.039517887
4	0x3c8701e2	0.01648039
5	0xbdb2926e	-0.087193355
6	0x3d8ed251	0.069737084
7	0x3dee991b	0.11650296
8	0xbdcbd5e4	-0.09952906
9	0xbdcd8a26	-0.10036115
10	0xbcf70524	-0.030153818
11	0xbe04641f	-0.12928818
12	0xbd1bca20	-0.03803456
13	0x3d7f44e2	0.06232155
14	0x3d8e48b6	0.06947462
15	0xbcb54b28	-0.022130564
16	0xbd1a0722	-0.03760446
17	0x3d0061e5	0.03134336
18	0xbe025892	-0.127291
19	0xbc069260	-0.008213609
20	0x3cf005f1	0.029299708
21	0xbda60cf8	-0.08107942
22	0xbd97c957	-0.074114494
23	0x3c6f804d	0.014617992
24	0xbc126869	-0.008936026
25	0xbcfc7952	-0.030819569
26	0x3d56890b	0.052376788
27	0x3dc21ec4	0.09478524
28	0xbcaef6f1	-0.021357985
29	0xbdaeb6f1	-0.08530987
30	0x3e0d22d8	0.13782823
31	0x3dd10a65	0.10207061
32	0xbcf6bbbe	-0.03011882
33	0xbd096fc8	-0.03355387
34	0xbd8ffb62	-0.07030369
35	0x3dba8ed7	0.09109276
36	0x3dae4380	0.08508968
37	0xbd2bde21	-0.041959886
38	0xbc82cc5e	-0.01596659
39	0x3d2600cc	0.040528104
40	0x3c62363e	0.013806878
41	0xbce7d300	-0.028298855
42	0xbdab3804	-0.083602935
43	0x3bf0d525	0.0073496276
44	0xbc8e42b7	-0.017365796
45	0xbd7974ab	-0.06090228
46	0xbdb7ba11	-0.08971036
47	0xbd94c342	-0.07263805
48	0xbdae732c	-0.08518061
49	0x3d3405d4	0.04395087
50	0xbdb0f18f	-0.08639824
51	0xbdd4b75f	-0.10386538
52	0x3da3fe72	0.08007516
53	0x3d425ae1	0.04744995
54	0x3db3f816	0.08787553
55	0x3d99f84d	0.07518063
56	0xbd920151	-0.07129157
57	0xbd75e85a	-0.06003604
58	0xbddbdd64	-0.10735586
59	0xbc906cc5	-0.01762999
60	0x3d4cc6ea	0.049994387
61	0xbdcfc241	-0.10144473
62	0xbd9b814f	-0.07593023
63	0x3d318c5a	0.04334674
64	0xbb9bf10b	-0.004758959
65	0x3d738405	0.059452076
66	0x3db2b7b6	0.08726446
67	0x3dc62ef5	0.09676925
68	0xbd3e578d	-0.046470214
69	0xbd9be5fd	-0.07612226
70	0x3d81a08e	0.063294515
71	0x3dfc16b6	0.12309019
72	0xbe0d9f62	-0.13830331
73	0x3c32d7c4	0.0109157
74	0xbd978ebf	-0.074002735
75	0xbdf8407c	-0.121216744
76	0x3cafdbb4	0.021467067
77	0x3ce1951a	0.027536917
78	0x3d859f83	0.06524565
79	0x3d62f0a2	0.055405267
80	0xbd748e2d	-0.059705902
81	0x3d81cccd	0.06337891
82	0xbe12cb6e	-0.14335415
83	0xbd6a4271	-0.05719227
84	0x3cc6e686	0.024279844
85	0xbd44b836	-0.04802724
86	0x3c002477	0.007821194
87	0x3d485cfb	0.048916798
88	0x3ce14a2c	0.027501188
89	0xbb02753f	-0.001990631
90	0xbcb472ee	-0.022027459
91	0xbde58054	-0.11206117
92	0x3d1ba670	0.038000524
93	0xbdd784cb	-0.10523375
94	0x3d7e0ec5	0.062025804
95	0xbcc323ec	-0.02382084
96	0x3d9f0250	0.07764113
97	0xbd6a0a28	-0.057138592
98	0xbdce2fd2	-0.10067715
99	0xbba955a6	-0.005167681
100	0x3cc3a5ae	0.023882713
101	0xbcf29610	-0.029612571
102	0x3dd314a3	0.103066705
103	0xbdb6fdc0	-0.08935118
104	0x3d41ea14	0.047342375
105	0x3d20e262	0.039278395
106	0xbd46740e	-0.048450522
107	0x3d8fa282	0.07013418
108	0xbb05cccf	-0.0020416265
109	0xbde92519	-0.11384029
110	0x3d633d3a	0.055478312
111	0xbd244c9b	-0.04011212
112	0xbd34c256	-0.044130646
113	0x3dd82e01	0.105556495
114	0x3e10d746	0.1414462
115	0xbd9f3645	-0.07774023
116	0xbd6fc4f4	-0.05853744
117	0x3db7b11d	0.089693286
118	0x3dc703fc	0.09717557
119	0xbd9058b8	-0.07048172
120	0xbdea84c5	-0.11451105
121	0x3d930f72	0.0718068
122	0xbddc07a0	-0.10743642
123	0x3d84c0ad	0.064820625
124	0xbd99157e	-0.074748024
125	0xbd63cc6d	-0.055614877
126	0x3d8dea50	0.06929457
127	0x3d2a7d38	0.041623324
128	0xbd5b738f	-0.053577002
129	0xbdaae8b3	-0.08345165
130	0x3d150c47	0.03638866
131	0x3d4947a8	0.049140602
132	0x3cc042e1	0.02346939
133	0xbdfefe87	-0.12450891
134	0xbcb801d8	-0.022461817
135	0xbd11a5ca	-0.0355585
136	0xbbb65483	-0.005564274
137	0x3dcf3573	0.101176165
138	0xbda3abad	-0.07991729
139	0xbc2f5365	-0.010701035
140	0x3d0fe4c6	0.035130285
141	0x3d21876e	0.039435796
142	0xbde842a3	-0.11340835
143	0x3c571351	0.013127164
144	0x3db6c777	0.08924764
145	0xbcf555fe	-0.02994823
146	0x3d715e55	0.058927853
147	0xbbd2bbd8	-0.006431084
148	0x3dfb9512	0.12284292
149	0xbded94f8	-0.11600679
150	0x3d123f09	0.035704646
151	0x3da65dc7	0.08123355
152	0x3da5e12c	0.08099589
153	0xbd2f1b80	-0.042750835
154	0xbdc2e1fb	-0.095157586
155	0xbc022668	-0.007943727
156	0xbd94b072	-0.07260217
157	0x3d760dff	0.06007194
158	0xbd57cf17	-0.05268773
159	0x3c01771e	0.007901935
160	0xbdf1710d	-0.11789141
161	0x3c226e27	0.009913958
162	0x3dd0b6b3	0.10191097
163	0x3d6bc6cb	0.05756263
164	0x3d79cefb	0.060988408
165	0xbd5fca57	-0.054636326
166	0x3dc669df	0.09688162
167	0xbd645fae	-0.05575531
168	0x3dd93544	0.10605863
169	0xbde836b6	-0.1133856
170	0xbd8f77e2	-0.07005288
171	0xbca95998	-0.020672604
172	0x3cf627a9	0.030048208
173	0x3d7854a3	0.06062759
174	0x3c480a3c	0.012209471
175	0xbd3758cd	-0.04476242
176	0xbde788b3	-0.1130537
177	0xbd67e181	-0.05661154
178	0xbd4ceffd	-0.05003356
179	0xbd90ecb3	-0.07076397
180	0x3d84db00	0.064870834
181	0x3d16b276	0.036791287
182	0xbd711c57	-0.058864918
183	0x3d8c9531	0.068643935
184	0xbdc46418	-0.09589404
185	0xbd875ec8	-0.06609875
186	0xbcb49670	-0.02204439
187	0x3d848291	0.06470216
188	0x3d96c47c	0.07361695
189	0xbd9eeca0	-0.077599764
190	0xbda29a7f	-0.07939624
191	0x3ce6ba92	0.028165136
192	0xbd07bd2c	-0.033139393
193	0xbc66275a	-0.014047468
194	0xbccc6c90	-0.02495411
195	0xbd862114	-0.06549278
196	0xbd33d8f6	-0.043908082
197	0xbd81e42b	-0.06342348
198	0x3a430c78	0.00074405177
199	0x3dd4ffae	0.104003295
200	0xbe0cded4	-0.13756877
201	0xbc7c1685	-0.015386228
202	0x3e1852f7	0.14875399
203	0xbe0c59d7	-0.13706146
204	0x3c770bff	0.015078544
205	0x3dcba22b	0.099430405
206	0x3dc54ddf	0.09633993
207	0x3db6a605	0.089183845
208	0xbd945f85	-0.072447814
209	0x3e0f11f3	0.13971691
210	0xbc7e4b95	-0.01552095
211	0x3e19d797	0.15023647
212	0xbdc32d0b	-0.09530076
213	0x3d2d4ff9	0.042312596
214	0xbd5b06d2	-0.0534733
215	0xbe0d2bb2	-0.137862
216	0x3daf3ce1	0.085565336
217	0x3d1f1cf9	0.03884599
218	0xbd423ba3	-0.047420155
219	0xbe123d43	-0.14281182
220	0xbd665ba5	-0.056239743
221	0xbd04f2d8	-0.032458156
222	0x3c8e308a	0.01735713
223	0xbcdeb048	-0.027183667
224	0x3c4441c2	0.0119785685
225	0x3de1ec49	0.11031396
226	0xbdf9a5c0	-0.121898174
227	0xbd8e9576	-0.06962101
228	0x3e04ca0d	0.12967701
229	0xbdbb4c33	-0.09145393
230	0x3d999204	0.074985534
231	0xbbc2ba32	-0.0059426064
232	0x3c32d8a8	0.010915913
233	0xbdb9d531	-0.09073866
234	0x3d141eb0	0.03616208
235	0x3cfdf997	0.031002803
236	0xbc0d4c46	-0.008624142
237	0x3dc4b27c	0.09604356
238	0xbe144e2a	-0.14482942
239	0x3dbd2414	0.09235397
240	0x3d584956	0.052804314
241	0xbce87b1a	-0.028379012
242	0xbc7b24e9	-0.015328624
243	0x3df53621	0.11973215
244	0x3c994515	0.018709699
245	0xbdd44c98	-0.103661716
246	0xbd978253	-0.07397904
247	0xbdc94d7a	-0.098292306
248	0xbda652e2	-0.081212774
249	0x39bc27e9	0.0003588789
250	0x3c9757cd	0.018474484
251	0x3d71b6e6	0.059012316
252	0xbdb25d29	-0.08709175
253	0x3daadd65	0.08343009
254	0x3d89e3fb	0.06732937
255	0x3c01d18f	0.007923498

gru.bias_ih_l0 f4 [192]
0	0x3d6e6355	0.0582002
1	0x3dd0aa93	0.101887845
2	0x3dbcb9d1	0.09215129
3	0x3d6ba71e	0.057532422
4	0x3d2e8d59	0.04261527
5	0xbc8af9a6	-0.016964745
6	0xbcee1a70	-0.02906534
7	0x3de9e5bc	0.114207715
8	0xbd8f26a2	-0.069897905
9	0x3c22b466	0.009930706
10	0xbdf4e738	-0.11958164
11	0xbd9d365b	-0.07676383
12	0xbd3f018e	-0.046632342
13	0x3dce6adf	0.10078978
14	0x3db20408	0.08692175
15	0xbd9c9c31	-0.07646979
16	0x3d2904ec	0.04126446
17	0x3d9c3483	0.07627203
18	0x3d0eee4b	0.034895223
19	0x3dce0a41	0.100605495
20	0x3e06aab3	0.13151054
21	0xbb1caf4f	-0.0023908203
22	0x3cd9d9b5	0.026593069
23	0xbca9a06a	-0.020706374
24	0xbdd82a73	-0.105549715
25	0x3cce2ef9	0.025168883
26	0xbc9308c8	-0.017948523
27	0xbb5fa0e7	-0.0034123005
28	0x3de787d2	0.113052025
29	0xbd52412e	-0.05133169
30	0x3d8314e9	0.06400473
31	0xbda01354	-0.078161865
32	0x3db064c3	0.08612969
33	0x3b69ce03	0.003567577
34	0x3af7f42a	0.0018917371
35	0xbd0ee182	-0.03488303
36	0xbcf23dad	-0.029570425
37	0x3d213e34	0.039365962
38	0xbd85c8f6	-0.06532471
39	0x3dcfc67c	0.1014528
40	0x3e04714d	0.12933846
41	0x3dbc2993	0.09187617
42	0xbd525cc3	-0.051357996
43	0x3dc040cf	0.09387361
44	0x3dda6f0a	0.1066571
45	0x3dc1d09b	0.094636165
46	0xbdea8668	-0.11451417
47	0xbdd57cd6	-0.10424201
48	0x3c9a3589	0.018824356
49	0xbdab7e46	-0.08373694
50	0x3d81e282	0.06342031
51	0x3d853663	0.06504514
52	0xbc7389de	-0.014864413
53	0xbd9cdea9	-0.076596566
54	0x3da0fb8c	0.07860479
55	0xbc9f6f34	-0.019462205
56	0x3dc3c9a1	0.09559942
57	0xbdb2a3ff	-0.08722686
58	0xbd94f8e0	-0.07274032
59	0xbdcc506a	-0.09976275
60	0x3dda581e	0.10661338
61	0x3da8d9bb	0.08244654
62	0xbcb4f7c2	-0.022090796
63	0x3d3bc291	0.04583985
64	0x3de83583	0.113383316
65	0x3cf9654b	0.030443808
66	0x3de1e3ab	0.11029752
67	0xbd941ee4	-0.072324544
68	0xbc6c87dd	-0.014436689
69	0x3d359fe9	0.044341955
70	0x3d96afde	0.07357763
71	0xbbb59c6e	-0.0055423295
72	0x3d2a5937	0.04158899
73	0x3ca3fcd9	0.020018028
74	0x3dd6718a	0.104708746
75	0xbdd5decd	-0.104428865
76	0xbdc13f57	-0.09435909
77	0x3e082720	0.13296175
78	0x3c764462	0.015030952
79	0xbd8663c1	-0.06561995
80	0xbdb74bdf	-0.08950018
81	0x3db2f068	0.0873726
82	0xbdc1a135	-0.09454576
83	0xbdbcb340	-0.09213877
84	0x3cf733d9	0.03017609
85	0x3d51f6b0	0.05126065
86	0x3d48342d	0.048877884
87	0xbdede54c	-0.116160005
88	0x3df2fea7	0.11864977
89	0xbd840166	-0.06445579
90	0x3da48f56	0.08035152
91	0x3c034ef8	0.008014433
92	0x3dee14e6	0.1162508
93	0x3b7f9441	0.0038998278
94	0x3d9e3d81	0.07726575
95	0xbc7dbbbe	-0.015486656
96	0xbd265c08	-0.04061511
97	0x3dd46e56	0.103726074
98	0xbdf0aafb	-0.11751362
99	0x3dc8f02a	0.09811433
100	0xbdd496c4	-0.10380319
101	0x3da6edf3	0.08150854
102	0x3d5cf736	0.053946696
103	0xbcbe762a	-0.023249704
104	0x3d8b0236	0.06787531
105	0x3dc66a20	0.096882105
106	0xbde7c3eb	-0.11316665
107	0x3d021a9e	0.031763665
108	0xbdb536c7	-0.088483386
109	0x3da8dbbc	0.08245036
110	0xbd1a1bc3	-0.037624132
111	0x3d3e64d4	0.046482876
112	0x3bb73ad7	0.005591731
113	0x3d9a0292	0.075200215
114	0xbd968ff6	-0.07351677
115	0x3c4fd7ce	0.012685729
116	0x3c859dcb	0.016310593
117	0xbc9089e8	-0.017643884
118	0xbd8f0156	-0.06982677
119	0x3d777a91	0.060419623
120	0x3c981e1a	0.018569041
121	0xbc72afd2	-0.014812427
122	0xbd8bfd52	-0.068354264
123	0xbd8af416	-0.06784837
124	0xbb9e237f	-0.004826009
125	0x3dbf3482	0.09336187
126	0x3d89afb4	0.06722966
127	0x3ce9b8e0	0.028530538
128	0x3c5ab5aa	0.013348976
129	0x3c9ec16f	0.019379346
130	0x3d62fbb0	0.05541581
131	0x3ccaa121	0.024735035
132	0xbdccdb11	-0.10002721
133	0xbd8d5ec3	-0.0690284
134	0xbddcc6a5	-0.10780076
135	0x3d2b8a89	0.041880164
136	0xbda0edf6	-0.078578874
137	0x3c371e5c	0.011176672
138	0x3d8aa185	0.06769089
139	0x3ca19b54	0.019727387
140	0x3cdbaf70	0.026817054
141	0x3d93a4ee	0.07209192
142	0xbd37a135	-0.044831473
143	0x3d958b9d	0.0730202
144	0x3caf32fb	0.021386614
145	0xbe21af6c	-0.15789574
146	0x3dcaa611	0.09894956
147	0xbd424c9f	-0.047436353
148	0x3d0f3604	0.034963623
149	0xbe054a33	-0.13016586
150	0x3ae1a7d7	0.0017216158
151	0xbd96aeac	-0.07357535
152	0xb9f01d5b	-0.0004579824
153	0xbde8c6e3	-0.1136606
154	0x3d0afac1	0.033930544
155	0xbd7a5cd2	-0.061123677
156	0x3de7685d	0.112992026
157	0xbc810175	-0.015747765
158	0x3d4c13d2	0.04982359
159	0x3dd76be5	0.10518626
160	0xbd982fb3	-0.07430973
161	0xbdbccfb9	-0.092193075
162	0xbdf1f034	-0.11813393
163	0xbdd0faa7	-0.10204058
164	0x3d0a1dd4	0.033719853
165	0x3da29efd	0.07940481
166	0xbd35fd7b	-0.04443119
167	0x3d326f03	0.0435629
168	0xbd574696	-0.05255755
169	0x3c444f6d	0.011981827
170	0xbdab1c5c	-0.083550185
171	0x3ce97254	0.028496899
172	0x3dbb06b2	0.091321364
173	0xbcb31f5b	-0.021865537
174	0x3dcca95d	0.09993241
175	0x3de62393	0.11237254
176	0x3da26e4a	0.07931192
177	0x3dcf61be	0.10126065
178	0x3c11e600	0.008904934
179	0x3d99cf01	0.07510186
180	0x3d16e7d0	0.036842167
181	0xbd1bd5b3	-0.038045596
182	0x3c5135a3	0.012769136
183	0x3d92fd04	0.07177165
184	0x3d8328f8	0.064042985
185	0x3ddfdb9d	0.1093056
186	0x3c820305	0.01587058
187	0xbd6011b5	-0.054704387
188	0x3dbf6b22	0.09346606
189	0x3dd13966	0.10216026
190	0x3ca039ae	0.019558754
191	0x3dbdf01d	0.092743136

gru.bias_hh_l0 f4 [192]
0	0x3dd8640f	0.1056596
1	0x3deca237	0.115543775
2	0xbd5be16d	-0.05368178
3	0x3b4c2867	0.0031152011
4	0xbcb952e1	-0.022622528
5	0x3d0755fd	0.03304099
6	0xbdb32cb7	-0.08748763
7	0x3db45648	0.08805519
8	0xbc044c38	-0.008074813
9	0x3defe7cf	0.11714136
10	0x3ccf102e	0.02527627
11	0xbd8239a4	-0.0635865
12	0xbda4be32	-0.080440894
13	0xbd72e924	-0.05930437
14	0x3dfc4753	0.123182915
15	0x3c77ccaa	0.015124479
16	0x3e075842	0.13217261
17	0x3d8959fc	0.06706616
18	0xbdfca6be	-0.12336491
19	0x3de4c9d1	0.11171306
20	0x3d75c7c6	0.060004972
21	0xbc017aea	-0.00790284
22	0xbd5bec22	-0.05369199
23	0xbe01e21d	-0.12683912
24	0xbc58089b	-0.013185645
25	0xbdcae886	-0.099076316
26	0xbdb6c146	-0.08923583
27	0xbd5514fc	-0.052021965
28	0x3d1414e5	0.03615274
29	0xbd103095	-0.03520258
30	0xbe02f999	-0.12790526
31	0x3ddf9346	0.10916762
32	0x3d25ebac	0.040507957
33	0xbd1b05c7	-0.037847307
34	0xbd3df668	-0.04637757
35	0xbd69dc15	-0.057094652
36	0x3caf4446	0.02139486
37	0xbdd56b8c	-0.104209036
38	0x3d734da7	0.059400227
39	0x3d42645f	0.047459003
40	0x3dfda76a	0.12385447
41	0x3d31f0fc	0.04344271
42	0xbda15dfa	-0.07879253
43	0x3d2b6ef8	0.041853875
44	0x3dbef140	0.093233585
45	0xbdc701c9	-0.09717137
46	0xbd12250b	-0.03567986
47	0xbdcf6080	-0.10125828
48	0x3e0a0d7f	0.13481711
49	0xbdbbfc9e	-0.09179042
50	0xbd8f2765	-0.06989936
51	0x3da3516f	0.079745166
52	0x3cc310be	0.023811694
53	0xbdacc1a9	-0.08435375
54	0x3b15d3d0	0.0022861846
55	0x3d82375f	0.063582174
56	0xbd9ee7bd	-0.07759044
57	0xbc3302c5	-0.010925953
58	0x3c7ddc0f	0.015494361
59	0x3d4e9494	0.050434664
60	0xbd89cba7	-0.06728297
61	0xbdb020b9	-0.08599991
62	0x3d1fac61	0.038982753
63	0xbd9780fd	-0.073976494
64	0xbd9c6c47	-0.0763784
65	0xbdbb640c	-0.09149942
66	0x3ba985b9	0.0051734117
67	0xbc64a520	-0.0139553845
68	0x3d388994	0.04505308
69	0xbdd5111c	-0.10403654
70	0xbdb0193e	-0.085985646
71	0xbe02bb3f	-0.12766741
72	0xbd459c84	-0.048244968
73	0xbd8031f2	-0.06259526
74	0xbccbf456	-0.024896782
75	0x3c2a68a4	0.010400925
76	0xbdbb5c69	-0.09148485
77	0x3dc51b33	0.096243285
78	0x3daa9f9f	0.083312266
79	0xbdfe9f55	-0.12432734
80	0x3df045b1	0.117320426
81	0xbdb3f411	-0.08786786
82	0xbd20921d	-0.039201844
83	0x3cf6e922	0.030140463
84	0xbca68d12	-0.02033094
85	0xbcb1588d	-0.02164867
86	0x3d73dbdd	0.05953585
87	0xbd2bc65a	-0.04193721
88	0xbda59f49	-0.08087022
89	0xbd12c189	-0.0358291
90	0xbb569749	-0.0032743982
91	0x3d9eadf1	0.077480204
92	0x3dbae7e8	0.09126264
93	0xbdd2bd48	-0.10290009
94	0x3bda4eaf	0.006662212
95	0xbdf6ea54	-0.12056413
96	0x3cfb89bc	0.030705325
97	0x3b0ba675	0.0021308933
98	0xbbcd953f	-0.006273895
99	0xbde6b638	-0.11265224
100	0x3b98cc02	0.0046629915
101	0xbd001898	-0.031273454
102	0x3d245b29	0.040126
103	0xbdd3eae4	-0.10347536
104	0xbdbfaa70	-0.0935868
105	0x3cb48e94	0.022040643
106	0xbdc3a159	-0.09552259
107	0x3bb4fb50	0.005523123
108	0xbd9f88b9	-0.0778975
109	0xbd749408	-0.059711486
110	0x3de5d798	0.11222762
111	0x3d8f4841	0.06996203
112	0xbda939d6	-0.082629845
113	0x3ddbd9c4	0.10734895
114	0xbcdca833	-0.026935672
115	0xbe083f2a	-0.13305345
116	0xbd887be1	-0.06664253
117	0xbd00958b	-0.031392615
118	0x3c5f6b7b	0.013636465
119	0xbd83872a	-0.06422265
120	0x3cd26ebc	0.025687568
121	0x3dbe195d	0.092821814
122	0xbd1af873	-0.037834596
123	0xbcbc5eb2	-0.022994373
124	0xbd5f521d	-0.05452167
125	0x3dc0a390	0.09406197
126	0xbdf563c8	-0.119819224
127	0xbc1e549d	-0.009663728
128	0xbdce094e	-0.100603685
129	0x3dbc853f	0.09205102
130	0xbbe1858f	-0.0068823765
131	0x3d86b52c	0.065775245
132	0x3db4e3c1	0.08832503
133	0x3baa10ff	0.0051900144
134	0x3d38d962	0.045129187
135	0xbd26563f	-0.040609594
136	0xbe0036c0	-0.12520885
137	0xbd253254	-0.0403312
138	0xbd09caf8	-0.03364083
139	0xbd40e930	-0.047097385
140	0xbdd6ca1f	-0.1048777
141	0xbdfdfe2d	-0.12401996
142	0x3dcd1190	0.100131154
143	0xbc9d12c5	-0.01917399
144	0xbca6b060	-0.020347774
145	0xbd3ff969	-0.046868715
146	0x3db3ea76	0.08784954
147	0xbde0dbee	-0.10979448
148	0x3dd26762	0.10273625
149	0x3d47eae8	0.04880801
150	0xbd857da7	-0.06518107
151	0x3deebf7c	0.116576165
152	0x3db35734	0.08756867
153	0x3d12e4e8	0.035862833
154	0x3dd4c688	0.10389429
155	0x3dceffe6	0.101074025
156	0x3dd691c9	0.10477025
157	0x3d214e36	0.03938123
158	0xbd4afd6f	-0.0495581
159	0xbe0ddba5	-0.13853319
160	0xbd295f7e	-0.041350834
161	0x3d91a8e3	0.07112291
162	0xbcd3e484	-0.0258658
163	0xbcbcdc2f	-0.02305421
164	0xbcb73721	-0.022365155
165	0xbd298831	-0.041389648
166	0xbcd1a2e9	-0.025590377
167	0x3e0dd4be	0.13850686
168	0x3c839d3b	0.016066184
169	0xbdf1bd57	-0.11803692
170	0x3ce62ec9	0.02809848
171	0xbd7e3817	-0.06206521
172	0x3cd94cfb	0.026525965
173	0xbdb1b3aa	-0.08676846
174	0xbd5418ab	-0.051781338
175	0xbd1fe88f	-0.039040145
176	0xbd62be8a	-0.055357493
177	0x3dbb7433	0.091530226
178	0x3df166aa	0.1178716
179	0xbd80b63d	-0.06284759
180	0x3dab8316	0.08374612
181	0x3d78ad4c	0.060712144
182	0x3b932434	0.0044903997
183	0xbda7a98b	-0.08186635
184	0x3dcd3a05	0.10020832
185	0xbd873daa	-0.06603558
186	0x3d3c0713	0.045905184
187	0x3c8b39fb	0.01699542
188	0xbd713cf2	-0.058896013
189	0x3dd248a0	0.10267758
190	0x3c44b401	0.012005807
191	0xb8eabbe3	-0.00011192986

head.0.weight f4 [64, 64]
0	0x3d203ea1	0.039122228
1	0xbb8d9c5f	-0.0043216194
2	0xbd99b39e	-0.075049624
3	0xbdfc369f	-0.12315106
4	0x3e01b664	0.12667233
5	0xbda1b8b4	-0.078965575
6	0xbd95fbb8	-0.07323402
7	0x3bf1e9ae	0.007382593
8	0x3d92017b	0.071291886
9	0x3dbea8cc	0.09309539
10	0x3c37a349	0.011208364
11	0xbde55614	-0.11198059
12	0x3cb9cc67	0.022680474
13	0xbdaed60b	-0.08536919
14	0x3d8b39a5	0.06798104
15	0xbd8e2a95	-0.06941716
16	0x3ce6f948	0.028195038
17	0xbd24ebb1	-0.040263835
18	0x3cfff126	0.031242918
19	0x3d8df92f	0.069322936
20	0x3d00937c	0.031390652
21	0x3d9c7922	0.07640292
22	0x3daef3a5	0.08542565
23	0x3dea281a	0.1143343
24	0x3dcc898e	0.09987174
25	0xbdedaf66	-0.1160572
26	0xbd68ac8d	-0.056805182
27	0xbd2b1cc2	-0.041775472
28	0x3dd31875	0.10307399
29	0x3db9f803	0.090805076
30	0x3cdb86c4	0.02679766
31	0x3d9722e2	0.073797
32	0x3dfafa2b	0.12254747
33	0x3d9e4158	0.07727307
34	0x3e066513	0.13124494
35	0xbbb4537c	-0.005503116
36	0x3d4cfe05	0.05004694
37	0xbdf224e9	-0.11823446
38	0xbdcf939f	-0.10135578
39	0xbce017b7	-0.027355058
40	0xbd4d261a	-0.050085165
41	0x3ccdbfa6	0.0251158
42	0x3cb5369e	0.02212077
43	0x3df6af00	0.12045097
44	0x3d403f99	0.04693565
45	0x3cb2dc4e	0.021833565
46	0xbb8c4db4	-0.004281724
47	0xbcec1a07	-0.028821005
48	0xbd88e38f	-0.06684028
49	0xbd717e42	-0.0589583
50	0x3ba50ecd	0.005037165
51	0x3d1731e7	0.036912825
52	0x3d3b80cf	0.04577714
53	0x3cd3f58c	0.025873922
54	0x3dacb35c	0.084326476
55	0xbd7d3021	-0.061813477
56	0xbdc21d2f	-0.094782226
57	0xbdaddccb	-0.084893785
58	0xbcbb7d06	-0.022886764
59	0x3d92725e	0.0715072
60	0xbdc08a81	-0.094014175
61	0xbd544649	-0.05182484
62	0x3d642bf5	0.055705983
63	0x3d5ea646	0.05435779
64	0x3d5a775f	0.053336497
65	0xbdb28713	-0.087171696
66	0xbdb8de14	-0.09026733
67	0x3dfd102f	0.123566024
68	0xbdee4851	-0.11634887
69	0xbd77555c	-0.06038414
70	0x3dfe0702	0.124036804
71	0xbd89d80d	-0.067306615
72	0x3c2fd740	0.010732472
73	0xbde19e1b	-0.11016484
74	0x3e06ca6d	0.13163157
75	0xbcf3b3fe	-0.029748913
76	0xbc3d05ae	-0.011536999
77	0xbd83d017	-0.06436174
78	0xbc725f3b	-0.0147932125
79	0x3c8d1167	0.017220212
80	0xbc0cd3a1	-0.008595378
81	0x3d2627c9	0.040565286
82	0xbddfe14b	-0.10931643
83	0x3d8c2fd0	0.06845057
84	0x3d5c0b62	0.053721793
85	0xbd24a888	-0.040199786
86	0x3d92b416	0.07163255
87	0xbcbcf3a7	-0.023065401
88	0xbdd888b8	-0.10572952
89	0x3e09db39	0.13462533
90	0xbbfa8bf4	-0.0076460782
91	0x3d5f3389	0.054492507
92	0xbdb391d2	-0.087680474
93	0x3dc50c7c	0.09621522
94	0x3d7730f4	0.06034942
95	0x3d9b0328	0.075689614
96	0x3cb21be0	0.021741807
97	0xbc9a2617	-0.01881699
98	0xbe053724	-0.13009316
99	0xbe0615e2	-0.13094285
100	0xbd2e82f5	-0.04260536
101	0x3d2d1137	0.042252745
102	0xbd982dca	-0.074306086
103	0x3da9eccb	0.08297118
104	0xbe155bd5	-0.14585812
105	0x3c05db61	0.00816998
106	0x3d1c578f	0.03816944
107	0x3c25aaee	0.010111554
108	0x3e0550e5	0.1301914
109	0xbe10a7f1	-0.14126565
110	0xbdf27ef1	-0.118406184
111	0xbd860cf9	-0.06545443
112	0x3d843948	0.06456238
113	0x3d5119bb	0.05104993
114	0x3d8230b1	0.063569434
115	0xbc0b28c5	-0.008493607
116	0xbde2289d	-0.110429026
117	0x3b7f4e2f	0.0038956513
118	0x3db94a4c	0.09047374
119	0xbc9fddc4	-0.019514926
120	0xbe089759	-0.13338985
121	0x3db119c8	0.086474955
122	0xbde4feee	-0.111814365
123	0xbd5d00f5	-0.05395599
124	0x3d0cf5e5	0.03441419
125	0x3d426935	0.047463614
126	0xb9794770	-0.00023773103
127	0xbdd789d0	-0.105243325
128	0x3d4b767e	0.04967355
129	0xbd8b2722	-0.06794573
130	0xbd3f7802	-0.046745308
131	0xbcf9d362	-0.030496303
132	0xbdc4ac3f	-0.09603166
133	0xbd11c2c9	-0.035586152
134	0x3da301cc	0.07959327
135	0xbd3af9b0	-0.045648277
136	0xbc8f578e	-0.017497804
137	0x3cd0720b	0.025445005
138	0x3cfbc98e	0.030735757
139	0xbd8583a1	-0.06519247
140	0xbd01a0c6	-0.031647466
141	0xbe07aaa9	-0.13248695
142	0xbdd4984a	-0.10380609
143	0x3d440203	0.04785348
144	0xbd6ef51b	-0.05833922
145	0xbd19c977	-0.037545647
146	0x3d28743e	0.041126482
147	0x3cb2a051	0.02180496
148	0x3d11b5d1	0.035573784
149	0xbd9c4483	-0.07630255
150	0x3dd811dc	0.105502814
151	0x3d0912ea	0.033465303
152	0x3d957a01	0.07298661
153	0xbdc10af8	-0.0942592
154	0x39b2d103	0.00034106532
155	0xbd9594b5	-0.07303754
156	0xbd8c3fd3	-0.06848111
157	0xbd838b31	-0.06423033
158	0xbd17e3a2	-0.037082322
159	0xbcb82826	-0.022480082
160	0xbd9ed49a	-0.07755394
161	0x3df1d5ec	0.118083805
162	0xbd017125	-0.031602044
163	0x3cfcb00c	0.030845664
164	0x3dee8a69	0.116474934
165	0x3e0ac9fd	0.13553615
166	0x3d937517	0.072000675
167	0xbc450ec7	-0.012027449
168	0xbcf49a3b	-0.029858699
169	0xbd45ec5b	-0.04832111
170	0x3daf4c69	0.08559496
171	0xbd231833	-0.039818
172	0xbd6a3047	-0.057174947
173	0xbe0677db	-0.13131659
174	0xbd830e35	-0.06399194
175	0x3da32d83	0.07967665
176	0xbdac24bc	-0.08405444
177	0xbc8024ee	-0.01564261
178	0x3db3e41e	0.08783744
179	0x3dbc2272	0.091862574
180	0xbd052ed7	-0.032515373
181	0x3e10d35a	0.14143124
182	0x3d8f7b30	0.07005918
183	0xbd566f49	-0.052352224
184	0xbd08cbac	-0.03339736
185	0x3d3f788e	0.04674583
186	0x3d95633d	0.07294319
187	0xbd03e9cd	-0.03220539
188	0x3e07cdf7	0.13262163
189	0x3cb7e585	0.02244831
190	0x3dba6be4	0.0910261
191	0xbd095689	-0.033529792
192	0xbc662870	-0.014047727
193	0xbaa72256	-0.0012751322
194	0x3d26c974	0.040719464
195	0xbda60c8d	-0.081078626
196	0xbdcbf692	-0.09959139
197	0xbc5f82dc	-0.013642039
198	0xbd1e1050	-0.038589776
199	0xbda79ce7	-0.081842236
200	0xbd8c6cba	-0.068566754
201	0xbd4ca648	-0.049963266
202	0xbd82030e	-0.06348239
203	0x3ae28799	0.0017282843
204	0xbdb2367e	-0.087018
205	0xbda355c9	-0.079753466
206	0x3d347881	0.044060234
207	0xbd36aacb	-0.044596475
208	0xbdbd7c59	-0.09252233
209	0xbd413182	-0.047166355
210	0x3dd3ea4f	0.10347425
211	0xbd999ee9	-0.07501013
212	0x3d1fa64c	0.038976952
213	0xbdc929ab	-0.09822401
214	0x3db813a6	0.08988123
215	0xbb8c803a	-0.0042877467
216	0xbcd7644c	-0.026292942
217	0xbd3adba1	-0.04561961
218	0x3d91523f	0.07095765
219	0x3d39848d	0.045292426
220	0xbd0dd24d	-0.034624387
221	0xbbbb09ed	-0.0057079704
222	0x3e030ea4	0.12798554
223	0xbcc61835	-0.024181465
224	0x3dbf3bd1	0.09337581
225	0x3d13da54	0.036096886
226	0xbb19421a	-0.0023385347
227	0xbd1f5b14	-0.03890522
228	0xbd8f94f8	-0.070108354
229	0xbc0b28aa	-0.008493582
230	0xbd951f36	-0.07281344
231	0xbdd8e56a	-0.10590632
232	0xbca6a007	-0.020339979
233	0xbcbb447b	-0.022859802
234	0xbc76abf7	-0.015055648
235	0x3d89a06e	0.06720053
236	0x3d73337a	0.059375264
237	0xbdbb9e3e	-0.09161042
238	0xbd83f6bd	-0.06443546
239	0xbd00895a	-0.03138099
240	0x3de11004	0.10989383
241	0xbc9bb81d	-0.01900869
242	0x3dc88bb2	0.0979227
243	0xbdd948c3	-0.10609581
244	0x3cce98ea	0.0252194
245	0x3cf4da67	0.029889299
246	0xbdb45a38	-0.0880627
247	0x3de09e4c	0.10967693
248	0xbda8eb3e	-0.08247994
249	0x3df02fbc	0.117278546
250	0x3d43ca23	0.047800194
251	0xbda57a86	-0.0808001
252	0x3c447c99	0.011992597
253	0x3dcda350	0.10040915
254	0xbcef1b47	-0.029187812
255	0xbd0bef75	-0.03416391

head.0.bias f4 [64]
0	0x3d19ba80	0.037531376
1	0x3d85694b	0.06514224
2	0xbd91b36f	-0.07114302
3	0xbdc9465a	-0.098278716
4	0xbd1ee048	-0.03878811
5	0x3df48cf9	0.11940951
6	0x3d9f82fa	0.07788654
7	0xbd42c7f1	-0.04755396
8	0x3d153bf9	0.036434148
9	0x3e093074	0.1339739
10	0xbbaf9c09	-0.005359177
11	0xbcb5ee2c	-0.022208296
12	0x3cae9f40	0.02131617
13	0xbd542b52	-0.051799126
14	0xbd9292e9	-0.07156927
15	0xbc16d0ad	-0.009205026
16	0x3c6d7a1e	0.014494447
17	0xbda77ba4	-0.081778795
18	0xbe05d4d7	-0.13069473
19	0x3d33249f	0.043736096
20	0xbde367b6	-0.11103766
21	0x3d81a5a1	0.06330419
22	0x3e09e183	0.13464932
23	0x3d208df1	0.039197866
24	0xbda27a82	-0.07933523
25	0x3e0d102a	0.13775697
26	0xbcd63898	-0.026150033
27	0xbd6408c8	-0.055672437
28	0x3d7244e1	0.05914772
29	0xbd4da939	-0.05021021
30	0xbc392e50	-0.011302546
31	0xbd26a1de	-0.040681712
32	0xbddd703f	-0.10812425
33	0xbd2d69fd	-0.042337406
34	0xbd03f6fd	-0.03221797
35	0xbcda29dc	-0.026631288
36	0x3d2b244b	0.04178266
37	0x3d29f522	0.041493542
38	0x3dc61c26	0.09673338
39	0xbda92130	-0.08258283
40	0x3d38e6e4	0.04514207
41	0x3cca03d7	0.024660034
42	0x3dc8c16d	0.09802518
43	0xbd3c4721	-0.04596627
44	0x3deca1a3	0.11554267
45	0x3d8c209d	0.06842158
46	0x3caf1338	0.021371469
47	0xbdac3346	-0.08408217
48	0x3db5a121	0.088686235
49	0xbdc7077e	-0.09718226
50	0x3dbba5dc	0.091624945
51	0x3d8272af	0.063695304
52	0xbc31b570	-0.010846481
53	0xbb19cfd2	-0.0023469818
54	0xbcff3155	-0.031151453
55	0x3db98d40	0.090601444
56	0xbd8e0078	-0.06933683
57	0xbd7c1124	-0.061539784
58	0xbc60451e	-0.013688354
59	0x3d5077b9	0.050895426
60	0x3cdddd20	0.02708298
61	0x3c8f9315	0.017526189
62	0x3dd39d8c	0.10332784
63	0x3da88711	0.08228887

head.2.weight f4 [1, 64]
0	0xbc1985f3	-0.009370315
1	0x3d5cedc9	0.053937707
2	0x3ddbd15a	0.1073329
3	0x3deb9769	0.115034886
4	0xbd2f8a3c	-0.04285644
5	0xbd208ebb	-0.03919862
6	0x3e048b4f	0.12943767
7	0xbdb72c55	-0.089440025
8	0x3e01e23f	0.12683962
9	0x3ddae4f7	0.10688203
10	0xbd58d8cc	-0.05294113
11	0x3e16c104	0.14722067
12	0x3e0ca112	0.13733318
13	0xbdb8dbdd	-0.090263106
14	0x3d117688	0.03551343
15	0x3b999dd8	0.004688006
16	0xbd61472b	-0.05499951
17	0x3dfcf6f0	0.12351787
18	0xbda4104c	-0.08010921
19	0xbdd83448	-0.10556847
20	0x3dfb2fe6	0.12264995
21	0x3e0d931a	0.13825646
22	0x3dcade34	0.09905663
23	0x3aedbd37	0.0018138055
24	0xbba659b6	-0.0050766123
25	0x3d324437	0.043522086
26	0xbdc164d2	-0.09443058
27	0xbdfef8cc	-0.12449798
28	0xbb8a6354	-0.0042232666
29	0xbdac7ee7	-0.08422642
30	0x3dedad11	0.116052754
31	0x3db905d6	0.09034316
32	0xbd987ad7	-0.07445305
33	0xbca2b86d	-0.019863332
34	0xbdc62902	-0.0967579
35	0xbd07a951	-0.033120457
36	0xbdaeaca2	-0.08529021
37	0x3dd79112	0.10525717
38	0x3df1a85a	0.11799689
39	0x3c24d208	0.010059841
40	0xbd8a0b6c	-0.0674046
41	0x3d8bb189	0.068209715
42	0x3d3954ba	0.045246817
43	0x3defe0d7	0.11712807
44	0xbc133f3b	-0.008987243
45	0xbd56a010	-0.05239874
46	0x3dd0a722	0.10188128
47	0xb99d6e00	-0.0003002733
48	0xbc9eff66	-0.019408893
49	0xbd6d0aa0	-0.05787146
50	0xbddfbaf4	-0.1092433
51	0xb8051eeb	-3.1738466e-05
52	0xbdaba960	-0.08381915
53	0xbd8c664f	-0.06855451
54	0xbd495b32	-0.049159236
55	0x3deba79c	0.11506578
56	0xbd392e8c	-0.045210406
57	0xbdf59cd8	-0.11992806
58	0xbd877fc9	-0.0661617
59	0x3e05068e	0.12990782
60	0xbd3b2478	-0.045689076
61	0xbdc8f5ed	-0.098125316
62	0xbcdbe187	-0.026840938
63	0xbd908e06	-0.07058339
