outputs/exp_0002_20251212_235529/runs/seed4/h1/ReservoirReplay/model_final.pt (torch, 71493 bytes, 7 tensors)

gru.weight_ih_l0 f4 [192, 1]
0	0x3e0fbf9a	0.14037934
1	0x3e1c9aae	0.1529338
2	0xbe1d1f50	-0.15343976
3	0xbf3806fd	-0.71885663
4	0xbe94932c	-0.29018533
5	0xbcf8b590	-0.030360013
6	0x3e3547f4	0.17703229
7	0x3ebf01a6	0.37305945
8	0x3e99b63b	0.30021843
9	0x3e3eb322	0.18623021
10	0x3df9ef7c	0.12203881
11	0xbdde7e97	-0.10863989
12	0xbe02dde2	-0.12779954
13	0xbdd02546	-0.10163359
14	0x3d8127e4	0.06306437
15	0x3e219763	0.15780406
16	0xbda4c111	-0.08044637
17	0xbe50a6db	-0.2037615
18	0x3e726564	0.2367149
19	0xbe2d52ac	-0.16926068
20	0xbe4af3ae	-0.19819519
21	0x3dcda66f	0.1004151
22	0xbd8b3d18	-0.06798762
23	0xbebe924f	-0.37221
24	0x3d89a8f8	0.06721681
25	0x3d878e3a	0.066189244
26	0x3ebdc270	0.37062407
27	0xbe4c2b84	-0.19938475
28	0xbd2b9a8c	-0.041895434
29	0xbd29e4a4	-0.041477814
30	0xbd814570	-0.06312072
31	0x3e4f8c5d	0.20268388
32	0xbe16d375	-0.14729102
33	0x3ea6c87d	0.32574835
34	0xbdd4c663	-0.10389402
35	0xbe908a80	-0.28230667
36	0xbe84af10	-0.25914812
37	0x3e0e6503	0.1390572
38	0x3d759d83	0.059964668
39	0xbe0937a6	-0.13400134
40	0xbd9a92b9	-0.075475164
41	0x3e90a8dd	0.28253832
42	0x3ea1bb33	0.31588134
43	0xbf1371ce	-0.5759553
44	0x3eaac4a4	0.3335315
45	0x3dee4518	0.11634272
46	0xbd292404	-0.041294113
47	0xbe00ee5f	-0.12590931
48	0x3ddaa882	0.106766716
49	0x3e0924ff	0.13393019
50	0xbe822a21	-0.25422767
51	0x3c8e5e0e	0.017378833
52	0xbddb68d5	-0.107133545
53	0xbe9be6f2	-0.30449635
54	0x3dd03eab	0.10168203
55	0xbdc98183	-0.098391555
56	0xbf031639	-0.51205784
57	0xbd957cad	-0.07299171
58	0xbe60a430	-0.21937633
59	0x3e04378d	0.12911816
60	0xbe06a188	-0.13147557
61	0xbbf03012	-0.007329949
62	0xbe990680	-0.29887772
63	0xbdda3baf	-0.10655915
64	0x3d6524b0	0.05594319
65	0x3f007578	0.50179243
66	0xbd9d1d04	-0.0767155
67	0x3f02af57	0.510488
68	0x3c928548	0.01788582
69	0xbde26518	-0.11054438
70	0xbead6aea	-0.3387063
71	0xbe56700c	-0.2094118
72	0xbd4ff2f0	-0.050768793
73	0x3ec00e13	0.37510738
74	0xbe9a56e6	-0.30144423
75	0x3f42a9df	0.7604045
76	0x3dacd1cc	0.08438453
77	0x3d9bbff3	0.07604971
78	0xbd27ad0d	-0.04093652
79	0xbe2d75f3	-0.16939525
80	0x3dbaec8b	0.09127148
81	0x3f0d5669	0.55209976
82	0xbdc9bf0b	-0.09850892
83	0xbe34bbd9	-0.17649783
84	0x3ef68e69	0.48155525
85	0x3d991625	0.07474927
86	0x3f1ab0ad	0.60425836
87	0x3ed7dde3	0.42161474
88	0x3e053714	0.13009292
89	0xbdec4ba6	-0.11537866
90	0x3ece6a67	0.40315554
91	0xbc53de81	-0.012931467
92	0x3e146e17	0.14495121
93	0x3f009567	0.5022797
94	0x3ea664a2	0.32498652
95	0x3db5cb4c	0.088766664
96	0xbda6067f	-0.08106708
97	0x3dd23f8f	0.10266029
98	0x3e8b66ff	0.27227017
99	0xbe5cc145	-0.21558101
100	0x3d2e0e66	0.0424942
101	0x3c33c83a	0.010973031
102	0x3e567f05	0.20946892
103	0x3e5a9ae8	0.21348155
104	0x3e8e480f	0.2778935
105	0x3e43456c	0.19069451
106	0xbe2d8a50	-0.16947293
107	0x3eb7afa9	0.35876206
108	0x3e79c434	0.24391252
109	0x3d98b8ab	0.074570976
110	0x3ec4addc	0.38413894
111	0xbdb0d574	-0.08634463
112	0xbdcabb91	-0.09899057
113	0xbe5295ad	-0.2056491
114	0x3d175bae	0.036952667
115	0x3f18e5ea	0.5972582
116	0x3e2987f2	0.16555765
117	0x3e2f921e	0.17145583
118	0x3dca683e	0.09883164
119	0x3e39195c	0.1807608
120	0x3f00d058	0.5031791
121	0x3cafb0e6	0.021446656
122	0x3e0e5f17	0.13903461
123	0xbe2c6aa7	-0.1683756
124	0xbd33c724	-0.043891087
125	0x3cbac3ab	0.02279838
126	0xbe06213b	-0.13098614
127	0x3f120418	0.57037497
128	0xbdd4ff3a	-0.10400243
129	0x3edb7ac3	0.42867097
130	0x39d7da31	0.0004117056
131	0x3efa1f78	0.48852134
132	0xbd13fb50	-0.036128342
133	0x3c92d9dd	0.017926151
134	0x3d8940b3	0.067017935
135	0x3dd24f25	0.10269002
136	0x3e8e50cf	0.27796027
137	0xbe9eb36a	-0.30996257
138	0x3dd29bb0	0.10283601
139	0xbd78280e	-0.060585074
140	0xbd2d4f93	-0.042312216
141	0x3dd189d0	0.10231364
142	0xbe420b17	-0.18949543
143	0xbd35e49a	-0.044407465
144	0x3e112c16	0.14176974
145	0x3e8d6e40	0.27623177
146	0x3ec3bfa9	0.38232163
147	0x3c571dc8	0.013129659
148	0x3e2a0b7f	0.16605948
149	0x3ed137ea	0.40862972
150	0xbe696806	-0.22793588
151	0x3e4253a7	0.18977223
152	0xbdd6d25e	-0.10489343
153	0xbd7cc8b7	-0.061714854
154	0xbe4260c1	-0.18982221
155	0xbec529b6	-0.38508385
156	0xbe828f2c	-0.25499856
157	0x3e509ad7	0.20371567
158	0x3ce1ecbc	0.027578704
159	0xbe0dadbc	-0.13835806
160	0x3cf7da78	0.030255541
161	0xbe2af16e	-0.1669366
162	0xbe2d3102	-0.16913226
163	0xbc71abe1	-0.014750452
164	0xbe36c1f1	-0.1784742
165	0xbc255e08	-0.01009322
166	0x3e2aa08b	0.16662805
167	0x3ec168f7	0.37775394
168	0xbe17b012	-0.14813259
169	0xbed3f858	-0.4140041
170	0x3dcbd2d6	0.09952323
171	0x3e44b1e8	0.19208491
172	0x3ebb237d	0.36550513
173	0x3dfbcedd	0.122953154
174	0x3cb2fedc	0.021850042
175	0xbdd5b7dd	-0.1043546
176	0x3864a2ea	5.451116e-05
177	0x3c3c475f	0.011491626
178	0xbd20bcb6	-0.03924247
179	0x3e994588	0.2993586
180	0x3e8d5de8	0.27610707
181	0xbd07b4f1	-0.033131544
182	0xbe60180e	-0.21884176
183	0xbda32ffd	-0.079681374
184	0xbefc3e7d	-0.49266425
185	0xbde125e8	-0.10993558
186	0x3d8d0c4a	0.068871096
187	0xbd1ea674	-0.03873296
188	0x3c852404	0.016252525
189	0xbe26f45f	-0.16304158
190	0xbd8d4b5f	-0.068991415
191	0x3e62173c	0.22079176

gru.weight_hh_l0 f4 [192, 64]
0	0x3e71d4e6	0.2361637
1	0x3cb66ac2	0.022267703
2	0x3dc4acbf	0.09603261
3	0xbe63551c	-0.22200435
4	0x3da1dfcc	0.07904014
5	0xbc5c0d5d	-0.01343092
6	0x3dc3fea7	0.095700555
7	0xbe075538	-0.13216102
8	0x3c999ccf	0.01875153
9	0xbe08bdd1	-0.13353659
10	0xbc942b04	-0.018086918
11	0x3dd21f5c	0.102598876
12	0x3d96eaa7	0.07368975
13	0xbe60fa5d	-0.21970506
14	0xbe268a9d	-0.16263814
15	0xbd111a70	-0.035425603
16	0xbde32080	-0.11090183
17	0xbe27901d	-0.16363569
18	0x3d8ca774	0.06867877
19	0x3c4e4bcc	0.012591314
20	0xbeabc958	-0.3355205
21	0xbe189314	-0.14899856
22	0x3eababe1	0.3352957
23	0xbddab164	-0.10678366
24	0x3e2a0669	0.16604008
25	0x3c56d285	0.013111715
26	0x3caf223a	0.021378625
27	0x3e4ae8da	0.19815388
28	0x3e8f8c11	0.2803655
29	0xbe337f3e	-0.17529008
30	0xbe757d11	-0.2397349
31	0xbdb16820	-0.086624384
32	0x3da373cc	0.07981071
33	0xbd72ffdd	-0.05932604
34	0x3e95bf50	0.29247522
35	0xbe24e81c	-0.16104168
36	0x3df942a3	0.12170913
37	0x3cbe00d6	0.023193758
38	0xbe02a043	-0.12756447
39	0xbe06d7aa	-0.13168207
40	0x3de6221e	0.11236976
41	0x3e1ce77a	0.15322676
42	0x3d4d54a0	0.050129533
43	0xbe22aa0b	-0.15885179
44	0xbc2a6cd0	-0.0104019195
45	0xbe881dec	-0.2658533
46	0x3dd40864	0.10353163
47	0x3d8b5703	0.068037055
48	0xbdf05399	-0.11734695
49	0x3d8595d0	0.06522715
50	0x3d82f75a	0.06394835
51	0xbde49cde	-0.111627325
52	0x3d1a65de	0.037694804
53	0xbe040deb	-0.12895934
54	0xbd9cf0fc	-0.076631516
55	0x3dcc0495	0.099618115
56	0x3ca3067d	0.019900555
57	0x3e647c48	0.22313035
58	0xbe7bc61b	-0.2458729
59	0xbb7a0176	-0.0038147843
60	0xbe1e0f03	-0.15435414
61	0x3d71eb77	0.059062447
62	0xbd85e75c	-0.06538269
63	0xbe8342f6	-0.25637025
64	0x3d84f898	0.06492728
65	0x3eed72a0	0.46376514
66	0xbdc0720f	-0.09396755
67	0x3dc005e3	0.09376123
68	0xbd8e46e4	-0.06947115
69	0xbd4bcf00	-0.049757957
70	0x3c75c40b	0.015000354
71	0x3e3573bc	0.1771993
72	0x3e19c2c7	0.15015708
73	0xbede3820	-0.43402195
74	0x3dacac93	0.084313534
75	0xbd9d2527	-0.07673102
76	0xbe1f6de6	-0.15569267
77	0x3e246f57	0.16058098
78	0xbdbe3b20	-0.09288621
79	0xbd49fba4	-0.04931225
80	0x3dff7437	0.12473338
81	0x3e6f328d	0.23359127
82	0xbb4ab042	-0.0030927812
83	0x3e19f956	0.1503652
84	0x3e72cb5e	0.23710391
85	0x3d1b747e	0.037952892
86	0x3d3e1fd3	0.04641707
87	0x3e65ad65	0.22429426
88	0xbdae1ac4	-0.08501199
89	0x3ebda90f	0.37043044
90	0xbe1fc5fa	-0.15602866
91	0x3d328518	0.04358396
92	0xbc9f6f5c	-0.01946228
93	0xbd52de46	-0.051481508
94	0xbd0c5d04	-0.034268394
95	0xbecb04cf	-0.39652106
96	0xbd14a5af	-0.03629082
97	0x3cec8dbc	0.028876178
98	0xbe063b67	-0.13108598
99	0x3edc8313	0.43068752
100	0xbdf4ab97	-0.11946791
101	0x3d3b8e32	0.045789905
102	0x3e3d9112	0.18512371
103	0xbd38e692	-0.045141764
104	0xbd3bc218	-0.0458394
105	0x3d2816c7	0.041037347
106	0x3d7c4c4c	0.0615962
107	0xbc25320b	-0.010082732
108	0x3e4061f2	0.18787363
109	0x3df8db3a	0.12151189
110	0xbe25e3a0	-0.16200113
111	0x3e2438f7	0.16037355
112	0xbc82c892	-0.01596478
113	0x3d48b491	0.049000327
114	0xbce82187	-0.0283363
115	0x3e156924	0.14590889
116	0xbcdc11e3	-0.026863998
117	0x3c249b7e	0.010046838
118	0xbd273a90	-0.040827334
119	0xbde3de69	-0.11126406
120	0xbd6f721e	-0.05845844
121	0xbd17a1c1	-0.037019495
122	0x3c77f574	0.015134204
123	0x3c5100f1	0.012756572
124	0xbdc700b9	-0.09716935
125	0x3d71c9f8	0.059030503
126	0xbe05292a	-0.13003984
127	0x3ba83d9b	0.005134297
128	0x3da604a0	0.08106351
129	0xbd129372	-0.035785146
130	0xbe299133	-0.16559295
131	0xbe006efe	-0.1254234
132	0xbe9df115	-0.30847993
133	0x3d055f1d	0.03256141
134	0x3cc8405a	0.024444748
135	0xbde84ecf	-0.113431565
136	0xbde2e4e5	-0.110788144
137	0x3c8f439d	0.017488295
138	0xbda15499	-0.07877464
139	0x3d88d2da	0.06680842
140	0x3df74cd8	0.12075204
141	0x3d448fb4	0.04798861
142	0x3b8c5925	0.004283088
143	0x3e1bbd74	0.1520899
144	0xbd13c340	-0.036074877
145	0xbced6edd	-0.028983528
146	0x3e10418a	0.14087501
147	0x3e3f4de8	0.18682063
148	0xbbc2cae6	-0.0059445975
149	0xbda73990	-0.08165276
150	0xbdb7f3b7	-0.08982032
151	0xbe0db229	-0.13837494
152	0xbda760dc	-0.08172771
153	0x3e09582b	0.1341254
154	0xbdc1d1e1	-0.09463859
155	0x3df72cb6	0.12069075
156	0x3dcb2954	0.09919992
157	0xbd9b8c06	-0.07595067
158	0x3d8d5334	0.06900635
159	0xbde50387	-0.111823134
160	0x3d9fb8ea	0.077989414
161	0x3ad426bd	0.0016185861
162	0xbda75ca7	-0.08171969
163	0x3e43f2e5	0.19135626
164	0x3c74fc85	0.0149527835
165	0xbddeaeba	-0.1087317
166	0x3d5eeed4	0.054426983
167	0xbe60b0d8	-0.2194246
168	0x3bf49e58	0.007465165
169	0xbd085654	-0.033285454
170	0xbda54589	-0.080699034
171	0xbdaeda70	-0.085377574
172	0x3e8a08c1	0.26959804
173	0x3d9e2fcf	0.077239625
174	0xbbe16b1a	-0.0068792226
175	0x3dc8ae1c	0.09798834
176	0xbda6461f	-0.08118843
177	0xbddb159a	-0.106974795
178	0x3d04f367	0.03245869
179	0x3cf50a22	0.029912058
180	0x3c808c0f	0.015691785
181	0x3d87267e	0.06599139
182	0x3d9fc80e	0.07801829
183	0xbd4d8766	-0.050177954
184	0x3e7c433e	0.24635026
185	0x3bdc13fd	0.00671625
186	0xbd6b032c	-0.05737607
187	0x3db5502f	0.088531844
188	0xbceabadf	-0.02865356
189	0x3c3d5487	0.011555797
190	0x3d451c56	0.048122726
191	0xbd4505b1	-0.04810113
192	0xbd3ec589	-0.046575103
193	0xbed1e2f8	-0.40993476
194	0xbd6f5004	-0.05842592
195	0xbd316d1b	-0.04331694
196	0xbe01f982	-0.12692836
197	0x3df17c0e	0.1179124
198	0x3dd3a0ab	0.10333379
199	0x3d51d9b2	0.051233
200	0x3c5e5ea1	0.013572366
201	0x3de46a6a	0.11153109
202	0x3df027ba	0.11726327
203	0xbdaab26b	-0.08334812
204	0xbdce1909	-0.10063369
205	0x3e21eaa4	0.15812165
206	0xbd70cad7	-0.058787193
207	0x3d91d139	0.07119984
208	0xbd06adfd	-0.032880772
209	0xbd489f1e	-0.04897987
210	0x3b12b2ad	0.002238433
211	0xbe306b50	-0.17228436
212	0x3de64c3b	0.112450086
213	0xbec4a337	-0.38405773
214	0x3e094a81	0.13407327
215	0x3a8c2d97	0.0010694739
216	0x3c91f8b5	0.017818788
217	0x3d821f85	0.06353668
218	0x3cfe71b1	0.031060072
219	0x3ce85c4d	0.028364325
220	0x3bbdf8c5	0.005797478
221	0xbc465a6f	-0.012106522
222	0x3e30f592	0.17281178
223	0xbc54780a	-0.012968073
224	0xbded471b	-0.11585828
225	0xbdcfe9d5	-0.10152022
226	0xbe26f9a3	-0.16306166
227	0xbc18c2eb	-0.009323816
228	0x3cde8649	0.027163642
229	0x3d6760aa	0.05648867
230	0x3d9ff034	0.07809487
231	0x3e4a13f2	0.19734171
232	0x3b581f98	0.0032977816
233	0x3e429bb9	0.19004716
234	0xbd6c6537	-0.057713713
235	0xbe1f0753	-0.15530138
236	0x3c7ec74c	0.015550446
237	0xbde208a0	-0.11036801
238	0xbdafc6db	-0.085828505
239	0x3d48c21c	0.049013242
240	0xbc202bae	-0.009776039
241	0xbd2e87ae	-0.042609863
242	0xbda9973c	-0.08280799
243	0xbe0a4ce2	-0.13505891
244	0xbdf68f5d	-0.12039063
245	0x3d43d607	0.047811534
246	0x3e533ad7	0.20627914
247	0x3d96b14a	0.07358034
248	0x3e7faf7d	0.24969287
249	0x3c922d1a	0.017843772
250	0x3d89ac7a	0.067223504
251	0xbe2b7051	-0.16742064
252	0x3da1e3e7	0.07904797
253	0x3da9541e	0.08267997
254	0xbcbaf6fc	-0.02282285
255	0x3d342c08	0.043987304

gru.bias_ih_l0 f4 [192]
0	0x3e08a4d2	0.13344124
1	0x3e258304	0.1616326
2	0x3e1433a4	0.14472824
3	0x3dffa39a	0.124823764
4	0x3c65fd3c	0.014037427
5	0x3e682477	0.2267016
6	0x3df090c4	0.11746362
7	0x3dbccf74	0.09219256
8	0x3d972817	0.073806934
9	0x3df5133e	0.11966561
10	0x3c827c8e	0.015928533
11	0x3dddfc61	0.10839153
12	0x3d0a412c	0.03375356
13	0x3d71c7ad	0.059028316
14	0xbc47e563	-0.012200686
15	0x3e520b4d	0.20512123
16	0xbda46745	-0.080275096
17	0xbd837b9f	-0.06420063
18	0x3d691675	0.056906182
19	0x3cbc641c	0.022996955
20	0xbda4eafe	-0.08052634
21	0x3e5a8449	0.21339525
22	0x3bb2939e	0.0054497262
23	0x3c307883	0.01077092
24	0x3de85651	0.113445885
25	0x3e946cb4	0.28989184
26	0x3db10642	0.08643772
27	0x3e3a0176	0.1816462
28	0xbd7efce8	-0.06225291
29	0x3dd3aabb	0.10335299
30	0xbd829f34	-0.06378022
31	0x3d1686e1	0.036749724
32	0x3d04d48e	0.03242927
33	0x3e0e5046	0.1389781
34	0x3e0225da	0.12709752
35	0x3e3965b8	0.18105209
36	0x3d1ff39a	0.039050676
37	0x3e32b25d	0.17450853
38	0x3d0cf93d	0.03441738
39	0x3eb14694	0.3462416
40	0x3de74ab5	0.11293546
41	0x3d4d832e	0.05017393
42	0x3e1ae3bc	0.15125936
43	0xbdd94824	-0.10609463
44	0x3d7e911b	0.062150102
45	0xbac2413f	-0.001482047
46	0x3e596380	0.21229362
47	0x3e1408f0	0.14456534
48	0x3da3e876	0.08003323
49	0x3e016d6b	0.12639396
50	0xbb19cab3	-0.0023466765
51	0x3e07e803	0.13272099
52	0x3dc14f1c	0.09438917
53	0x3e065f18	0.13122213
54	0x3e132402	0.14369205
55	0xbcb8e123	-0.022568291
56	0x3e1444a6	0.14479312
57	0xbc9bcc62	-0.019018356
58	0xbba9272e	-0.0051621413
59	0x3e003259	0.12519206
60	0x3d089a94	0.033350542
61	0x3d28ca27	0.041208412
62	0x3e0d55b1	0.1380222
63	0x3d9c7717	0.07639902
64	0xbd04b151	-0.032395665
65	0xbe1b38e5	-0.15158422
66	0xbd1c01a1	-0.03808749
67	0xbca16842	-0.019703034
68	0xbc0b4906	-0.008501297
69	0xbd66310e	-0.056199126
70	0x3e071c3e	0.13194367
71	0xbd3360db	-0.04379354
72	0xbe3004dc	-0.17189354
73	0xbe792376	-0.24329934
74	0xbdb5de3a	-0.08880277
75	0xbdcdded6	-0.10052268
76	0x3ca39dcc	0.019972704
77	0x3dd8b791	0.105818875
78	0x3b1b3c74	0.0023687156
79	0x3d5b7f81	0.053588394
80	0x3c54f692	0.01299824
81	0xbd25f8a7	-0.040520336
82	0xbe4b182e	-0.19833443
83	0xbd63c7d3	-0.05561049
84	0x3d19fcc0	0.037594557
85	0xbd8b30de	-0.0679643
86	0x3d6de6f9	0.0580816
87	0xbd656c76	-0.05601164
88	0x3d948a20	0.07252908
89	0xbcc2ca85	-0.02377821
90	0xbe061f56	-0.13097891
91	0xbd2cdbae	-0.04220169
92	0xbe17e6d3	-0.14834146
93	0xbd4dc6b2	-0.05023832
94	0x3dcdf0ee	0.10055719
95	0xbe897ddc	-0.26853836
96	0xbd447345	-0.047961492
97	0x3c86fdb1	0.016478391
98	0xbd15628c	-0.036470935
99	0xbc06cd6e	-0.008227689
100	0xbd8f9efd	-0.070127465
101	0xbd087691	-0.0333162
102	0xbdc4a81c	-0.09602377
103	0xbf005231	-0.50125414
104	0xbcf2c393	-0.029634273
105	0xbe9500ad	-0.29102078
106	0x3da27f37	0.079344206
107	0x3dbb5cfe	0.09148596
108	0x3df1e46a	0.11811145
109	0x3cbf5832	0.023357484
110	0x3d897ac6	0.0671287
111	0x3e34de3c	0.176629
112	0x3e3dab7d	0.18522449
113	0x3d0f5e2e	0.035001926
114	0xbd7d0db8	-0.06178066
115	0x3d85624b	0.065128885
116	0xbe7ed9dd	-0.24887796
117	0x3d8ea860	0.06965709
118	0xbd24d0c0	-0.040238142
119	0xbd94ab5d	-0.072592475
120	0x3d888e63	0.06667783
121	0x3db80227	0.089847855
122	0x3da08451	0.07837737
123	0x3d4c7d21	0.04992402
124	0x3e1e07c5	0.15432651
125	0x3d3f1611	0.046651904
126	0xbcbe1b94	-0.02320651
127	0x3dc7e199	0.09759826
128	0xbcc18f92	-0.02362803
129	0x3dfb1f98	0.122618854
130	0x3da9d15f	0.082918875
131	0x3d57f1ac	0.05272071
132	0xbe0640eb	-0.13110702
133	0xbcb8b30a	-0.02254631
134	0xbe217669	-0.15767826
135	0x3ca73f4a	0.02041592
136	0xbd79c2c6	-0.060976766
137	0xbe102175	-0.14075263
138	0x3cbde6f8	0.023181424
139	0xbd28716a	-0.041123785
140	0xbd3c7bb4	-0.04601641
141	0x3e1b6e6d	0.15178843
142	0xbe0c9efa	-0.1373252
143	0xbd366ee9	-0.044539366
144	0x3cd0e1f1	0.025498362
145	0xbd98a2cb	-0.07452925
146	0xbddfd5e9	-0.10929472
147	0x3d86b4bf	0.06577443
148	0xbd623009	-0.05522159
149	0xbe264461	-0.16237022
150	0x3d5fa55c	0.05460106
151	0xbbfade00	-0.007655859
152	0x3da0b675	0.07847301
153	0x3d4488c0	0.047981977
154	0xbce284fc	-0.027651303
155	0x3e145013	0.14483671
156	0x3cf37c5b	0.029722383
157	0x3e231da9	0.15929283
158	0x3e0e4f54	0.13897449
159	0xbdcd2920	-0.100176096
160	0x3e0189f7	0.12650286
161	0xbe1fd16f	-0.15607236
162	0xbdb1ddba	-0.08684869
163	0x3df6b47f	0.12046146
164	0xbe0f3eac	-0.13988751
165	0x3dc1438e	0.09436713
166	0x3e1a5a69	0.15073551
167	0xbd51decd	-0.05123787
168	0xbce67907	-0.028133882
169	0x3da0e152	0.078554764
170	0x3de4b321	0.111669786
171	0x3d8fcf9d	0.07022021
172	0xbc569b3e	-0.013098536
173	0xbdead722	-0.114668146
174	0xbe231c45	-0.15928753
175	0xbd5e963c	-0.054342493
176	0xbd0cf8c3	-0.034416925
177	0x3e16a22b	0.147103
178	0x3c142d3d	0.009043989
179	0x3d37b209	0.044847522
180	0xbe0a9530	-0.13533473
181	0x3cebe35a	0.028794933
182	0x3d04e345	0.032443304
183	0xbbc3555d	-0.005961104
184	0x3d8e7805	0.06956486
185	0xbbd31292	-0.0064414227
186	0xbcbed55c	-0.023295097
187	0xbddd995d	-0.10820267
188	0xbd918134	-0.07104722
189	0x3ce711ca	0.028206725
190	0xbdfa9e86	-0.12237267
191	0xbd3ed7df	-0.04659259

gru.bias_hh_l0 f4 [192]
0	0x3de49584	0.1116133
1	0x3d8f6bb5	0.07002965
2	0x3e3a5600	0.18196869
3	0x3d8a49fb	0.06752392
4	0x3d5c8cff	0.0538454
5	0x3e837890	0.2567792
6	0x3de6961a	0.11259098
7	0x3e21363a	0.15743342
8	0xbb581eb1	-0.0032977278
9	0x3d97e5b5	0.0741686
10	0x3df2a5cf	0.11848032
11	0x3d8cf33c	0.06882331
12	0x3dee5d1d	0.11638854
13	0x3de3a246	0.111149356
14	0xbccf820c	-0.025330566
15	0xbd297571	-0.041371766
16	0x3dabfb32	0.08397521
17	0x3dad5c56	0.08464877
18	0x3e046190	0.12927842
19	0x3e6c0f3a	0.23052683
20	0xbe10b550	-0.14131665
21	0x3e33ee0d	0.17571278
22	0x3d7f3cf4	0.06231399
23	0xbd68e3d2	-0.05685789
24	0x3dec488a	0.11537273
25	0x3e81b02a	0.25329715
26	0x3c80aa4e	0.015706208
27	0x3dd6e3fa	0.10492702
28	0x3ac738ce	0.0015199424
29	0x3e055977	0.1302241
30	0x3e2a0a1e	0.16605422
31	0x3c84de95	0.016219417
32	0x3e0b88e9	0.13626446
33	0x3d160ed4	0.036635235
34	0x3e03025d	0.1279387
35	0x3e062472	0.1309984
36	0x3da13270	0.07870948
37	0x3e7084ff	0.23488234
38	0x3d938ad7	0.07204216
39	0x3e23e60c	0.16005725
40	0x3e08bca1	0.13353206
41	0xbd46096b	-0.048348825
42	0x3e2bd245	0.1677943
43	0x3dca6cd0	0.098840356
44	0x3d81f6fc	0.06345937
45	0x3bfa6084	0.0076409
46	0x3d9ab6a8	0.0755437
47	0x3dabab46	0.08382277
48	0x3e0b77fe	0.13619992
49	0x3dce25f6	0.10065834
50	0x3e30f004	0.17279059
51	0xbd87ac4d	-0.06624661
52	0xbcd35d30	-0.025801271
53	0x3e1fc724	0.1560331
54	0xbda3f392	-0.08005442
55	0x3cd1f369	0.025628762
56	0x3daa79d1	0.08324016
57	0x3ca267d4	0.0198249
58	0x3da1dc62	0.07903363
59	0xbbccb202	-0.006246806
60	0x3e5594b7	0.20857511
61	0x3d90dad9	0.07072992
62	0x3e0a40b8	0.1350125
63	0x3dffa1fa	0.124820665
64	0xbb13375e	-0.0022463421
65	0xbe21300a	-0.15740982
66	0x3d40eee3	0.04710282
67	0xbdc34b43	-0.095358394
68	0x3d71b815	0.059013445
69	0xbd9a920b	-0.07547387
70	0xbd0ea817	-0.03482827
71	0xbe336d0a	-0.17522064
72	0xbd460072	-0.04834027
73	0xbe60fd41	-0.21971609
74	0x3dd7741e	0.105201945
75	0xbcaee3c2	-0.021348838
76	0xbd85a49b	-0.065255366
77	0x3bd35728	0.006449599
78	0xbdd068ff	-0.101762764
79	0x3df5719f	0.11984562
80	0x3d19b5af	0.037526783
81	0x3a8c74ac	0.0010715923
82	0xbe73f107	-0.23822413
83	0x3e11d966	0.14243087
84	0x3c9bff75	0.01904271
85	0x3db1214c	0.08648929
86	0xbd61015e	-0.054932944
87	0x3bf23c6f	0.007392458
88	0x3ce9910b	0.028511545
89	0xbe4d803b	-0.20068447
90	0xbda74f12	-0.08169378
91	0xbe13c2e2	-0.1442981
92	0xbe24f01e	-0.16107222
93	0xbdf6f398	-0.120581806
94	0x3d32b97c	0.043633923
95	0xbe9b6cdb	-0.30356488
96	0xbd0014d0	-0.03126985
97	0xbdc60e20	-0.09670663
98	0xbd0513d5	-0.032489616
99	0xbc828a7d	-0.015935177
100	0xbc860a1b	-0.01636224
101	0xbe188916	-0.14896044
102	0x3c40ea1a	0.011774564
103	0xbf132a1b	-0.5748612
104	0xbdb14fb9	-0.08657784
105	0xbe2a75dc	-0.16646522
106	0x3dd76fc7	0.10519367
107	0xbca10509	-0.019655721
108	0x3e21bb47	0.15794097
109	0xbdb7250a	-0.089426115
110	0xbe036f19	-0.12835349
111	0x3e169f8b	0.14709298
112	0x3b9b8abf	0.0047467644
113	0x3c416bcb	0.011805485
114	0x3e20c86c	0.15701455
115	0x3e3adc1e	0.1824803
116	0xbe72a675	-0.23696311
117	0x3d3f5171	0.046708528
118	0xbc84eab6	-0.0162252
119	0x3b6dec68	0.003630424
120	0xbd464a4a	-0.04841069
121	0xbdc6665f	-0.096874945
122	0x3d22c4dd	0.039738525
123	0x3d1b616d	0.03793471
124	0x3c657043	0.014003816
125	0xbc82e08d	-0.015976215
126	0x3d2decf0	0.04246229
127	0x3d48f413	0.049060892
128	0x3d77eea5	0.060530324
129	0xbc28d3ba	-0.010304386
130	0x3d9d4940	0.07679987
131	0xbd0f98fd	-0.03505801
132	0xbd79c14a	-0.06097535
133	0xbe1e11a8	-0.15436423
134	0xbdac8930	-0.08424604
135	0x3e2ff129	0.17181839
136	0x3d8ac575	0.06775943
137	0xbe2fa302	-0.17152026
138	0x3c84c12f	0.016205398
139	0xbe093cbb	-0.13402073
140	0x3d8e4ee1	0.06948639
141	0xbd888984	-0.06666854
142	0xbdd641aa	-0.10461743
143	0x3d9ad63b	0.075603925
144	0xbd4806fd	-0.04883479
145	0x3d7d2a03	0.061807644
146	0xbd77e385	-0.060519714
147	0xbc9dfdea	-0.019286115
148	0x3debd576	0.11515324
149	0x3dc2c3a6	0.09509973
150	0xbcb00e82	-0.021491293
151	0xbd64f34b	-0.055896085
152	0xbdb28d58	-0.087183654
153	0x3e0dcec5	0.13848408
154	0x3dae9aa2	0.085255876
155	0x3e168349	0.14698519
156	0x3d4b7b96	0.049678408
157	0x3cb60577	0.022219403
158	0xbd0656e4	-0.03279771
159	0xbe33bfb2	-0.17553595
160	0x3e115c5d	0.1419539
161	0x3d64abc5	0.055827875
162	0x3c9874ce	0.018610384
163	0x3e1447b6	0.1448048
164	0xba9200e6	-0.0011139184
165	0x3caa2b49	0.020772593
166	0xbd117c1e	-0.035518758
167	0xbc5779ea	-0.013151625
168	0x3de6b8b6	0.112656996
169	0xbcbace86	-0.022803556
170	0x3dc4df20	0.0961287
171	0x3d657762	0.056022055
172	0xbd98edcc	-0.07467231
173	0x3d202e55	0.039106686
174	0xbe104d36	-0.14091954
175	0xbd73dc0c	-0.059536025
176	0xbdd679c1	-0.104724415
177	0xbc9204ab	-0.017824491
178	0xbb984eb0	-0.004648052
179	0x3e01ccb6	0.12675747
180	0xbd8a2460	-0.06745219
181	0x3dee0529	0.11622078
182	0xbdd698f6	-0.10478394
183	0x3dd76005	0.10516361
184	0x3dded50a	0.10880478
185	0x3da21fea	0.079162434
186	0x3d702adf	0.058634635
187	0xbd6b212d	-0.057404686
188	0x3d3a3966	0.045464896
189	0x3e05d979	0.1307124
190	0xbd0aa5e6	-0.03384962
191	0xbcd3eeba	-0.02587067

head.0.weight f4 [64, 64]
0	0x3da6403c	0.081177205
1	0x3e96457c	0.29349887
2	0xbda22a4c	-0.07918224
3	0x3e09f3a6	0.13471851
4	0x3cae4a96	0.0212758
5	0x3cc1b620	0.023646414
6	0xbe27f902	-0.16403583
7	0x3e04f34f	0.1298344
8	0x3dd180a0	0.102296114
9	0xbda5730f	-0.08078586
10	0x3dff085f	0.124527685
11	0xbd92e853	-0.071732186
12	0xbd19e165	-0.03756847
13	0x3dd29799	0.10282821
14	0xbdd5f0df	-0.10446333
15	0xbe41d4d5	-0.18928845
16	0xbdc0fb25	-0.09422902
17	0x3e66fb19	0.22556724
18	0x3e09cbe8	0.1345669
19	0xbd82dfac	-0.06390318
20	0x3df19399	0.1179573
21	0x3e461b5d	0.19346376
22	0xbe3d53ac	-0.1848895
23	0x3e5804ba	0.21095553
24	0x3d9bafb1	0.0760187
25	0x3d62c852	0.05536682
26	0xbe5ea85f	-0.21743916
27	0x3da3f571	0.080057986
28	0x3d2c0243	0.041994344
29	0x3e5f0ab3	0.21781425
30	0xbd249b31	-0.040187065
31	0xbd5438a5	-0.051811833
32	0x3d2ca43c	0.042148814
33	0xbdc08517	-0.09400385
34	0x3d5b3b50	0.05352336
35	0x3df1066c	0.11768803
36	0xbd741acb	-0.059595864
37	0x3d0e529c	0.03474675
38	0x3de6e29f	0.11273693
39	0x3e0ca4c9	0.13734736
40	0x3b1a666e	0.0023559588
41	0xbda133b2	-0.07871188
42	0x3a86f6a2	0.0010296891
43	0x3e0309c3	0.12796693
44	0xbe53df64	-0.20690686
45	0x3dbeb13b	0.09311148
46	0xbadb0d6e	-0.0016712376
47	0x3dbc8422	0.0920489
48	0xbd8fc04f	-0.07019102
49	0x3b4ee8a7	0.0031571777
50	0xbca77b55	-0.020444551
51	0x3e19902b	0.14996402
52	0xbd305ac0	-0.043055296
53	0x3c961f6a	0.018325526
54	0xbd649d79	-0.05581424
55	0x3d50ac62	0.050945647
56	0x3dc22831	0.09480322
57	0xbd96268f	-0.07331573
58	0xbd734fde	-0.05940234
59	0xbd64910a	-0.055802383
60	0x3ba7e917	0.005124222
61	0x3d1e32c6	0.03862264
62	0x3da65e52	0.08123459
63	0x3e330959	0.17484035
64	0x3d73393d	0.05938076
65	0xbde5e21b	-0.11224767
66	0xbda6f825	-0.081527986
67	0xbd9a7739	-0.07542271
68	0xbd3c3df7	-0.04595753
69	0xbdaf38d5	-0.08555762
70	0xbe4ab5dd	-0.19795938
71	0xbd953e55	-0.072872795
72	0x3d5b5fc5	0.05355813
73	0xbc696ff3	-0.014247882
74	0xbd78ca7a	-0.06073997
75	0x3dd0f1b2	0.1020235
76	0x3e00ac18	0.12565649
77	0xbce8a4be	-0.028398868
78	0xbd189f51	-0.03726131
79	0x3d4c13d7	0.04982361
80	0xbe0fcd3e	-0.14043137
81	0x3c7e9e13	0.0155406175
82	0xbba39345	-0.004991921
83	0xbde0791e	-0.10960601
84	0x3dab2ab1	0.08357752
85	0xbe460b89	-0.19340338
86	0x3e5507d8	0.20803773
87	0x3d738701	0.05945492
88	0x3e64837a	0.2231578
89	0x3d1b1e0b	0.037870448
90	0xbd822c11	-0.06356061
91	0x3d9c7d2f	0.076410644
92	0x3c21182d	0.009832424
93	0x3dc4e393	0.09613719
94	0xbd8abe7d	-0.06774614
95	0x3d82b765	0.06382636
96	0xbd131b51	-0.035914723
97	0xbda06cc0	-0.078332424
98	0x3e8a3b28	0.26998258
99	0x3e1e0be4	0.15434223
100	0x3dfbb5b3	0.12290516
101	0xbd967854	-0.073471695
102	0x3bcd18dc	0.006259067
103	0xbe9164a4	-0.28397095
104	0x3e23fdbe	0.16014764
105	0x3e2425dd	0.16030069
106	0x3d1e2b61	0.038615588
107	0xbe5e8e83	-0.21734051
108	0x3bcb22e2	0.0061992267
109	0xbd880e9e	-0.06643413
110	0xbdc5d7b3	-0.09660282
111	0xbe0c9662	-0.13729241
112	0xbd8ae417	-0.06781786
113	0x3da8e061	0.08245922
114	0x3db4aff0	0.0882262
115	0xbd79cd6b	-0.060986917
116	0x3c648b11	0.013949172
117	0xbd4ea6ac	-0.05045192
118	0x3bfe2679	0.007756051
119	0x3e013d26	0.12620983
120	0x3d164217	0.036684122
121	0x3dde0fe2	0.10842873
122	0xbd96b5d9	-0.073589034
123	0x3dcbdf68	0.09954721
124	0xbd6442dc	-0.055727825
125	0x3d9221bc	0.071353406
126	0x3da37708	0.07981688
127	0x3bf4cebc	0.0074709337
128	0xbd462c65	-0.04838218
129	0x3d3a01fe	0.045412056
130	0x3db34116	0.087526485
131	0xbea3a735	-0.31963506
132	0x3da7190a	0.08159073
133	0x3d45600b	0.048187297
134	0x3dd3fc9f	0.10350918
135	0xbdbebd52	-0.09313454
136	0xbdc79057	-0.097443275
137	0x3e601ec0	0.2188673
138	0x3de877ac	0.113509506
139	0x3d8de2d9	0.069280334
140	0x3db641ca	0.08899267
141	0xbda9537d	-0.08267877
142	0xbe21b61d	-0.15792127
143	0xbc1e5e63	-0.009666058
144	0xbe228291	-0.1587012
145	0xbcffea5d	-0.031239683
146	0xbe09d4c3	-0.13460068
147	0xbdf84505	-0.121225394
148	0x3c63638b	0.013878713
149	0x3eb960d2	0.3620668
150	0x3dbe515b	0.09292861
151	0xbdd1eb82	-0.10249998
152	0x3d17cf95	0.0370632
153	0xbe1fe71a	-0.15615502
154	0xbda090fa	-0.07840152
155	0x3defadd3	0.11703076
156	0x3e431d21	0.1905408
157	0xbd9d3b3b	-0.07677313
158	0xbdf89aa6	-0.12138872
159	0x3dd80280	0.10547352
160	0xbd5b8c04	-0.053600326
161	0x3d800293	0.06250491
162	0x3ddb3f20	0.107053995
163	0xbdb6a0d7	-0.089173965
164	0x3e248f05	0.16070183
165	0xbd00aeec	-0.03141682
166	0xbd0f629c	-0.03500615
167	0x3e88d46a	0.2672456
168	0xbe006e46	-0.12542066
169	0x3dc0e1da	0.09418078
170	0xbcacf281	-0.021111729
171	0xbc1b2e08	-0.009471424
172	0xbe34429f	-0.17603539
173	0xbcb06cb3	-0.021536207
174	0x3d158626	0.036504887
175	0x3d5853d9	0.05281434
176	0xbd2bc270	-0.041933477
177	0xbc9c887a	-0.019108046
178	0x3e2cacbf	0.16862772
179	0x3c740d68	0.014895774
180	0xbc450270	-0.012024507
181	0xbdb46c9a	-0.088097766
182	0x3c60ad7e	0.013713239
183	0xbd995637	-0.07487147
184	0xbdc47bae	-0.095939025
185	0xbd60cd3c	-0.054883227
186	0xbdd96010	-0.106140256
187	0xbd810b56	-0.0630099
188	0x3d141200	0.03614998
189	0x3d85895a	0.06520338
190	0xbd7c54a8	-0.061604172
191	0xbdaeaf33	-0.0852951
192	0x3e14b0ee	0.14520618
193	0xbd5f879f	-0.054572698
194	0x3ddb1a7f	0.10698413
195	0xbd1688cf	-0.036751565
196	0x3d8e05c2	0.06934692
197	0xbde1f37a	-0.110327676
198	0x3d8c457f	0.06849193
199	0x3dd616d9	0.104535766
200	0xbceb6e15	-0.028739015
201	0xbdc94118	-0.09826869
202	0x3e2671ca	0.16254345
203	0xbe41afed	-0.18914767
204	0x3df90163	0.121584676
205	0x3d09ebc3	0.033672106
206	0xbe35f712	-0.17770031
207	0xbe321b19	-0.1739315
208	0xbd173a49	-0.03692082
209	0x3b848b28	0.004044909
210	0x3d209c00	0.039211273
211	0x3e01fb96	0.12693629
212	0x3d49cf42	0.049269922
213	0xbc868d86	-0.016424906
214	0x3d4ead12	0.05045802
215	0xbd9456d2	-0.07243122
216	0x3dca8d89	0.09890277
217	0xbde45c08	-0.11150366
218	0x3dd3c9e9	0.10341246
219	0x3d9fcad1	0.07802356
220	0x3d5d38e6	0.05400934
221	0x3b6fcd48	0.0036590863
222	0x3de61d9b	0.112361155
223	0xbe1b7088	-0.15179646
224	0x3cf6385d	0.030056173
225	0xbe2e2bd0	-0.170089
226	0xbd8d3356	-0.06894557
227	0x3d8ac1bc	0.06775233
228	0xbe081c98	-0.13292158
229	0x3e085498	0.1331352
230	0xbd32aaad	-0.0436198
231	0xbdd2f9e5	-0.1030157
232	0x3d093c03	0.033504497
233	0xbc0e789b	-0.008695747
234	0xbd133d84	-0.035947338
235	0xbc51a4c3	-0.01279563
236	0x3d285272	0.04109425
237	0xbcaf736c	-0.021417342
238	0xbdfc5b16	-0.12322061
239	0x3b8e48b1	0.0043421616
240	0xbdeb9348	-0.11502701
241	0x3e41b096	0.18915018
242	0x3dcefd82	0.101069465
243	0xbdc61b17	-0.09673136
244	0xbdd78926	-0.10524206
245	0xbd554b9e	-0.052074067
246	0x3c94f178	0.018181548
247	0xbcc85f52	-0.024459515
248	0x3d0ddd82	0.034635074
249	0x3daeb6df	0.08530974
250	0x3d8b7b11	0.068105824
251	0xbd91f9a1	-0.07127691
252	0xbdb775f6	-0.08958046
253	0x3ccca50c	0.024981044
254	0x3cf4f69a	0.029902745
255	0x3d3c53b7	0.045978274

head.0.bias f4 [64]
0	0xbdae6c78	-0.085167825
1	0xbd9aa1f3	-0.075504206
2	0xbd74c599	-0.059758756
3	0x3de41564	0.111368924
4	0xbdc78755	-0.097426094
5	0xbdc5517b	-0.09634682
6	0x3ded118d	0.11575613
7	0x3cd91306	0.026498329
8	0xbc771ca4	-0.015082512
9	0xbdfeab7f	-0.12435054
10	0xbd56baff	-0.052424427
11	0x3dae55a4	0.085124284
12	0xbc3f9a3c	-0.011694487
13	0xbc61030b	-0.013733636
14	0x3dad1826	0.084518716
15	0x3d1844b1	0.037174884
16	0xbc0908e6	-0.008363938
17	0x3da89dc0	0.082332134
18	0xbe5c6777	-0.21523844
19	0xbd766547	-0.06015518
20	0x3d0117c6	0.031516813
21	0x3e04257f	0.12904929
22	0xbdd5aa74	-0.10432902
23	0xbdb17c32	-0.086662665
24	0xbce81385	-0.02832962
25	0xbd4e1c22	-0.0503198
26	0x3e04afd5	0.129577
27	0xbd133207	-0.03593638
28	0xbcc1f5b2	-0.023676727
29	0x3e02ddf6	0.12779984
30	0xbc47d625	-0.012197052
31	0xbe2b728a	-0.16742912
32	0xbd375d0f	-0.044766482
33	0xbe08132a	-0.1328856
34	0xbdf01a1f	-0.11723732
35	0x3dfe7db3	0.12426319
36	0x3dc4292a	0.09578164
37	0x3c4313b5	0.011906554
38	0xbcbbd991	-0.022930892
39	0xbe076a1d	-0.13224073
40	0x3dd0953f	0.101847164
41	0xbba58bcb	-0.005052065
42	0x3d3c911b	0.04603682
43	0xbd7fda92	-0.062464304
44	0x3cc298c1	0.02375448
45	0x3d6c151e	0.057637326
46	0x3aeb5825	0.0017955346
47	0x3d907b4c	0.07054767
48	0xbd385908	-0.04500678
49	0xbd5fae7e	-0.054609768
50	0x3d90df01	0.070737846
51	0x3dc7002b	0.09716829
52	0xbaab9147	-0.0013089561
53	0x3d6b3d77	0.057431664
54	0xbe2291eb	-0.15875976
55	0xbdc57189	-0.09640796
56	0xbcaaa203	-0.020829206
57	0x3da7fa57	0.082020454
58	0xbd7f0e85	-0.062269706
59	0x3c943321	0.018090786
60	0xbd5e42c5	-0.054262895
61	0x3d156a64	0.036478415
62	0xbe321740	-0.17391682
63	0xbcf4ea3f	-0.029896853

head.2.weight f4 [1, 64]
0	0xbe415466	-0.18879852
1	0xbdfa61d5	-0.12225691
2	0x3e019678	0.12655056
3	0x3e185fe7	0.14880334
4	0xbea99fe6	-0.33129805
5	0xbe590e7e	-0.21196935
6	0x3deaa897	0.11457937
7	0xbe9b8d28	-0.3038113
8	0x3e4f3794	0.20236045
9	0x3d9d2fa7	0.076751046
10	0x3dea859a	0.11451264
11	0x3e2bddda	0.16783848
12	0x3e0c195d	0.1368155
13	0x3e11fde6	0.14257011
14	0xbeb019ed	-0.3439478
15	0x3da66a8d	0.08125792
16	0x3e48e5ff	0.19618987
17	0x3e07aa06	0.13248453
18	0x3fa2ec39	1.272834
19	0xbe8bdb46	-0.2731573
20	0x3e807857	0.25091812
21	0xbe0a9e2d	-0.13536902
22	0x3e97f64d	0.296801
23	0x3d51a751	0.051184956
24	0x3e1cf43c	0.15327543
25	0x3e484241	0.19556524
26	0xbe4d6ba2	-0.2006059
27	0xbe6db219	-0.2321247
28	0xbe0ede03	-0.13951878
29	0xbe4d29fa	-0.20035544
30	0xbe1999ef	-0.15000127
31	0x3ed2b145	0.4115087
32	0xbef562c6	-0.4792692
33	0x3e3451d0	0.17609334
34	0xbebf9f5c	-0.3742627
35	0x3d9c9ffe	0.076477036
36	0xbe9e1738	-0.3087709
37	0xbddb1489	-0.10697276
38	0x3e5f2a18	0.21793401
39	0xbea85a02	-0.3288117
40	0xbd8bd3ea	-0.06827529
41	0xbeab1590	-0.33414888
42	0xbeaa3471	-0.33243135
43	0xbeeaa90c	-0.45832098
44	0x3e4980f1	0.19678093
45	0xbe24cb9c	-0.16093296
46	0xbdcf539e	-0.101233706
47	0xbe3d8abc	-0.18509954
48	0x3e354682	0.17702678
49	0x3de2658f	0.11054527
50	0xbe0cee68	-0.1376282
51	0x3e78b4d8	0.24287736
52	0x3e1f1f1a	0.15539208
53	0xbe543715	-0.20724137
54	0x3dca190d	0.09868059
55	0xbebc76b2	-0.36809307
56	0x3e9ba4fa	0.30399305
57	0x3df97363	0.121802114
58	0xbe37e273	-0.17957477
59	0x3ded713a	0.11593862
60	0xbde226b5	-0.11042539
61	0x3e322f63	0.17400889
62	0x3e58b634	0.21163255
63	0x3e3de977	0.18546091
