outputs/exp_0002_20251212_235529/runs/seed1/h10/SlidingWindowSGD/model_final.pt (torch, 71493 bytes, 7 tensors)

gru.weight_ih_l0 f4 [192, 1]
0.20735613 -0.14139383 -0.012227487 0.15706645 -0.17810152 0.22972184 0.09791021 0.26240695
0.06334547 0.021453667 -0.037722312 0.07997988 -0.012613497 -0.1459773 -0.09993163 0.08510969
0.009557996 0.08457686 0.25488386 0.18373017 -0.112743646 0.03296842 -0.07439712 -0.044118866
0.06418604 0.13399962 0.1264316 0.15701173 -0.122099586 0.24313228 0.13742097 0.18110318
0.17124319 -0.14787008 -0.12643306 0.017128335 0.17601132 -0.027154386 0.1966494 -0.09830966
0.3011366 0.08370901 0.19779293 0.09909487 0.025793236 0.16768546 0.037523217 0.055715404
0.020148346 0.072709545 -0.15478773 -0.11215412 0.19276379 -0.06409152 0.21577135 0.23123793
0.16395287 -0.11036064 0.040648445 0.12583204 -0.02776305 0.17704378 0.16512418 0.16342334
-0.114313476 0.023685561 0.0004223228 0.029341273 -0.10202756 -0.10031016 -0.023792919 -0.033697944
0.11595838 0.099901274 0.014427461 0.016690355 0.024392541 0.10918707 -0.08629446 0.013199695
-0.06490802 -0.12595783 -0.046474107 -0.109574825 -0.07391308 -0.10161216 -0.23040359 0.03822324
-0.077984914 0.2052891 -0.043845948 0.005060915 -0.044183183 0.08001385 -0.17987183 -0.04351675
0.01173486 0.007845637 0.005772934 -0.027654437 0.14587718 -0.02581374 0.108388804 0.02256001
-0.1022445 -0.14989373 0.048865024 0.028923549 0.082594395 0.07013466 -0.111045115 -0.07093894
0.068217486 0.0075560096 -0.021837408 0.018156532 0.036061693 0.07962003 -0.16545464 -0.14384374
-0.05432168 -0.062241565 0.022469353 0.019060636 -0.02591249 -0.11366774 -0.103562325 -0.03779115
0.1306531 0.22779952 -0.122438945 0.013893723 0.1737806 0.16487898 0.13851231 0.053429604
0.14325131 0.08883749 -0.14593561 -0.19188176 -0.049594954 -0.054988116 -0.09185508 0.112176046
0.050977424 -0.050837543 0.09831754 0.11049732 0.12906788 0.16438761 -0.09582379 0.1614261
0.062146164 -0.06241407 -0.16949391 -0.013179868 -0.12212406 -0.0014969195 0.16429567 -0.06910494
-0.1382633 0.027417677 0.109482266 0.16888884 -0.12033262 0.10959635 -0.087081954 0.021003978
-0.13380297 -0.12664479 -0.12779403 0.10156556 0.08996001 -0.005270228 0.18462226 0.09909815
0.13928936 -0.08937815 -0.15068917 0.122318126 -0.05020649 -0.068089515 -0.161776 -0.0753099
-0.12688363 0.17948622 -0.15932499 -0.033878483 0.0465674 -0.1218056 0.0011799484 -0.11569873
00000000: 2a55 543e 8bc9 10be cc55 48bc 07d6 203e
00000010: 3f60 36be 343c 6b3e 2685 c83d 345a 863e
00000020: 45bb 813d 9abf af3c b682 1abd 7ecc a33d
00000030: d7a8 4ebc 137b 15be f4a8 ccbd fd4d ae3d
00000040: 2499 1c3c a236 ad3d 2380 823e c323 3c3e
00000050: 24e6 e6bd e509 073d 845d 98bd fcb5 34bd
00000060: f873 833d 3237 093e 4977 013e afc7 203e
00000070: 590f fabd abf7 783e 15b8 0c3e 1d73 393e
00000080: 605a 2f3e 416b 17be ab77 01be b950 8c3c
00000090: 503c 343e e072 debc 765e 493e 9356 c9bd
000000a0: 942e 9a3e a16f ab3d 3b8a 4a3e 40f2 ca3d
000000b0: 564c d33c bdb5 2b3e f2b1 193d d635 643d
000000c0: 250e a53c bee8 943d ad80 1ebe 0fb1 e5bd
000000d0: df63 453e 6a42 83bd 2af3 5c3e a3c9 6c3e
000000e0: 43e3 273e c204 e2bd fc7e 263d 1dda 003e
000000f0: 566f e3bc f74a 353e 5016 293e 7358 273e
00000100: 2f1d eabd 3908 c23c 356b dd39 1c5d f03c
00000110: d3f3 d0bd 6a6f cdbd 5ee9 c2bc db06 0abd
00000120: 967b ed3d 0a99 cc3d 2861 6c3c 36ba 883c
00000130: ded2 c73c 789d df3d 26bb b0bd 8943 583c
00000140: 7fee 84bd 17fb 00be a25b 3ebd c468 e0bd
00000150: be5f 97bd 091a d0bd ebee 6bbe f98f 1c3d
00000160: 8eb6 9fbd 4e37 523e cf97 33bd 08d6 a53b
00000170: 6df9 34bd 4dde a33d 5230 38be 9f3e 32bd
00000180: 9243 403c fd8a 003c e12a bd3b 8f8b e2bc
00000190: d460 153e 5677 d3bc f3fa dd3d c5cf b83c
000001a0: 9065 d1bd be7d 19be b126 483d 14f1 ec3c
000001b0: 4027 a93d c3a2 8f3d 9f6b e3bd 6f48 91bd
000001c0: 9cb5 8b3d 6798 f73b 5de4 b2bc 02bd 943c
000001d0: 6db5 133d d40f a33d f16c 29be c64b 13be
000001e0: 6980 5ebd 03f1 7ebd a611 b83c 0d25 9c3c
000001f0: 6e46 d4bc a2ca e8bd 7c18 d4bd e5ca 1abd
00000200: edc9 053e 4744 693e 45c1 fabd 7fa2 633c
00000210: 8bf3 313e 09d6 283e 2cd6 0d3e 00d9 5a3d
00000220: 79b0 123e 6ef0 b53d 2570 15be a77c 44be
00000230: 1424 4bbd 383b 61bd 841e bcbd 8ebc e53d
00000240: b4cd 503d 073b 50bd b55a c93d 6b4c e23d
00000250: 5f2a 043e 3a55 283e 433f c4bd e24c 253e
00000260: fa8c 7e3d e5a5 7fbd d08f 2dbe 60f0 57bc
00000270: 2e1c fabd 4934 c4ba 203d 283e e486 8dbd
00000280: e594 0dbe 099b e03c 3d38 e03d 32f1 2c3e
00000290: f370 f6bd 0d74 e03d 0658 b2bd 8910 ac3c
000002a0: a503 09be 2caf 01be 70dc 02be 9b01 d03d
000002b0: f43c b83d e0b1 acbb 9e0d 3d3e f9f3 ca3d
000002c0: dfa1 0e3e e40b b7bd 434e 1abe ed81 fa3d
000002d0: 52a5 4dbd 8472 8bbd 9ca8 25be 143c 9abd
000002e0: c8ed 01be 3ccb 373e 1726 23be 2ac4 0abd
000002f0: 75bd 3e3d 3775 f9bd 80a8 9a3a 75f3 ecbd

gru.weight_hh_l0 f4 [192, 64]
-0.03523838 0.009969803 0.06972638 -0.07298914 0.08296634 0.13182072 0.15695797 -0.09557016
0.07757088 -0.0714001 0.09511849 -0.103904024 0.0579719 -0.0010058343 -0.021231988 0.046376683
0.039331563 0.044169307 0.046260636 0.07534086 -0.04574743 0.15792568 0.08111384 0.11262535
0.13016778 -0.06789539 -0.05865708 0.14716962 -0.12871367 0.13660446 -0.05815431 -0.09051213
0.037526015 -0.105958275 0.00064226333 0.14722794 0.064159885 0.1492092 -0.0628372 -0.062247377
0.08893758 -0.081018716 -0.09757774 0.07256186 -0.06995275 0.07969735 0.12499387 -0.08546716
-0.06888964 0.0035910667 0.025103481 0.024984252 -0.07539424 -0.014691416 -0.1442594 -0.12102646
-0.0817778 0.13952918 0.08326637 -0.041719686 0.03785439 0.030003702 -0.010434779 -0.09604394
0.006205518 -0.09355372 -0.03594909 0.025391081 0.02481203 0.05915906 -0.1581904 0.068076715
-0.020877851 -0.031987116 0.1267907 -0.02051941 0.162019 -0.11927471 0.034557156 -0.030627392
0.05286451 0.16691217 -0.0961119 -0.10667767 -0.22559379 -0.071819864 -0.022095408 -0.0765098
-0.06954457 0.12441692 0.19333996 0.01736595 0.023037307 -0.022668367 -0.19707918 0.1416056
-0.0019161177 0.013470046 -0.018950384 -0.1146387 0.12282483 0.1123802 0.065146394 -0.08621279
0.07374046 0.051465742 0.0010948684 -0.14665179 -0.019404491 0.0010584655 -0.061780225 -0.07879345
-0.0960559 0.04417989 0.0064465767 0.09640116 0.081585914 0.12161989 0.038167354 -0.032951884
-0.10376042 -0.10794464 0.19008511 -0.16124207 -0.07667564 0.15200876 0.0765571 0.09860667
0.019419212 -0.04393311 -0.013742923 -0.048004135 0.0161535 0.03457541 -0.00016079491 -0.053709112
0.006792412 0.0668468 0.062405612 -0.0391768 0.13204835 -0.113721594 -0.027377075 -0.025322152
-0.07368925 -0.14827693 0.08894459 0.07652941 -0.038787317 -0.012886056 -0.10043711 0.1318502
0.0140646 -0.15040731 -0.1280358 -0.037711654 -0.14253552 -0.032239135 0.1471501 0.011447093
-0.09376801 -0.042733192 0.03067184 0.17669678 0.058112647 0.05164872 -0.03633177 -0.0030927854
0.056990497 -0.20181693 0.014022186 -0.031316407 0.0930286 -0.012291048 -0.06036844 -0.09947311
0.06969941 -0.1349089 -0.13083255 0.07851621 -0.08693832 -0.06765153 0.014744567 -0.014622119
-0.13178323 0.115341276 0.024876114 0.027395992 0.019785944 -0.17834297 0.07416347 -0.09023759
-0.06835418 0.011723856 0.08241614 -0.007970317 -0.069675 0.058801927 0.09033621 0.12129637
0.14530288 -0.053028714 0.08286703 -0.11226243 0.06441795 0.056654852 0.12107462 0.07636589
-0.10682307 0.016196093 0.024117343 -0.05018497 -0.011461592 -0.0052261464 -0.051740386 -0.046595067
0.12634635 -0.15900014 -0.061463434 0.14789502 0.050817486 -0.11435105 0.09325064 0.00032455384
-0.09523052 0.15091333 -0.124970205 0.049118377 -0.17048 0.091745734 -0.09105012 0.0998601
0.016186744 -0.04393243 -0.12742564 -0.070884176 -0.0013069722 -0.066052675 0.04974178 -0.03633846
0.005472919 -0.09306019 0.0599837 -0.047445517 -0.005345403 0.034503203 0.08200645 0.09152015
-0.084519655 0.108433194 -0.13555613 0.11832456 0.025533633 0.027894173 -0.055193614 -0.005450133
00000000: 1f56 10bd 6258 233c b4cc 8e3d 557b 95bd
00000010: 42ea a93d 03fc 063e 97b9 203e 4aba c3bd
00000020: 7bdd 9e3d 373a 92bd 7ccd c23d a2cb d4bd
00000030: f173 6d3d 33d6 83ba b5ee adbc 7af5 3d3d
00000040: 221a 213d e0ea 343d cb7b 3d3d 4f4c 9a3d
00000050: a861 3bbd 45b7 213e 031f a63d 1fa8 e63d
00000060: b44a 053e bd0c 8bbd 6842 70bd a2b3 163e
00000070: 84cd 03be 0ae2 0b3e 3733 6ebd 6c5e b9bd
00000080: e1b4 193d a700 d9bd 905d 283a ecc2 163e
00000090: 4266 833d 4cca 183e cab0 80bd 1bf7 7ebd
000000a0: e824 b63d 24ed a5bd d7d6 c7bd 509b 943d
000000b0: 6343 8fbd 5d38 a33d c9fc ff3d 6809 afbd
000000c0: 0316 8dbd 1a58 6b3b d1a5 cd3c c6ab cc3c
000000d0: 4c68 9abd 44b4 70bc bcb8 13be b8dc f7bd
000000e0: 1f7b a7bd bde0 0e3e 8f87 aa3d 43e2 2abd
000000f0: 340d 1b3d 53ca f53c a3f6 2abc afb2 c4bd
00000100: a857 cb3b 1899 bfbd 5a3f 13bd f500 d03c
00000110: 9942 cb3c c550 723d aafc 21be ce6b 8b3d
00000120: 0708 abbc ec04 03bd 6cd5 013e 5218 a8bc
00000130: 4fe8 253e 4d46 f4bd ce8b 0d3d 4ce6 fabc
00000140: 7588 583d 06eb 2a3e 51d6 c4bd d279 dabd
00000150: 0f02 67be 4b16 93bd 6e01 b5bc 2cb1 9cbd
00000160: 626d 8ebd 4cce fe3d e9fa 453e 0943 8e3c
00000170: bcb8 bc3c 03b3 b9bc 20cf 49be 0f01 113e
00000180: 3e26 fbba 78b1 5c3c d63d 9bbc b2c7 eabd
00000190: 968b fb3d 9727 e63d 796b 853d 5590 b0bd
000001a0: 3d05 973d becd 523d b081 8f3a e32b 16be
000001b0: 2bf6 9ebc 35bc 8a3a 430d 7dbd 765e a1bd
000001c0: f5b8 c4bd f9f5 343d ce3d d33b f96d c53d
000001d0: 8416 a73d d913 f93d 5f55 1c3d 8ef8 06bd
000001e0: 5880 d4bd 1412 ddbd aca5 423e a41c 25be
000001f0: 1e08 9dbd 2fa8 1b3e f8c9 9c3d 4bf2 c93d
00000200: 0a15 9f3c 34f3 33bd ff29 61bc fc9f 44bd
00000210: 5854 843c f29e 0d3d 0e9b 28b9 16fe 5bbd
00000220: e292 de3b fae6 883d 079d 7f3d da77 20bd
00000230: af37 073e dee6 e8bd e345 e0bc 6770 cfbc
00000240: 64ea 96bd e8d5 17be 9528 b63d 74bb 9c3d
00000250: 73df 1ebd 0920 53bc f9b1 cdbd bd03 073e
00000260: 356f 663c 6004 1abe d11b 03be 8977 1abd
00000270: d5f4 11be 2f0d 04bd 84ae 163e 978c 3b3c
00000280: 7109 c0bd 0009 2fbd 8343 fb3c 00f0 343e
00000290: 8707 6e3d 9c8d 533d 9fd0 14bd 54b0 4abb
000002a0: de6e 693d 19a9 4ebe 50bd 653c a245 00bd
000002b0: c785 be3d 6460 49bc e644 77bd 8fb8 cbbd
000002c0: 90be 8e3d 8f25 0abe f8f8 05be 1bcd a03d
000002d0: b80c b2bd e38c 8abd 3293 713c 9d91 6fbc
000002e0: 2ff2 06be 0c38 ec3d fec8 cb3c 8f6d e03c
000002f0: 2216 a23c 8a9f 36be 04e3 973d 7cce b8bd
00000300: 47fd 8bbd 6b15 403c cbc9 a83d ef95 02bc
00000310: c4b1 8ebd 4ada 703d 3102 b93d 3b6a f83d
00000320: 47ca 143e a334 59bd 30b6 a93d d8e9 e5bd
00000330: 8fed 833d eb0e 683d f8f5 f73d b865 9c3d
00000340: 0ec6 dabd abad 843c bc91 c53c c18e 4dbd
00000350: 67c9 3bbc 1840 abbb baed 53bd 78da 3ebd
00000360: f060 013e efd0 22be 15c1 7bbd cb71 173e
00000370: ff25 503d e230 eabd 31fa be3d e128 aa39
00000380: 3808 c3bd 0689 1a3e 61f0 ffbd 5a30 493d
00000390: 4f92 2ebe 30e5 bb3d 7c78 babd 7483 cc3d
000003a0: 109a 843c 7ef2 33bd de7b 02be b92b 91bd
000003b0: b64e abba a046 87bd 09be 4b3d a3d7 14bd
000003c0: 2c56 b33b 5796 bebd 78b1 753d 3b56 42bd
000003d0: 7e28 afbb 3b53 0d3d fff2 a73d eb6e bb3d
000003e0: a418 adbd 3912 de3d 3acf 0abe 2654 f23d
000003f0: e92b d13c 5282 e43c b312 62bd 0797 b2bb

gru.bias_ih_l0 f4 [192]
0.011530512 -0.00662798 -0.020000407 0.07033832 0.08967172 -0.085922346 -0.03957034 0.038909465
-0.02286168 0.13217904 0.009325565 0.1982481 0.028787307 0.12409509 -0.01892905 -0.057582863
0.1463829 0.13601524 -0.062089235 0.019762743 0.0009052093 -0.016115747 0.12426109 0.0964094
0.024259672 0.050605614 0.040235706 -0.079211645 0.05587571 0.1637271 0.11507991 0.18009697
0.027205678 0.067648895 0.06898184 -0.0070063956 0.11287747 0.024487963 0.07396861 0.09078037
0.16090037 0.05958189 0.06797278 0.071975425 0.11366624 0.17542644 0.11474544 -0.027387375
0.12092878 0.06809274 0.038406234 0.1383813 0.13569015 0.11340658 0.14525919 -0.024164619
0.08653244 0.035376925 0.09045101 0.048678875 -0.04974372 0.12025309 -0.02600802 -0.060490776
-0.08729283 0.00560695 0.06536783 0.09316559 0.15403059 0.06483614 0.027385961 0.020802086
0.030825801 -0.14868818 0.13596424 -0.042077247 0.057302095 0.08280878 -0.103393614 -0.027019298
-0.03542105 0.12295423 0.10321079 0.0014657081 -0.17919266 0.05505259 0.012916874 0.024556069
-0.061770048 0.078826435 0.0476782 0.061241657 -0.0032020628 0.0048917476 0.14004403 0.071338244
0.012231736 0.05802501 0.0060122237 0.14460357 0.053148255 -0.0032117695 -0.03382626 -0.0038321246
0.15176088 0.15381707 0.01559144 -0.06340628 0.10162852 0.07938507 0.09146924 0.09323196
-0.054283008 0.06384562 0.032290023 0.15305418 -0.008387467 0.025787294 0.0020839036 0.07935587
0.13424873 -0.00049762364 -0.06422985 0.038935654 0.08898442 0.1647036 0.16508068 0.05044484
0.059551775 0.030618522 -0.045896698 0.08940628 0.016369646 0.035726897 -0.010007311 -0.05902571
0.084553346 -0.0124164475 0.053908497 0.023623366 0.023905987 -0.10259691 -0.11416893 0.06839612
-0.068758436 0.05535757 0.11062066 0.032747872 -0.05054627 -0.026679894 0.032462295 -0.08896284
0.10069259 0.029054008 -0.15891355 0.042312283 -0.024984883 0.0047394675 -0.013525127 0.08255079
-0.016415076 -0.007574021 -0.03745242 0.034729034 -0.062485624 0.10225214 -0.022752643 0.101920836
0.1096466 -0.0746987 0.026754474 0.15775713 0.041161466 0.08786203 -0.022950852 -0.0937743
0.12675707 0.07045192 0.0059276964 0.079820305 -0.11729947 0.028209656 -0.036041506 -0.12120498
0.056354117 0.09887518 -0.09159418 -0.07957368 0.09508872 -0.04952642 -0.09541332 -0.08556234
00000000: 79ea 3c3c 872f d9bb e5d7 a3bc 8a0d 903d
00000010: cfa5 b73d 0ef8 afbd 8214 22bd 885f 1f3d
00000020: 6b48 bbbc f159 073e 41ca 183c 8d01 4b3e
00000030: 5cd3 eb3c 9125 fe3d 1811 9bbc 02dc 6bbd
00000040: 66e5 153e 9447 0b3e 4851 7ebd 7ae5 a13c
00000050: 914b 6d3a 2c05 84bc 997c fe3d 4b72 c53d
00000060: 38bc c63c d547 4f3d 32ce 243d b739 a2bd
00000070: eedd 643d 14a8 273e 04af eb3d 576b 383e
00000080: 71de de3c 818b 8a3d 5a46 8d3d e895 e5bb
00000090: 4e2c e73d fb9a c83c db7c 973d 0feb b93d
000000a0: 11c3 243e 240c 743d 5035 8b3d da67 933d
000000b0: d8c9 e83d fda2 333e a8ff ea3d 7d5b e0bc
000000c0: 82a9 f73d 3574 8b3d db4f 1d3d d4b3 0d3e
000000d0: 5cf2 0a3e b641 e83d d3be 143e e1f4 c5bc
000000e0: eb37 b13d 65e7 103d 613e b93d 8063 473d
000000f0: 12c0 4bbd 4147 f63d c50e d5bc 2dc5 77bd
00000100: 95c6 b2bd 81ba b73b 92df 853d 9acd be3d
00000110: 32ba 1d3e cfc8 843d 8658 e03c 2369 aa3c
00000120: 6486 fc3c b741 18be 363a 0b3e 3159 2cbd
00000130: 9ab5 6a3d a697 a93d 08c0 d3bd 9357 ddbc
00000140: aa15 11bd 6dcf fb3d 2e60 d33d 011d c03a
00000150: 487e 37be d37e 613d 4ca1 533c cf29 c93c
00000160: 9702 7dbd c16f a13d 374a 433d 88d8 7a3d
00000170: b3d9 51bb f44a a03b b467 0f3e c919 923d
00000180: 9f67 483c a2ab 6d3d 3002 c53b f512 143e
00000190: fcb1 593d 8d7c 52bb 688d 0abd 6224 7bbb
000001a0: 3467 1b3e 3982 1d3e 3d73 7f3c 27db 81bd
000001b0: 9d22 d03d a494 a23d 3a54 bb3d 66f0 be3d
000001c0: dc57 5ebd 7ec1 823d 8b42 043d 3cba 1c3e
000001d0: 966b 09bc e03f d33c 1a92 083b 5585 a23d
000001e0: 8078 093e f572 02ba f18a 83bd fe7a 1f3d
000001f0: 773d b63d 0fa8 283e e90a 293e 409f 4e3d
00000200: 90ec 733d b2d3 fa3c 2dfe 3bbd a41a b73d
00000210: a319 863c 5e56 123d b4f5 23bc f1c4 71bd
00000220: 4e2a ad3d 5b6e 4bbc 28cf 5c3d ca85 c13c
00000230: 7dd6 c33c 541e d2bd 66d1 e9bd 4413 8c3d
00000240: 39d1 8cbd 9fbe 623d 168d e23d a222 063d
00000250: 9b09 4fbd cb8f dabc 2ff7 043d 2632 b6bd
00000260: eb37 ce3d ac02 ee3c 3cba 22be a54f 2d3d
00000270: 19ad ccbc 894d 9b3b 7f98 5dbc 6310 a93d
00000280: e978 86bc 7e2f f8bb b567 19bd 0840 0e3d
00000290: edf0 7fbd 9269 d13d c063 babc dfbb d03d
000002a0: 668e e03d a2fb 98bd 332c db3c 168b 213e
000002b0: ed98 283d 02f1 b33d 6d03 bcbc bd0c c0bd
000002c0: 9bcc 013e 1949 903d 1f3d c23b d478 a33d
000002d0: b43a f0bd f017 e73c 42a0 13bd 513a f8bd
000002e0: 93d3 663d 127f ca3d bb95 bbbd 87f7 a2bd
000002f0: e0bd c23d 37dc 4abd 0f68 c3bd 4f3b afbd

gru.bias_hh_l0 f4 [192]
0.16981728 0.11858044 0.02362055 0.051503334 0.020152435 -0.09432321 0.029697837 0.026931606
-0.0023841176 0.10962017 0.17191602 0.041252106 0.046553563 0.10906018 0.08653934 -0.009269007
0.14909846 -0.06952029 0.14817327 0.057418555 -0.11085777 0.09247737 -0.10744023 -0.004015861
0.02272481 0.13526921 -0.08918317 -0.028443877 0.1280631 0.14954457 0.07084908 0.14547777
0.026091203 0.1654963 0.13655327 0.048659198 0.060818966 0.0912336 0.15520252 -0.12538128
-0.08038166 0.118044674 -0.05092346 -0.023829086 0.15383127 0.06772594 0.14743824 -0.01972165
-0.0020790845 -0.02380337 0.08915884 0.18137129 -0.049976926 0.011108135 0.018856391 0.08522629
-0.09442338 0.11751493 0.04516721 0.08634469 0.10797995 0.06123752 -0.027574653 0.005191865
-0.015490113 0.058127996 -0.015293695 -0.088118054 0.062216956 -0.013882429 -0.023968583 0.0069037788
0.077923834 0.021998174 -0.054388512 0.033831637 0.013857926 -0.074475266 0.05260071 0.07995842
-0.010139285 0.018884592 0.08331546 0.050234232 -0.16372739 -0.03579822 -0.0665457 -0.030617353
0.03857739 0.04522113 0.09453784 0.038905397 0.04225307 -0.040978886 0.057863418 0.1375289
-0.042876083 0.14783525 0.05610833 -0.0451609 0.072342806 0.12457558 0.061329395 -0.030046571
0.079036355 -0.032343835 0.0021198683 -0.1773118 -0.090698816 0.15566158 -0.04679285 0.0799998
-0.07336209 0.027490009 0.1452391 0.01695674 0.108389884 -0.16190363 -0.11442007 -0.047581803
0.003138663 0.09606213 -0.10256048 -0.053896252 -0.017061876 0.08487661 0.114822745 -0.030439053
0.01600954 0.06931602 -0.021191599 -0.13328232 0.02166597 0.042814177 -0.041931827 -0.032424882
-0.076027475 0.07031707 0.021302974 0.05748249 0.0397617 0.12703659 0.076846324 0.026214672
0.05161781 -0.17088033 0.11512035 0.11755287 0.11008927 0.0996885 -0.06939453 -0.06052467
0.1367248 -0.12320589 0.03361771 0.09661699 -0.0014809893 0.12017614 0.035452798 -0.048074033
0.10415053 0.030496787 -0.041213192 0.020793362 -0.21004875 0.11398325 0.0205383 -0.10010818
0.07475907 -0.034736954 -0.10554913 -0.007823943 -0.11898931 0.019848289 0.18877397 -0.035707276
-0.054132473 -0.14392346 0.079212986 0.0026948634 0.026897442 0.12052957 -0.12910616 -0.0028097474
0.051979348 0.07917122 0.041149274 0.09650918 0.088558234 0.0037094597 -0.09723539 -0.08587364
00000000: 95e4 2d3e 4dda f23d e27f c13c 29f5 523d
00000010: b816 a53c 872c c1bd e148 f33c ac9f dc3c
00000020: db3e 1cbb 8a80 e03d c10a 303e f8f7 283d
00000030: f3ae 3e3d f25a df3d 8a3b b13d 08dd 17bc
00000040: 44ad 183e a760 8ebd bcba 173e b82f 6b3d
00000050: 6609 e3bd c664 bd3d a009 dcbd 7c97 83bb
00000060: 6129 ba3c 0384 0a3e aaa5 b6bd 2203 e9bc
00000070: f922 033e 3622 193e 5319 913d 20f8 143e
00000080: 38bd d53c dd77 293e 9fd4 0b3e de4e 473d
00000090: 4f1d 793d afd8 ba3d 69ed 1e3e f363 00be
000000a0: 249f a4bd 68c1 f13d 1e95 50bd 3735 c3bc
000000b0: f285 1d3e e6b3 8a3d 0dfa 163e 4c8f a1bc
000000c0: 4041 08bb 49ff c2bc e998 b63d 65b9 393e
000000d0: 9bb4 4cbd e5fe 353c b878 9a3c 1f8b ae3d
000000e0: 0c61 c1bd abab f03d 4101 393d 7cd5 b03d
000000f0: 9824 dd3d 32d4 7a3d 3de4 e1bc 8520 aa3b
00000100: 3eca 7dbc 9f17 6e3d 6892 7abc 3d77 b4bd
00000110: 35d7 7e3d 2173 63bc c359 c4bc 1839 e23b
00000120: 8896 9f3d 8435 b43c 7dc6 5ebd 0b93 0a3d
00000130: 5b0c 633c 7d86 98bd d873 573d 3dc1 a33d
00000140: 3e1f 26bc dcb3 9a3c 4ca1 aa3d 69c2 4d3d
00000150: 27a8 27be 28a1 12bd 1d49 88bd 3ed1 fabc
00000160: 5303 1e3d cb39 393d 0e9d c13d 445b 1f3d
00000170: 8e11 2d3d 7ad9 27bd 3102 6d3d 60d4 0c3e
00000180: d59e 2fbd 2062 173e d9d1 653d a3fa 38bd
00000190: 7728 943d 7b21 ff3d 8834 7b3d 3a24 f6bc
000001a0: d0dd a13d f87a 04bd 7ded 0a3b 3991 35be
000001b0: 4dc0 b9bd c065 1f3e dca9 3fbd efd6 a33d
000001c0: dd3e 96bd ba32 e13c 8fb9 143e dce8 8a3c
000001d0: 84fb dd3d 11ca 25be 1255 eabd 23e5 42bd
000001e0: 07b2 4d3b 39bc c43d 3b0b d2bd 51c2 5cbd
000001f0: 59c5 8bbc cad3 ad3d 3028 eb3d 525b f9bc
00000200: 7026 833c 8ff5 8d3d 019a adbc 297b 08be
00000210: d57c b13c eb5d 2f3d b5c0 2bbd f4cf 04bd
00000220: 4bb4 9bbd 6502 903d 9383 ae3c c272 6b3d
00000230: 2add 223d e115 023e 9b61 9d3d 27c0 d63c
00000240: 326d 533d 41fb 2ebe 38c4 eb3d 8fbf f03d
00000250: 7c76 e13d 7c29 cc3d b81e 8ebd b7e8 77bd
00000260: 9601 0c3e 5f53 fcbd b9b2 093d 21df c53d
00000270: c11d c2ba e81e f63d f436 113d 47e9 44bd
00000280: e04c d53d 66d4 f93c 2acf 28bd d756 aa3c
00000290: 0517 57be 0d70 e93d f03f a83c 8405 cdbd
000002a0: 491b 993d 5648 0ebd 242a d8bd ff2f 00bc
000002b0: abb0 f3bd e198 a23c f74d 413e cb41 12bd
000002c0: 03ba 5dbd ac60 13be 6b3a a23d 4e9c 303b
000002d0: 0658 dc3c 35d8 f63d 6834 04be bd23 38bb
000002e0: 4ce8 543d 8524 a23d 248c 283d 9ba6 c53d
000002f0: 055e b53d 681a 733b 5923 c7bd 85de afbd

head.0.weight f4 [64, 64]
0.14550956 0.19237754 -0.03268743 -0.043188136 -0.0500758 0.1425447 -0.019441882 0.12061586
-0.00741366 -0.0026762178 -0.11730245 0.06556717 0.016103595 0.10760218 -0.07931499 0.105634406
-0.058906112 -0.075131916 -0.046978015 0.12829824 0.11605191 0.10828554 0.13104108 -0.024226703
0.03695509 0.023496013 0.03912882 0.0716864 -0.14749582 -0.04212178 0.06381026 0.06055425
0.04837774 0.15331408 0.023013078 0.05725048 -0.03963782 0.061570052 -0.11028166 0.06577366
-0.12684594 0.036301814 -0.16528623 0.15750444 -0.103271656 0.0059269476 -0.0064898 0.16292782
0.12551647 -0.1350931 -0.1421887 0.0037517 -0.08059421 -0.07149774 -0.0068379245 0.013962879
0.05870265 -0.030479666 -0.041397832 0.13231955 0.09098299 0.05142196 0.06973329 -0.11716329
0.040576994 -0.025235292 -0.1355324 0.063524924 -0.13512537 -0.15030909 -0.15094793 0.034113795
-0.026206095 -0.1087972 -0.080555044 0.061194457 -0.035726946 0.14564177 0.07226646 -0.035599694
0.019754061 0.13226606 0.017576355 -0.06375767 -0.023463098 0.0106128035 0.07304701 -0.07018313
-0.10230483 -0.11065959 0.16242267 -0.104031295 -0.015986094 0.07671886 0.07437033 -0.059084028
0.011686372 0.10943432 -0.18136363 0.076613545 -0.048085414 0.045289516 -0.081708655 -0.00893529
0.017839305 -0.012841609 -0.04497655 0.021747991 -0.113757275 -0.06296389 -0.076820634 0.0064428644
0.014606669 0.08926327 -0.009577484 0.07785572 0.013078557 0.007084951 -0.06867346 -0.11379429
0.093754426 -0.15699467 0.12478599 -0.06727132 0.10024233 -0.06651848 0.029128805 -0.070516646
-0.0321721 0.040769383 -0.05785677 0.110430695 0.06941199 -0.026805846 0.175953 -0.04653274
0.0079679 0.052567624 -0.018665375 -0.10106277 -0.113282084 0.08906077 0.0047415607 0.060371917
0.14979239 -0.095550634 -0.008223931 0.14061248 0.027221039 0.050142474 -0.007482029 -0.09121576
0.09005823 0.116295904 -0.08649749 -0.07378094 -0.11364343 0.19241409 0.12108528 0.10894861
-0.016695475 -0.10913651 0.036004655 0.03968631 0.017322026 0.036013193 0.13145426 0.013935968
-0.005824204 0.029026352 -0.02064424 0.18008275 0.01428023 0.009248429 -0.026342336 0.055420306
0.0177801 -0.018458597 -0.13456224 -0.09606026 -0.084717594 -0.010415545 -0.04942998 0.05979108
-0.24898915 0.05167062 -0.0968868 0.030462928 0.09835172 -0.16245642 0.046547607 0.019842792
-0.14833972 -0.053051345 -0.06558933 -0.07077171 -0.084991604 -0.14791977 -0.17548944 0.07521742
-0.046269644 0.025452951 0.05024089 0.08299361 0.005097904 0.084914684 0.06573158 0.0022771256
-0.12059309 0.17396168 0.0077246446 0.021142306 0.006385262 -0.06672802 -0.043559093 0.11444088
0.0028294707 0.0029283413 0.05245844 -0.13763621 -0.0253402 -0.1529493 -0.11802811 -0.08626306
-0.0067033293 0.0832584 -0.0022395705 -0.06552991 0.1432521 -0.10215102 0.03180882 -0.015461856
-0.12597188 0.036962498 -0.06798006 -0.053173073 0.059745625 0.114669934 -0.0074382727 -0.038985774
0.034949306 -0.09408821 0.14838952 -0.04394926 0.13565716 0.07113674 -0.06492319 0.09834326
0.13413271 -0.07935604 -0.016184947 0.08299516 0.05525228 0.026155869 -0.04543205 0.042395934
00000000: 7500 153e 9efe 443e 41e3 05bd 0be6 30bd
00000010: 481c 4dbd 3df7 113e 9544 9fbc 7305 f73d
00000020: 4aee f2bb 7c63 2fbb 443c f0bd 1548 863d
00000030: b0eb 833c 885e dc3d e66f a2bd da56 d83d
00000040: 8947 71bd c3de 99bd 056c 40bd 9d60 033e
00000050: a0ac ed3d cfc4 dd3d a22f 063e 1477 c6bc
00000060: 385e 173d b67a c03c 8b45 203d 52d0 923d
00000070: 2509 17be e387 2cbd f4ae 823d bc07 783d
00000080: bd27 463d 5efe 1c3e ec85 bc3c 7b7f 6a3d
00000090: 445b 22bd e130 7c3d 5adb e1bd 57b4 863d
000000a0: e7e3 01be 36b1 143d cb40 29be d848 213e
000000b0: 1780 d3bd d736 c23b 63a8 d4bb 8dd6 263e
000000c0: 6487 003e d855 0abe ea99 11be 15df 753b
000000d0: 940e a5bd 686d 92bd ab10 e0bb 8fc4 643c
000000e0: 3172 703d 7eb0 f9bc c690 29bd c77e 073e
000000f0: 4a55 ba3d d59f 523d 54d0 8e3d 4ff3 efbd
00000100: 1034 263d 3eba cebc 01c9 0abe 5b19 823d
00000110: 4e5e 0abe a0ea 19be 1892 1abe e8ba 0b3d
00000120: 2aae d6bc 11d1 debd 0bfa a4bd 0aa7 7a3d
00000130: 6b56 12bd 1e23 153e 7000 943d fcd0 11bd
00000140: 45d3 a13c c170 073e 4afc 8f3c 6293 82bd
00000150: af35 c0bc 53e1 2d3c ac99 953d 2cbc 8fbd
00000160: 3285 d1bd 7fa1 e2bd 2152 263e 5c0e d5bd
00000170: 45f5 82bc c71e 9d3d 794f 983d 1802 72bd
00000180: 3278 3f3c 1a1f e03d 63b7 39be 90e7 9c3d
00000190: 36f5 44bd 8081 393d de56 a7bd 5365 12bc
000001a0: bc23 923c 9d65 52bc 5539 38bd d828 b23c
000001b0: 93f9 e8bd 36f3 80bd 2354 9dbd aa1e d33b
000001c0: cf50 6f3c a9cf b63d e1ea 1cbc d272 9f3d
000001d0: 7247 563c e028 e83b aca4 8cbd fb0c e9bd
000001e0: 5202 c03d 36c3 20be cc8f ff3d 8cc5 89bd
000001f0: da4b cd3d d73a 88bd 889f ee3c 086b 90bd
00000200: e4c6 03bd ccfd 263d 38fb 6cbd 7d29 e23d
00000210: e027 8e3d ef97 dbbc 062d 343e 1d99 3ebd
00000220: cb8b 023c 2651 573d 21e8 98bc fff9 cebd
00000230: 7000 e8bd 7e65 b63d 185f 9b3b 8b48 773d
00000240: 2d63 193e 0db0 c3bd abbd 06bc b8fc 0f3e
00000250: a8fe de3c 3262 4d3d cf2b f5bb 54cf babd
00000260: 7370 b83d 8c2c ee3d 9925 b1bd 761a 97bd
00000270: e3bd e8bd 3308 453e 8ffb f73d 7320 df3d
00000280: f3c4 88bc f682 dfbd 9e79 133d 1d8e 223d
00000290: ece6 8d3c 9282 133d f29b 063e b053 643c
000002a0: f7d8 bebb acc8 ed3c 1c1e a9bc 9d67 383e
000002b0: a0f7 693c b986 173c e2cb d7bc 6700 633d
000002c0: 93a7 913c 7c36 97bc afca 09be 3ebb c4bd
000002d0: 6b80 adbd f6a5 2abc 1777 4abd 7ee7 743d
000002e0: 03f7 7ebe 92a4 533d 966c c6bd 648d f93c
000002f0: a06c c93d fa5a 26be b4a8 3e3d 5a8d a23c
00000300: 5ee6 17be 5e4c 59bd b353 86bd c2f0 90bd
00000310: 1410 aebd 4878 17be 81b3 33be 970b 9a3d
00000320: 3d85 3dbd b582 d03c 64c9 4d3d 8ef8 a93d
00000330: 510c a73b c0e7 ad3d 479e 863d d43b 153b
00000340: 83f9 f6bd 0323 323e 041f fd3b a132 ad3c
00000350: 763b d13b b3a8 88bd 056b 32bd fb5f ea3d
00000360: a46e 393b 6ae9 3f3b a9de 563d 82f0 0cbe
00000370: 4096 cfbc be9e 1cbe b9b8 f1bd b0aa b0bd
00000380: 9aa7 dbbb 6183 aa3d c2c5 12bb 8c34 86bd
00000390: aeb0 123e 8e34 d1bd f749 023d b953 7dbc
000003a0: c6fe 00be fd65 173d 2139 8bbd 02cc 59bd
000003b0: d4b7 743d 12d8 ea3d c1bc f3bb 8caf 1fbd
000003c0: 0127 0f3d 52b1 c0bd 6cf3 173e 2404 34bd
000003d0: b6e9 0a3e 24b0 913d 73f6 84bd 3168 c93d
000003e0: 165a 093e 6b85 a2bd 4b96 84bc 5ef9 a93d
000003f0: 3750 623d d544 d63c f516 3abd 5ca7 2d3d

head.0.bias f4 [64]
0.10079372 0.017866092 -0.043944415 0.09951036 -0.074223526 -0.03551525 -0.05920634 -0.098962255
-0.085682005 -0.027526747 0.016804839 0.122074604 0.008758064 0.119773604 0.05068516 0.12193643
-0.100497514 0.090616874 -0.06234275 -0.06785936 0.017443199 -0.10754502 -0.041964803 -0.118606575
-0.09627072 -0.15532815 -0.0700181 -0.1113683 0.062391236 -0.17172387 -0.046597067 0.037290253
0.08794894 0.12185282 0.0701117 0.068549275 -0.058923032 -0.057223573 -0.06585962 0.018616231
0.12185819 0.13760003 -0.10513742 -0.106401086 -0.018220846 0.001177115 -0.13703558 -0.014390145
-0.09302691 0.0015942019 0.13427983 -0.008026595 -0.0747222 0.10509798 0.084375836 0.07237787
0.0068175406 0.010343947 0.10942345 -0.012705244 0.13182825 0.070740715 0.070785336 -0.044992946
00000000: f06c ce3d e95b 923c 0fff 33bd 16cc cb3d
00000010: 8102 98bd 7078 11bd 5982 72bd b9ac cabd
00000020: 0c7a afbd c67f e1bc 4daa 893c 4002 fa3d
00000030: fc7d 0f3c dd4b f53d 3e9b 4f3d cfb9 f93d
00000040: a4d1 cdbd 5795 b93d 1d5b 7fbd d9f9 8abd
00000050: 0ae5 8e3c 9040 dcbd 49e3 2bbd 01e8 f2bd
00000060: 9529 c5bd 580e 1fbe a665 8fbd 1015 e4bd
00000070: f48d 7f3d 62d8 2fbe 91dc 3ebd aabd 183d
00000080: 931e b43d f98d f93d b996 8f3d 9063 8c3d
00000090: 4759 71bd 4463 6abd 69e1 86bd 1181 983c
000000a0: c990 f93d 06e7 0c3e 4a52 d7bd d0e8 d9bd
000000b0: e243 95bc 6d49 9a3a 0e53 0cbe a5c4 6bbc
000000c0: e584 bebd 8af4 d03a a780 093e fb81 03bc
000000d0: f407 99bd 9c3d d73d 3dcd ac3d d93a 943d
000000e0: ad65 df3b a979 293c 6719 e03d a829 50bc
000000f0: fcfd 063e 82e0 903d e7f7 903d 864a 38bd

head.2.weight f4 [1, 64]
0.10164528 -0.08751187 -0.07186129 -0.11145365 -0.04394161 0.10443825 -0.011096476 0.110960566
0.016974086 -0.040700067 -0.03763802 -0.12943268 0.063217916 0.16037397 0.09690502 -0.04749222
0.102645025 -0.18731415 -0.10057797 -0.14437643 0.1319965 0.083249874 -0.10887896 0.10535921
0.19324966 0.11427463 0.07449239 -0.043630768 0.02834764 0.13548958 -0.06767208 -0.0880187
0.033880327 0.09362043 -0.046431124 0.01988513 -0.1529865 0.048404176 -0.17270719 0.12174292
0.10908381 -0.08935358 -0.13141692 -0.13731569 -0.18141685 0.13633516 -0.10084818 0.08408217
0.15923885 -0.097832225 0.12347119 0.042670675 0.2226008 0.06643261 0.0704183 0.13409257
-0.028926922 0.09722077 0.052142996 -0.14525472 0.09354636 -0.17381816 0.03154808 0.13134189
00000000: 672b d03d 6c39 b3bd 032c 93bd d041 e4bd
00000010: 1efc 33bd b9e3 d53d fecd 35bc 4b3f e33d
00000020: 3d0d 8b3c 1db5 26bd 532a 1abd 008a 04be
00000030: 6578 813d 1339 243e 2476 c63d 3487 42bd
00000040: 8e37 d23d 48cf 3fbe d3fb cdbd 6ad7 13be
00000050: 172a 073e e97e aa3d effb debd 92c6 d73d
00000060: 3de3 453e d108 ea3d 778f 983d 2db6 32bd
00000070: 4f39 e83c c8bd 0a3e a997 8abd 2643 b4bd
00000080: 19c6 0a3d 11bc bf3d 902e 3ebd 24e6 a23c
00000090: 7ea8 1cbe 7543 463d 27da 30be 5a54 f93d
000000a0: 5567 df3d 02ff b6bd 2892 06be 7c9c 0cbe
000000b0: 57c5 39be 729b 0b3e 7e89 cebd 4633 ac3d
000000c0: 820f 233e 435c c8bd 77de fc3d 72c7 2e3d
000000d0: 77f1 633e d20d 883d 7837 903d 904f 093e
000000e0: 27f8 ecbc af1b c73d e593 553d a7bd 14be
000000f0: 3c95 bf3d 63fd 31be 8f38 013d 7d7e 063e
