outputs/exp_0003_20251213_123043/runs/seed3/h5/PHResetSGD/model_final.pt (torch, 71493 bytes, 7 tensors)

gru.weight_ih_l0 f4 [192, 1]
000000 19 47 fb bd 13 60 c0 bd c8 03 1e bc ca 55 31 be
       -0.1226942 -0.09393325 -0.009644456 -0.17317882
000010 5e 4f 74 bd 7f a4 c2 bd e1 5c 82 3d fa 63 fd 3d
       -0.059646003 -0.095040314 0.063653715 0.12372585
000020 a5 92 88 3d c2 bb fa 3d 60 de 69 3d 5c 55 24 bc
       0.06668595 0.12242843 0.05709684 -0.010030117
000030 7a 97 1f bd db 58 e0 3c 3c f5 d5 bc 04 0c a0 3d
       -0.03896282 0.02738612 -0.026117913 0.07814792
000040 5f 53 15 be 3d 5b 8c 3d f4 d4 bd 3d c9 ed 3f 3e
       -0.14582585 0.0685334 0.09269133 0.18743052
000050 ab 6b c1 3d a5 94 4f bd 07 f1 c3 3d de 7d bd bd
       0.09444364 -0.050678868 0.09567457 -0.09252523
000060 a2 36 39 be a0 d9 8b bd 85 cc 02 3d da 72 81 3d
       -0.18087247 -0.06828618 0.031933326 0.06320734
000070 4f dd ae bd 1d c3 3e be 2f 65 4f bd 66 99 f5 3c
       -0.08538305 -0.18629117 -0.050633606 0.029980373
000080 2d 0b 74 bd 2c 8d 1b be 97 07 1e be 10 27 a4 bd
       -0.05958097 -0.15190572 -0.15432583 -0.08015263
000090 86 16 df 3d 47 17 ab bd fa 6d 91 bc 1a 4c b2 bb
       0.10892968 -0.08354049 -0.017752636 -0.005441201
0000a0 10 74 e0 3c 75 a7 7f 3c 5d 30 cd bc 73 c3 5d bd
       0.027399093 0.01560389 -0.025047475 -0.054141473
0000b0 a9 10 05 3e d7 62 ea 3c 1a c1 b4 bd e7 89 2d bd
       0.12994637 0.028611584 -0.08825894 -0.042367842
0000c0 5e c6 da 3b 95 4c 34 3e 16 73 51 3d 7b 19 33 be
       0.0066764792 0.17607339 0.051135145 -0.17490189
0000d0 45 40 db 3d 42 f0 a5 3d 5e 78 12 3e 74 f5 b0 3d
       0.10705618 0.08102466 0.14303729 0.086405665
0000e0 9e 38 b1 bc 1c 91 61 3e 60 c9 f4 bc f5 17 d8 3c
       -0.021633442 0.22028011 -0.02988118 0.026378611
0000f0 f0 eb a4 3d ad 33 39 bd 90 e7 37 be 45 81 59 bd
       0.08052814 -0.045215297 -0.17959428 -0.053101797
000100 91 2b 0f be 75 eb dd bd 1d a4 d5 bc 35 55 09 be
       -0.13981463 -0.108359255 -0.026079232 -0.1341141
000110 d4 fd 2e 3d 9a 52 57 bd 14 56 f8 3c 47 70 ea 3d
       0.042722538 -0.05256901 0.030314483 0.114471965
000120 23 4e 8a bd cf af 4f 3c 9b 0d ae 3c 09 2d 93 3c
       -0.06753185 0.012676193 0.021246722 0.01796581
000130 b7 7c c4 ba b3 f2 0c 3e a3 a8 34 bd 62 a0 a2 3d
       -0.0014990781 0.13764457 -0.044106137 0.07940747
000140 19 d3 ee bd c2 ee e3 bd 97 6e c0 bd d1 1c 0a bb
       -0.116613574 -0.11129524 -0.09396093 -0.0021074305
000150 dc 83 cd 3d ec 12 e1 bd a2 a7 29 3d cd d7 de bd
       0.10034916 -0.10989937 0.041419633 -0.108810045
000160 ff fb bb bd 23 20 ae bd 3c fd 85 bd 17 18 e9 3c
       -0.09178924 -0.08502223 -0.06542441 0.02845387
000170 1c 8a 12 be 19 40 ee 3d aa bc 3a 3c 6f 84 fb 3c
       -0.14310497 0.116333194 0.01139752 0.030702798
000180 99 fc 58 bd 46 a9 90 3d 36 03 cd bd 59 05 19 be
       -0.05297527 0.07063536 -0.10010378 -0.14943446
000190 4d 8e 6f bc 03 3b d8 3d 27 93 36 3d e3 76 29 be
       -0.0146213295 0.105581306 0.04457393 -0.16549258
0001a0 f4 5f bf 3c eb 7b eb bc fe 2e cb bd 68 2e a5 bd
       0.023361184 -0.028745612 -0.099210724 -0.08065492
0001b0 0e 1f 76 3d 65 f7 d5 bd dd 8e 99 3d d9 5a ad 3d
       0.06008821 -0.104475774 0.07497952 0.084645934
0001c0 c9 b5 91 bd 40 16 b9 bd 09 2a a7 bd 56 51 06 be
       -0.07114751 -0.09037447 -0.081623144 -0.13116965
0001d0 ea fe 99 3d 94 3e 6a 3d d9 d6 b5 bc b3 70 05 3e
       0.07519324 0.057188585 -0.022197174 0.13031273
0001e0 8b db 52 bc e5 72 bf bd 26 bd e1 bd 22 e7 b9 bd
       -0.012869726 -0.09348086 -0.11022405 -0.09077288
0001f0 08 7f f9 bd f0 3c 82 bd 1c b4 16 3c 2a 78 a5 bc
       -0.121824324 -0.06359279 0.009198215 -0.0201989
000200 9a 6d 78 bb a3 69 a3 bd c9 39 43 3e 4b 7f f3 3c
       -0.0037907124 -0.07979133 0.19065012 0.029723784
000210 0e 51 98 bb 1f 78 ab bd 38 2a 14 be 5c 6f d0 3d
       -0.0046483343 -0.08372521 -0.1446923 0.1017749
000220 b8 a9 08 3e 46 b1 12 3e 66 ab 3b be 56 c5 cd bb
       0.13345993 0.14325437 -0.18327102 -0.006279628
000230 93 c0 43 be 80 68 8b 3d 6e 34 02 be 97 24 d7 3d
       -0.1911643 0.06807041 -0.12715313 0.10505026
000240 bb ee b9 bd 7d 08 2b bd 57 05 d2 3d 2c 93 46 be
       -0.09078737 -0.041756142 0.10254925 -0.19392079
000250 6c f4 e5 3d 2a 58 3a 3e 57 39 21 be d3 ad 62 3e
       0.112282604 0.18197694 -0.1574453 0.22136621
000260 da bb a7 3d ab c6 54 3e 9c ee 35 3e cf 51 2a be
       0.08190127 0.20778911 0.17766804 -0.1663277
000270 59 15 4e 3e a4 a2 82 3d d5 97 a1 3d 23 ca 7e bd
       0.20125331 0.063786775 0.07890288 -0.06220449
000280 28 f2 2d be b1 fa 30 bd 42 79 3e bc 2e 7c 80 3d
       -0.16986907 -0.043207828 -0.01162559 0.062736854
000290 0d dc 31 be 22 1e 43 be 77 3c c1 3d f4 e6 85 bd
       -0.17369099 -0.19054464 0.09435361 -0.065381914
0002a0 2f fb 15 bd cc 8c 07 bd c5 0c ee 3c fc b6 89 3d
       -0.0366165 -0.03309326 0.029058823 0.067243546
0002b0 0d 79 37 be f9 fb bb 3d fd 4a 7c 3d bc d8 02 3d
       -0.17917271 0.09178919 0.061594952 0.031944975
0002c0 06 85 10 be fc 21 1f 3e e2 93 3d 3e dc ba 3a be
       -0.14113244 0.15540308 0.18513444 -0.18235344
0002d0 1d 67 51 3e fc 90 d3 3b 31 55 01 3e ee 24 46 3e
       0.20449491 0.0064564925 0.12630154 0.19350025
0002e0 60 48 9a 3d b9 8a 2a 3d e6 ff 70 3d 8c 95 47 3e
       0.07533336 0.041636202 0.058837794 0.19490641
0002f0 79 ff 54 be f7 ca 26 3d b3 9c 05 3e 50 18 04 be
       -0.2080058 0.040720906 0.13048057 -0.128999

gru.weight_hh_l0 f4 [192, 64]
000000 37 79 3f bd f7 6f 98 ba 53 ce de 3c a6 b6 3f 3d
       -0.04674646 -0.0011630048 0.027197992 0.046805046
000010 a7 60 f8 3c 90 e1 87 bc 9c 32 a1 bd 3c ec 85 3d
       0.030319525 -0.016587049 -0.07870981 0.06539199
000020 b8 90 ad bd 30 9d 85 3d 2d 3d df 3d 86 c7 0c 3e
       -0.084748685 0.06524122 0.1090034 0.13747987
000030 46 62 f0 3d ce 15 2f bd bc 4b 5e 3d 35 a7 c9 bd
       0.11737494 -0.042745404 0.054271445 -0.09846345
000040 b7 8d aa 3d 84 fb 6d bd 14 0f b0 bd 11 bf 56 bd
       0.08327811 -0.058101192 -0.08596626 -0.05242831
000050 9c 33 b5 3d 7a 15 35 3d 49 dd 97 bd 98 da c9 bd
       0.08847734 0.044209935 -0.07415254 -0.098561466
000060 0c d6 e8 3a 26 62 21 bd 4d e9 56 bc aa 98 91 3d
       0.0017763986 -0.039400242 -0.013117147 0.071091965
000070 d4 4e bf bd 31 7a b8 bd 2e bc 43 bb 72 40 b7 3d
       -0.09341207 -0.09007681 -0.0029866803 0.08947839
000080 12 66 b8 3d 92 bc 0d bb 1a 38 ec bc f5 24 80 3d
       0.09003843 -0.002162729 -0.028835345 0.06257049
000090 21 1b 19 3e ab 3c d8 bd 0c f3 ac bd 19 74 32 3d
       0.14951755 -0.105584465 -0.08444795 0.04356775
0000a0 97 1a 0f 3e 68 52 1c 3e 80 27 8c 3d 4f a6 07 3e
       0.13974987 0.1526581 0.068434715 0.13247035
0000b0 53 11 86 bd 13 89 b9 3c 41 24 f0 3c d1 c9 64 3c
       -0.06546273 0.02264837 0.029314162 0.013964132
0000c0 26 b6 ec 3c 3f bf 3a 3d d0 45 d9 bd 2c c1 0c bc
       0.028895449 0.045592543 -0.10609019 -0.008590978
0000d0 e0 11 aa 3c 24 c0 5a 3d 0c 1a 6e 3c d4 5d 6c 3d
       0.020760477 0.053405896 0.014532577 0.05770667
0000e0 c8 35 bb bd cf 68 fb bd 45 5e 96 3d 8c e3 73 3d
       -0.09141117 -0.1227585 0.07342199 0.059543177
0000f0 ca 3f b7 3d b6 64 dc bd 24 8d d6 bb 92 21 d4 bd
       0.08947714 -0.107613966 -0.006547587 -0.103579655
000100 e0 13 33 3e 0c c6 42 3d 0c bd ca 3d 1e c7 54 bd
       0.1748805 0.047552153 0.09899339 -0.051947705
000110 b6 44 53 bd 0b ab 19 be 77 79 b3 bc 1c d1 e5 3d
       -0.0515792 -0.15006654 -0.021908505 0.11221525
000120 35 a1 d3 3c 0b ee 8c bd 76 d5 60 3d d4 f6 9f 3b
       0.025833705 -0.068813406 0.054891072 0.004881719
000130 d7 ef 1a bd e0 a1 f2 3d 78 94 9d 3d 21 ce f7 3b
       -0.037826385 0.118472815 0.07694334 0.0075624143
000140 d3 59 0c be 12 a9 0d bc b2 bc 7a bc 9f fd f0 bd
       -0.1370614 -0.008646267 -0.0153037775 -0.117671244
000150 99 80 34 bd af d8 5c bd e6 cb 00 bd da 45 bb 3c
       -0.044067953 -0.053917583 -0.031444453 0.022860456
000160 40 a0 e1 bc 2c 20 8e 3d 75 47 68 bc 4c 93 0d be
       -0.027542233 0.0693973 -0.014177193 -0.1382572
000170 ac d7 c3 3d a1 6f 45 bd 0f c2 85 3c c9 0f 85 3d
       0.095626205 -0.04820216 0.016327886 0.064971514
000180 c0 e4 7a 3d 7b bb ed 3b 6e 76 34 bd 3c 3e eb 3d
       0.06125331 0.0072550154 -0.044058256 0.1148648
000190 f1 56 9f bd cb 2e 4c bd 74 dd 0c 3c bf fc 10 be
       -0.07780255 -0.049849313 0.00859772 -0.14158915
0001a0 e1 0e 1e ba 55 49 df 3d 81 21 5c 3d 3d 86 9f 3d
       -0.0006029439 0.10902659 0.05374289 0.07789276
0001b0 fd d6 00 bd 60 a5 4a bc a8 63 ab 3c 8d fe 00 be
       -0.03145503 -0.01236853 0.020921543 -0.12597103
0001c0 27 16 f8 bc 90 9c 9c bc e4 76 d1 3c 87 9a 0f be
       -0.030284 -0.019117624 0.025569387 -0.14023791
0001d0 5a a1 cc bc 02 36 23 be 6b 00 60 3d 10 ae c9 3d
       -0.024979282 -0.15938571 0.0546879 0.09847653
0001e0 c8 fa 21 bd e8 f3 d7 bd dc e9 ae bd 46 02 b4 3b
       -0.039545804 -0.10544568 -0.08540699 0.005493435
0001f0 4c 81 74 bd e2 4d 15 3e 41 75 47 bb 74 8d c3 3c
       -0.05969362 0.14580491 -0.003043488 0.023871161
000200 74 87 6e 3e 68 fb e1 bd 19 c6 49 bd 77 65 34 bc
       0.23293859 -0.1103428 -0.049261186 -0.011010519
000210 ad f5 c0 3c fd ac 26 3c 67 ed ad bd 82 6d e5 3d
       0.023554647 0.01017308 -0.084925465 0.112025276
000220 cf c3 90 3d 4c 96 ae bd 66 58 2b 3d 41 a6 b6 bc
       0.070685975 -0.085247606 0.04183235 -0.022296073
000230 4e b2 fa bd 60 83 8f 3c a2 3f d4 3c 43 06 db 3d
       -0.1224104 0.0175187 0.025909249 0.10694554
000240 c8 74 36 be 3d 4f 0e 3d c6 09 02 3e 92 ab 31 3d
       -0.17817986 0.034743536 0.12699041 0.043376513
000250 71 d8 73 39 13 e9 3b 3c 32 04 5b bd 8d 62 9a bb
       0.00023254917 0.011469143 -0.053470798 -0.004711455
000260 41 38 eb 3d ae 1e 78 3c 9e 92 2c bd 17 82 75 bd
       0.11485339 0.015144033 -0.042132013 -0.059938516
000270 06 6f b8 bc ca 46 27 3e 2b 83 af 3d 47 5e 17 be
       -0.022513878 0.16335598 0.0856994 -0.14782058
000280 8d 61 bf bd 7d cc 47 be db 1e dc 3b 0f 7e db 3b
       -0.09344778 -0.195116 0.0067175454 0.006698377
000290 1c e2 09 bd 63 54 84 bd 47 1d 00 be e9 3c b7 bd
       -0.0336629 -0.06461408 -0.12511168 -0.089471646
0002a0 12 eb 30 bd b6 e6 c7 bd 2f 67 e5 bd b6 0f 51 bd
       -0.04319293 -0.097608015 -0.11201321 -0.051040374
0002b0 33 1f ae 3d 82 e3 0b be 7e f0 5a 3e 64 ef a1 bd
       0.085020445 -0.13661006 0.21380803 -0.07906988
0002c0 51 2c df bd 50 fa d3 3d 91 0c bf bb 15 67 94 bd
       -0.108971246 0.10350478 -0.0058303555 -0.07246224
0002d0 a4 29 a0 3d a7 c3 a6 bd 56 03 62 bc 3a 69 16 3e
       0.07820442 -0.081427865 -0.013794741 0.14688578
0002e0 3c 87 4c be 4d 89 b4 bd 46 69 44 3e 05 1d 1f 3d
       -0.19973463 -0.088152505 0.19180784 0.038846035
0002f0 fd 36 00 be 08 65 8e bb a0 ef 7a be 9f f8 39 be
       -0.12520976 -0.00434554 -0.24505472 -0.18161248
000300 93 65 ce bd b1 f4 46 bd 03 2f 30 3d 48 69 01 be
       -0.100779675 -0.0485732 0.043013584 -0.12637818
000310 59 19 41 bd 5b b2 0d be 85 8f 32 3e 3e 00 0d 3c
       -0.047143314 -0.13837568 0.17437561 0.008606015
000320 30 90 47 bb fa 22 3d bc e4 2c 85 3d 60 29 42 3d
       -0.0030450933 -0.011543984 0.06502703 0.04740274
000330 93 9a 97 3c 05 9a ba bd 08 b0 d4 bc 3b cc ba bd
       0.018506324 -0.09111408 -0.025962844 -0.09120985
000340 81 8b 97 3d 82 3b cc 3d 0d d0 7f bd 73 79 b1 3c
       0.07399655 0.09972288 -0.062454272 0.021664357
000350 83 d2 05 3e 17 3d 02 bd 66 50 53 ba a0 6b ea bd
       0.13068585 -0.03179654 -0.00080609915 -0.11446309
000360 65 ab 42 be cb e1 05 be a7 92 e4 3d ab ca 3a 3e
       -0.19010694 -0.13074414 0.11160784 0.18241374
000370 88 3e 3b bd 78 37 98 3c c9 b6 e0 bd d1 d1 cb 3d
       -0.04571393 0.018581137 -0.109723635 0.09952129
000380 88 49 e9 3d b4 3d 81 bc f8 d4 1e 3d 5c be 95 bd
       0.11390978 -0.015776493 0.03877732 -0.07311699
000390 41 f6 9c bd 62 ec 36 3e ae a8 78 3d 56 2a 68 3d
       -0.07664157 0.1786361 0.06070774 0.056681
0003a0 54 2d db 3c 9c 42 e3 bd 06 56 79 3d 69 69 d7 3c
       0.026755013 -0.11096689 0.060873054 0.02629538
0003b0 69 c6 df bd de 42 3d 3e 38 93 06 be 3c a6 31 3e
       -0.109265156 0.18482539 -0.13142097 0.1734857
0003c0 0b e7 6f bd b8 63 f5 bc d2 45 2f 3c 69 22 2b bc
       -0.05856995 -0.029954776 0.010697799 -0.010445216
0003d0 9d e6 e1 bd 5b 51 ea 3b e9 36 02 bc c3 92 00 be
       -0.11030314 0.0071508116 -0.007947662 -0.12555985
0003e0 fa 8c 95 bc a9 f2 22 3e 07 39 34 bd 86 e5 8c 3c
       -0.0182557 0.1591288 -0.043999698 0.017199289
0003f0 da 28 18 3e 3b e7 08 be be 96 aa 3d 73 56 e2 3c
       0.14859334 -0.13369457 0.08329533 0.027629113

gru.bias_ih_l0 f4 [192]
000000 11 f3 b5 bc 85 59 34 3c dd 33 aa bc 55 5e e3 3c
       -0.02221063 0.011007671 -0.020776683 0.027754942
000010 d6 94 32 3c 52 ab b5 bd 31 83 1d bd 72 15 7c bd
       0.010899743 -0.088705674 -0.038455192 -0.06154389
000020 da 9d 0c 3d 30 6d a5 bd 96 0c 8d bd d7 2d 35 3e
       0.034330226 -0.080774665 -0.06887166 0.17693268
000030 95 d9 bf bd d5 f7 6e 3d ce 45 db bd 83 be bd bd
       -0.09367672 0.05834182 -0.107066736 -0.09264853
000040 25 10 0f bd e7 cb d1 bb ae 04 3d bd 9d b3 da bc
       -0.034927506 -0.006402481 -0.04614704 -0.026696974
000050 de c5 1c 3c ac 35 35 bd 13 3d 70 3d af 85 28 3c
       0.00956866 -0.04424064 0.058651995 0.010285779
000060 82 cc 55 bd 9b 8b d8 3d 16 81 08 be 29 44 2c 3d
       -0.052196987 0.10573503 -0.13330492 0.04205719
000070 59 24 c0 bd ab 7e 3a bc 56 55 a4 bd 7a 6d 79 bb
       -0.09381933 -0.011382739 -0.08024089 -0.0038059638
000080 61 36 df 3d 95 0e ff 3c fd d4 a3 3c 5c 94 e1 bc
       0.10899044 0.031134883 0.019999022 -0.027536564
000090 a4 0f 95 3d d1 fb 6f 3d 30 6e 83 bd 45 ef b6 3d
       0.07278374 0.05858976 -0.06417501 0.08932356
0000a0 d2 14 5d be b0 5c 92 3d ad 64 19 3d b8 7e a3 3d
       -0.21589974 0.07146585 0.037449528 0.07983154
0000b0 6d 8a 31 be af 0c 1c 3d 2c ea eb b9 a6 27 af bd
       -0.17337961 0.038098034 -0.00044997165 -0.08552484
0000c0 79 6c b2 bd 2c 87 c1 bd f0 59 2f 3c 99 75 87 bd
       -0.08712096 -0.0944961 0.010702595 -0.06614227
0000d0 aa 95 a4 bd f5 5f 11 bd df 80 08 be ec d0 c4 bd
       -0.08036359 -0.035491902 -0.1333041 -0.09610161
0000e0 6d e5 e0 3d 5d b9 ec bd b2 5f 57 3d 91 5b b3 3d
       0.109812595 -0.11558793 0.052581497 0.08757699
0000f0 9f ee 90 bd 53 9c 0f 3c aa dd 9a 3d c6 ca 29 3d
       -0.07076763 0.008765298 0.0756181 0.041453145
000100 3d 04 db 3d 52 01 a9 3d b4 da 04 be a5 98 81 3d
       0.10694168 0.08252205 -0.12974054 0.06327943
000110 02 2a 2e 3e d5 2e 85 3d f8 7f 86 3d 58 41 d0 3d
       0.17008212 0.06503073 0.06567377 0.10168713
000120 8c dd 39 bd de 73 21 be 4a 2e 6d bc 9f e7 3d 3e
       -0.0453773 -0.15766856 -0.014476368 0.18545388
000130 5f 2b d3 bc 4a 8f e2 3d f3 e9 a8 3d 9f 22 d3 3c
       -0.025777517 0.110624865 0.08247747 0.025773345
000140 3f 51 9b bd 70 57 55 3e 35 54 23 3e b7 e7 e9 bc
       -0.07583856 0.20834136 0.15950091 -0.028552873
000150 b8 86 b2 bd cb 6d c6 3d a7 11 c2 3d 42 6c 11 3d
       -0.08717102 0.0968891 0.09476023 0.035503633
000160 e9 5e 37 3e cb 01 7c bd 9e 14 e9 bd e2 97 03 be
       0.17907299 -0.061525147 -0.113808855 -0.12850907
000170 87 91 be 3d 16 a4 0e 3e ec 04 ff 3d a1 60 01 3e
       0.09305101 0.13929781 0.12452111 0.12634517
000180 ee 10 49 bd 59 4c 77 3c 88 20 62 3e b1 c5 63 3d
       -0.04908841 0.015093886 0.22082722 0.055608455
000190 ae 51 7f bd 02 ff d5 bc 8d 25 e5 3d b6 60 1f 3e
       -0.062333755 -0.026122574 0.11188803 0.15564236
0001a0 0d 62 71 bc 04 1c ba 3d b4 98 0e 3d 4a 29 e7 bb
       -0.01473285 0.09087375 0.034813598 -0.0070544826
0001b0 96 3e 94 bd 30 fd 1b 3e 2e 07 d0 3c 88 e5 0c 3d
       -0.072385 0.15233302 0.025394049 0.034398586
0001c0 31 d5 60 bd 68 e5 95 bd ce d7 c2 bc be f8 06 3e
       -0.054890815 -0.073191464 -0.023784544 0.13180825
0001d0 6b 59 71 3d 25 e6 1f bc 84 ea 57 3c 49 4c ac 3c
       0.058923166 -0.009759461 0.0131784715 0.02103247
0001e0 67 b5 01 be 84 16 2b 3d 36 1a 92 3e 2f 13 72 3d
       -0.12666856 0.04176952 0.28535622 0.059100326
0001f0 46 68 83 3c e4 fd 91 bc e9 91 60 3d ee d8 ca bd
       0.016040932 -0.01782126 0.05482665 -0.09904657
000200 a1 e5 b5 bc 02 3c 9a 3d 91 59 10 3d 96 d4 cc 3d
       -0.022204222 0.07530977 0.035241667 0.10001485
000210 13 8f 99 3c 41 e3 a8 3d 6c 4b b2 3d 61 cb 42 bc
       0.01874498 0.0824647 0.08705792 -0.01188931
000220 b4 e7 fe bd 59 5e 26 bd b8 29 2a bc b3 f9 fd bd
       -0.124465376 -0.04061732 -0.010385923 -0.12401142
000230 af fd 22 3d 90 88 b0 bd fb 29 5a 3d 4f 00 f9 bc
       0.039792713 -0.08619797 0.053262692 -0.030395655
000240 74 81 60 bc ff 87 c3 bc 8c 69 e7 bd c9 c3 d4 3c
       -0.013702739 -0.023868559 -0.11299428 0.025972264
000250 9c 2e a8 bd 9c b7 c1 bd ea d6 11 bd be 20 ba bd
       -0.08212015 -0.09458849 -0.03560535 -0.09088276
000260 c9 c3 e2 bb 7a d3 09 3c 60 60 df bc f8 8a a3 3d
       -0.006920312 0.008412236 -0.027267635 0.079854906
000270 42 e9 8a 3b a1 54 c9 3d 94 80 38 bd 41 a5 d5 bc
       0.0042392323 0.09830595 -0.045044497 -0.026079776
000280 fa c9 88 3d e0 81 b6 3c dd 52 f7 bd 1f 3d 93 bd
       0.06679149 0.022278726 -0.12076352 -0.07189392
000290 99 bd a8 bd 8a 11 f9 3d b7 36 f7 3d 35 78 d2 3d
       -0.08239288 0.121615484 0.12070983 0.10276834
0002a0 45 ba 23 bd 6a 65 ed bc 4d 2c d9 bd 7c 00 66 bd
       -0.039972562 -0.028979022 -0.10604153 -0.056152806
0002b0 97 f1 8d bc f1 3f f2 bc 26 db d1 3a 63 b9 e1 3d
       -0.017327113 -0.029571505 0.0016010746 0.11021688
0002c0 f2 e4 87 bd 08 82 20 bd 47 6f 15 bd 91 ca 09 be
       -0.06635465 -0.039186507 -0.036483075 -0.13456179
0002d0 42 ae 02 bd ed c0 38 bd 50 02 b7 bd 0a 63 5d bd
       -0.031904466 -0.045105863 -0.08935988 -0.05404953
0002e0 34 66 38 3c af 96 ea 3d 36 f7 05 3d 09 1a 05 3e
       0.011254836 0.11454522 0.03270646 0.12998213
0002f0 19 44 d1 3c d6 4d de 3c 14 4e 1f bd 2c e9 75 bd
       0.025545167 0.027136724 -0.03889282 -0.060036823

gru.bias_hh_l0 f4 [192]
000000 26 e5 73 3d 21 13 0a be bd 4e 29 be 5c dc d4 3d
       0.059544705 -0.1348386 -0.16533943 0.10393593
000010 bb 67 68 bd de a1 8b 3d 40 ec 79 3d 88 fd c9 bd
       -0.05673955 0.06817983 0.06101632 -0.098628104
000020 e0 57 3e be ec 2f 01 3e 1e 4c 60 3d c2 fe 47 3e
       -0.18588209 0.12615937 0.05476009 0.19530776
000030 e7 8a 1c be ee 32 e3 3d d0 f1 ca 3c 10 64 cd bc
       -0.15287362 0.110936984 0.024773508 -0.025072128
000040 74 72 a6 bd f3 d2 2c 3e d0 fd 98 bc 56 3f 71 bc
       -0.08127299 0.16877346 -0.018675715 -0.014724573
000050 d9 5a 1c 3d f0 ea 05 be f3 5f d9 bc d7 d8 a7 bd
       0.038172577 -0.13077903 -0.02653501 -0.08195656
000060 17 0f f3 3d 23 71 0c 3e 7d b5 0d 3d 01 02 26 3d
       0.118681125 0.13715033 0.03459691 0.040529255
000070 47 b4 5b bd f7 8e 9d 3d 7c 8e ea b7 52 c1 b3 3d
       -0.053638723 0.07693284 -2.7961323e-05 0.08777107
000080 96 eb 67 bd b9 ef a3 bc ab 32 69 3d 0a 7b f0 3d
       -0.056621157 -0.02001177 0.056933086 0.11742218
000090 88 e7 62 3c df 5c ea 3d 2c ee 5a bd 89 4b 09 bd
       0.013849147 0.11443495 -0.053449795 -0.0335193
0000a0 03 8b 55 be 49 10 d2 3c a9 94 65 bb 50 06 6e bc
       -0.2085381 0.025642531 -0.0035031235 -0.014527872
0000b0 e7 ef c8 bd 0f 0e da 3c 4c ff bb bd e6 a2 73 bd
       -0.09811383 0.026618032 -0.091795534 -0.059481524
0000c0 f4 3d 14 be a4 2b d3 bd dc 10 b3 bd 83 f5 b0 3c
       -0.14476758 -0.10311058 -0.0874345 0.021601444
0000d0 b1 77 82 3d 7e 9e 79 3c cb a7 d4 bd d4 db c5 3c
       0.063704856 0.015235541 -0.103835665 0.024152674
0000e0 07 3c 27 3c 76 5f ae bc 87 a6 e7 3d 7d a0 03 be
       0.010207183 -0.021285754 0.113110594 -0.1285419
0000f0 26 90 e6 bd 36 44 da bc 93 71 ae 3c 04 a6 20 3c
       -0.11257963 -0.026643854 0.02129439 0.009805206
000100 6b 1e 08 3d 0a 8a 17 be 1a 19 a4 bc c2 66 8a 3e
       0.033232134 -0.14798751 -0.0200315 0.27031523
000110 6d 37 2e 3e 7a 45 01 3e c4 5e af 3d 0b 87 9b 3d
       0.17013331 0.1262416 0.08562997 0.07594117
000120 af 23 b2 bd 1d d2 95 3d 91 8e e1 3d ce cc 6c 3e
       -0.08698212 0.073154666 0.110135205 0.23125002
000130 89 ae b1 bd cd a0 bb bd 2c 2d d0 bd b7 5b 44 3c
       -0.08675868 -0.0916153 -0.10164866 0.011984757
000140 6a f7 0e 3e 6a 29 d5 3d c4 65 ac 3d b8 05 f4 bd
       0.13961568 0.1040829 0.08417848 -0.11915153
000150 3a fd e0 bc 87 79 7b bb 4b b8 99 3b 47 30 82 3d
       -0.027464498 -0.0038371996 0.004691159 0.063568644
000160 83 c3 09 3e 19 c4 6e bd d1 ec d8 3b 0c 7d e6 3c
       0.13453488 -0.058292482 0.0066200276 0.028135799
000170 01 a9 d6 3d 48 8b 93 3d 5d 17 94 bd 7d 3b 8c 3d
       0.10481454 0.072043 -0.07231019 0.06847284
000180 27 76 13 bd 5c 64 06 3e 11 a3 5c 3e db 3b b7 3d
       -0.03600135 0.13124222 0.2154658 0.089469634
000190 61 3b fe 3c a3 7d 89 3d b5 aa da bd 2d 6b 20 3d
       0.031034173 0.067134164 -0.10677091 0.03916471
0001a0 61 b0 76 bc 8e 45 a4 3d c4 86 4f 3d 12 c4 48 3e
       -0.0150567 0.08021079 0.050665632 0.19606045
0001b0 00 13 a3 bd 5e c7 ee 3d d6 3f b4 3d 81 b3 cf 3d
       -0.07962608 0.1165912 0.08801238 0.101416595
0001c0 28 46 96 3d 5d aa 9b 3c d7 7f e0 bc 1a e7 12 3d
       0.073376 0.019002134 -0.027404709 0.035864927
0001d0 f5 43 e9 bd 94 b4 95 3d 2b 62 a2 bd 1b 83 00 be
       -0.11389915 0.07309833 -0.0792888 -0.12550013
0001e0 f0 5a b7 bd ff 94 d8 bb f2 31 d2 3d 99 77 9f bc
       -0.08952892 -0.0066095586 0.102634326 -0.019466208
0001f0 c9 79 f0 bd a6 0e 59 bd 59 fa de 3d 3c 56 c6 bd
       -0.11741979 -0.052992485 0.10887594 -0.09684417
000200 4a 05 02 be 6e e6 3f bc 73 82 38 bd ee b2 1c 3d
       -0.1269733 -0.011712654 -0.04504628 0.03825658
000210 1a cf 68 3c af 10 24 b9 4a 73 83 3d dd 15 7f 3d
       0.014209533 -0.00015646474 0.06418474 0.06227671
000220 8f 34 8d bd ec 50 ea bd e5 3c c2 bd bd 29 fe bd
       -0.068947904 -0.11441216 -0.09484271 -0.12410305
000230 cb e0 4a bd e4 1b 0a 3d 03 48 03 be 91 26 86 3d
       -0.049530786 0.033718005 -0.12820439 0.06550325
000240 b3 db 85 3d 1a 78 97 bd c1 7d ef bd c6 af 04 be
       0.06536045 -0.073959544 -0.116939075 -0.12957677
000250 0a b2 03 3d a4 8d dd 3c 79 98 bc bd 0c 96 b0 bd
       0.032152213 0.027045079 -0.09208769 -0.08622369
000260 e2 78 b0 3c 7a 12 19 3e ca 44 d9 3c 28 de f2 3d
       0.021542016 0.14948454 0.026522059 0.11858779
000270 47 c1 0e bd 98 f0 28 bc cc 5b b2 3d ba b0 b3 3c
       -0.034852292 -0.010311268 0.08708915 0.021934856
000280 62 45 33 bb 6b 60 d6 bd 53 0c bf 3d 96 97 04 3d
       -0.0027354588 -0.10467609 0.093285225 0.032371126
000290 68 9a b3 bd 03 4a e5 3d 35 f2 ce bd 10 70 9a b9
       -0.08769685 0.11195757 -0.10104791 -0.00029456662
0002a0 b9 06 26 3d 56 18 f5 bc 89 2c 96 3d 25 89 e8 3c
       0.040533755 -0.02991883 0.07332713 0.028385708
0002b0 23 18 b3 bd da 53 19 3d e4 94 b4 bb 93 39 ea 3c
       -0.08744838 0.037433483 -0.005510913 0.028591907
0002c0 e0 1a 89 3d 94 df 84 3a 95 22 b9 bd ae 3a e4 3c
       0.06694579 0.0010137432 -0.09039799 0.027860012
0002d0 35 f4 06 3e 6c 86 1e bd 31 94 b7 bd 6d 64 68 3c
       0.13179095 -0.038702413 -0.08963812 0.0141841
0002e0 ae b2 b5 3d 9f 0a b2 bd 25 8a 08 3e 0d cb b5 3b
       0.08871971 -0.08693432 0.13333948 0.005547887
0002f0 10 6e ce 39 82 33 68 3b 92 83 e1 bb d0 d3 68 bc
       0.00039373385 0.0035431092 -0.0068821395 -0.014210656

head.0.weight f4 [64, 64]
000000 e8 e5 9a 3c e2 29 24 3e 3f 70 e4 bc 86 16 fa bd
       0.018908456 0.16031602 -0.027885554 -0.12211327
000010 0a c4 26 3d d4 95 c8 3c 51 43 25 3e a9 a7 4e 3b
       0.0407143 0.024485506 0.1613896 0.0031533039
000020 ec ae 65 3d c7 a4 a3 bd 9c a3 85 bd f8 96 8d bd
       0.05607502 -0.07990413 -0.06525347 -0.06913561
000030 c1 fe 8f 3c 8c 7a fb bd 2c 43 56 bc bd 72 d2 bd
       0.01757753 -0.12279233 -0.013077538 -0.10275791
000040 67 68 94 3d 10 b9 29 3d e5 60 8f 3d e8 78 cc 3d
       0.07246476 0.041436255 0.07000903 0.099839985
000050 f6 0e 93 bd 6e da 2f bc 78 a7 3d bc 15 af 45 bc
       -0.07180588 -0.01073323 -0.011575572 -0.012065669
000060 2c 5e 10 be e0 43 24 be 71 16 7b bd b0 34 08 bd
       -0.14098424 -0.16041517 -0.0613007 -0.03325337
000070 7f 96 ed bc ec b4 7f 3d 4d db 73 3c 5c 28 41 3d
       -0.029002426 0.0624284 0.014883828 0.04715763
000080 48 35 84 3c ca 86 89 3c 0f da a5 bd bb 9a 6a 3d
       0.016138688 0.016787905 -0.08098232 0.05727647
000090 02 9b 5b 3d 51 33 75 bd 55 58 b5 3d be 08 80 bd
       0.053614624 -0.059863392 0.088547386 -0.062516674
0000a0 30 25 7c bd db 87 6b bd ff 05 9b bd d0 e1 90 bd
       -0.061558902 -0.05750261 -0.07569503 -0.0707432
0000b0 87 da 93 bd 48 23 2b bd c5 d8 0a be cc 89 b1 bc
       -0.07219415 -0.041781694 -0.13559254 -0.021672152
0000c0 6a 49 4d bd 37 b8 15 3d 29 42 46 3d 4d 1f 00 3e
       -0.05011884 0.036552634 0.04840294 0.1251194
0000d0 4f 7d f6 3c 26 04 c2 ba b0 0c 67 3d f2 5c c7 bd
       0.030089049 -0.0014802262 0.056408584 -0.09734525
0000e0 02 97 da 3c 91 f0 f8 3c 82 d5 8d bd 99 e9 1a bd
       0.026683334 0.030388149 -0.06925489 -0.037820432
0000f0 ea d3 b2 3d 76 4b d0 bc 7c d0 24 3d 1e 47 81 3d
       0.08731826 -0.025426608 0.04023789 0.06312393
000100 ad 95 b0 3d 2e d2 c8 bc 70 b4 27 3e 7e c6 e5 3d
       0.086222984 -0.024514284 0.16377425 0.112195
000110 44 e7 d7 bd aa 41 cb 3d c1 a2 c6 3d 09 d3 56 3e
       -0.10542157 0.09924634 0.096990116 0.20978941
000120 ed 6e 04 3e e3 fb 95 3d da 41 71 3d 8b 5d 46 bc
       0.1293294 0.07323434 0.05890069 -0.012107263
000130 de ce ff bd b8 b5 b4 bd 96 12 03 3e 48 0a 99 3d
       -0.12490629 -0.088237226 0.12800059 0.07472664
000140 e1 72 aa bc 9d 25 e3 bd 60 8b 3b be 32 35 15 be
       -0.020806732 -0.110911585 -0.18314886 -0.14571074
000150 5b 66 8e bd a5 72 52 bd 0e 1e 26 bd 01 dc 50 3d
       -0.069531165 -0.051378865 -0.040556006 0.050991062
000160 13 e4 7d 3d 69 6d 0e 3e 26 9a 04 3e ae 76 22 bd
       0.061985087 0.13908924 0.12949428 -0.039663963
000170 eb 15 82 bc 43 ab 27 3e 77 3b 3d 3d c5 72 3e bd
       -0.015879592 0.16373925 0.04619929 -0.04649617
000180 ea 51 2d 3c dd 40 c9 3c 4a e7 50 3d 15 f6 86 bd
       0.010578612 0.024567062 0.051001824 -0.06589905
000190 3b 6a 89 bd 04 f0 ce bd 54 2b 32 bc 66 08 c1 bd
       -0.06709715 -0.10104373 -0.010874588 -0.0942543
0001a0 6f af 1a 3e 52 49 c1 bd 7d 84 ed 3c 92 d6 e4 bd
       0.15105985 -0.09437813 0.02899384 -0.111737385
0001b0 3f e1 35 bc d0 32 90 3d c4 19 3f 3e fa b4 bf 3c
       -0.011101066 0.07040942 0.18662173 0.023401726
0001c0 b7 95 b9 bd 10 4d 7b bd 6b 25 07 3e e7 63 7c bb
       -0.09061759 -0.06135279 0.13197868 -0.0038511695
0001d0 b3 be 0b bd bc d9 ea bd f7 3b 41 3d e8 ba 1d 3e
       -0.03411741 -0.11467311 0.047176328 0.1540333
0001e0 61 cd ca bd 4c 08 6d bd 13 c8 a5 bd 3b 99 36 3e
       -0.09902454 -0.05786924 -0.08094802 0.1783189
0001f0 7e a0 d0 bc bf 9f 77 bd 31 03 e9 3c 2d 6b 30 be
       -0.025467154 -0.06045508 0.028443905 -0.17228384
000200 12 9a ca 3d 08 70 45 3d 1e 99 82 bd 93 23 ef 3d
       0.09892668 0.048202544 -0.06376861 0.11676707
000210 e6 7c 9c 3d 14 12 f1 3d 1e 4a d8 bd 5b 8c b0 bd
       0.0764101 0.11771026 -0.10561012 -0.08620521
000220 fe 69 1c 3d fd 7f 8c 3d e7 b5 3b 3e 24 9d 31 bd
       0.03818702 0.06860349 0.18331109 -0.04336275
000230 87 3e 1e bd 12 62 51 bd 30 7e 52 bd 72 af d4 3d
       -0.03863385 -0.051118918 -0.051389873 0.10385026
000240 88 ac 85 3d b3 4c 0c 3e 7c ed 4a bd cc 47 0f 3d
       0.06527048 0.13701133 -0.04954289 0.03498058
000250 0d de 22 3d 15 43 da bd e3 b2 6c bd 49 98 e7 3d
       0.039762545 -0.10657326 -0.057787787 0.11308343
000260 f8 5f 91 bd de e2 c3 bc 69 1b 20 be ed 04 4e 3a
       -0.07098383 -0.02391189 -0.15635456 0.00078590104
000270 78 fc d0 bd ee bf bc 3d 77 79 37 bd ad 5f d8 3d
       -0.102044046 0.09216295 -0.044793572 0.10565124
000280 78 a2 82 3d c4 a8 d3 bd 7e 42 aa 3d cf 54 25 bd
       0.06378645 -0.10334924 0.08313464 -0.040364083
000290 fc f8 8c 3d 81 b3 bb 3d 12 a3 5c bd 61 3c 9a 3d
       0.068834275 0.09165097 -0.053866453 0.075310476
0002a0 f3 6d 4e bd 8b 00 0f 3e 84 e7 25 bd 18 6c 99 3d
       -0.050397824 0.13965051 -0.040503994 0.0749132
0002b0 0e 52 b4 3d 2f ac 8a bd 16 9e 5d 3d b4 bf 1d 3d
       0.08804713 -0.06771123 0.05410584 0.0385129
0002c0 f9 06 8a bd c7 1b cb 3d 86 bf b4 3d b7 c1 93 3d
       -0.06739611 0.099174075 0.08825593 0.072146825
0002d0 4a a6 a1 bc 87 c6 db bd ad 3b e5 3c 0a 63 ee bd
       -0.019732613 -0.107312255 0.027982557 -0.11639984
0002e0 a8 ca 00 bd 17 55 8c 3d 91 32 a5 bd 0f b0 86 bd
       -0.031443268 0.06852167 -0.080662854 -0.06576549
0002f0 01 cb 3c bd b7 37 59 bd b6 49 19 bd f0 54 de bd
       -0.046092037 -0.05303165 -0.03742381 -0.10856044
000300 ef 19 8a bd a1 9a 34 3d 42 52 59 3d e8 b2 83 bc
       -0.06743228 0.044092778 0.053056963 -0.01607652
000310 39 f7 15 be e0 af af 3d c1 ce 3d bd c1 ab 7b 3d
       -0.14645089 0.08578467 -0.046339754 0.061443094
000320 74 79 01 bd 0f 6b 80 bb e0 b7 10 bd 6b 3b cf 3d
       -0.031609967 -0.0039190124 -0.035331607 0.10118755
000330 13 4f 05 be 3f e4 b5 bd 07 a2 9c 3d 7f e4 be 3d
       -0.13018446 -0.08881425 0.07648092 0.09320926
000340 8b 9d 10 bc c1 47 02 bd d6 6c 01 3e 97 b3 df 3d
       -0.008826624 -0.03180671 0.12639174 0.10922926
000350 09 98 ae bc aa 62 b2 3c 30 9f 5e 3d bb 57 ac 3d
       -0.02131273 0.021775562 0.05435103 0.08415171
000360 a6 7c d6 3c 55 93 3a bd 97 4b 74 3d f9 34 fb bc
       0.026182484 -0.045550663 0.0596424 -0.030664908
000370 7c df 11 3d d7 1c 87 bd 2b 21 43 bc 5a a3 1a 3c
       0.035613522 -0.06597298 -0.011909763 0.00943836
000380 03 4f bc bb 0b 4e 2f 3d 44 08 29 bd 43 85 c9 3d
       -0.0057467236 0.042799037 -0.04126765 0.09839871
000390 5c 05 84 3a 2d 47 1b bd 3c ca 1f bd 1e 2e d8 bd
       0.0010072398 -0.037909675 -0.039011225 -0.10555671
0003a0 95 25 8b 3d bf 06 e5 bd 91 8b 96 bd 82 45 8a 3c
       0.067942776 -0.11182927 -0.07350839 0.016878847
0003b0 70 ad f7 ba c1 3c e3 bc 3c c7 ed bd 78 28 ac bd
       -0.0018896293 -0.02773893 -0.116102666 -0.08406156
0003c0 33 66 ca bb bf 27 09 bd 9f 11 36 3d 4a bc ed 3d
       -0.006176734 -0.03348517 0.0444504 0.11608179
0003d0 e1 bd 3a bc ab 66 58 3c b1 73 83 bc 3c 71 6a 3d
       -0.01139781 0.013208072 -0.016046377 0.057236895
0003e0 67 bc c8 3d 0f fe e7 bc 14 37 ad 3d 1d 2c a2 bd
       0.0980156 -0.028319387 0.08457771 -0.0791857
0003f0 c5 10 7e 3d a0 a9 9e bd 44 fb dc bd 0b f5 d9 3c
       0.06202771 -0.07747197 -0.107901126 0.026606103

head.0.bias f4 [64]
000000 e3 6a 05 3e 6c 67 1b bd 04 a0 d7 bd af 1c 58 bc
       0.13029055 -0.037940428 -0.105285674 -0.013190432
000010 f2 dd e2 bd bb e6 2b 3d b3 49 da bd 96 cb c5 3d
       -0.11077489 0.04196809 -0.10658588 0.096579716
000020 5a 22 c4 bd 2b f8 7d 3d a7 d3 ba 3d ff 7c e0 3d
       -0.095768645 0.06200425 0.09122401 0.10961341
000030 3a 48 b7 3d 70 d2 b5 3d b8 56 0d be b1 6b 9f bd
       0.08949323 0.088780284 -0.13802612 -0.077842124
000040 e4 a6 75 3d b0 1a da 3c 77 07 a2 3d 2b e1 4c 3d
       0.059973612 0.026624054 0.0791158 0.050019424
000050 47 9b c4 bb 22 2c c4 bd 21 41 bf 3d f1 60 20 be
       -0.005999956 -0.0957873 0.09338594 -0.1566198
000060 7c 19 97 3b 09 41 02 be f7 b5 7b bd 51 3c b3 bc
       0.0046111923 -0.12720121 -0.061452832 -0.021879347
000070 ea 24 06 3e a9 16 c0 bd d3 61 fb b9 3b 3f af 3d
       0.13100019 -0.09379322 -0.00047947335 0.08556982
000080 b2 f0 d6 3d d0 c2 ac 3d 10 70 87 bd dd 20 9e 3d
       0.10495128 0.08435595 -0.06613171 0.07721112
000090 07 e9 09 3e 8c 87 cd 3d 5e c8 c3 3d bf ac 41 bd
       0.13467799 0.10035619 0.095597014 -0.047283884
0000a0 cf 54 f0 3d ac d8 e0 bd 0b d7 fc bd 44 1e ce bc
       0.11734926 -0.10978827 -0.12345704 -0.025160916
0000b0 b1 d5 ac bd ad 51 c2 3d c1 25 af 3d 6e ed f6 bd
       -0.08439196 0.09488235 0.08552123 -0.12057005
0000c0 32 a0 a0 3d 82 61 0c 3e b6 8f 0b 3d cd 45 bc bc
       0.07843055 0.13709071 0.0340726 -0.022982502
0000d0 b1 d4 47 bc 53 23 7f bd 3d d8 69 bd 6f 28 f8 3c
       -0.012196706 -0.062289547 -0.057090987 0.030292718
0000e0 4d ef 19 be 74 9e f4 bd 18 08 b5 bd 09 cd c9 3d
       -0.15032692 -0.11944285 -0.088394344 0.098535605
0000f0 c2 67 69 bc 3a d4 74 bd 43 e2 df bd 53 d2 b0 39
       -0.014245929 -0.059772708 -0.10931828 0.0003372604

head.2.weight f4 [1, 64]
000000 d4 66 a7 bd d3 98 37 3d 2a 1a b0 3c 8e 3c a3 39
       -0.0817391 0.04482348 0.021496851 0.000311349
000010 92 58 34 bd 0c d9 28 bd 46 0c c9 ba 1e 28 09 3d
       -0.04402978 -0.041222617 -0.0015338741 0.033485524
000020 e1 32 bd 3d 8b 62 54 bd f9 19 a5 bd c8 5d 50 bd
       0.0923822 -0.05185179 -0.080615945 -0.050870687
000030 84 10 1c be 78 4e 03 3e cf 62 8c 3d 31 0d c5 3d
       -0.15240675 0.12822902 0.06854784 0.09621657
000040 a6 b0 cb 3d 57 ba 01 3d 7e c5 8b 3d ba 1b c3 3d
       0.099458024 0.03167185 0.06824778 0.09526773
000050 d6 65 a1 bd fd 95 7a 3d 9d 2d 27 3d 96 bf 2c bb
       -0.07880752 0.061178196 0.040814985 -0.0026359311
000060 57 b7 b9 bc c2 40 8f 3d b4 ba 17 bd 16 27 2e bb
       -0.022670431 0.069947734 -0.03704329 -0.002657359
000070 c3 e2 e3 bd c1 2f ba 3a 56 87 78 3a 8a cf 08 3e
       -0.11127236 0.0014204906 0.0009480616 0.1336042
000080 79 2b e7 3d 07 93 40 bd 11 91 6e bc 96 b2 ac bd
       0.112875886 -0.047015216 -0.014560954 -0.084325
000090 15 08 d2 bd e5 d4 c3 3c 8a 0e 5b 3d 66 a5 ba ba
       -0.10255448 0.023905227 0.053480662 -0.0014239966
0000a0 a8 19 04 bd 6c c5 a6 3d 90 60 68 3d b4 df 0b be
       -0.03225103 0.08143124 0.056732714 -0.13659555
0000b0 75 9d 6a bd 1a 91 21 be f5 94 81 3d c1 8f 52 3c
       -0.05727907 -0.15778008 0.063272394 0.012851656
0000c0 1d 85 53 3d 0e d4 fc bd 4a c0 3f 3d c3 eb e9 bb
       0.05164062 -0.12345134 0.04681424 -0.0071387007
0000d0 c0 4d 04 3d 5a 3e 72 3d 3a 26 95 3d a7 59 1c be
       0.03230071 0.059141494 0.07282682 -0.15268575
0000e0 31 2c bc 3d e5 56 7a 3b 48 96 2d bd e9 a8 9c 3d
       0.09188116 0.0038198766 -0.042379647 0.076494046
0000f0 7d b2 ff bd 31 21 1c 3d 8d b0 ec bc 41 b9 63 bd
       -0.12485216 0.03811759 -0.02889278 -0.055596594
