outputs/exp_0002_20251212_235529/runs/seed4/h1/OnlineSGD/model_final.pt (torch, 71493 bytes, 7 tensors)

gru.weight_ih_l0 f4 [192, 1]
00000000: 6b06 9fbc 4603 1dbd 2f4e 2fbe 579b 6c3c
00000010: 577f c6bd 2eb8 19be 44d9 7a3d fdc8 fa3d
00000020: fc12 c53d 288c 063e 5e56 b3bd ef04 84bc
00000030: 0f1d 873d a563 a2bd 1392 893d ac7e 043c
00000040: 8ecb d8bc 5ab3 33bd a666 7bbb a851 fbbd
00000050: ba01 633d 7afb 173d 67b3 933c 0c20 f73c
00000060: f91f fb3d e8c3 643d 2c00 4c3d 7825 1c3c
00000070: c664 113d 5317 f8bd 18ba 6e3d 7264 de3d
00000080: c7e2 7ebd cd53 d73b e8d5 2b3d cfcc 03bd
00000090: cf56 d1bd f16f ae3d a3fe a93c 754b 823a
000000a0: 8e08 c63b b9ec 893d 6c87 e53d 8e26 c5bd
000000b0: 73ec 48bb 0d4a 253e 581a 913d 6e66 89bd
000000c0: aa7b 5bbd b629 173e a194 04be fbcb a13d
000000d0: 4d24 0c3e dab5 d5bd 5e65 eabd c5c6 f4bc
000000e0: 9920 7dbb f43b 1b3d 2cc3 723d 64da 053c
000000f0: 036e 16be 8ca8 3fbc ef59 1cbe 6492 f93c
00000100: dcd3 34bd 8824 923d ac4d 313d 6295 dfbd
00000110: 894f c5bb c3b8 a13c 1276 28bd 2951 d0bd
00000120: aacf b5bd 6cb0 02be 124b 9bbd 4d53 d13d
00000130: 6618 333d 5a82 233c 9136 57bd dc36 09be
00000140: f346 a3bc f9ed ae3d db3a a63d b5b6 c1bd
00000150: 5550 17bd a131 4c3c 0435 013d 8e5d ca3c
00000160: aa8a 98bd 682a f9bd afab 383c 455d 833d
00000170: aee9 ee3c 8f36 033d 0bbd 843d a1bc acbd
00000180: 7484 0dbe eb54 ec3c e745 993d af47 07be
00000190: d259 cdbd 853d 9d3d a8b0 823d fe35 d7bc
000001a0: e7f1 99bd ff2d 19bc 3593 e3bd 3dc9 a3bd
000001b0: 7246 fc3c 04e8 533d 79f1 93bb 776a eebc
000001c0: 7f39 cbbd 82ca 87bc 888c 36bc 8d06 293d
000001d0: 1e13 88ba dc7a 55bd 5d69 1f3d 1487 ee3c
000001e0: e854 e63b 30c3 a1bd 2e0b 2abc dcb8 513c
000001f0: 2ca0 933d 8e9e 5cbd 0a73 68bd 320b 0e3d
00000200: ebeb 19bd 3a50 193e 7c07 1dbd 775f 393e
00000210: 8d82 8dbc 44ea 49bb 901e 483c a0e7 253d
00000220: 8648 4d3e 677c 4cbd ca5b e53d 9770 83bd
00000230: b2ef 01bd deac e73d ad7e 25be 4c1e f93a
00000240: 5cc7 133e 372c c33d df5a 2d3d 4790 f83c
00000250: e07c e33d 8b4c b03d 5817 f2bd e068 0c3e
00000260: e873 0fbe 8679 1abc 10da bdbd 220d e8bd
00000270: d314 48be e291 3d3e 7e60 533d 0115 ab3b
00000280: a3f3 f7bb 11c3 0abe 0ad2 1dbe 5de1 973c
00000290: d08b 2ebe 27cc e2bc 8c4d 0f3e b411 393e
000002a0: 9d43 a8bd 2514 3bbe e16f bf3d 886a 033e
000002b0: a0a0 cf3d 350e 57bc 9f38 03bd e975 1db7
000002c0: ad40 633c 8770 d23b e927 e2bd 505f 3e3e
000002d0: 8317 863d 2501 253d dc8e f3bd c00d eebd
000002e0: 107e f8bd 6330 8abd 318a cf3d e84e 26bd
000002f0: 2631 bc3c aa76 08be 4e4a a2bd 2d43 0c3e
-0.01941224 -0.0383332 -0.17119668 0.014441333 -0.09692257 -0.15011665 0.061242357 0.12245367
0.096227616 0.13139403 -0.087567076 -0.016115634 0.06597339 -0.07929162 0.067173146 0.008086842
-0.02646425 -0.043872215 -0.0038360744 -0.12271434 0.05542157 0.03710506 0.018029882 0.030166648
0.12261958 0.055850893 0.04980485 0.009530418 0.035496496 -0.12113824 0.05828294 0.10859002
-0.06222799 0.006571269 0.041952044 -0.032177743 -0.102216356 0.08517445 0.020751303 0.0009940701
0.0060435003 0.067346044 0.1120747 -0.09626494 -0.0030658513 0.1614153 0.07085103 -0.0670899
-0.053584732 0.14762005 -0.12947322 0.07900234 0.13685723 -0.10435076 -0.114451155 -0.029879937
-0.0038624166 0.037898973 0.05926816 0.008169744 -0.14690404 -0.0116979 -0.15268682 0.030465312
-0.044147357 0.07135874 0.043286964 -0.109171644 -0.006021444 0.019741422 -0.041128226 -0.1017173
-0.088774994 -0.12762612 -0.07582678 0.102209665 0.04372444 0.009979809 -0.052542273 -0.13399833
-0.019931292 0.085414834 0.081166945 -0.09458677 -0.036941845 0.012463004 0.0315447 0.024702813
-0.07448323 -0.121662915 0.011271401 0.06414274 0.029164162 0.032034453 0.064813696 -0.084344156
-0.13820058 0.028849086 0.07484036 -0.13210939 -0.100268975 0.076777495 0.06381351 -0.026270863
-0.07516842 -0.009349345 -0.11112062 -0.079973675 0.03079531 0.05173494 -0.00451487 -0.0291035
-0.09923076 -0.016576055 -0.011141904 0.041266013 -0.0010381674 -0.05211912 0.03891884 0.029117145
0.0070291646 -0.07898557 -0.010378642 0.012800422 0.07208285 -0.053862147 -0.056750335 0.034678645
-0.037578505 0.1497201 -0.038337216 0.18102823 -0.017274166 -0.00308098 0.012214318 0.040504098
0.20047197 -0.049923327 0.11199148 -0.06417959 -0.031722732 0.11312269 -0.16161604 0.0019006222
0.14431518 0.09529918 0.04232299 0.030342234 0.111078024 0.086083494 -0.11820859 0.13711882
-0.14009058 -0.0094283875 -0.09270108 -0.1133063 -0.19539194 0.18512681 0.051605694 0.0052210097
-0.0075668856 -0.13550974 -0.15412155 0.018540079 -0.17045522 -0.027685238 0.13994426 0.1807316
-0.08216021 -0.18269403 0.09347511 0.12833607 0.10138059 -0.013125946 -0.03203642 -9.385382e-06
0.0138704 0.0064221057 -0.110427685 0.18591046 0.06547453 0.040284295 -0.11892483 -0.11623716
-0.121334195 -0.0674751 0.1013378 -0.040602595 0.022972655 -0.13326517 -0.07924329 0.136975

gru.weight_hh_l0 f4 [192, 64]
00000000: fdc2 c13d 2c2f 48be 688a 723d 5703 303d
00000010: c824 923c c998 713d 9cc3 1c3d 3f71 c7bd
00000020: efde 873d 36db 1abd dcdd 213d 3092 ae3d
00000030: eab4 8fbd c9c2 f2bc 12fd b5bd 9dc4 4abd
00000040: 39ec 0b3d 7025 023d cf89 113d 973e edbc
00000050: f5df 79bd e2fb e03d cea1 693d 6e89 023d
00000060: 0601 b33d b26a 5fbd 7f51 f5bc a555 d43d
00000070: 47ea db3d 15c4 07be d268 cdbd a6e4 faba
00000080: 26f2 183d 31ec 61bd 9357 893d 1d23 06be
00000090: 4df6 6f3c ed5b e53d 34bc fcbc cb21 e4bc
000000a0: 3482 2c3c 46d2 b43d fc02 87bb e2c8 b0bb
000000b0: 5824 bebd f9ce b5bc 1896 51bd 5af6 ec3d
000000c0: 0d0f f4bd 6fb2 363d bbb7 2f3b c312 bc3c
000000d0: c0a0 903d b130 923d 31db bfbd cbeb 13bc
000000e0: 2ebe b8bd 8697 1e3d 4e3a cebd 7023 7d39
000000f0: 4618 0cbe 48ad 853b 759e 93bd b8f1 c9bd
00000100: 7fc5 f53c bcce 613c d086 b2bd 863c 80bd
00000110: 9c96 5c3d 68c6 02bd 112a 9dbc dc2b 1e3e
00000120: 8afa 083e f232 b2bd f302 893d 4c7b e2bb
00000130: e213 b8bd 7d17 a93d 5e6d 3cbd e488 80bb
00000140: be7c 9c3b 09fa bd3d 6a39 1e3a ea9a 1fbc
00000150: fcc7 5b3d c4f5 913b 1055 693d 3cdb d43d
00000160: 0e83 87bc 7e7d 073e a4b4 edbd 2054 4ebc
00000170: 844d 193d b6d0 dcbd 5356 0ebe 1515 a7bd
00000180: 851b 18bc 3114 833d 70f3 25bd 9338 393e
00000190: 2795 2bbd be20 cd3c 9aca b73d d14d 2d3c
000001a0: e70a 93bd 81b6 063d ddb3 f03c bb0b d2bd
000001b0: 2308 253e f1f2 333e eec1 3dbd 2bd8 093e
000001c0: 8368 0e3c 98bf f73c e0fd a03b 286f da3c
000001d0: f0c2 c33c 69b1 dabd 4ef5 dbbc 717d b5bd
000001e0: eb85 85ba 67e3 2e3d c9a7 a6bd baa0 803c
000001f0: eabc b9bd dc91 833d b7f9 8a3d 4bfe 18bd
00000200: b87f 5c3e 725c b53d 61fb 0cbe 8b22 55be
00000210: 7ab4 1fbe f32d 9abc ddee 7f3d a696 22be
00000220: ccff d3bd 974f 80b8 8ace 73bd bfe2 023e
00000230: 57d8 423e 4fa1 713c 8b21 883d cf9b 233e
00000240: 6f58 f2bd 59cf c3bd b6ee c2bd e4f9 ea3c
00000250: 881f 9ebd 1539 c2bc cbd9 f6bc f7a5 5dbe
00000260: 84ab ab3c 585a 9a3d 8f76 6ebd 8e2f f33d
00000270: 4198 293e 02df 1abe f25d 8dbc c252 95bd
00000280: de0e 863d 7d9d 893d 50ae 023c 2286 ecbc
00000290: 4d60 083e 8c00 18be 3747 473a 85fd dabd
000002a0: 1741 ef3c 8715 c1bc e7d7 7fbd 1f14 6cbe
000002b0: eaf8 013e 4501 5c3d 0ffb d63d 3607 b33d
000002c0: f84a 2fbd 0c6c c5bd f353 e83d c3b4 b9bd
000002d0: 12bb bd3c 41d8 b73c 9e3b b53d 7b38 d93c
000002e0: c064 393e 89b8 603d b568 13be 1b9c f73d
000002f0: 8a3b 5dbb 6459 913d 647b fb3d 646a f7bd
00000300: ecc3 bfbd f508 323c 4e74 83bc 2b8a 8c3d
00000310: 2a56 bcbc 6023 f23d 3320 513d 51fd 9c3c
00000320: bf1c c33c 5a66 cabb 47a1 033e 88a1 cdbd
00000330: f850 97bd 65a2 1e3e 691e c1bd af99 843d
00000340: 70b7 a8bc 0849 afbc 36c0 d9bc c730 a3bd
00000350: 5cfd fc3d ca43 4abd 462b 883d 6547 b13d
00000360: a684 15bd 0ccb 883d 87ce c3bd cc04 3fbd
00000370: 2d72 73bd da1b 3a3d 649f 3e3e 738d f9bd
00000380: 45ff f7bd 565f b0bd a3a2 22be f3fb 55bd
00000390: d094 273d 2fb6 5a3c 5ac1 343e 4023 143e
000003a0: d093 9d3c d558 383d 9908 acbd f199 70bc
000003b0: 8d98 61bd 2869 3bbd 7ce0 463c 21a7 af3c
000003c0: 9e45 13bc 635f cebd 7877 a8bd a24d 20bd
000003d0: c849 68bd e456 433c 2d79 403d 4d58 253d
000003e0: 7c5f 973c e8ad 5dbc cb9f bb3c 390c 01be
000003f0: 09d4 443d ff12 863d 53a0 fabc 1759 e73d
0.09461019 -0.19549245 0.059214026 0.042971935 0.017839804 0.058983598 0.038272485 -0.09738397
0.06634318 -0.037806712 0.039518222 0.08523977 -0.070169285 -0.029633896 -0.0888616 -0.04950391
0.034160826 0.031773984 0.035531815 -0.02896051 -0.061004598 0.10985543 0.057039075 0.031869344
0.087404296 -0.054545112 -0.029946087 0.10367898 0.10738044 -0.13258393 -0.100297585 -0.0019141629
0.037340306 -0.05515689 0.067061566 -0.13099332 0.014646125 0.11199174 -0.030851461 -0.027848145
0.01052909 0.08829169 -0.004120229 -0.005395041 -0.09284276 -0.022193419 -0.05116853 0.11570425
-0.11916933 0.04460376 0.0026812393 0.022958165 0.07061911 0.071381934 -0.09367979 -0.009028385
-0.09020649 0.038718723 -0.100697145 0.00024141162 -0.13681135 0.0040794946 -0.07207958 -0.09860557
0.0300014 0.0137821995 -0.0871712 -0.06261544 0.05385457 -0.031927496 -0.019185098 0.15446419
0.13376823 -0.08701123 0.06690016 -0.006911671 -0.08988167 0.08256433 -0.04600274 -0.0039225686
0.0047756126 0.09276206 0.0006035777 -0.009741524 0.053657517 0.0044543464 0.056965888 0.10393378
-0.016541984 0.13231465 -0.1160672 -0.012593299 0.03742744 -0.10781996 -0.13900118 -0.08158318
-0.009283905 0.064003356 -0.040515363 0.18087988 -0.04189029 0.025040027 0.0897419 0.010577635
-0.07179814 0.032888893 0.02938264 -0.10256144 0.16116385 0.17573144 -0.046327524 0.13461368
0.00869191 0.030242726 0.0049130768 0.026664332 0.023896664 -0.106783696 -0.026850369 -0.08861817
-0.0010187005 0.042697337 -0.08137471 0.01570164 -0.090692356 0.06424305 0.067859106 -0.037351888
0.21533096 0.08855523 -0.13767768 -0.20813958 -0.1559619 -0.018820738 0.062483657 -0.1587778
-0.10351524 -6.1183404e-05 -0.059523143 0.1278181 0.1902784 0.014747932 0.06647023 0.15977405
-0.118332736 -0.09561033 -0.09518187 0.02868361 -0.07720858 -0.02370886 -0.030133149 -0.21645342
0.020955808 0.07536763 -0.058218535 0.11874305 0.16561987 -0.15124133 -0.01725671 -0.072911754
0.065458044 0.06719492 0.00797613 -0.028872553 0.13317986 -0.14843959 0.00076018594 -0.10692886
0.029205842 -0.023569835 -0.06246176 -0.2305455 0.1269261 0.05371215 0.104971044 0.0874161
-0.042796105 -0.09639749 0.11344137 -0.09067681 0.023160491 0.022441985 0.08849262 0.02651619
0.1810484 0.054863486 -0.14395411 0.12090322 -0.0033757412 0.07097128 0.12279394 -0.12080839
-0.09363541 0.010866393 -0.01604667 0.06862291 -0.022990305 0.118231535 0.0510561 0.01916376
0.023817418 -0.006176752 0.12854491 -0.10040575 -0.073884904 0.15491636 -0.094296284 0.06474625
-0.020595282 -0.021397129 -0.026580911 -0.07968288 0.12353012 -0.049381055 0.06648879 0.086561956
-0.036503457 0.06679353 -0.09560876 -0.046635434 -0.05943506 0.045436718 0.1861549 -0.121851824
-0.12109236 -0.08611934 -0.15882353 -0.05224223 0.040913403 0.0133491 0.17651883 0.14466572
0.019235522 0.04500659 -0.084000774 -0.01468514 -0.055077124 -0.04575458 0.012138482 0.021441998
-0.008988766 -0.10076787 -0.08225912 -0.039136536 -0.05671099 0.011922572 0.046990562 0.040367413
0.018478148 -0.013530232 0.022903344 -0.12602319 0.048053775 0.06546592 -0.030594027 0.112962894

gru.bias_ih_l0 f4 [192]
00000000: e5d1 be3d 678b de3d 6007 013e 43ec 563d
00000010: 83b3 c5b9 4f35 833c c498 f9bc 69c6 3d3d
00000020: 2dbf 2a3c 5a9f 15bc 2fd8 acbc 24fe 9fbd
00000030: 1d0b 843c 3c21 82bc 5ed5 a3bd 1af4 603e
00000040: 0299 c0bd 1cf4 a0bd 7963 0ebe d1e6 5dbd
00000050: 1499 87bd 4916 343d 325a d4bd 01aa bdbd
00000060: 8750 c1bc 5d2b 9f3c ff81 9b3d b9a4 f63d
00000070: bd8c 01be ccfb f7bc 6b7a dbbd d4c7 fbbd
00000080: 420f b03b 318d 943d 799e 083e fa8e eb3d
00000090: 8c4e 223c 4416 893d f922 1abb 20fb 8f3d
000000a0: b8f8 993c a705 de3c 8d67 eb3d 876e 03be
000000b0: 5d98 c33c 6455 39bc b955 113e 0031 9dbc
000000c0: f43e 493d 4476 b73c 032e 0bbd 3ec3 c93d
000000d0: 0c86 4a3c 8995 0f3e 48e9 2f3e 198e 6cbd
000000e0: 5bb1 1b3d c4e9 abbc b31f 05bd 612e 153e
000000f0: d3ec a4bc de9b 763c 392b 0c3e e764 25bb
00000100: bbab b2bc ef74 b0bd 47d9 423d a01d 093e
00000110: ef9e 623d f069 d03d d705 123e 334a 093d
00000120: c6af 61bd 9c4a 303e 754b 28bd 8402 223d
00000130: 10c7 a13c 5064 fa3d b946 903d 646e 013e
00000140: dbba 6a3d 168a a73c c1e2 c33c ee35 abbd
00000150: a080 783d 9be1 193d 2fd8 1dbd fe49 d2bc
00000160: eb8b b53c 4e7f 103e 8e71 5dbd 8661 283e
00000170: ed9f edbd 391e 663c 6bf5 c03d 1a49 cbbd
00000180: d5b9 e8bc 3ca8 403d cc54 97bc a26c 65bd
00000190: 4827 1bbd dd41 76bd 92d4 ccbd aff5 3abe
000001a0: 4942 cc3d 4094 b2bd 8caa e83d 6f49 243e
000001b0: e689 df3d 6115 f13d 7c8b c83d 6c4b 313e
000001c0: 63c3 453e 5712 be3d e3dc 68bd 9a0c 86bc
000001d0: 3aff 993b 05d3 c23d 238d b03d 6484 50bd
000001e0: 0b1f c33d 3a9f 133e bceb 123e 8c7d b03d
000001f0: 14bc e83d c1f2 eb3d 4e5c 26bc b838 c33d
00000200: f8fb 5fbd 3c6c bb3d 117b a23d e5ae d0bc
00000210: 060f e8bd 1fdd bf3a 2b77 f8bd df54 b43b
00000220: 9982 34bd d6e5 77bd 6420 7b3c 7680 49b9
00000230: d988 31bd 75e4 de3d 9058 13be 2a14 8cbd
00000240: 77c8 0e3d 7bcf adbd 9c2d 0bbd c167 ef3c
00000250: 3536 8abd 520d 07be a755 c13d 9f3c 88bc
00000260: cc69 e53d e787 c2bb 141d 88bc 7d67 843d
00000270: f8fc b43c c0e0 d23d d220 a83d 91d5 05bd
00000280: 04c8 123e 8813 e1bd 5cee 56bd c015 b73d
00000290: 9ef0 d0bd dd90 323d 0584 cb3d c61e e4bd
000002a0: 8b6b f0bc 3036 973d 9aa5 ed3d 0de9 8abc
000002b0: 9b31 e63d 420f e4bd a1fb 9ebd 14fc b6bd
000002c0: 8365 eebc 5787 013e 82cc 0a3c f575 0bbc
000002d0: 45a6 3bbd 3767 8dbc 547c b13c 4736 adbb
000002e0: 35d6 023e c393 91bc bf24 1abd 56fa a3bd
000002f0: c10e e0bd 8d09 ba3c 3108 aabd 7ebe 9dbd
0.09317378 0.10866433 0.1260047 0.05247141 -0.00037708515 0.01601663 -0.030468352 0.046331797
0.010421556 -0.009132231 -0.021099178 -0.07812145 0.01611858 -0.015884988 -0.07999681 0.21968117
-0.09404184 -0.0785906 -0.13905133 -0.0541752 -0.06620994 0.043966565 -0.10368766 -0.09260941
-0.023597969 0.019429857 0.07593154 0.12043137 -0.12651344 -0.030271433 -0.10716709 -0.122939736
0.0053729126 0.072534926 0.13341703 0.1150188 0.009906422 0.066937 -0.002351938 0.0703032
0.018795356 0.027102305 0.1149436 -0.12835132 0.023876363 -0.011311863 0.14192857 -0.019188404
0.049132302 0.02239526 -0.033979427 0.098516926 0.012361061 0.14021887 0.17178833 -0.057752702
0.038010936 -0.020985492 -0.032500934 0.14568473 -0.020132458 0.01505181 0.13688363 -0.0025237144
-0.021810403 -0.08616053 0.047570493 0.13390207 0.055327352 0.10176456 0.1426004 0.033518028
-0.05509927 0.17215961 -0.041087586 0.03955318 0.01974824 0.12226164 0.07044739 0.12639767
0.057307106 0.020451587 0.023911836 -0.08359896 0.06066954 0.03756867 -0.038536247 -0.025670048
0.022161445 0.14111063 -0.054063372 0.16443452 -0.11602769 0.014045292 0.0942181 -0.099260524
-0.028408924 0.04703544 -0.018473051 -0.056011803 -0.03787926 -0.060121406 -0.10001482 -0.18257783
0.099735804 -0.08719683 0.11360654 0.16043638 0.10914974 0.11771656 0.097922295 0.17313927
0.19312815 0.09280842 -0.05685128 -0.01636343 0.004699615 0.09512905 0.0862067 -0.050907508
0.09527405 0.14416209 0.14347738 0.08617696 0.11363998 0.11520911 -0.010153843 0.095323026
-0.054683656 0.091515034 0.07933629 -0.025474021 -0.113309905 0.0014638043 -0.121321045 0.0055032815
-0.04406986 -0.060521923 0.015327547 -0.00019216709 -0.0433434 0.108834185 -0.14389253 -0.068397835
0.034859147 -0.084868394 -0.033979043 0.029224278 -0.067486204 -0.13188675 0.09440165 -0.016630469
0.1120182 -0.005936611 -0.016615428 0.06465051 0.022093281 0.10296774 0.08209385 -0.032674376
0.14334112 -0.109900534 -0.05247341 0.08939695 -0.10202144 0.043595184 0.0993729 -0.11138682
-0.029348155 0.07383382 0.116038516 -0.01695683 0.1123993 -0.11135723 -0.07762838 -0.08934799
-0.029101139 0.12649284 0.00847161 -0.00851201 -0.045812864 -0.01726113 0.02166573 -0.0052860114
0.12777026 -0.017770654 -0.0376327 -0.08006732 -0.10940314 0.022709632 -0.08302344 -0.07702349

gru.bias_hh_l0 f4 [192]
00000000: 3c1e 923d 8cc2 8b3c e429 273e e939 9ebb
00000010: 2782 213d 67cc 3c3d 9bc1 10bd 6180 e43d
00000020: 3d91 88bd edc2 5fbd 5fd0 a63d 4c07 f1bd
00000030: 6f3f ca3d 9e6b 143d 30b9 bebd 28a3 dbbc
00000040: 89c9 8f3d bbe3 8f3d e48e 88bd 1809 1d3e
00000050: 440c 02be c9e7 cd3b 3dca 3fbd 8a15 24be
00000060: ad87 b1bc ce9d 8cbc 5767 aa3b f00b 333d
00000070: 0f7e 80bd 4ed1 5ebb 5e39 fb3d cbe9 12be
00000080: a9a8 df3d a130 f4bc f47a 093e 9e0c 853d
00000090: cb04 4b3d ee5d 023e 397a 103d 8553 edbd
000000a0: 4959 213d c244 92bd 22a2 063e cad7 9c3d
000000b0: 1952 ce3c 7174 0fbb 32b1 a93b f3b2 a3bd
000000c0: 08a7 d73d 43eb 5abb ad8b 103e 21b9 cdbd
000000d0: 71d5 dcbd 91fd 283e 37d1 54bd 3b91 1cbc
000000e0: f4dc c0bc 484a 923c 0fbe 533d 666a 693c
000000f0: 91d0 1e3e c892 363d 4216 093e 49ff 3b3d
00000100: a39f 083c 3663 bcbd 46f2 073e ee93 6e3d
00000110: a294 fb3d 60f0 a83d b603 c6bc 9684 c8bd
00000120: fd31 8c3d c370 483e 3f96 1c3e 3927 f33d
00000130: 871a 86bd 8e89 bb3c a9f7 09bd 3c47 453e
00000140: 5f99 a73d 1821 7e3d 63e3 82bc c160 ea3d
00000150: a983 2c3d baa1 443e 0530 1bbe fc8e 1a3d
00000160: 850b b3bc 669e 12bd 378b 9cbb 5d55 7f3d
00000170: 50d9 03be 5499 66bd a0c2 183d b282 09be
00000180: 9ff9 3fbc 0c79 87bd b76e 6dbc 407f 82bd
00000190: ee22 823c 8afb 33be 1209 ff3b da2a 83be
000001a0: 0447 2f3d 5504 193d bccd 0e3e f1e9 493d
000001b0: 1e8e 183e 92a9 a13b 03cd c7bd 9e0c 133e
000001c0: e444 4f3c b490 8e3d b3d4 253e 8ad2 ce3d
000001d0: 611a 883c 4fd3 933d c7ba e13d a761 cf3c
000001e0: a951 a2bc 7654 2ebd a1b5 d63d bcef 973d
000001f0: d395 dabc d05e 573d 6263 633d 85a2 3f3d
00000200: c3f1 b73c 71bd bcbd 675e a93d d9c5 f5bc
00000210: 5c96 38bd c1e5 f0bd 02a0 38bd 0a2b 0e3e
00000220: 98cf 8a3d 7b55 afbd 18db 54bb acf2 b3bd
00000230: e03e 9c3d 4bc4 a4bd 7205 bebd 0be7 5c3d
00000240: ef01 59bd 445a 1a3d 0348 d03c d23c 3bbd
00000250: 9c06 d63d b713 d53d 170c 1f3d f754 6cbd
00000260: 9f49 3bbd 4e2b 953d 4f40 e93d b72b 7e3d
00000270: 9261 fa3c 08bc 16bd e3df a6bd 27c4 b3bd
00000280: f12b 183e cc5e be3d d0e2 533d d395 ec3d
00000290: 49bd 2a3d de48 1bbd 3e22 a8bd 91af 88bd
000002a0: 5d0e e43d def9 eabb 0c79 dd3d 8976 2e3b
000002b0: 4073 dbbc 3d5a 523d 0ea2 62bd e92b c3bd
000002c0: f4e9 d0bd 3e02 26bd 6934 043b 8253 4c3d
000002d0: 8c63 063c 32aa 933d f00c ebbd b6e8 d83d
000002e0: 4b09 cc3d 6ffe 853d 1b46 3a3d ed12 b2bc
000002f0: 218e a03c c113 013e 3b56 073b 1660 7ebd
0.07134673 0.01706054 0.16324574 -0.004828681 0.039430764 0.04609337 -0.035340887 0.11157299
-0.06668327 -0.054629255 0.081452124 -0.1176897 0.0987538 0.036235444 -0.093126655 -0.026811197
0.07020862 0.07025858 -0.06667879 0.153355 -0.12699991 0.0062837345 -0.04682373 -0.16023842
-0.02167114 -0.01716509 0.0052003074 0.043712556 -0.06274044 -0.0033999267 0.12266801 -0.14346997
0.10920841 -0.029808344 0.13425809 0.06496547 0.049565118 0.12731144 0.03527281 -0.11588196
0.03939179 -0.07142021 0.13147786 0.07658346 0.025185632 -0.0021889473 0.005178594 -0.07993116
0.105299056 -0.0033404387 0.14115782 -0.10045076 -0.10782898 0.16502978 -0.051957335 -0.00955611
-0.023542859 0.017857686 0.051694926 0.014246559 0.1550925 0.044573575 0.13387397 0.045897756
0.008338842 -0.091986105 0.13276014 0.058246545 0.12284209 0.08248973 -0.024171691 -0.09790914
0.06845472 0.19574265 0.1529169 0.118727155 -0.065480284 0.02289274 -0.033683453 0.19265455
0.0818355 0.06204328 -0.015977567 0.114442356 0.04211775 0.19202319 -0.15155037 0.037734017
-0.021856079 -0.03579559 -0.004777338 0.06233727 -0.12875867 -0.05629857 0.037294984 -0.13428763
-0.011717229 -0.06614885 -0.0144917285 -0.06371927 0.015885796 -0.17576423 0.0077830637 -0.2561863
0.042792335 0.037357647 0.13945669 0.04929537 0.14897963 0.0049335444 -0.097559 0.14360282
0.012650702 0.06961194 0.1619442 0.10098751 0.016614141 0.07218038 0.11021953 0.025315119
-0.01981433 -0.042561017 0.10483862 0.074187726 -0.02668277 0.052580655 0.0555147 0.04678585
0.022454148 -0.092158206 0.08269959 -0.030001568 -0.04506527 -0.11762572 -0.04507447 0.13883606
0.067778766 -0.08561226 -0.0032479223 -0.0878652 0.0762918 -0.080452524 -0.09278382 0.053931277
-0.05298036 0.03768374 0.025424963 -0.0457123 0.104504794 0.10404151 0.03882989 -0.057698216
-0.045724507 0.0728365 0.11389219 0.06205341 0.030564103 -0.036800414 -0.08148172 -0.087776475
0.14860512 0.09295425 0.051729977 0.11552014 0.041684423 -0.03791129 -0.08209656 -0.06674112
0.11135552 -0.0071709 0.108141035 0.0026620945 -0.026788354 0.05135559 -0.05533033 -0.095298596
-0.10200873 -0.040529482 0.002017284 0.049884327 0.008202445 0.072101966 -0.11477077 0.10591261
0.0996271 0.0654267 0.045477014 -0.02173754 0.019599022 0.12605192 0.0020650763 -0.062103353

head.0.weight f4 [64, 64]
00000000: 773c f23d da64 233e 3a3a 0fbe af85 ad3d
00000010: d1bf 0b3d 8fea 6dbd d75f 8cbd c7f2 8e3d
00000020: 39a1 a93d 1aeb 1bbd f5ad f43c 7f42 a6bc
00000030: 7422 91bd aad5 803d 37a9 59bd 7d84 dabd
00000040: a1bc 8bbd 1330 ab3d 64d5 ccbd a1e8 49bd
00000050: cdc4 12bd 5452 cd3c adf0 7dbd 92ff d43d
00000060: 9361 b23d 5371 69bd 2791 32bd 5395 a93d
00000070: 87ee 553d b22c dc3d 103e 5cbd 1725 4cbd
00000080: dade a8bc ac89 e8bb c69f 593d add2 333d
00000090: 8b32 5cbd 7f4a e9bc e3c2 603d 3a39 3e3e
000000a0: b497 f93d c9c2 b03c 2030 48bd 500a 303d
000000b0: 5523 9bbd 3f1c 6a3d 8835 353d c5be 153e
000000c0: e970 ebbb c30d 7fbd aa61 9fbd b876 00bc
000000d0: 7702 0ab9 d24c 9c3c 1817 2c3b e8ae 8f3c
000000e0: 51ac 26bc e948 d7bd f15f a8bd 1874 433d
000000f0: 56e8 a13d 08bd ae3c 61d1 aa3d eb7d 1d3d
00000100: ba3b cc3c dad6 1a3e c59f 03be f24e 1dbe
00000110: f06b d1bd a2d6 1abe 4244 9cbd 14ef c7bd
00000120: 735d 043d 3f23 123d f66d ddbd 8b86 1e3e
00000130: 5a4f a33d fe0f 6abd 1533 6fbc a24a c93d
00000140: 48e8 f4bd 1821 30bd 20cc 40be 4a98 f93d
00000150: eeb6 b13c b0d7 f93b 0271 ff3d 2158 8c3b
00000160: 93f3 1c3e 6ff0 cc3d f106 b5bc 2be1 2c3e
00000170: 7d1e 143d adb8 6b3d 506c ffbd 7d41 a03d
00000180: b3d1 3abd b018 6e3c 3cf4 353e 5754 bc3d
00000190: f356 da3d 17fa c6bd 84ba cbbc 7837 05be
000001a0: dd03 2b3e dd81 0e3e 8970 af3b d456 12be
000001b0: c4b0 d6bb 306c 93bc d8d2 8bbd cd4d 9dbd
000001c0: 41fc 623c 010d 623d b8a3 eb3d ee2b f6bd
000001d0: 57f4 a83c 5b55 89bd e8b5 363d f825 c43d
000001e0: 40d0 773c 2391 d03d 9c2c 19bd 1b5e 2e3e
000001f0: 0aa6 333d 3008 bd3c 36da d1bd bcc6 18bd
00000200: 7314 b7bd 456d 91bc 7fb1 1b3d e83a debd
00000210: 40f1 393d 6624 653d ac23 c1bc 5d05 8dbd
00000220: 362b 8fbd 8e93 ca3d e28c 803d bae7 803d
00000230: d51c 713c 7c80 083c 0c82 b3bd 52c8 f838
00000240: 6106 aebd a1a9 593d 6259 85bc 7137 d3bd
00000250: 5360 a53d 21a6 843d 251c 3abc 0bb1 0cbd
00000260: 50e7 49bd e235 19bd eacd 96bd 16c2 7b3c
00000270: 95b2 c63d 87a5 50bd 603f 78bd 9947 393d
00000280: 79f9 b5bd ddc2 583d 50e8 ba3d b78a 9d3d
00000290: d9b2 cc3d 913a 59bd 2d55 1f3d d3cd 053e
000002a0: e4a3 f3bd 6c84 c63d ebb0 f9bd abe0 1a3d
000002b0: fab1 1abe 4e2e 853d afb6 623c 2e06 2f3d
000002c0: 55b5 17bd b556 64bd e2eb 943d badb d73d
000002d0: 35a6 163c 9f08 02bd 0574 a03c 84da f1bd
000002e0: 41d2 bdbd c8b4 e8bd 8f7d 29bd 306c 8ebd
000002f0: 2e79 afbb d01a bb3c 2229 54bd 4153 4bbc
00000300: d3f4 1e3d c2f1 d63c bc6e 063e cc79 ac3d
00000310: f98d bc3d 7c5c 6abd 0218 2abb 22f6 d93d
00000320: 80a8 3abd eed5 cabd 0864 0f3e 4824 09be
00000330: 337a e33d c036 c73d 07ab ffbd eb32 24be
00000340: c321 f3bc 407f fe3c e671 b03d 6e54 b23d
00000350: d8e5 e73d 4b1a 233d e252 13bd e3aa 10bd
00000360: d3b2 943d 7fb6 07bd ca22 b23d 85f1 863c
00000370: f092 343d 4a2c 4c3d bdac 283e 5f17 6bbd
00000380: f52b 913c c8c2 20be c0f4 cfbd 2c29 9b3d
00000390: 576d 0cbe ce6d 073e 5d3a 93bc dbb9 a5bd
000003a0: 0137 5abd ced2 23bd e3e8 9cbd 72be 4a3d
000003b0: 4c2d 16bd 92d2 033d 3338 e2bd e665 f83c
000003c0: eea6 cabd 20b4 e33d d943 ae3d fdeb 7bbb
000003d0: 41c8 3fbd ca05 76bd 5d6a d33c a1a7 5ebd
000003e0: 6b81 ed3b a4db 913d b9ac a63d 38ca ecbd
000003f0: d5f3 dfbd f1b5 8f3c a829 5d3d 44ec e13d
0.11827939 0.1595644 -0.13987055 0.08472764 0.034118477 -0.05808502 -0.068542175 0.069799
0.08282704 -0.038066007 0.029868105 -0.02029538 -0.070866495 0.06290753 -0.05313989 -0.106698014
-0.068230875 0.08358779 -0.100016385 -0.049294118 -0.035832215 0.025063671 -0.061997104 0.10400309
0.08710017 -0.05699284 -0.04359546 0.082804345 0.05222943 0.107507125 -0.053770125 -0.04984006
-0.020614076 -0.00709649 0.053130887 0.043902088 -0.05375914 -0.028477905 0.05487336 0.18576518
0.12187138 0.021577256 -0.04887402 0.042978585 -0.075750984 0.057155844 0.044240505 0.14623554
-0.007185091 -0.062268984 -0.077823 -0.007840805 -0.00013161624 0.0190796 0.0026258882 0.017539456
-0.010172919 -0.105119534 -0.08221424 0.047718138 0.07905643 0.021330371 0.08340717 0.038450163
0.024930824 0.15121022 -0.12853916 -0.15362146 -0.102256656 -0.15120938 -0.07630207 -0.097623974
0.032315683 0.035678145 -0.10811989 0.15481012 0.079741195 -0.057144158 -0.014599581 0.09828688
-0.11958367 -0.04300031 -0.18827868 0.1218725 0.021693673 0.007624589 0.124727264 0.0042829667
0.15327291 0.100067966 -0.022098036 0.1688277 0.03616189 0.057549167 -0.12471831 0.07824991
-0.04561014 0.014532253 0.1776895 0.09195774 0.106611155 -0.097156696 -0.024869211 -0.13009441
0.16700692 0.13916726 0.0053539914 -0.14290935 -0.006551834 -0.017995924 -0.06827325 -0.07680855
0.013854087 0.055188183 0.11505836 -0.12020098 0.020624323 -0.067057334 0.044607073 0.095775545
0.015125334 0.10183933 -0.03739606 0.17028086 0.04385952 0.023075193 -0.102466986 -0.037298903
-0.08939447 -0.0177523 0.03801107 -0.10851079 0.04539609 0.055942915 -0.02357658 -0.068857886
-0.06990664 0.09891425 0.06276871 0.06294198 0.014716347 0.008331414 -0.08765039 0.00011862874
-0.084973104 0.053140286 -0.016277973 -0.10313309 0.08075013 0.06476999 -0.011359249 -0.03434853
-0.049292862 -0.037404902 -0.07363494 0.015366098 0.097020306 -0.05093911 -0.060607314 0.045234296
-0.08885474 0.05292021 0.09126341 0.076924734 0.0999505 -0.05303437 0.03889959 0.13066797
-0.11896494 0.09693226 -0.121919475 0.037811916 -0.15106955 0.065029725 0.0138375005 0.042730503
-0.037038166 -0.055746753 0.072715536 0.105399564 0.0091949 -0.031746503 0.019586572 -0.11809257
-0.092686184 -0.11362606 -0.041379508 -0.06954229 -0.005355022 0.022839934 -0.05179704 -0.012409986
0.0388077 0.026238326 0.1312818 0.084216684 0.09206767 -0.057217106 -0.0025954251 0.10642649
-0.04557085 -0.09904085 0.14003003 -0.13392746 0.11107292 0.097272396 -0.12483793 -0.16035049
-0.029679185 0.031066537 0.086154744 0.0870751 0.11323136 0.039819997 -0.035967715 -0.03531922
0.072606705 -0.033133026 0.08698042 0.016472587 0.044085443 0.049846925 0.16472144 -0.057395335
0.017721156 -0.15699303 -0.10154104 0.07576212 -0.13713585 0.13225481 -0.017972166 -0.0809209
-0.053275112 -0.03999596 -0.07661607 0.04949803 -0.036664292 0.032183237 -0.110458754 0.030322026
-0.098951206 0.111183405 0.08509035 -0.003844022 -0.046821836 -0.060064115 0.025807554 -0.054359082
0.007248094 0.07121971 0.08138413 -0.11562008 -0.10935179 0.017542811 0.053994805 0.11031392

head.0.bias f4 [64]
00000000: f19a 21be 4140 b2bc 519d 06be 207d a73d
00000010: d49d fbbd bc83 1abe a07b e93d 0f6a b63c
00000020: efab a9bd 9a4a b2bd 23ac 28bd f17a 623d
00000030: beee 063d cf41 64bc ff8d a83d 9fb9 9b3d
00000040: ddd6 59ba 7aaa c13d f796 dbbd 83b4 e6bd
00000050: 22a5 34bd 639d 0b3e f6b4 b8bd 8ea0 b2bd
00000060: 5d67 003b 7b49 bfbd d365 ca3d b5c3 87bd
00000070: ecd4 003c 7960 053e 2cf0 3e3d 50f5 d4bd
00000080: 4ee3 f7bc 68c7 92bd 6adc 0bbe 5ee4 ef3d
00000090: 7ad5 163d f07d e53c 65d0 9f3c 91a6 debd
000000a0: a433 f73d db06 96bc 5132 473d 6085 dcbd
000000b0: 2e52 263c 43c1 2a3d 5ff7 02bd a72d be3d
000000c0: b0b6 b6bd 88c5 c8bd b04b 293e 574a 973d
000000d0: cf80 1ebd 55d3 873d afae 08be 81b1 e2bd
000000e0: e6d7 d6bc 3a6a 013e e18a babd b42d 1e3d
000000f0: e19b 92bd aefe f83c c501 d9bd 9c4c 28bd
-0.15781762 -0.021759154 -0.13145949 0.081781626 -0.12285963 -0.15089315 0.11400533 0.02226737
-0.08284747 -0.08705635 -0.041179787 0.055293027 0.032942526 -0.013931706 0.082302086 0.07603764
-0.000830991 0.09456344 -0.10722154 -0.11264899 -0.044102795 0.13634257 -0.090188906 -0.087220296
0.001959286 -0.09340187 0.09882703 -0.06629125 0.0078632645 0.13025083 0.046615764 -0.10398352
-0.030259755 -0.0716694 -0.136583 0.117134795 0.03682468 0.028014153 0.01950855 -0.10871614
0.120703965 -0.018313816 0.04863197 -0.10767627 0.010151429 0.041688215 -0.031974193 0.09286051
-0.089215636 -0.09803301 0.16532779 0.07387226 -0.03869706 0.06632105 -0.13347887 -0.110690124
-0.026225995 0.12638178 -0.0910852 0.038617805 -0.07158638 0.030394878 -0.10596041 -0.041088685

head.2.weight f4 [1, 64]
00000000: 7048 63bd b6da b2bd 710d 023b 8fff e83d
00000010: 3d96 b1bd 90f1 97bd b2c6 cb3d bddb 54bd
00000020: aced b33d 5fbd d43d d8c0 713d 9304 e53d
00000030: d515 af3d a2c8 ff3d 0c46 b9bd 7a44 e6ba
00000040: 2359 713d 8cc4 b23d fb7b 9b3d 353f a0bd
00000050: d0e9 ba3d f382 cbbd ea8a b63d 6a01 403d
00000060: 1c0c 063e 194f 16bb 247b cebd 90a0 3ebe
00000070: 665c cfbd f476 d8bd 891a dfbd ecca c23d
00000080: 74be d2bd d6c3 ca3d 7994 74bd 245a 2f3d
00000090: 3f72 8ebd 6fbc 34bd 5146 083e a3cc 52bd
000000a0: 5df5 58bd 670c ecbc 7098 1abd c137 33bd
000000b0: 8f6f dd3d 93bc 9bbd e1df 71bd 2f63 0fbe
000000c0: 88a1 e73d 7137 0b3c 04c1 edbd e32e e93d
000000d0: 1c46 2f3d 5b10 38be 0782 5c3a f934 80bd
000000e0: 50d4 973d 7ef2 c83d dee3 cebc 6622 8d3d
000000f0: 1e84 b73c b81c 5c3d f385 ae3d d5c9 00bc
-0.055489004 -0.08733122 0.0019844437 0.11376869 -0.08671234 -0.07419121 0.099500075 -0.05196737
0.08785567 0.10387682 0.0590218 0.11182513 0.08549086 0.124894395 -0.090465635 -0.0017568015
0.058922898 0.087288946 0.07592007 -0.07824556 0.091266274 -0.09937086 0.089132145 0.04687635
0.13090557 -0.002293533 -0.10082081 -0.18615937 -0.101250455 -0.105695635 -0.10893733 0.095113605
-0.10290232 0.09900634 -0.059711907 0.042810574 -0.069553845 -0.044125017 0.13308074 -0.051464688
-0.05296837 -0.028814508 -0.037743032 -0.043754343 0.10812294 -0.07604327 -0.0590514 -0.1400268
0.113101065 0.008497105 -0.116090804 0.11385896 0.04279147 -0.17974989 0.00084117096 -0.06260104
0.07413542 0.09811877 -0.02525514 0.068913266 0.022401866 0.053738326 0.085216425 -0.0078606205
