outputs/exp_0002_20251212_235529/runs/seed3/h10/PHResetSGD/model_final.pt (torch, 71493 bytes, 7 tensors)

gru.weight_ih_l0 f4 [192, 1]
0	0xbe47b6c1	-0.19503309
1	0xbe4f116e	-0.20221493
2	0xbe29d330	-0.16584468
3	0xbd97484d	-0.07386837
4	0x3d19f2d6	0.037585102
5	0xbd84ea64	-0.06490019
6	0x3e262a24	0.16227013
7	0x3e12e0a3	0.14343505
8	0xbda4f8c4	-0.08055261
9	0x3daa64fd	0.08320043
10	0xbc9ba52b	-0.018999657
11	0x3e1609c8	0.14652169
12	0xbe011dac	-0.12608975
13	0xbd2d44b5	-0.042301852
14	0xbb41808b	-0.002952608
15	0xbce042f6	-0.02737568
16	0xbd8d39b3	-0.06895771
17	0x3e1e293c	0.15445417
18	0x3e0ce155	0.13757832
19	0x3de6e2ec	0.11273751
20	0x3dadc1c4	0.084842235
21	0xbe2566d9	-0.16152515
22	0xbd32fd0d	-0.04369836
23	0xbdf948cd	-0.12172089
24	0xbdf81a56	-0.12114398
25	0xbe4b4a2e	-0.19852516
26	0xbc9c0b07	-0.019048227
27	0xbc82e3be	-0.015977737
28	0xbe6baedf	-0.23015927
29	0xbe584c37	-0.21122824
30	0xbe1925a6	-0.14955768
31	0x3c9deb84	0.019277342
32	0xbd2a2787	-0.041541602
33	0xbdc6b3ff	-0.097023
34	0xbe538347	-0.20655547
35	0xbc9ff13c	-0.01952421
36	0xbe103423	-0.14082389
37	0xbde0af56	-0.10970943
38	0x3d918817	0.07106035
39	0x3d0d169b	0.034445386
40	0x3d927c10	0.07152569
41	0x3c1f8ba7	0.009737886
42	0x3cdd96de	0.027049478
43	0x3c84a388	0.016191259
44	0x3db93c5c	0.09044716
45	0xbd3cfe7c	-0.046141133
46	0xbe10f523	-0.14156012
47	0x3d5c0ff8	0.053726166
48	0xbd3943c9	-0.04523066
49	0x3e036ae5	0.12833746
50	0x3cfd1775	0.030894974
51	0xbe21cdff	-0.15801238
52	0xbb97cf98	-0.0046329014
53	0x3d38d7b0	0.04512757
54	0x3d1eb2c9	0.03874472
55	0x3d713843	0.058891546
56	0xbd55b140	-0.052170992
57	0x3e5f5f20	0.21813631
58	0x3d390239	0.045168135
59	0x3c0390d6	0.008030137
60	0x3df75384	0.12076476
61	0xbdfe3c63	-0.124138616
62	0xbdf6faa0	-0.12059522
63	0xbe209bc7	-0.15684424
64	0xbe343396	-0.17597803
65	0xbe0ae433	-0.13563614
66	0x3d038027	0.032104637
67	0xbdd33580	-0.10312939
68	0x3d8c92fa	0.06863971
69	0x3d4b1ad1	0.04958612
70	0x3db553d4	0.088538796
71	0x3e0344df	0.12819241
72	0xbd27c95e	-0.040963523
73	0x3bc20f53	0.005922237
74	0x3dc0ac8d	0.094079114
75	0x3d0ad5b4	0.03389521
76	0x3d810351	0.06299461
77	0x3d1e08be	0.038582556
78	0xbb5c856f	-0.0033648869
79	0x3dff86b3	0.12476864
80	0xbdb9e435	-0.0907673
81	0xbda8171b	-0.08207532
82	0xbd9d3637	-0.07676356
83	0x3d828243	0.06372502
84	0x3e030f6a	0.12798849
85	0xbd91dced	-0.071222164
86	0x3dd6f346	0.104956195
87	0xbda32a7a	-0.07967086
88	0xbe0aa525	-0.1353956
89	0x3ba337c5	0.0049810135
90	0xbd80a2bd	-0.0628104
91	0x3d967628	0.07346755
92	0xbdadeb8a	-0.08492191
93	0x3e1db2b1	0.15400197
94	0x3da85006	0.08218388
95	0xbc925e65	-0.017867276
96	0xbb99e127	-0.0046960297
97	0x3c18c51f	0.009324341
98	0xbdc8992d	-0.09794841
99	0xbd9849d3	-0.07435956
100	0x3da802ae	0.08203636
101	0x3e0f25e4	0.13979298
102	0xbc823188	-0.015892759
103	0xbe18d441	-0.14924718
104	0x3d15fb18	0.036616415
105	0xbd162d2a	-0.036664166
106	0xbd6d4acb	-0.057932656
107	0xbb2fd62f	-0.0026830544
108	0x3dcaa094	0.09893909
109	0xbd875792	-0.066084996
110	0xbcc99062	-0.02460498
111	0x3ccf4235	0.025300125
112	0xbd74a88d	-0.059731055
113	0xbda4c1fb	-0.08044811
114	0xbd2425d4	-0.04007514
115	0xbd3247dc	-0.04352556
116	0x3e0605ff	0.13088225
117	0x3e3102c1	0.17286207
118	0x3b1b105b	0.0023660872
119	0x3e377134	0.17914277
120	0x3d111658	0.0354217
121	0xbe37ed12	-0.17961529
122	0xbd92a83d	-0.07160995
123	0xbd60c784	-0.054877773
124	0xbda36a6b	-0.07979282
125	0x3bca2f98	0.0061702244
126	0x3c175ab6	0.009237936
127	0x3d17005d	0.03686558
128	0x3cb35d9c	0.021895222
129	0xbe04dd0e	-0.1297495
130	0x3e52c987	0.20584689
131	0xbd83f265	-0.064427175
132	0x3d4626e7	0.048376944
133	0xbd3b392f	-0.04570883
134	0xbe02a8f8	-0.12759769
135	0x3d998406	0.074958846
136	0x3e24b314	0.16083938
137	0x3e3449da	0.17606297
138	0xbe1a06c4	-0.15041643
139	0xbc84caf9	-0.016210066
140	0xbe62bd15	-0.22142442
141	0x3d8156f5	0.06315414
142	0xbd9c1b8e	-0.07622443
143	0x3e140ebe	0.14458749
144	0xbdb46295	-0.088078655
145	0xbd5d09e9	-0.05396453
146	0x3da29013	0.07937636
147	0xbe66a32a	-0.2252318
148	0x3dd4ef36	0.10397188
149	0x3e735bfc	0.23765558
150	0xbe4ba19f	-0.19885872
151	0x3e477836	0.1947945
152	0x3d0f2d84	0.034955516
153	0x3e4e16ca	0.20125881
154	0x3e5fb554	0.21846515
155	0xbe42febc	-0.19042486
156	0x3e4d749b	0.20064013
157	0x3dd289ce	0.102801904
158	0x3dd2573b	0.10270544
159	0xbd7c3cb9	-0.061581347
160	0xbe3c0ec5	-0.18365009
161	0x3d4ccf50	0.050002396
162	0xbcdb0f9c	-0.026740842
163	0x3e08605c	0.13318008
164	0xbe358a91	-0.1772864
165	0xbe2c44f6	-0.16823182
166	0x3df80643	0.12110569
167	0xbd433fd8	-0.047668308
168	0x3d42b621	0.047536973
169	0xbd549b5e	-0.051905982
170	0x3d1cc84a	0.038276948
171	0x3d42023e	0.04736542
172	0xbe13bae7	-0.14426766
173	0x3e172905	0.14761741
174	0x3d89683d	0.06709335
175	0x3dc1f0e5	0.09469775
176	0xbe115a02	-0.14194492
177	0x3e347de8	0.17626154
178	0x3e586795	0.21133263
179	0xbe023cbb	-0.1271848
180	0x3e5064af	0.20350908
181	0xbd1e3192	-0.038621493
182	0x3e1a0511	0.15040995
183	0x3e3c4713	0.18386488
184	0xbb8f0cef	-0.0043655555
185	0xbc855008	-0.016273513
186	0x3d9614df	0.073281996
187	0x3dd38f0c	0.103300184
188	0xbe31aecd	-0.17351837
189	0x3d4436c6	0.0479038
190	0x3de98e12	0.11404051
191	0xbdef24f9	-0.11676974

gru.weight_hh_l0 f4 [192, 64]
0	0xbe32565c	-0.17415756
1	0x3da08019	0.07836933
2	0x3989323a	0.00026168098
3	0x3e06f5d4	0.13179713
4	0x3cbf7fc5	0.023376355
5	0xbdc3643d	-0.09540603
6	0x3d9240e0	0.0714128
7	0x3c2aa770	0.010415897
8	0xbe0143c1	-0.12623502
9	0x3d757b85	0.05993225
10	0x3dabbb52	0.08385338
11	0x3dd07ac8	0.10179669
12	0x3e35052e	0.17677757
13	0xbe0bae9c	-0.13640827
14	0x3da02410	0.078193784
15	0xbe080d65	-0.1328636
16	0x3e04e650	0.12978482
17	0xbd9b320d	-0.07577906
18	0xbe3bd001	-0.18341066
19	0xbda8013d	-0.08203361
20	0x3daf1af2	0.08550061
21	0xbd1f62f7	-0.03891274
22	0xbcc75cf2	-0.024336312
23	0xbe19888a	-0.14993492
24	0xbc365d00	-0.011130571
25	0xbd9b81ad	-0.07593093
26	0x3973ea20	0.00023261504
27	0x3dfaf776	0.12254231
28	0xbe0b947d	-0.13630863
29	0xbe46d9a1	-0.19418956
30	0xbbdaf2df	-0.0066817845
31	0x3df574e9	0.119851895
32	0x3e06fdb7	0.13182722
33	0xbb43f4b2	-0.0029900488
34	0x3da42c41	0.08016253
35	0xb7b9b1b1	-2.2136463e-05
36	0x3debadc2	0.11507751
37	0x3d1581e8	0.03650084
38	0xbcef4312	-0.029206786
39	0x3e35e60f	0.17763542
40	0x3dc4622b	0.095890366
41	0x3de04ab8	0.109517515
42	0x3c9009fc	0.017582886
43	0x3e00978a	0.12557808
44	0xbdc66f09	-0.09689147
45	0xbab2756c	-0.0013615317
46	0xbde13a45	-0.10997442
47	0x3e3dd37b	0.18537705
48	0x3debe4fe	0.11518286
49	0x3ce30ac2	0.02771509
50	0xbe4043a7	-0.18775807
51	0x3c941319	0.018075513
52	0x3bc300b9	0.005951014
53	0x3dbc03b1	0.091803916
54	0xbd28dfee	-0.04122918
55	0x3d6b72f3	0.05748267
56	0x3c6a5386	0.01430214
57	0x3d9d849c	0.07691309
58	0x3de91c3f	0.11382341
59	0x3e064a1b	0.13114206
60	0x3e2e4dca	0.17021862
61	0xbe3ba846	-0.1832591
62	0x3d70a3bd	0.058749903
63	0xbdb20472	-0.08692254
64	0x3e6be5c2	0.23036864
65	0x3de2ecc6	0.11080317
66	0x3d60bfe4	0.0548705
67	0xbcaf9e9b	-0.021437934
68	0xbd547b2f	-0.05187529
69	0xbda69d71	-0.08135498
70	0x3dc83d7d	0.09777353
71	0x3d40f55b	0.04710899
72	0xbc89a1af	-0.01680073
73	0xbe166b36	-0.14689335
74	0xbd2a5cc1	-0.041592363
75	0x3d035c09	0.032070193
76	0x3d3e2208	0.046419173
77	0x3dfe6834	0.12422219
78	0x3d04463b	0.03229354
79	0xbd6bae1b	-0.057539087
80	0xbd0ea864	-0.03482856
81	0xbd0b5c9e	-0.034023874
82	0xbd926f7f	-0.071501724
83	0xbd6a520d	-0.057207156
84	0xbdd80834	-0.105484396
85	0xbe074164	-0.13208538
86	0x3d31bc76	0.04339262
87	0xbd8d0743	-0.06886151
88	0xbcb9d5e0	-0.022684991
89	0xbb298dbe	-0.0025871838
90	0xbc960c35	-0.018316368
91	0xbd5c1c02	-0.053737648
92	0x3d080d5e	0.033215873
93	0xbe4cebeb	-0.2001187
94	0x3c146b23	0.0090587465
95	0x3d94e1b3	0.07269611
96	0x3e047e36	0.1293877
97	0x3c627a6d	0.013823134
98	0xbe167745	-0.14693935
99	0xbcc80680	-0.024417162
100	0xbdb196c8	-0.08671337
101	0x3caa70fe	0.020805832
102	0x3e89a198	0.268811
103	0xbdab4200	-0.08362198
104	0xbdc346f3	-0.09535017
105	0x3d9faad1	0.077962525
106	0xbc2d40ae	-0.010574503
107	0x3d28896b	0.041146677
108	0xbd4cf348	-0.0500367
109	0xbdbd1f48	-0.09234482
110	0x3d476376	0.048678838
111	0x3d751985	0.05983879
112	0xbce8ec81	-0.028433086
113	0xbdd09b47	-0.10185867
114	0xbd6a8e49	-0.0572646
115	0xbdbe1f2b	-0.092832886
116	0xbde08edb	-0.109647475
117	0xbe0ee43d	-0.13954253
118	0x3cee36ba	0.02907883
119	0x3c5b2e90	0.013377801
120	0x3d9b54d3	0.07584538
121	0x3c423e39	0.011855655
122	0xbdbec704	-0.09315303
123	0xbca97162	-0.020683948
124	0x3d7a68c0	0.061135054
125	0x3dbaab5e	0.09114717
126	0xbbd8c335	-0.0066150674
127	0x3d93401b	0.071899615
128	0x3e18f20e	0.14936087
129	0xbcb9e05d	-0.022689993
130	0xbe29dc87	-0.16588031
131	0xbe00dba6	-0.12583789
132	0x3db44594	0.088023335
133	0xbd990401	-0.07471467
134	0x3d898be1	0.06716133
135	0x3d319754	0.04335721
136	0x3c92f2c3	0.017938023
137	0xbdec2822	-0.11531092
138	0x3cfd6ba2	0.030935112
139	0x3d529735	0.051413734
140	0xbc2795bb	-0.01022857
141	0x3d523d32	0.05132789
142	0x3c1c9d61	0.009559006
143	0x3ce79dad	0.028273428
144	0x3b7cb4da	0.0038559944
145	0x3e26e337	0.16297613
146	0x3de5595e	0.11198686
147	0x3dff4ae1	0.12465454
148	0xbdb8f2f4	-0.09030715
149	0xbde6e2c1	-0.112737186
150	0x3d982671	0.07429207
151	0xbdb6f819	-0.089340396
152	0xbd49b89e	-0.04924833
153	0xbe016823	-0.12637381
154	0xbde35ee8	-0.11102086
155	0x3c9adc0b	0.018903753
156	0xbdfc81dd	-0.12329457
157	0xbc929501	-0.017893316
158	0xbdb2dd6c	-0.08733639
159	0x3c6e7657	0.014554582
160	0xbd29d63c	-0.041464075
161	0xbd1e8c5d	-0.03870808
162	0x3d4ff98e	0.050775103
163	0x3b8d239a	0.0043072226
164	0x3d7229d3	0.059121918
165	0x3ca2f2a2	0.019891087
166	0xbd9b1d21	-0.07573915
167	0xbe2f6ad5	-0.17130597
168	0xbe0fcebe	-0.1404371
169	0x3b60882c	0.0034260852
170	0x3bec22b7	0.007206287
171	0x3da5039b	0.08057328
172	0x3e071855	0.13192876
173	0xbe098fea	-0.13433805
174	0x3d925b6b	0.07146343
175	0xbdb295d0	-0.08719981
176	0xbd6281bd	-0.05529951
177	0x3db7869b	0.08961221
178	0xbdc8350f	-0.09775745
179	0x3e104f40	0.14092731
180	0x3a99ff1e	0.0011749004
181	0x3dae8511	0.08521474
182	0xbd9cd89e	-0.07658504
183	0x3db8f5e3	0.09031274
184	0xbdcf10e1	-0.10110641
185	0xbd5809e6	-0.052743815
186	0x3d75918f	0.05995327
187	0xbd4f7390	-0.05064732
188	0xbc9f69f5	-0.019459704
189	0xbe37f675	-0.1796511
190	0xbe2a8d04	-0.16655356
191	0xbc8ac5aa	-0.016939957
192	0xbd0fe5df	-0.03513133
193	0xbe375ea2	-0.17907193
194	0x3d8efb3b	0.06981512
195	0xbd8cb3e0	-0.06870246
196	0xbcb6e605	-0.022326479
197	0xbe111aea	-0.14170423
198	0x3de794c9	0.113076754
199	0x3d936a5c	0.07198021
200	0x3dd76b19	0.10518474
201	0x3dd376d2	0.103253976
202	0x3dcdfbef	0.10057818
203	0xbd480e9a	-0.04884205
204	0xbdd1e0c5	-0.102479495
205	0x3cb621aa	0.02223285
206	0xbe6d9db1	-0.23204686
207	0x3d36b7a1	0.044608716
208	0xbd7a3585	-0.061086196
209	0x3c964cf6	0.018347245
210	0x3d467c15	0.048458178
211	0xbd292e95	-0.04130419
212	0x3e492a39	0.19645013
213	0x3da1d8da	0.07902689
214	0xbd2f1995	-0.042749006
215	0x3c997ebc	0.01873719
216	0xbe13c5e9	-0.14430965
217	0xbdaafe63	-0.08349302
218	0x3de0716e	0.10959135
219	0x3cfeb70d	0.031093145
220	0x3d184894	0.03717859
221	0x3dff25d9	0.12458391
222	0xbd638f90	-0.055556834
223	0x3d808b85	0.06276611
224	0x3cad739d	0.021173293
225	0xbd98c813	-0.07460036
226	0xbce9cee6	-0.02854104
227	0x3c2cc025	0.010543858
228	0xbcfcc5ab	-0.030855974
229	0x3dc4ce3f	0.09609651
230	0x3c21afdc	0.009868588
231	0x3dad55ec	0.08463654
232	0x3cd691ce	0.026192572
233	0xbdff3228	-0.124607384
234	0x3dd19809	0.102340765
235	0x3df0d60d	0.11759577
236	0xbdcd9219	-0.100376315
237	0x3e11b3ec	0.14228791
238	0xbdcb7a94	-0.09935489
239	0x3e192746	0.14956388
240	0xbe01efd7	-0.12689148
241	0x3d597c13	0.053096842
242	0x3e162a54	0.14664584
243	0xbd6ba65a	-0.057531692
244	0xbc0cfa39	-0.00860458
245	0xbd504341	-0.05084539
246	0x3db880e5	0.0900896
247	0xbc1d9f09	-0.0096204365
248	0xbe39bd37	-0.18138586
249	0x3df5cb75	0.12001697
250	0x3ce15b15	0.027509252
251	0x3d80d2c4	0.062902
252	0x3db373c9	0.08762319
253	0xbd9c77c8	-0.07640034
254	0x3d93de34	0.07220116
255	0xb90cd89c	-0.00013432134

gru.bias_ih_l0 f4 [192]
0	0x3e00564f	0.12532924
1	0xbcbf12c5	-0.02332438
2	0x3d97bdfc	0.074092835
3	0xbd2e5d77	-0.042569604
4	0x3c559bfd	0.013037679
5	0xbe02f384	-0.12788206
6	0xbcf70307	-0.03015281
7	0xbce0f792	-0.0274618
8	0x3d6414cd	0.0556839
9	0xbe3d93ad	-0.18513365
10	0xbd0e45e5	-0.034734625
11	0x3de5a084	0.112122566
12	0xbdac6376	-0.08417408
13	0x3e25fbbc	0.1620931
14	0xbdcad8c7	-0.09904628
15	0xbdd71c38	-0.10503429
16	0xbe3a2e4a	-0.1818172
17	0xbd03f079	-0.032211754
18	0xbd84c793	-0.06483378
19	0xbcada004	-0.021194465
20	0xbca05a77	-0.019574387
21	0xbdebbf22	-0.11511065
22	0x3df6f7f8	0.12059015
23	0x3bc3d9c8	0.0059768893
24	0xbd535a03	-0.051599514
25	0x3e3fb922	0.18722966
26	0xbe029718	-0.1275295
27	0x3d484790	0.048896372
28	0xbc582b11	-0.013193862
29	0x3dde2bef	0.108482234
30	0x3d205da7	0.039151814
31	0x3d447777	0.047965493
32	0x3dc7aecc	0.09750137
33	0xbc6c5438	-0.014424376
34	0x3de9e633	0.1142086
35	0xbe0ec0fd	-0.13940807
36	0x3e01e050	0.12683225
37	0x3dacd45a	0.0843894
38	0xbe3364cf	-0.17518924
39	0x3d9bc2a3	0.076054834
40	0xbe286561	-0.16444923
41	0x3d5f55cc	0.05452518
42	0x3d250da7	0.040296223
43	0xbd366d79	-0.044537995
44	0xbd85e5cf	-0.06537973
45	0x3cb4e3b7	0.02208124
46	0x3e12a222	0.14319661
47	0xbe2c5665	-0.16829832
48	0x3d19457c	0.03741978
49	0xbdcf78db	-0.10130473
50	0x3d114462	0.035465606
51	0xbd16bafe	-0.036799423
52	0xbce4dacf	-0.027936367
53	0x3cba8f45	0.022773394
54	0xbd1ad091	-0.03779656
55	0xbd3c8516	-0.04602536
56	0x3db2ef4b	0.08737048
57	0xba8fe4b7	-0.0010978197
58	0xbd060da4	-0.032727852
59	0x3e0b6734	0.13613588
60	0xbcd59e33	-0.026076412
61	0x3dc89c6e	0.097954616
62	0x3e2c6df9	0.16838826
63	0x3e379270	0.17926955
64	0x3e3e5f5a	0.18591061
65	0x3df3f11f	0.119112246
66	0xbd129d75	-0.035794694
67	0xbd216bba	-0.039409377
68	0x3e06cbaa	0.13163629
69	0xbb7a7bce	-0.0038220766
70	0x3dbec10a	0.09314163
71	0x3e17e3ab	0.14832942
72	0x3c0c0594	0.008546252
73	0xbe0dd966	-0.13852462
74	0x3d6aae4b	0.057295125
75	0x3d520738	0.051276416
76	0x39337305	0.00017113618
77	0x3e4b0d02	0.19829181
78	0x3e7b020f	0.24512504
79	0x3d9370c7	0.07199245
80	0xbdef37e5	-0.11680583
81	0x3db963ca	0.090522364
82	0x3e4d4334	0.20045167
83	0x3c4e8a37	0.012606195
84	0xbc884ba4	-0.01663763
85	0x3db4be2e	0.088253364
86	0x3e0fa04c	0.14025992
87	0x3d4a582d	0.049400497
88	0x3ea2d4fc	0.3180312
89	0x3c2c0ed3	0.010501581
90	0xbd8574f7	-0.0651645
91	0xbddb2124	-0.106996804
92	0x3d7b8635	0.061407287
93	0x3df28a09	0.11842734
94	0x3e3ffe08	0.18749249
95	0x3e67d84c	0.22641104
96	0xbd096aa9	-0.033548985
97	0x3dc862f0	0.09784496
98	0x3e4e3848	0.20138657
99	0x3c4b3c65	0.012404536
100	0x3c4ba9a3	0.012430581
101	0x3c01a53b	0.007912929
102	0x3e757ca4	0.23973328
103	0x3e111280	0.14167213
104	0xbbe89bbf	-0.0070986445
105	0x3cdca91c	0.026936106
106	0xbd6e8f58	-0.058242172
107	0xbd927e02	-0.0715294
108	0xbcda8384	-0.02667404
109	0x3e374029	0.17895569
110	0x3dddc7b7	0.10829108
111	0x3d67e502	0.056614883
112	0x3bb6cd83	0.005578698
113	0xbd42b467	-0.047535326
114	0xbc72f3f9	-0.014828675
115	0x3e46e94d	0.19424935
116	0x3d83289e	0.064042315
117	0xbcb31848	-0.021862164
118	0x3d8704dc	0.06592724
119	0x3d2ad165	0.0417036
120	0xbd9e8044	-0.077393085
121	0x3e05f0fd	0.13080211
122	0x3e3bb838	0.18331993
123	0x3e238485	0.15968521
124	0x3da25c9a	0.079278186
125	0x3cdf504c	0.027259968
126	0x3d5fa151	0.054597203
127	0x3d250e72	0.04029698
128	0xbc033abe	-0.008009611
129	0x3da47c77	0.08031552
130	0x3d298e7b	0.041395646
131	0x3db68f44	0.089140445
132	0x3daee9a1	0.08540655
133	0x3cebf587	0.0288036
134	0x3dde5891	0.108567365
135	0xbd832075	-0.06402675
136	0xbdd21d2d	-0.10259471
137	0x3c7fa028	0.015602149
138	0x3b7d1882	0.0038619344
139	0xbdfbe827	-0.12300139
140	0x3d4ff595	0.050771315
141	0xbda0b958	-0.078478515
142	0x3d524a74	0.051340535
143	0xbd39bd07	-0.045346286
144	0x3c4007cd	0.01172061
145	0xbc67b8ff	-0.014143228
146	0xbdadd56f	-0.08487975
147	0x3d0159ac	0.03157966
148	0xbdbd4b80	-0.09242916
149	0xbdf90896	-0.12159841
150	0xbbc8d9fe	-0.0061295023
151	0xbd82ac5b	-0.063805304
152	0x3d09ea80	0.033670902
153	0xbccdc5d5	-0.025118748
154	0xbc3f5343	-0.011677566
155	0x3d86d679	0.06583876
156	0xbd7b2c9b	-0.061321836
157	0x3dbedc9e	0.09319423
158	0xbd270eae	-0.040785484
159	0xbd3fa69d	-0.046789754
160	0x3da7175a	0.08158751
161	0x3c7a7feb	0.015289287
162	0xbd8a6cb4	-0.06759015
163	0xbb152da4	-0.00227628
164	0xbd5810ed	-0.052750517
165	0x3dee59c3	0.116382144
166	0x3e012d55	0.12614949
167	0x3da1070f	0.078626744
168	0x3c8e1d6d	0.017348016
169	0xbd3c89b7	-0.046029773
170	0xbd837ab0	-0.06419885
171	0xbd28a9dd	-0.04117762
172	0x3bd9bff5	0.0066451975
173	0xb84da400	-4.9028546e-05
174	0xbc23ec2f	-0.010005041
175	0x3de2c899	0.11073417
176	0xbd2f366a	-0.042776503
177	0xbc3e1fc9	-0.011604258
178	0xbdaa60d5	-0.083192505
179	0xbdd6f71f	-0.10496353
180	0xbd7c3b43	-0.061579954
181	0xbc3d2bde	-0.011546103
182	0xbdb1f5b5	-0.08689443
183	0xbd20e5db	-0.039281707
184	0xbc91b180	-0.017784834
185	0x3e0b4528	0.136006
186	0x3d0337b7	0.032035556
187	0x3e2aa9f2	0.16666391
188	0x3ceed2b1	0.0291532
189	0x3c8c5d27	0.017134262
190	0xbb12bbbb	-0.0022389728
191	0xbd736d48	-0.05943039

gru.bias_hh_l0 f4 [192]
0	0x3e540e06	0.20708475
1	0xbe2d3b3a	-0.16917124
2	0xbd9052bb	-0.070470296
3	0x3d09ac53	0.033611607
4	0xbd5fa669	-0.05460206
5	0x3ced98a4	0.029003449
6	0x3d8df70a	0.069318846
7	0xbd843038	-0.064545095
8	0xbe2879f2	-0.16452768
9	0x3cb2959b	0.021799853
10	0x3db60fe2	0.08889748
11	0x3e05a11d	0.13049741
12	0xbe12cfd9	-0.143371
13	0x3e5bd705	0.21468742
14	0x3d06531f	0.032794114
15	0xbd196cc9	-0.03745726
16	0xbe69a3a2	-0.22816327
17	0x3e1264a9	0.14296211
18	0xbd190978	-0.037362546
19	0xbc171836	-0.009222081
20	0x3c13f11a	0.009029651
21	0xbe4e7cf0	-0.20164847
22	0x3d1102a5	0.035402913
23	0xbdb0abdb	-0.08626529
24	0x3df4487a	0.11927886
25	0x3e5fe468	0.21864474
26	0x3d255d99	0.040372465
27	0x3d420560	0.047368407
28	0x3cdd133c	0.02698671
29	0x3e498536	0.19679722
30	0x3df475b6	0.11936514
31	0x3e0ee40e	0.13954183
32	0xbd8b7d5f	-0.06811022
33	0xbd864a24	-0.0655711
34	0x3e1ac50b	0.15114228
35	0x3bb5e167	0.0055505517
36	0x3d8b0def	0.06789767
37	0x3e0f998a	0.14023414
38	0xbe28694b	-0.16446416
39	0xbd3fa4bb	-0.04678796
40	0xbe20db9a	-0.15708771
41	0x3c0e925e	0.008701889
42	0xba2c0c32	-0.00065630965
43	0xbe0e3b1b	-0.13889734
44	0x3c21f94f	0.0098861
45	0x3c2db18b	0.010601412
46	0x3d5461e5	0.051851172
47	0xbe11ab46	-0.14225492
48	0xbca5b432	-0.020227525
49	0xbde11d21	-0.10991884
50	0xbd805a18	-0.06267184
51	0x3d50ab1b	0.05094443
52	0x3dedd679	0.11613173
53	0x3d96878d	0.07350073
54	0xbc08752e	-0.008328719
55	0x3d980564	0.07422903
56	0xbc487548	-0.012234993
57	0x3dbee1fd	0.093204476
58	0x3ce3beac	0.02780088
59	0xbda3ce4b	-0.07998332
60	0xbd8b0925	-0.067888536
61	0x3d8017be	0.062545285
62	0x3de99a84	0.11406425
63	0x3e172a26	0.14762172
64	0x3de5c99e	0.11220096
65	0xbde424d6	-0.111398384
66	0x3d976082	0.07391454
67	0x3e2ba688	0.16762745
68	0x3e06d915	0.13168748
69	0x3d6b10d5	0.0573891
70	0x3de79fea	0.11309798
71	0x3dfb0d0b	0.12258347
72	0xbd0768a2	-0.03305877
73	0x3dbd0746	0.09229903
74	0x3e3a45fe	0.18190762
75	0x3dc6ce0c	0.09707269
76	0xbd7913b4	-0.060809806
77	0xbb81626f	-0.003948502
78	0x3d79d9db	0.06099878
79	0x3d6e674e	0.058203988
80	0x3dca07e5	0.09864787
81	0xbc610e54	-0.013736326
82	0x3e00220d	0.1251299
83	0xbd9fba6a	-0.077992275
84	0x3d306808	0.043067962
85	0xbc4c5b94	-0.012473006
86	0x3d4d945e	0.050190322
87	0x3d9ea5ea	0.07746489
88	0x3e8c073c	0.2734927
89	0x3c610555	0.013734181
90	0x3d625cb4	0.05526419
91	0x3d4b5bc9	0.04964808
92	0x3d95da81	0.07317067
93	0x3d519ab0	0.051172912
94	0xbc1903fb	-0.009339328
95	0x3e2c9564	0.16853863
96	0xbca79f9e	-0.020461854
97	0x3e5b2108	0.21399319
98	0x3e48bad2	0.19602516
99	0x3d3d8161	0.046265963
100	0x3dd8acc9	0.10579831
101	0x3dcf31fa	0.10116954
102	0x3caca541	0.021074893
103	0x3cce6461	0.025194349
104	0xbbf338b7	-0.0074225324
105	0x3c854ee2	0.016272966
106	0xbd2da163	-0.04239024
107	0x3e06be71	0.13158585
108	0xbd0aea67	-0.03391495
109	0x3e12a69a	0.14321366
110	0x3e2f02ce	0.17090914
111	0x3dfd3370	0.123633265
112	0x3e090edd	0.13384576
113	0x3d36ebba	0.0446584
114	0xbc9721eb	-0.01844879
115	0x3dc954a4	0.09830597
116	0xbddec81d	-0.10878012
117	0x3d79d6a9	0.06099573
118	0xbcd96b29	-0.026540356
119	0xbdd6b04f	-0.10482847
120	0xbd24e1ab	-0.040254276
121	0x3da8cd39	0.08242268
122	0x3a1ccd58	0.00059815263
123	0x3da6218f	0.081118695
124	0xbd5dee38	-0.05418226
125	0xbc019de1	-0.007911176
126	0x3dde8251	0.108647
127	0x3d2e13aa	0.04249922
128	0xbde6ef70	-0.11276138
129	0xbccc6ef1	-0.024955245
130	0xbd330786	-0.043708347
131	0x3cb72b88	0.022359625
132	0x3d9f3f47	0.07775741
133	0xbd65f728	-0.05614391
134	0x3dbd474b	0.09242114
135	0x3cd97df6	0.02654932
136	0xbd113f8f	-0.035461005
137	0xbcf3405d	-0.029693777
138	0xbdb538a3	-0.08848693
139	0xbde70ef4	-0.11282149
140	0xbd5e592d	-0.054284263
141	0x3cfe4b7a	0.03104185
142	0xbe16f950	-0.14743543
143	0x3d8663d8	0.065620124
144	0x3d9a7b95	0.07543103
145	0xbd7cbaa9	-0.06170145
146	0xbda27b3e	-0.07933663
147	0xbe07324d	-0.13202782
148	0x3a0d3ca8	0.00053877616
149	0x3be62149	0.007023011
150	0xbd6df7cd	-0.05809765
151	0xbd1a5e64	-0.037687674
152	0x3d80499b	0.06264039
153	0x3df75857	0.12077396
154	0x3d60843f	0.05481362
155	0x3d98ccb9	0.07460923
156	0xbdb7f2f7	-0.08981889
157	0xbcda9c99	-0.026686
158	0x3dc1e635	0.09467737
159	0x3b88b8ea	0.004172434
160	0xbbe5b177	-0.007009681
161	0xbdf6d2db	-0.12051936
162	0x3e16c38b	0.14723031
163	0x3dfc99ec	0.12334046
164	0xbd4f64f9	-0.050633404
165	0x3dd250f5	0.102693476
166	0xbd90b365	-0.07065467
167	0xbd017a17	-0.031610575
168	0x3dc89082	0.09793188
169	0xbd60ce11	-0.05488402
170	0x3dfb7b43	0.1227937
171	0x3d196d55	0.037457783
172	0xbd865069	-0.06558306
173	0x3d7864e4	0.06064309
174	0xbcbbb3fc	-0.022912972
175	0x3d0501f8	0.03247258
176	0x3de6183b	0.1123509
177	0x3ceb7b64	0.02874536
178	0xbdfe0c05	-0.12404636
179	0x3d70a90a	0.05875496
180	0x3def1d23	0.11675479
181	0xbc772209	-0.015083798
182	0xbdc35dcb	-0.09539374
183	0x3c8f9288	0.017525926
184	0x3d8bba7b	0.06822678
185	0xbd8ea241	-0.06964541
186	0x3e064bf0	0.13114905
187	0x3d3ee342	0.04660345
188	0x3c6e121b	0.014530684
189	0xbbef9cae	-0.007312379
190	0x3cfb4bd8	0.030675814
191	0xbcc715ee	-0.02430245

head.0.weight f4 [64, 64]
0	0x3cb6f247	0.022332324
1	0x3e062a5a	0.13102093
2	0x3cad2c37	0.021139247
3	0xbda28d07	-0.07937055
4	0x3bcfc6eb	0.0063408515
5	0x3debe47a	0.11518188
6	0x3df1f487	0.11814218
7	0x3d29895a	0.041390754
8	0x3d91a5ea	0.07111724
9	0xbd4b034c	-0.04956369
10	0xbdbc8952	-0.09205879
11	0xbd9d0543	-0.07667019
12	0xbc85957f	-0.016306637
13	0xbdfbd34c	-0.12296161
14	0xbd8c1816	-0.068405315
15	0xbd8bb5ff	-0.068218224
16	0x3d8e93c5	0.069617786
17	0x3b89f32a	0.0042098956
18	0x3d621643	0.05519701
19	0x3d75a04d	0.059967328
20	0xbcf7940f	-0.030221967
21	0x3d1b04e0	0.037846446
22	0xbdab0460	-0.08350444
23	0x3cc743fe	0.024324413
24	0xbd97b3cf	-0.07407343
25	0xbdb8bff0	-0.09020984
26	0xbc9b9157	-0.018990202
27	0xbd4f0b1f	-0.050547715
28	0x3bbad900	0.005702138
29	0x3d8565c3	0.0651355
30	0x3d8f9d32	0.070124045
31	0xbc0086c5	-0.007844632
32	0x3c04584b	0.008077691
33	0xbd6623a4	-0.056186333
34	0xbdc2fdc4	-0.09521058
35	0x3c04c282	0.008103015
36	0x3c0585c5	0.008149569
37	0xbdc51599	-0.0962326
38	0x3e0d3a5b	0.13791792
39	0x3c23f827	0.010007895
40	0xbd826601	-0.06367112
41	0xbd9e9ccb	-0.0774475
42	0xbe13fa05	-0.14450844
43	0xbdc5fdc7	-0.09667545
44	0xbda4c1ee	-0.08044802
45	0xbd90d485	-0.07071785
46	0xbddf1c15	-0.10894028
47	0x3d9de316	0.07709329
48	0xbdb137b0	-0.086532
49	0x3d03d338	0.032183856
50	0x3da13fbf	0.07873487
51	0x3d4fac6f	0.050701555
52	0x3d8f4029	0.069946595
53	0xbd947254	-0.07248369
54	0x3db61579	0.08890814
55	0xbd35b798	-0.04436454
56	0x3d9f7960	0.07786822
57	0x3d255b15	0.040370066
58	0xbd25cf1e	-0.040480725
59	0xbcc35e62	-0.023848716
60	0x3d8e835a	0.06958647
61	0x3d2d4469	0.04230157
62	0x3cdb6c05	0.026784906
63	0xbb5b75cb	-0.0033486958
64	0xbcb196dd	-0.021678383
65	0x3d186e5e	0.03721463
66	0x3e004556	0.1252645
67	0x3db6b542	0.08921291
68	0xbb8e1e4a	-0.004337107
69	0x3d837ee1	0.064206846
70	0x3e1ef618	0.15523565
71	0x3d8519be	0.064990506
72	0x3defdfae	0.117125854
73	0x3d51cfca	0.051223554
74	0x3d5d298e	0.053994708
75	0x3b6d13c3	0.003617511
76	0xbd43d3b9	-0.047809336
77	0xbe0184f0	-0.12648368
78	0x3ddb5ca4	0.10711029
79	0x3cc889d8	0.024479792
80	0xbc03bf1e	-0.008041171
81	0xbdaeacb2	-0.08529033
82	0xbe09006c	-0.13379067
83	0xbdd88df8	-0.105739534
84	0xbde92057	-0.113831215
85	0xbde95b33	-0.11394348
86	0x3d0826c5	0.0332401
87	0xbbcbbd58	-0.00621764
88	0x3d02bb36	0.03191682
89	0x3d8a15ac	0.06742415
90	0x3dc7bd5d	0.09752915
91	0xbd4589f2	-0.048227258
92	0xbd9c90bb	-0.07644793
93	0x3dd3f983	0.10350325
94	0x3cc83cfc	0.024443142
95	0xbc0658a7	-0.008199847
96	0x3d0da8e6	0.034584902
97	0x3d867290	0.0656482
98	0x3e016144	0.1263476
99	0xbcc0654b	-0.0234858
100	0xbd1d7014	-0.038436964
101	0xbd984a6e	-0.07436071
102	0xbcafac25	-0.02144439
103	0xbdc085b2	-0.094005
104	0x3d54c500	0.051945686
105	0xbd4f19b9	-0.05056164
106	0x3d985ba3	0.07439353
107	0xbc5a5ddb	-0.013328041
108	0xbb9e46db	-0.004830224
109	0x3d693096	0.0569311
110	0x3d8bba84	0.068226844
111	0xbc8f1647	-0.017466677
112	0x3a9b678c	0.0011856421
113	0xbd8cf63d	-0.06882904
114	0x3db7361e	0.08945869
115	0x3d822449	0.06354577
116	0xbdba7479	-0.09104247
117	0xbd76f8fe	-0.06029605
118	0x3d0a6531	0.03378791
119	0x3df42256	0.119206116
120	0xbda8fa08	-0.08250815
121	0xbca18b27	-0.019719673
122	0xbdde2fad	-0.10848937
123	0x3e0f9f35	0.14025576
124	0x3b331312	0.00273246
125	0xbdcef72b	-0.10105737
126	0x3dab88bd	0.0837569
127	0xbdeb7272	-0.11496438
128	0x3df39a37	0.118946485
129	0x3ce6459f	0.02810937
130	0xbccded30	-0.025137514
131	0x3e1071e9	0.14105953
132	0x3de5250b	0.11188706
133	0x3dcc4da7	0.099757485
134	0xbde006a2	-0.10938765
135	0xbda3628c	-0.07977781
136	0x3d957351	0.072973855
137	0x3dd69fae	0.10479675
138	0x3d9cf5bc	0.076640576
139	0xbda55c0d	-0.08074198
140	0xbdab07c8	-0.083510935
141	0xbd48d6e8	-0.049033076
142	0xbdd827cc	-0.10554466
143	0x3e1d4b51	0.15360762
144	0xbb6f8f31	-0.0036553855
145	0x3ddfa4dd	0.10920117
146	0xbca3cb88	-0.019994512
147	0xbc993468	-0.018701747
148	0x3ddd987a	0.10820098
149	0xbdb8bcd9	-0.09020395
150	0xbd769697	-0.060202207
151	0x3e081acc	0.13291472
152	0xbd86d336	-0.06583254
153	0xbc9e7262	-0.019341651
154	0xbded4856	-0.115860626
155	0xbd86e7a0	-0.06587148
156	0xbd82a85f	-0.063797705
157	0x3e3aafcb	0.18231122
158	0x3c2dd508	0.010609873
159	0x3dc38dc6	0.095485255
160	0xbcab8cf8	-0.020941243
161	0xbddfa7f8	-0.10920709
162	0x3cf3314a	0.029686589
163	0xbb487588	-0.0030587632
164	0x3cbbee00	0.022940636
165	0x3dc7d3a3	0.097571634
166	0xbd4f309b	-0.050583463
167	0x3dd4943e	0.103798375
168	0xbdb6183f	-0.08891343
169	0x3dcf5b43	0.10124829
170	0xbc5128fc	-0.012766119
171	0x3e323c35	0.1740578
172	0x3d361ba2	0.044459946
173	0xbd29d0e5	-0.041458983
174	0x3dbbd406	0.091713
175	0x3d1661e8	0.036714464
176	0xbdd4bc37	-0.10387462
177	0x3e3538f1	0.17697503
178	0x3dddf3df	0.1083753
179	0x3d97c349	0.074102946
180	0x3d525c34	0.051357463
181	0xbdf2a6f8	-0.11848253
182	0x3d4aeb90	0.049541056
183	0xbd4f602c	-0.050628826
184	0xbd99f6d4	-0.07517782
185	0x3dc7b339	0.09750981
186	0xbd40e897	-0.047096815
187	0xbc98a084	-0.018631227
188	0xbe0cd819	-0.1375431
189	0xbd817f0b	-0.0632306
190	0x3c1592d8	0.009129249
191	0xbde3019d	-0.11084292
192	0xbdc39d1f	-0.09551453
193	0x3bfdd8e1	0.0077468012
194	0x3db0dd8e	0.08636008
195	0x3ca3876e	0.019962039
196	0xbd9e6433	-0.07733955
197	0x3d07f94c	0.033196732
198	0xbd1be50f	-0.038060244
199	0x3cbe4154	0.02322451
200	0x3a1152fd	0.0005543677
201	0x3cac78c4	0.02105368
202	0xbdad2e12	-0.08456053
203	0x3d32a910	0.04361826
204	0xbe28c6f7	-0.16482149
205	0xbdff3b9f	-0.12462544
206	0x3dff4c7b	0.12465759
207	0x3e094a29	0.13407196
208	0xbd4b23d5	-0.04959472
209	0xbd9e06c3	-0.077161334
210	0x3e1263a5	0.14295824
211	0x3dbc83e1	0.092048414
212	0x3d12b058	0.035812706
213	0x3d19fc3e	0.037594073
214	0x3d065c06	0.032802604
215	0x3ddc8f76	0.107695505
216	0x3d3c0d46	0.045911096
217	0xbc989d96	-0.01862983
218	0x3d7e991e	0.062157743
219	0xbd78a279	-0.06070182
220	0x3d891af0	0.06694591
221	0x3ca232d4	0.019799627
222	0x3c905966	0.017620753
223	0x3ab85279	0.0014062665
224	0xbd2218dc	-0.03957449
225	0x3cbd123d	0.023079986
226	0xbd5a0fc0	-0.053237677
227	0x3e12707a	0.14300719
228	0xbd334f39	-0.043776724
229	0x3b4535fc	0.0030091992
230	0xbd554010	-0.052063048
231	0xbd79d37c	-0.060992703
232	0x3de88b09	0.11354644
233	0xbe147bb6	-0.14500317
234	0xbcf9335b	-0.030419996
235	0x3df18087	0.11792093
236	0xbd46ee3f	-0.048567053
237	0x3d6aec2e	0.057354145
238	0xbe193fc1	-0.14965726
239	0xbdfc709b	-0.12326165
240	0x3d26be81	0.040709022
241	0x3c8865f6	0.016650181
242	0x3d96669c	0.0734379
243	0x3db88df8	0.090114534
244	0x3c8fd44d	0.017557288
245	0xbc6d1683	-0.014470699
246	0x3ccc127b	0.024911156
247	0x3da97877	0.0827493
248	0x3d1237fa	0.035697915
249	0x3d116195	0.035493452
250	0x3e11ba7c	0.14231294
251	0xbd594b3d	-0.05305027
252	0x3d6ea900	0.05826664
253	0xbd8a8c59	-0.067650504
254	0xbd4dcf00	-0.05024624
255	0x3bddf507	0.0067735943

head.0.bias f4 [64]
0	0x3ddbca4f	0.10731947
1	0xbd4d9dab	-0.050199192
2	0xbd6734f9	-0.056447003
3	0x3c62dacb	0.01384611
4	0xbda45a3f	-0.080250256
5	0x3d8ac775	0.06776325
6	0xbde9f280	-0.11423206
7	0x3dba6020	0.09100366
8	0xbd874da7	-0.06606608
9	0x3d974105	0.07385448
10	0x3dbe3665	0.09287719
11	0x3df38cf4	0.11892119
12	0x3de00b0e	0.109396085
13	0x3dc0d5d5	0.09415785
14	0xbdeb2dfa	-0.11483379
15	0xbd90e6eb	-0.07075294
16	0x3d8edda2	0.06975867
17	0x3d0927e8	0.033485323
18	0x3d4bf0da	0.04979024
19	0x3d559a18	0.05214891
20	0x3cabd708	0.020976558
21	0xbd854023	-0.06506374
22	0x3da56657	0.080761604
23	0xbe032269	-0.12806095
24	0xbab2ec20	-0.0013650693
25	0xbd889646	-0.066692874
26	0xbcd12f38	-0.025535211
27	0xbd2c15f1	-0.042013112
28	0x3df52a4a	0.119709566
29	0xbd704ebb	-0.058668833
30	0x3d4760ac	0.048676178
31	0x3dd44a99	0.10365791
32	0x3e0a77f8	0.13522327
33	0x3e154580	0.14577293
34	0xbd46055d	-0.04834496
35	0x3d65315c	0.055955276
36	0x3e119e4a	0.14220539
37	0x3d9fb625	0.07798413
38	0x3ddb7989	0.1071654
39	0xbb918314	-0.0044406746
40	0x3dbcbdd9	0.09215898
41	0xbe044797	-0.12917934
42	0xbdf1cf52	-0.11807121
43	0xbd85eb4e	-0.065390214
44	0xbdaae7e7	-0.08345013
45	0x3ddc961f	0.10770821
46	0x3dd1ef16	0.1025068
47	0xbe02034e	-0.12696573
48	0x3de7806b	0.11303791
49	0x3e113bb2	0.14182928
50	0x3d492d03	0.049115192
51	0xbc9c02d9	-0.019044327
52	0xbbebfbae	-0.0072016334
53	0xbd969280	-0.073521614
54	0xbd54e29b	-0.05197392
55	0x3ced216d	0.028946603
56	0xbe029534	-0.12752229
57	0xbdc38895	-0.09547535
58	0xbdbc4476	-0.091927454
59	0x3dbece97	0.09316748
60	0xbc5bacb3	-0.013407874
61	0xbcf82c9a	-0.030294705
62	0xbe1eee48	-0.15520585
63	0xbd1af27c	-0.037828907

head.2.weight f4 [1, 64]
0	0xbd52517b	-0.051347237
1	0x3cb376c2	0.021907214
2	0x3d7942b1	0.060854618
3	0x3cb935f3	0.022608733
4	0xbd7f9856	-0.06240114
5	0xbd09d913	-0.033654284
6	0xbc0fbe2d	-0.008773369
7	0x3cbcab8d	0.02303102
8	0x3db1029a	0.08643074
9	0xbd659459	-0.05604968
10	0xbd9bec62	-0.07613446
11	0xbd55b2fd	-0.05217265
12	0xbe234650	-0.15944791
13	0x3ddb2b92	0.1070167
14	0x3d8e94d8	0.069619834
15	0x3dbf4889	0.09340007
16	0x3da7bd4e	0.08190404
17	0xbc4c7af0	-0.012480482
18	0x3ce0d2d7	0.027444286
19	0x3db80f20	0.0898726
20	0xbdd0ca41	-0.10194827
21	0x3d7abc0e	0.0612145
22	0x3ca57c78	0.020200953
23	0x3cc89297	0.024483962
24	0x3c9475e0	0.018122613
25	0x3dbc8275	0.0920457
26	0xbcfa3678	-0.03054355
27	0xbac9417e	-0.0015354601
28	0xbdc827f5	-0.09773246
29	0x3d0d5882	0.034508236
30	0xbcc26e59	-0.023734258
31	0x3e12dc7d	0.14341922
32	0x3df4bf58	0.119505584
33	0xbda1e73b	-0.07905432
34	0x3bcad207	0.006189588
35	0xbd101f22	-0.03518594
36	0xbdd3352a	-0.103128746
37	0xbcd26c64	-0.02568645
38	0x3d3ab8b7	0.045586314
39	0x3d80f76d	0.06297193
40	0xbbe51ee2	-0.006992207
41	0x3d829bd6	0.063773796
42	0x3d737c2a	0.059444584
43	0xbda20d23	-0.07912662
44	0xbd85e8fd	-0.065385796
45	0xbe266087	-0.1624776
46	0x3d7196a9	0.05898157
47	0xbbae75ea	-0.005324115
48	0x3d2973cb	0.041370194
49	0xbe0379e0	-0.1283946
50	0x3ccbc286	0.02487303
51	0xb9dbb0df	-0.00041902714
52	0xbcde78c1	-0.02715719
53	0x3cfaa1f6	0.030594807
54	0x3d981909	0.0742665
55	0xbe1b4529	-0.15163101
56	0x3dc0fddd	0.094234206
57	0xbb457b3a	-0.0030133263
58	0xbc819764	-0.015819259
59	0x3d01adef	0.031660017
60	0xbdd7c36a	-0.10535319
61	0x3d5fdcd5	0.05465396
62	0xbc048311	-0.008087889
63	0xbc4b880d	-0.012422574
