outputs/exp_0002_20251212_235529/runs/seed4/h5/UniformReplay/model_final.pt (torch, 71493 bytes, 7 tensors)

gru.weight_ih_l0 f4 [192, 1]
-0.027506717 -0.094417386 -0.17778784 -0.023284297 -0.14191009 -0.17362086 0.20570073 0.07980968
-0.0075630704 0.22316676 -0.06603757 -0.07041448 0.028878808 -0.033158664 0.011572694 -0.04167293
0.049348224 0.009350976 0.12591508 -0.17825978 0.12794867 -0.053963803 0.027379852 0.086682454
0.07596814 0.048262317 0.0117795635 -0.06778524 0.046424698 -0.12082593 0.015655495 0.123444006
-0.1693205 -0.09964027 0.041159585 -0.06681695 -0.17551829 0.2645572 0.03824474 -0.10267065
0.004210015 -0.014812112 0.045641415 -0.13722649 -0.15932898 0.3094662 0.081824526 -0.1778358
-0.19217615 -0.022464013 -0.1976071 0.18129665 0.0005933785 -0.030154994 -0.15549551 -0.014123206
-0.08842666 -0.012023699 0.10346044 -0.06424922 -0.28951234 -0.08850958 -0.099846125 0.027275035
-0.01161235 0.18292366 0.044685088 0.020347727 -0.00046786683 -0.008717993 0.020187948 -0.13725707
-0.13336588 -0.08165627 -0.07226811 0.09663946 0.094156936 -0.030391822 -0.052328646 -0.15181847
-0.06813188 0.11065255 0.13980195 -0.07022431 -0.046446227 -0.00055980164 0.22888845 0.045651585
-0.066172 0.14113656 0.13823809 0.035055064 -0.046345223 0.030047636 0.12553704 -0.01956911
-0.13943116 0.12691146 0.01923296 -0.08581109 -0.01783186 0.30932406 0.003976086 -0.015897468
-0.112268545 0.017417686 -0.11263207 -0.1160814 0.0022983216 -0.029869268 0.06863161 0.047228426
0.04394287 -0.010835969 0.023273855 -0.02894189 0.053590294 -0.009574766 0.03428094 0.05907878
0.05980149 -0.075150155 -0.020643068 -0.07740094 0.091778375 -0.0022171554 0.005468036 -0.064956315
-0.016380774 0.28195596 -0.040392075 0.21380612 -0.06263902 -0.03770106 -0.0114332335 -0.0072241984
0.13375504 -0.12851965 0.085748956 -0.08037434 0.02190062 0.103243515 -0.16636509 0.0066671683
0.11941888 0.101810515 0.18719004 0.021481559 0.053146694 0.10477434 -0.14054325 0.10047173
-0.1247661 -0.0945339 -0.08023515 -0.18721762 -0.13371268 0.119874366 -0.1626453 0.044016674
0.009720658 -0.10278203 -0.13545991 0.04601709 -0.1265351 -0.197727 0.13391592 0.31134596
-0.05311756 -0.13849755 0.1424628 0.0780365 0.15960403 -0.26246846 -0.0017770528 -0.018376648
0.16603939 0.048855204 -0.08586892 0.18863837 0.06458747 0.029982405 -0.11434005 -0.09113012
-0.20270842 -0.10881683 0.08098077 0.010640919 0.02424534 -0.1562524 -0.05491048 0.10425897
00000000: c455 e1bc e75d c1bd 040e 36be b6be bebc
00000010: e150 11be abc9 31be 36a3 523e 4273 a33d
00000020: a2d3 f7bb d485 643e b53e 87bd 7835 90bd
00000030: 4093 ec3c 61d1 07bd 669b 3d3c 3cb1 2abd
00000040: 5d21 4a3d d634 193c e2ef 003e bb89 36be
00000050: fa04 033e 2609 5dbd b64b e03c 9286 b13d
00000060: 2f95 9b3d b5ae 453d 12ff 403c fdd2 8abd
00000070: d327 3e3d 9673 f7bd f43f 803c 36d0 fc3d
00000080: 5a62 2dbe 3310 ccbd f496 283d 53d7 88bd
00000090: 11bb 33be 0b74 873e 84a6 1c3d fd44 d2bd
000000a0: 2af4 893b 80ae 72bc 7ef2 3a3d 1a85 0cbe
000000b0: 2327 23be 5b72 9e3e 9e93 a73d 971a 36be
000000c0: d3c9 44be 7306 b8bc 8459 4abe d4a5 393e
000000d0: f58c 1b3a 9b07 f7bc 373a 1fbe 0565 67bc
000000e0: 0919 b5bd 0cff 44bc 11e3 d33d 1895 83bd
000000f0: f63a 94be 8344 b5bd 207c ccbd e56f df3c
00000100: ba41 3ebc 5750 3b3e b607 373d 47b0 a63c
00000110: 064c f5b9 ead5 0ebc 3261 a53c 1e8d 0cbe
00000120: 1191 08be 673b a7bd 4e01 94bd e9ea c53d
00000130: 5ad5 c03d 45f8 f8bc 9056 56bd 4d76 1bbe
00000140: ba88 8bbd ce9d e23d 3e28 0f3e c3d1 8fbd
00000150: 663e 3ebd a7bf 12ba bc61 6a3e 28fd 3a3d
00000160: 2f85 87bd 1a86 103e 498e 0d3e e695 0f3d
00000170: 7dd4 3dbd 7626 f63c c88c 003e 664f a0bc
00000180: 0bc7 0ebe 14f5 013e 718e 9d3c babd afbd
00000190: 1f14 92bc b95f 9e3e d449 823b 683b 82bc
000001a0: 0ded e5bd 89af 8e3c a5ab e6bd 16bc edbd
000001b0: 709f 163b 65b0 f4bc bb8e 8c3d 9872 413d
000001c0: 70fd 333d 5989 31bc d0a8 be3c 8b17 edbc
000001d0: 7f81 5b3d 7bdf 1cbc 2c6a 0c3d 97fc 713d
000001e0: 68f2 743d 53e8 99bd a71b a9bc 6284 9ebd
000001f0: 4df6 bb3d b24d 11bb 362d b33b d107 85bd
00000200: f930 86bc 885c 903e 2972 25bd feef 5a3e
00000210: e348 80bd 6d6c 1abd 7552 3bbc f8b8 ecbb
00000220: 15f7 083e a89a 03be 269d af3d 4d9b a4bd
00000230: ee68 b33c 5671 d33d 9c5b 2abe 4378 da3b
00000240: e391 f43d 0882 d03d bfae 3f3e 18fa af3c
00000250: 59b0 593d ee93 d63d 92ea 0fbe 1fc4 cd3d
00000260: 5e85 ffbd fd9a c1bd 5452 a4bd fab5 3fbe
00000270: faeb 08be b180 f53d 7d8c 26be d44a 343d
00000280: 6543 1f3c 637f d2bd 01b6 0abe 6b7c 3c3d
00000290: 6b92 01be f278 4abe 4121 093e bd68 9f3e
000002a0: cc91 59bd 4dd2 0dbe c5e1 113e 9ad1 9f3d
000002b0: 3d6f 233e 4462 86be ffeb e8ba a08a 96bc
000002c0: 3b06 2a3e 651c 483d 0bdc afbd 6b2a 413e
000002d0: 6f46 843d a99d f53c 1e2b eabd 6ea2 babd
000002e0: cc92 4fbe 5cdb debd 3fd9 a53d 4057 2e3c
000002f0: 2a9e c63c a100 20be d0e9 60bd ba85 d53d

gru.weight_hh_l0 f4 [192, 64]
0.21880782 -0.13096844 0.07630865 -0.017299913 -0.10507933 -0.018468084 -0.067993596 -0.07352959
0.05872139 -0.2399616 -0.021784795 0.050308276 -0.09032736 -0.030987728 -0.16089961 -0.0659012
0.047043957 -0.008318094 -0.06825993 0.04755808 -0.09566656 0.017598262 0.14484145 -0.036621172
0.1311034 -0.09343522 0.04351671 0.22251858 0.18622573 -0.111886255 0.006569615 -0.16833869
0.12888558 -0.068063736 0.108425364 0.015260202 -0.03140687 0.12566343 -0.0030235692 -0.13811976
0.07287414 0.16462718 0.10017429 -0.060519107 0.013491158 -0.18812712 -0.15536988 0.05006107
-0.14326137 0.13162155 0.03859011 -0.012777373 -0.032630857 0.12748408 -0.06535554 0.08920461
0.04626302 0.12039367 -0.047365695 -0.037065033 -0.19648264 0.08265194 -0.16776635 -0.17077161
0.174316 0.18029754 -0.09260811 -0.11003957 0.037029117 -0.054168526 -0.115299135 0.15046561
0.13457213 -0.028324496 -0.005794702 -0.010785843 -0.14003879 0.067703635 -0.057469506 -0.019246161
-0.021630235 0.07923037 0.018422825 0.03831092 0.016456015 -0.045906577 0.09619548 0.082442075
0.040448762 0.28600332 -0.055350836 0.10710342 0.10929385 -0.16185968 -0.07481076 -0.19417351
0.037880614 0.08421013 0.008097732 0.24253292 -0.003976396 0.06518358 0.030714521 0.14331518
0.0015669005 0.0955616 0.098791935 -0.14259186 0.015672492 0.07357922 0.0029048545 0.098112136
-0.12138477 0.042609535 0.10778448 -0.025051225 -0.013649615 -0.08862215 -0.028627256 -0.025272686
0.018957233 0.14626461 -0.14047413 0.10731186 -0.10624786 0.14565995 0.004842716 -0.14995207
0.098390274 -0.048720617 -0.14247599 -0.19757415 -0.16422024 -0.0002433997 -0.028695812 -0.12095481
-0.068665266 -0.03343778 -0.056246627 0.068507 0.06303229 0.09217643 0.035875544 0.16095984
-0.024961539 -0.045276973 -0.008458875 0.076997 0.014468051 -0.0045415354 -0.09812701 -0.15172039
-0.029635534 -0.024098719 -0.07939235 0.068459384 0.070956 -0.12517935 0.09096803 -0.10180725
0.05910874 0.0023675375 -0.109003 -0.009167507 0.03742234 -0.012261363 0.1342678 -0.049289566
0.00536325 -0.047958102 -0.1003 -0.07355358 0.0027970832 0.18258215 -0.0027785215 0.10437985
-0.04245533 -0.08021853 0.0981957 0.027652707 0.027539175 0.10486646 0.09770174 -0.0504854
0.079290286 -0.034047037 -0.085853584 0.10231594 -0.006009127 0.031638343 0.08541181 -0.07094368
-0.07494576 0.04293628 0.050956506 0.05275829 0.0017879304 0.17151989 0.23206265 0.07947943
0.07701039 -0.068673134 0.17904592 -0.22269033 0.038978823 0.14676835 -0.15923764 0.0069260574
-0.07381879 0.07666065 0.11258936 -0.15015224 0.19281499 0.034547273 0.07616235 0.1377827
-0.029106885 -0.018229833 -0.13309942 -0.02824121 -0.075647034 0.077590875 0.22899877 -0.05394188
-0.05006717 -0.11597779 -0.18645291 -0.10618419 -0.028917177 0.042060293 0.26054224 0.23582968
-0.024556275 0.00026521305 -0.016526205 -0.040146377 0.057155028 -0.015235968 -0.10973092 -0.010309775
0.09522711 -0.0014737865 -0.092617705 -0.0026574107 -0.0013166165 -0.0754445 0.014800097 0.06640736
-0.030611644 -0.05028967 0.025485516 -0.1602897 0.061516363 0.08447437 0.0653083 0.11241263
00000000: 280f 603e 971c 06be b647 9c3d 8cb8 8dbc
00000010: d533 d7bd 614a 97bc 3a40 8bbd af96 96bd
00000020: d785 703d 7eb8 75be 0776 b2bc 0d10 4e3d
00000030: 8dfd b8bd fad9 fdbc dec2 24be 35f7 86bd
00000040: 2ab1 403d 9d48 08bc ddcb 8bbd 43cc 423d
00000050: d4ec c3bd 3b2a 903c 5151 143e 1500 16bd
00000060: f83f 063e f75a bfbd 943e 323d e9db 633e
00000070: f5b1 3e3e 9f24 e5bd ed45 d73b fa60 2cbe
00000080: 95fa 033e 0065 8bbd 1e0e de3d ed05 7a3c
00000090: 7da4 00bd eaad 003e 1327 46bb 446f 0dbe
000000a0: 0a3f 953d 0794 283e 2e28 cd3d e2e2 77bd
000000b0: 050a 5d3c 65a4 40be 4819 1fbe d60c 4d3d
000000c0: 1cb3 12be cdc7 063e aa10 1e3d 3058 51bc
000000d0: efa7 05bd 308b 023e 20d9 85bd e8b0 b63d
000000e0: 4b7e 3d3d f590 f63d 8802 42bd 81d1 17bd
000000f0: bf32 49be 6c45 a93d f1ca 2bbe c1de 2ebe
00000100: e57f 323e eb9f 383e 52a9 bdbd 6d5c e1bd
00000110: d8ab 173d d1df 5dbd f421 ecbd a813 1a3e
00000120: 47cd 093e c608 e8bc 7ce1 bdbb 1bb7 30bc
00000130: 5466 0fbe 34a8 8a3d 2565 6bbd 20aa 9dbc
00000140: e431 b1bc 8843 a23d 77eb 963c e9eb 1c3d
00000150: c4ce 863c 8908 3cbd 2302 c53d 64d7 a83d
00000160: 9aad 253d 076f 923e 8fb7 62bd 0a59 db3d
00000170: 74d5 df3d 8bbe 25be 6236 99bd 6cd5 46be
00000180: b428 1b3d 5c76 ac3d 5aac 043c 8d5a 783e
00000190: 6d4c 82bb f87e 853d 059d fb3c 37c1 123e
000001a0: 7560 cd3a cdb5 c33d 6d53 ca3d 9a03 12be
000001b0: 9963 803c b4b0 963d 5f5f 3e3b 04ef c83d
000001c0: 9498 f8bd 5687 2e3d 1cbe dc3d 3a38 cdbc
000001d0: a3a2 5fbc 887f b5bd b583 eabc aa08 cfbc
000001e0: 334c 9b3c 64c6 153e 73d8 0fbe 52c6 db3d
000001f0: 7a98 d9bd e227 153e a5af 9e3b 098d 19be
00000200: d780 c93d 458f 47bd 3ae5 11be e150 4abe
00000210: 5a29 28be 1c39 7fb9 7b13 ebbc 28b7 f7bd
00000220: 60a0 8cbd 0ef6 08bd dd62 66bd 664d 8c3d
00000230: 1317 813d ffc6 bc3d 3cf2 123d a8d2 243e
00000240: 247c ccbc 5974 39bd 1897 0abc 9ab0 9d3d
00000250: 670b 6d3c 29d1 94bb d0f6 c8bd 975c 1bbe
00000260: 38c6 f2bc ad6a c5bc 7598 a2bd 6f34 8c3d
00000270: 6151 913d 042f 00be 724d ba3d 5280 d0bd
00000280: 021c 723d b028 1b3b f73c dfbd 5033 16bc
00000290: 2b48 193d e2e3 48bc 807d 093e dbe3 49bd
000002a0: 34be af3b b76f 44bd 166a cdbd 42a3 96bd
000002b0: 454f 373b d1f6 3a3e db17 36bb 1ac5 d53d
000002c0: a4e5 2dbd 9d49 a4bd d41a c93d ee87 e23c
000002d0: d699 e13c 3ac4 d63d da17 c83d c7c9 4ebd
000002e0: f262 a23d e874 0bbd 01d4 afbd 058b d13d
000002f0: 36e8 c4bb 3597 013d 63ec ae3d ec4a 91bd
00000300: 2a7d 99bd f4dd 2f3d c5b7 503d 1419 583d
00000310: fd58 ea3a e9a2 2f3e d5a1 6d3e 1dc6 a23d
00000320: a0b7 9d3d 80a4 8cbd d057 373e ef08 64be
00000330: 42a8 1f3d 714a 163e 310f 23be fbf3 e23b
00000340: 4e2e 97bd 4200 9d3d 4095 e63d 82c1 19be
00000350: 4b71 453e 7181 0d3d 02fb 9b3d e816 0d3e
00000360: 9071 eebc bb56 95bc 374b 08be 1c5a e7bc
00000370: d5ec 9abd f7e7 9e3d a77e 6a3e 29f2 5cbd
00000380: 3c13 4dbd c385 edbd 83ed 3ebe 1977 d9bd
00000390: b7e3 ecbc 6a47 2c3d cb65 853e 567d 713e
000003a0: 3e2a c9bc 4b0c 8b39 f761 87bc 8770 24bd
000003b0: 641b 6a3d 48a0 79bc 9bba e0bd 55ea 28bc
000003c0: 6e06 c33d 122c c1ba 5aae bdbd f427 2ebb
000003d0: 5292 acba a582 9abd 1b7c 723c 9500 883d
000003e0: 45c5 fabc 8afc 4dbd 00c7 d03c fc22 24be
000003f0: 95f8 7b3d e600 ad3d 5cc0 853d 9838 e63d

gru.bias_ih_l0 f4 [192]
0.2630751 0.19618668 0.09950823 0.080083445 0.003392985 0.113796234 -0.023804931 0.12082853
0.04105107 0.05647652 -0.019266354 -0.038490623 0.10033565 -0.002088532 -0.050098777 0.2034231
-0.051916283 -0.09643724 -0.15171508 -0.036384035 -0.04668717 0.13265617 -0.086135656 -0.09557699
-0.016487679 0.19961882 0.15962559 0.2615894 -0.08389024 0.031117363 -0.11799162 0.007989708
-0.010124528 0.14590727 0.1535189 0.17028247 -0.023092438 0.07111254 0.021529032 0.19007708
0.087113425 0.048234984 0.17450562 -0.09388121 0.024283353 -0.019577282 0.09588525 0.03398393
0.055452287 0.10182285 0.022897063 0.11088843 0.08523276 0.15524781 0.15616505 -0.046569884
0.056377903 0.09721741 -0.0038839495 0.122789524 -0.060305867 0.062305983 0.20871216 0.16302893
-0.019813707 -0.31718376 -0.019103052 0.15587756 -0.021716299 0.07631025 0.16334122 0.054304034
0.003316293 -0.027524162 -0.064424135 0.06550109 0.19002922 0.12139175 0.081067525 0.09683805
0.09877816 0.08198413 -0.07265733 -0.021678694 0.08155136 0.020208966 -0.065014765 -0.043160465
0.023593867 0.1709355 -0.26920432 0.08281885 -0.058201227 0.0078085777 0.049782533 -0.09834041
-0.03691401 0.06355982 -0.002064981 -0.039190687 -0.0134680085 -0.31843162 -0.09664668 -0.38154757
0.15803356 -0.07364728 0.1044473 0.19074471 0.17337427 -0.14830963 0.11913992 0.17734185
-0.08298867 0.109111026 -0.040268976 0.0037429286 0.027923003 0.1343383 0.112975284 -0.05159866
0.04969654 0.093782395 0.13709131 0.1078552 0.16434485 0.088366725 0.05649219 0.14095959
0.0332633 0.11120267 0.08500758 -0.0702619 -0.15065286 -0.0284491 -0.16370223 0.028698817
-0.045884065 -0.13952586 -0.033600535 -0.0020949594 -0.053449057 0.12507348 -0.14562973 -0.07529783
0.04857919 -0.07970683 -0.10084437 0.051579975 -0.060951125 -0.18334734 0.1375355 -0.012353291
0.13421066 0.051397618 -0.007651862 0.10377894 0.028721895 0.08190464 0.12905584 -0.113272235
0.16594486 -0.1262282 -0.04567307 0.1161174 -0.16117571 0.04847138 0.16296044 -0.14424828
-0.02021051 0.10885073 0.13873358 0.00401552 0.08690531 -0.14732763 -0.1383841 -0.12703653
-0.025112784 0.14248233 0.023410376 0.008754731 -0.108217664 0.03187316 0.07269667 0.017222768
0.16958117 -0.003961905 -0.012729697 -0.08990002 -0.119552694 0.075732715 -0.11272414 -0.10126816
00000000: c8b1 863e 29e5 483e f9ca cb3d ca02 a43d
00000010: d85c 5e3b 000e e93d 8f02 c3bc f374 f73d
00000020: 2b25 283d ec53 673d 79d4 9dbc 58a8 1dbd
00000030: c77c cd3d c1df 08bb 6034 4dbd 254e 503e
00000040: 2ba6 54bd e380 c5bd 335b 1bbe 6d07 15bd
00000050: 0c3b 3fbd 05d7 073e e467 b0bd debd c3bd
00000060: 2b11 87bc e068 4c3e e474 233e 0cef 853e
00000070: a5ce abbd d7e9 fe3c 97a5 f1bd 44e7 023c
00000080: 59e1 25bc b768 153e 0f34 1d3e 875e 2e3e
00000090: 5a2c bdbc 74a3 913d a75d b03c 91a3 423e
000000a0: 8668 b23d 0c92 453d 9ab1 323e cb44 c0bd
000000b0: e2ed c63c 8960 a0bc 7c5f c43d bc32 0b3d
000000c0: f021 633d 8088 d03d 9f92 bb3c 7919 e33d
000000d0: 838e ae3d 48f9 1e3e bbe9 1f3e 10c0 3ebd
000000e0: 84ec 663d ec19 c73d dc89 7ebb 1379 fb3d
000000f0: 4903 77bd 8f34 7f3d a4b8 553e 0ef1 263e
00000100: 5b50 a2bc e965 a2be 017e 9cbc 5e9e 1f3e
00000110: 61e6 b1bc 8c48 9c3d ec42 273e e86d 5e3d
00000120: 2a56 593b 5a7a e1bc cdf0 83bd 6f25 863d
00000130: 0597 423e 3d9c f83d bb06 a63d 0753 c63d
00000140: 344c ca3d 4ce7 a73d 5ecd 94bd 8497 b1bc
00000150: 6604 a73d 468d a53c 7626 85bd 07c9 30bd
00000160: ed47 c13c b709 2f3e 26d5 89be ee9c a93d
00000170: 6964 6ebd 19df ff3b c5e8 4b3d b266 c9bd
00000180: 2533 17bd a72b 823d a254 07bb 6a86 20bd
00000190: eca8 5cbc 7809 a3be b2ee c5bd 345a c3be
000001a0: 8dd3 213e 63d4 96bd 77e8 d53d 9552 433e
000001b0: 0689 313e 7bde 17be a1ff f33d 1a99 353e
000001c0: f7f5 a9bd 9a75 df3d 15f1 24bd ec4b 753b
000001d0: c8be e43c fb8f 093e 965f e73d 1e59 53bd
000001e0: 998e 4b3d fc10 c03d aa61 0c3e 30e3 dc3d
000001f0: 044a 283e 9df9 b43d 5b64 673d b657 103e
00000200: 193f 083d 3abe e33d 7418 ae3d 79e5 8fbd
00000210: be44 1abe 160e e9bc 8fa1 27be c819 eb3c
00000220: eef0 3bbd dedf 0ebe b7a0 09bd 964b 09bb
00000230: 66ed 5abd 4313 003e f61f 15be c035 9abd
00000240: f9fa 463d 563d a3bd 7e87 cebd 8645 533d
00000250: e3a7 79bd 68bf 3bbe 1bd6 0c3e 7565 4abc
00000260: 856e 093e 4f86 523d 79bc fabb 0e8a d43d
00000270: 2e4a eb3c 9fbd a73d 3727 043e 46fb e7bd
00000280: 73ed 293e f741 01be af13 3bbd f6ce ed3d
00000290: 3f0b 25be ed89 463d 1adf 263e d2b5 13be
000002a0: 8390 a5bc 22ed de3d 2d10 0e3e a094 833b
000002b0: 69fb b13d 0edd 16be 90b4 0dbe dd15 02be
000002c0: 53b9 cdbc e3e6 113e 1ec7 bf3c 0170 0f3c
000002d0: 39a1 ddbd 6e8d 023d fee1 943d c316 8d3c
000002e0: b0a6 2d3e ded2 81bb 3890 50bc 801d b8bd
000002f0: 0bd8 f4bd c119 9b3d eadb e6bd ae65 cfbd

gru.bias_hh_l0 f4 [192]
0.24124762 0.10458272 0.1367489 0.022783313 0.04320085 0.14387333 -0.028677566 0.18606952
-0.036053482 0.010979627 0.08328562 -0.07805893 0.18297112 0.050032057 -0.0632286 -0.043069456
0.11233402 0.05241216 -0.07934256 0.17114535 -0.10747726 0.09497289 -0.029270755 -0.16320598
-0.014560874 0.16302373 0.08889396 0.18486926 -0.020117419 0.05798864 0.11184318 -0.012540379
0.09371094 0.04356358 0.15436019 0.1202288 0.01656617 0.13148652 0.059153836 0.003892206
0.107710086 -0.050287634 0.19104049 0.111053705 0.025592644 -0.01045412 -0.040864494 -0.026759012
0.11161919 0.07608708 0.19803467 -0.08807885 -0.03495766 0.18005879 -0.06758079 0.0016270102
-0.0051757195 0.13606043 0.08031203 -0.008648977 0.11491923 0.091827594 0.20570245 0.21145104
0.010335547 -0.32300937 0.06608715 0.080221646 0.04579855 0.057035495 -0.0034305179 -0.07712316
0.12686993 -0.0039409664 0.12958044 0.14467508 0.10480132 0.022021947 -0.023063673 0.16309556
0.12330662 0.1235759 -0.1125468 0.17636208 0.062999465 0.17466232 -0.1780295 0.020243868
-0.020423632 -0.005970564 -0.21991856 -0.019278444 -0.07093181 -0.06253507 -0.007140566 -0.13336736
-0.020222547 -0.049625214 0.0019163468 -0.046898045 0.0402971 -0.43407604 0.011151402 -0.45515472
0.10109003 0.050907396 0.13029692 0.07960259 0.21320346 -0.26109272 -0.07634149 0.14780545
-0.26346597 0.08591427 0.17852613 0.1210938 0.039837588 0.11138907 0.1369881 0.02462409
-0.06539182 -0.09294052 0.09845337 0.095865704 0.024022594 0.025738351 0.122160666 0.09242212
0.13069277 -0.08022432 0.087655246 -0.065807365 -0.0815102 -0.156897 -0.121683225 0.1715448
0.06354326 -0.16498406 -0.051613256 -0.095088586 0.06297067 -0.07232389 -0.10339272 0.04482894
-0.050676685 0.05449309 -0.01337256 -0.028759096 0.110537335 0.05244407 0.06843262 -0.04652299
-0.02637254 0.14459416 0.12467346 0.12039713 0.037234273 -0.05019819 -0.016466638 -0.16990913
0.16608016 0.082411714 0.061517585 0.15479127 -0.0056150123 -0.036151286 -0.021882026 -0.10881046
0.12728614 0.021030314 0.14240164 0.014221398 -0.040706307 -0.0286646 -0.11447808 -0.13196817
-0.10651139 -0.015029436 0.011689715 0.07838429 -0.0529948 0.10669358 -0.06653762 0.13267745
0.13369875 0.06994039 0.07372987 -0.032797914 0.009532252 0.17708753 -0.03180659 -0.09321121
00000000: 9e09 773e 772f d63d e707 0c3e 12a4 ba3c
00000010: 60f3 303d 8853 133e 37ed eabc 0289 3e3e
00000020: d1ac 13bd e5e3 333c a791 aa3d 5cdd 9fbd
00000030: c85c 3b3e 6aee 4c3d ff7d 81bd 9969 30bd
00000040: 610f e63d 22ae 563d 5a7e a2bd ba40 2f3e
00000050: 0a1d dcbd 2681 c23d 39c9 efbc 781f 27be
00000060: bb90 6ebc b1ef 263e 090e b63d 5e4e 3d3e
00000070: 49cd a4bc 7f85 6d3d 0a0e e53d 2976 4dbc
00000080: 85eb bf3d b96f 323d 9910 1e3e 843a f63d
00000090: c7b5 873c 67a4 063e 4b4b 723d 6114 7f3b
000000a0: 1b97 dc3d 68fa 4dbd 1ea0 433e 2070 e33d
000000b0: aaa7 d13c c247 2bbc 8761 27bd b735 dbbc
000000c0: 9a98 e43d 8bd3 9b3d 9ac9 4a3e af62 b4bd
000000d0: c32f 0fbd 5561 383e cc67 8abd 6741 d53a
000000e0: 1599 a9bb 6d53 0b3e a27a a43d 70b4 0dbc
000000f0: c65a eb3d 1b10 bc3d aaa3 523e 9f86 583e
00000100: 6d56 293c 7c61 a5be b358 873d 3f4b a43d
00000110: 4397 3b3d 0d9e 693d 8ad2 60bb bff2 9dbd
00000120: 31ea 013e 3923 81bb bcb0 043e b425 143e
00000130: 13a2 d63d 5f67 b43c 07f0 bcbc 8602 273e
00000140: 2e88 fc3d 5d15 fd3d f07e e6bd 4398 343e
00000150: dd05 813d aeda 323e 5e4d 36be 78d6 a53c
00000160: 764f a7bc b9a4 c3bb 5532 61be d4ed 9dbc
00000170: b244 91bd 6312 80bd 69fb e9bb 7491 08be
00000180: c1a9 a5bc cf43 4bbd ee2d fb3a 2a18 40bd
00000190: 920e 253d 373f debe 5fb4 363c 0a0a e9be
000001a0: 4a08 cf3d 4684 503d 8e6c 053e af06 a33d
000001b0: 0252 5a3e f2ad 85be ed58 9cbd 505a 173e
000001c0: 03e5 86be d2f3 af3d 8ecf 363e 0700 f83d
000001d0: bd2c 233d f41f e43d 9c46 0c3e 76b8 c93c
000001e0: 26ec 85bd 9957 bebd eca1 c93d 3d55 c43d
000001f0: 08cb c43c 3cd9 d23c 5f2f fa3d cf47 bd3d
00000200: 53d4 053e a64c a4bd 9884 b33d 03c6 86bd
00000210: d2ee a6bd 9ba9 20be 0e35 f9bd 71a9 2f3e
00000220: f822 823d 95f1 28be 6c68 53bd cebd c2bd
00000230: c4f6 803d 8c1e 94bd 90bf d3bd 8d9e 373d
00000240: 5b92 4fbd 2534 5f3d 9518 5bbc 3298 ebbc
00000250: 6661 e23d 98cf 563d 6726 8c3d e48e 3ebd
00000260: 3a0b d8bc 7e10 143e cd54 ff3d c592 f63d
00000270: f782 183d 9e9c 4dbd 0be5 86bc a9fc 2dbe
00000280: eb10 2a3e 79c7 a83d ddf9 7b3d 9a81 1e3e
00000290: 23fe b7bb 5f13 14bd ef41 b3bc 05d8 debd
000002a0: 4c57 023e c447 ac3c bcd1 113e de00 693c
000002b0: a8bb 26bd 06d2 eabc 7c73 eabd aa22 07be
000002c0: a522 dabd 063e 76bc 3886 3f3c f187 a03d
000002d0: 1311 59bd 2a82 da3d e044 88bd 99dc 073e
000002e0: 53e8 083e e83c 8f3d b0ff 963d 1b57 06bd
000002f0: 2a2d 1c3c 6f56 353e a047 02bd 85e5 bebd

head.0.weight f4 [64, 64]
0.15534589 0.30309784 -0.20136432 0.06364664 -0.029193655 -0.15315145 -0.19652873 0.04268707
0.068708286 -0.115754426 -0.012914698 -0.012563007 -0.14006825 0.06586956 -0.056170575 -0.065478556
-0.050741993 0.0546062 -0.057824355 0.025033558 -0.041846298 -0.052803423 -0.030568687 0.056233793
0.109429635 -0.08893992 -0.04377668 0.17855498 0.08095949 0.07596508 -0.07775254 -0.12889937
-0.018957682 0.019185187 0.058900345 0.13882555 -0.04842715 -0.052427053 0.06293602 0.15295526
0.18180853 0.06356022 -0.040763255 0.063556135 -0.101715684 -0.0994878 0.070645444 0.15808396
-0.038751695 -0.069816664 -0.036265012 -0.025268521 -0.097596064 0.052468423 0.04639895 0.043867186
0.11390895 -0.031899292 -0.07044441 0.07678328 0.09030746 0.05608139 0.0073443856 -0.010722001
0.023133162 0.29440254 -0.1540993 -0.14466779 -0.11758062 -0.16757642 -0.20086141 -0.114936344
0.03592915 -0.046507128 -0.11611835 0.14659138 0.0019472737 -0.050581694 -0.0002598252 0.120581344
-0.07950325 -0.042923823 -0.113938466 0.15328726 0.039072506 -0.001222097 0.11445624 -0.0026460704
0.13223782 0.016151104 -0.028488431 0.1736825 0.040453408 0.050899096 -0.1416214 0.016410993
-0.0701252 0.008683092 0.16174203 0.12450208 0.10883888 -0.19919463 0.0067221797 -0.14351001
0.17982912 0.14489499 -0.02414114 -0.10706998 -0.087838754 -0.08224021 -0.04554205 -0.052079275
0.03770279 0.043235566 0.11444523 -0.10396424 -0.0005396522 -0.030231884 0.0664481 0.05335117
0.027968997 0.1167732 -0.025123741 0.16476518 0.018817969 0.009295126 -0.15539327 -0.047611114
-0.1274001 -0.30477732 0.057117492 -0.14316177 0.097879834 0.07286315 -0.03425602 -0.07917309
-0.09682276 0.19255558 0.07759093 0.08198055 0.049369875 -0.02286328 -0.0529923 -0.0029633848
-0.10812496 0.03953168 -0.110171415 -0.12525368 0.025773909 0.08358969 0.00096255256 -0.035712756
-0.03927904 -0.076491706 -0.067061014 -0.017979665 0.097521745 -0.058227584 -0.071366556 0.059644468
-0.09401652 0.0910385 0.1066827 0.025390135 0.14435586 0.12256588 0.008094501 0.11242223
-0.13568784 0.08444963 -0.12614633 0.021416306 -0.10293438 0.13529634 0.032560114 0.04271027
-0.103604294 -0.07197136 0.06089415 0.08193108 0.052877907 -0.046327125 0.007946943 -0.11640616
-0.110821284 -0.13295424 -0.06321442 -0.08297736 -0.0073975106 0.0006762123 -0.022130199 0.00096238777
0.09597495 0.08662907 0.15204337 0.06442923 0.16447936 -0.071427576 0.10655618 0.10140332
-0.07204882 -0.073683135 0.10700547 -0.07744871 0.16320758 0.03440816 -0.13289626 -0.1770717
-0.10073446 0.00042806467 -0.0043446836 0.032744765 0.05613659 0.01366128 -0.017711742 -0.061187632
0.10713131 0.07152097 0.17562667 0.0653859 0.10668526 0.009197235 0.09238761 -0.05736891
0.034573138 -0.19683711 -0.0101588555 0.019070642 -0.036609016 0.0036748606 -0.14020334 -0.12095484
-0.012658901 -0.011368464 -0.03165811 -0.04356247 -0.019216409 -0.032639123 -0.05751211 0.0066139908
-0.13641609 0.12181482 0.15112932 -0.050300602 -0.01357151 -0.08866323 0.022552181 -0.011598422
-0.011570371 0.13533413 -0.0023308794 -0.043598544 -0.08533413 0.045033347 0.07837543 0.0469435
00000000: fe12 1f3e a42f 9b3e 7332 4ebe 2b59 823d
00000010: 8827 efbc bcd3 1cbe d43e 49be a3d8 2e3d
00000020: eeb6 8c3d a810 edbd 2b98 53bc 12d5 4dbc
00000030: 0d6e 0fbe 9fe6 863d 1e13 66bd 9f19 86bd
00000040: d6d6 4fbd c0aa 5f3d 3bd9 6cbd 2d13 cd3c
00000050: 0667 2bbd 6748 58bd 2f6b fabc 6855 663d
00000060: a51c e03d 2226 b6bd 2d4f 33bd 1ed7 363e
00000070: 17ce a53d 9493 9b3d b93c 9fbd 32fe 03be
00000080: 244d 9bbc 412a 9d3c 7d41 713d 4928 0e3e
00000090: 8c5b 46bd c0bd 56bd 9ae4 803d 4ea0 1c3e
000000a0: 042c 3a3e dc2b 823d 5ff7 26bd b829 823d
000000b0: 5050 d0bd 42c0 cbbd 8fae 903d c3e0 213e
000000c0: 19ba 1ebd 0afc 8ebd 9f8a 14bd eeff cebc
000000d0: 72e0 c7bd 21e9 563d d30c 3e3d 14ae 333d
000000e0: 1849 e93d d5a8 02bd 2945 90bd 8d40 9d3d
000000f0: 1ef3 b83d 99b5 653d 2ca9 f03b 55ab 2fbc
00000100: c281 bd3c eebb 963e 35cc 1dbe cb23 14be
00000110: 1cce f0bd 2799 2bbe 9dae 4dbe bf63 ebbd
00000120: 722a 133d 427e 3ebd 75cf edbd 0d1c 163e
00000130: aa3b ff3a c02e 4fbd 2639 88b9 5af3 f63d
00000140: 9ad2 a2bd e4d0 2fbd 9258 e9bd 56f7 1c3e
00000150: 7e0a 203d c52e a0ba 0868 ea3d b269 2dbb
00000160: 5a69 073e 524f 843c 9260 e9bc d3d9 313e
00000170: 79b2 253d 927b 503d 3305 11be 5970 863c
00000180: cd9d 8fbd 8743 0e3c b49f 253e f2fa fe3d
00000190: ebe6 de3d adf9 4bbe bb45 dc3b 4af4 12be
000001a0: 2025 383e 5a5f 143e a4c3 c5bc 8147 dbbd
000001b0: cee4 b3bd 8e6d a8bd 4d8a 3abd 1451 55bd
000001c0: 3e6e 1a3d c717 313d 4362 ea3d 34eb d4bd
000001d0: 7277 0dba dba8 f7bc f115 883d c286 5a3d
000001e0: 3d1f e53c ca26 ef3d 4ed0 cdbc 34b8 283e
000001f0: 2428 9a3c 964a 183c 6a1f 1fbe df03 43bd
00000200: 2c75 02be c60b 9cbe 08f4 693d 0099 12be
00000210: 3975 c83d 4639 953d 0a50 0cbd 8025 a2bd
00000220: 034b c6bd 4a2d 453e fee7 9e3d 6be5 a73d
00000230: 1138 4a3d c64b bbbc 740e 59bd 5935 42bb
00000240: 9e70 ddbd f9eb 213d 8da1 e1bd 8042 00be
00000250: ce23 d33c 1231 ab3d cf53 7c3a 8a47 12bd
00000260: 0fe3 20bd afa7 9cbd 4957 89bd 174a 93bc
00000270: 7bb9 c73d 0c80 6ebd a128 92bd c24d 743d
00000280: bc8b c0bd 6572 ba3d 767c da3d f9fe cf3c
00000290: 06d2 133e d203 fb3d cc9e 043c a03d e63d
000002a0: c1f1 0abe edf3 ac3d 812c 01be 4071 af3c
000002b0: 43cf d2bd 208b 0a3e c15d 053d f7f0 2e3d
000002c0: 7d2e d4bd b865 93bd 256c 793d 7bcb a73d
000002d0: 8196 583d 83c1 3dbd e533 023c 5a66 eebd
000002e0: 45f6 e2bd 2825 08be 9076 81bd 09f0 a9bd
000002f0: d166 f2bb d743 313a 644a b5bc c048 7c3a
00000300: 848e c43d 956a b13d 42b1 1b3e 79f3 833d
00000310: 476d 283e 9f48 92bd 203a da3d 8bac cf3d
00000320: 558e 93bd 2fe7 96bd af25 db3d 6e9d 9ebd
00000330: e31f 273e 92ef 0c3d f515 08be 4952 35be
00000340: de4d cebd de6d e039 d95d 8ebb 601f 063d
00000350: 7bef 653d 90d3 5f3c 3718 91bc e29f 7abd
00000360: a967 db3d 9679 923d 7ad7 333e 0be9 853d
00000370: cd7d da3d 00b0 163c b735 bd3d aafb 6abd
00000380: 909c 0d3d ab8f 49be 5471 26bc 093a 9c3c
00000390: 56f3 15bd eed5 703b 7791 0fbe 2cb7 f7bd
000003a0: 4767 4fbc cb42 3abc efab 01bd 8f6e 32bd
000003b0: bb6b 9dbc 9ab0 05bd d191 6bbd 2dba d83b
000003c0: a9b0 0bbe 0c7a f93d a5c1 1a3e 0108 4ebd
000003d0: 0a5b 5ebc 1195 b5bd 5abf b83c 4f07 3ebc
000003e0: a791 3dbc 0895 0a3e abc1 18bb 6394 32bd
000003f0: a9c3 aebd e374 383d 4c83 a03d d447 403d

head.0.bias f4 [64]
-0.058771797 -0.013610239 -0.17395465 0.06760316 -0.06909805 -0.13469866 0.08693112 0.038267247
-0.07715159 -0.057200342 -0.029549941 0.06970742 0.023853462 -0.025559999 0.122578956 0.09546623
0.03412141 0.08420996 -0.12754282 -0.066111185 -0.07292767 0.14642216 -0.079820745 -0.0783752
-0.009276393 -0.07608844 0.09729739 -0.05978728 -0.022201832 0.060266443 0.06995613 -0.07499371
-0.020888157 -0.06846884 -0.011567842 0.11485294 -0.038930528 0.033935387 0.01638512 -0.072396114
0.08424245 -0.016173545 0.07778803 -0.13175388 0.016772682 0.055974945 -0.00809047 0.05325877
-0.118051596 -0.099554755 0.13393116 0.06588485 -0.0040215855 0.0743157 -0.115277 -0.11549235
-0.014679097 0.10212311 -0.10481725 0.0350773 0.0064134495 0.067142576 -0.13670808 -0.01791334
00000000: b2ba 70bd 7bfd 5ebc 2b21 32be 8773 8a3d
00000010: 4783 8dbd 72ee 09be f108 b23d 1ebe 1c3d
00000020: a701 9ebd e84a 6abd b812 f2bc c4c2 8e3d
00000030: 5668 c33c 3463 d1bc ad0a fb3d cc83 c33d
00000040: e4c2 0b3d 4676 ac3d 969a 02be 4d65 87bd
00000050: 1a5b 95bd b1ef 153e 0f79 a3bd 2d83 a0bd
00000060: 03fc 17bc 42d4 9bbd db43 c73d 82e3 74bd
00000070: 9ee0 b5bc f2d9 763d 2945 8f3d 4d96 99bd
00000080: a41d abbc 6439 8cbd 0c87 3dbc 0538 eb3d
00000090: 9e75 1fbd d5ff 0a3d 163a 863c 6a44 94bd
000000a0: 4e87 ac3d 627e 84bc 554f 9f3d 7dea 06be
000000b0: dd66 893c fc45 653d e48d 04bc de25 5a3d
000000c0: 09c5 f1bd 5de3 cbbd 4025 093e a3ee 863d
000000d0: 81c7 83bb d432 983d 5916 ecbd 4187 ecbd
000000e0: 9880 70bc ec25 d13d 6daa d6bd 37ad 0f3d
000000f0: ea27 d23b 0c82 893d 34fd 0bbe ffbe 92bc

head.2.weight f4 [1, 64]
-0.12759261 -0.09932483 0.09656169 0.10644914 -0.21790203 -0.20216335 0.08822183 -0.20551647
0.12552245 0.20565031 0.08117783 0.11369561 0.07980282 0.12574075 -0.0920851 0.05860031
0.06902115 0.07981714 0.092723176 -0.24896014 0.17421074 -0.103140935 0.15129207 0.21835348
0.14939064 0.04284575 -0.102532364 -0.20108464 -0.06810108 -0.10016361 -0.089706555 0.1547458
-0.17732629 0.07477392 -0.13807122 0.036429457 -0.20054218 -0.05044633 0.13428172 -0.13572487
-0.031660248 -0.114899755 -0.17522384 -0.075426966 0.11258123 -0.08099918 -0.07189565 -0.1544135
0.08965701 0.08924384 -0.12159052 0.15472166 0.1575584 -0.19070366 -0.042311907 -0.1902862
0.1164369 0.10503579 -0.06848422 0.071830004 0.052695047 0.090852715 0.07330951 0.061141845
00000000: a3a7 02be d16a cbbd 23c2 c53d 0202 da3d
00000010: b621 5fbe e903 4fbe a6ad b43d e972 52be
00000020: f588 003e ff95 523e 9040 a63d 3ed9 e83d
00000030: a96f a33d 2fc2 003e 1d97 bcbd e106 703d
00000040: f65a 8d3d 2b77 a33d a6e5 bd3d 68ef 7ebe
00000050: 4d64 323e 8e3b d3bd 4fec 1a3e 0e98 5f3e
00000060: dcf9 183e 067f 2f3d 7dfc d1bd 22e9 4dbe
00000070: 9478 8bbd 9422 cdbd 12b8 b7bd af75 1e3e
00000080: 0695 35be 1223 993d 8b62 0dbe 0e37 153d
00000090: ee5a 4dbe d0a0 4ebd 2681 093e 76fb 0abe
000000a0: 2dae 01bd 9050 ebbd e16d 33be 7479 9abd
000000b0: fd90 e63d e6e2 a5bd 073e 93bd 931e 1ebe
000000c0: 189e b73d 79c5 b63d 7304 f9bd 5b6f 1e3e
000000d0: fd56 213e d247 43be 404f 2dbd 63da 42be
000000e0: 7876 ee3d 011d d73d 7441 8cbd 9c1b 933d
000000f0: c3d6 573d fd10 ba3d 4c23 963d df6f 7a3d
