outputs/exp_0002_20251212_235529/runs/seed2/h1/OnlineSGD/model_final.pt (torch, 71493 bytes, 7 tensors)

gru.weight_ih_l0 f4 [192, 1]
00000000: 5e8a d5ba 2bbc 08bd 6849 453d a24e 87bb
00000010: f381 bb3d c146 343d 807e 0bbc 45b7 c6bd
00000020: 4a6d 653d 30c0 fcbd ad04 153d 875a 333d
00000030: 59fa 0ebd 48f4 1e3e 2733 473d 80ec 3ebd
00000040: d7e5 b13d a23e d4bd 87f1 2dbd e9e1 263e
00000050: 3a4b 12be d197 2abd 2bd5 adbc 366b 883d
00000060: 264e a0bc e294 443d 9f86 923c 5043 16be
00000070: b54c 47bd d9be 43bd 520b 19be 2b73 3cbd
00000080: bfa0 223d 371a e83d 3878 c53a 14f9 50bd
00000090: c510 be3d 00ca a9bd 24df 05bd d340 8fbd
000000a0: 1fc9 39bd bbf2 05be d5d1 5c3d 9d7c 1c3d
000000b0: 51dc a63c 15d6 243d 68fe 013d 5da1 123d
000000c0: f5be ab3b 3d00 373d 7985 8d3d ccd0 e73d
000000d0: 69d7 c53d 56bf 883d ffc9 d13b 583d 7abb
000000e0: 0403 323c fa85 ea3d 0761 993d f0c8 0a3e
000000f0: 778e d03c 2132 fabd 0d3b 5f3d 228b bf3d
00000100: 9095 bb3d faa2 d9bc 3537 583b ac24 0cbe
00000110: 7011 5cbd c6cd 693c 2768 21be 6a1f e43d
00000120: 5c5c 4bbd 3847 573c 67e8 1bbd 1df7 51bc
00000130: 55ce 443d 45ab 42bd 6255 8fbd 4234 abbd
00000140: ad81 a03d a869 7a3c 81e2 1abe 37f4 e53c
00000150: bcbd e83c 676c 8dbd f31b 1dbd 7514 543d
00000160: 8bfe 05bd a639 96bd 41c4 a23c 8a4e b5bd
00000170: ffc2 1f3d b99d a53d 16f2 a03d c0e3 f33d
00000180: 111d bbbd 15bc fcbd 96bc 4dbd 2e6e 1dbd
00000190: 191d 5abd 5136 0c3c 7e5e 23be 801b c73d
000001a0: 393e 163d fc94 f03b bcb7 933d f366 493d
000001b0: ce25 9dbd 63f8 2abc a8c1 b93d a991 9ebd
000001c0: 4e06 4cbd de89 633d d81e 95bd 62b0 b43b
000001d0: 653b 2dbd dfcd 2d3e 1486 00bd 8f21 633d
000001e0: 8c21 ab3d af0d ad3d 7f13 3dbd c136 cd3d
000001f0: 83e1 a53d b81d c3bd 5a2e 9abd 35cc 993d
00000200: da73 efbd 88f3 d8bd 3de9 bdbd cf1b 8e3d
00000210: a78c 9abd 8dcc e6bd 0b89 5d3d 0242 993d
00000220: 60fd 293c 4c83 dfbd 7b20 b83d b141 77bc
00000230: 728a e0bd 352e 3abd 83d6 a53d 4612 723d
00000240: c0bd 17bc 25e4 d23d a7b2 dfbd 0d42 c23d
00000250: 100b e53d 5016 d3bd 3d44 c33c 7c04 b8bc
00000260: 118a d1bd 7aaa 2bbc 1b12 c2bc d793 09be
00000270: 3e96 cbbd 02e5 c6bc f0bb 073e 6081 fe3c
00000280: e8a2 0bbe e7bc a23d ca92 6c3c ec06 efbd
00000290: 3a95 d33c c954 ab3d b16e bfbd b161 5f3c
000002a0: babc a4bd 33b6 d7bd b2d7 c1bd cd0b 3f3c
000002b0: 2763 7a3d 6c2a eebc b035 e7bd e115 a93b
000002c0: 0c8b f0bd 96d7 97bc f477 033e af21 0b3d
000002d0: e39e 9dbd d916 56bd 06a4 653d 634e 323d
000002e0: aa22 e2bd 5ea8 0abd 90c8 7abd 596b b53c
000002f0: 96da f13d 901b a23d 7840 8c3d 300d bbbd
-0.0016291847 -0.033382576 0.04816571 -0.004129247 0.09155645 0.04401279 -0.008514047 -0.09702925
0.05601243 -0.12341344 0.036381412 0.043787505 -0.03490672 0.15522873 0.048632767 -0.046612263
0.086864166 -0.10363509 -0.042466667 0.16297115 -0.14286509 -0.04164869 -0.02121981 0.06661074
-0.019568514 0.04799355 0.017886458 -0.14674115 -0.048657138 -0.04778943 -0.14945725 -0.04600827
0.03970408 0.11333125 0.0015065735 -0.05101879 0.09280542 -0.082904816 -0.032683507 -0.06994786
-0.04535782 -0.13080876 0.05391105 0.038204778 0.020368727 0.040243227 0.03173676 0.03579842
0.0052412697 0.04467796 0.069102235 0.11319122 0.09660227 0.066771194 0.0064022536 -0.0038183536
0.010864977 0.11451335 0.074892096 0.13553214 0.025458558 -0.122165926 0.054499675 0.09352709
0.09159386 -0.026566971 0.003299189 -0.13685864 -0.053727567 0.014270252 -0.15762387 0.11138804
-0.049648628 0.0131395385 -0.038063433 -0.012815264 0.048048336 -0.047526617 -0.06998707 -0.08359577
0.07837234 0.0152839795 -0.15125467 0.028070552 0.028410785 -0.06905442 -0.038356733 0.05177732
-0.032713454 -0.07335214 0.019868972 -0.08852871 0.039004322 0.08086724 0.07858674 0.11908674
-0.09136403 -0.12340561 -0.050228678 -0.038435154 -0.053250406 0.008557872 -0.15954015 0.09722042
0.036680434 0.007341979 0.07212779 0.049170446 -0.07673226 -0.010435197 0.0907014 -0.07742626
-0.0498107 0.055551402 -0.072812736 0.0055141905 -0.04229297 0.16973065 -0.031377867 0.055451926
0.08356008 0.084498756 -0.04616117 0.10020209 0.080996536 -0.09527153 -0.07528372 0.075096525
-0.11692019 -0.10593325 -0.09273002 0.06938898 -0.075463586 -0.11269484 0.054085772 0.07483293
0.010375351 -0.10913715 0.0899057 -0.015091346 -0.10963906 -0.045454223 0.080975555 0.05909946
-0.0092615485 0.10297421 -0.10922747 0.094852544 0.11183751 -0.1030699 0.02383625 -0.022463076
-0.10231412 -0.0104776565 -0.023690274 -0.13435303 -0.09940766 -0.024279121 0.13255286 0.03106755
-0.13636363 0.079461865 0.014439294 -0.11671242 0.025827993 0.08365781 -0.093472846 0.013634131
-0.08043809 -0.105327986 -0.09464969 0.011660528 0.061129715 -0.029072963 -0.11289537 0.005160079
-0.11745271 -0.018535417 0.12838727 0.03396767 -0.07696321 -0.052267883 0.056064628 0.043531787
-0.11041768 -0.033851974 -0.061226428 0.022145914 0.1180927 0.079154134 0.06848234 -0.09133375

gru.weight_hh_l0 f4 [192, 64]
00000000: 960e cb3d 0734 773d 397d 02bd f856 95bd
00000010: 1f90 383d df69 5bbd 64be e43c 4c7f 973d
00000020: 4e0d 96bd 91d6 84bd eea8 82bd 1de8 bebd
00000030: 8e46 49bd ced1 ca3d b72c f73c 651f 4fbd
00000040: 0222 e5ba 3093 00bd c5e8 b7bd 2c97 e2bc
00000050: ed8c ccbb 88d7 72bd 2f04 d8bd 68df f83c
00000060: bdc6 3b3c a1a8 88bd d888 bd3c 9034 f83d
00000070: b9d3 6f3c 3689 66bd dd20 e33d 9998 183e
00000080: fbe5 d2b9 1ade 93bd 4eb3 31bd 1a28 fb3d
00000090: 9373 673d 6101 38bd 8859 b93c 7927 343c
000000a0: 0062 3d3d b649 da3a e142 4cbd 7444 b6bc
000000b0: 3d70 07bb 718c b1bc 51dc 4bbd acf9 9dbd
000000c0: 0e33 5ebd b69e cd3d 9844 f9bd a3bf bebd
000000d0: aae8 e33d 5d7c 9b3c 6436 723d 8332 613d
000000e0: 1c03 45bd 5df1 a9bd 25b4 b3bd 6310 a03c
000000f0: 96e0 b83c f93d f1bd 35f4 dcbd 07ba ab3d
00000100: bd96 a33c e999 c03d e70a d03d 2490 783d
00000110: 3229 3ebc 2bf5 3fbd d9b8 5b3c dffc be3d
00000120: 5fe0 d3bd 6d1f 2a3d c99c d7bd d83c b7bd
00000130: 1a1f 80b9 3518 a53d 72b4 093d 28b1 913c
00000140: b116 31bc fa3d 833c 4311 ebbd 6b86 8dbd
00000150: 2647 1ebc 5ff9 a1bc 1e02 a3bc 6d6e 993d
00000160: eb30 c13c 7e50 5bbd ab64 6bbd 6246 a7bd
00000170: 1733 793d 9990 abbd 5882 223d f03e 6a3d
00000180: 8bcd ed3d edfa b4bd b39b 85bd bb8f f03c
00000190: b5d9 aeba 7144 d6bc 9505 0b3e 178c 09be
000001a0: f4d2 9c3d b0e8 713d 5ed2 b3bc 74ee 263d
000001b0: ea29 ba3c e500 a4bd adc1 8c3d 81cc 9cbb
000001c0: 5d76 93bc 9018 433e e9d7 ce3d a37e 53bd
000001d0: b99f 11bd 7b41 063d 450d 8b3d fb6a b8bd
000001e0: cec8 d4bd c552 003d 55f4 89bd ff45 e03d
000001f0: 6af4 bfbd f0d2 a6bd 0d8c 213d 208e 1e3d
00000200: c8a5 04bd 23c1 93bd 4d5b 1c3d ac7b c53c
00000210: 58ba 373d 5856 dbbd 177d 4bbd 0efe 86bd
00000220: e92c d53c 7c62 e23d cf00 b0bd 2cca 153c
00000230: 5bc4 1b3d 2f6b 8d3d 17d4 02be c737 42bc
00000240: 39a5 e93d 5759 92bd bc32 843d d04c 48bc
00000250: 35f8 d33d 5063 cbbd 6633 c43c 621c b63d
00000260: 7806 933d 13e3 84bd c175 febd f0b0 ae3b
00000270: 1b11 86bd 7226 8c3d d566 80bd 6733 473d
00000280: f64c c3bd bfc4 0aba ab76 053e d3d4 a73d
00000290: aaa6 3b3d 365d 93bd 778d f03d adc7 c1bd
000002a0: e56b 003e 6022 d2bd 5115 1bbd d8f8 05bd
000002b0: 381b d93c ee54 bb3d 4e9b 0b3c 1696 c6bc
000002c0: 9046 d6bd 386c b1bc 5089 93bd 702b 98bd
000002d0: b731 8c3d cc19 fab9 aaa5 93bd 7b4e 853d
000002e0: cd07 c7bd 0538 c3bd b6b4 2abc 1c06 b23d
000002f0: fbd0 873d 7dd2 ccbd 1c1c c7bd fbef f13c
00000300: c9d3 ffba 3929 6a3c 9081 96bc c45e dbbd
00000310: f424 6ebc 877f dbbc 7d70 25bd bc3e 873d
00000320: 1605 c7bd 341c 4d3c 2545 f73d 38ad d4bd
00000330: 03c8 3bbc dc83 2e3e ad14 843d 8512 4c3d
00000340: 7a2a e8bc 98ec aa3d b2fb 23bb 9288 213e
00000350: 69aa 07be 88b7 913d 7b17 a0bd 310c 09be
00000360: c228 aa3d 358c d5ba 2212 b6bd 9745 fabd
00000370: aea5 47bd 24c8 81ba b83d 93bb ea34 653d
00000380: ed7e 5a3d 5fe9 9a3d b6c1 b2bd a395 06bd
00000390: ddd1 de3d af9c 97bd d7c3 e53d d0e6 68bd
000003a0: a61c 463d afd0 8dbd fbbd 873d dc66 1dbb
000003b0: 4450 e53c a694 123e cb6f 14be 2f99 d03d
000003c0: bd3b 763d 680b 733d 9c42 6ebd e64d 163e
000003d0: e468 c93c 66e1 1bbe 4ad8 c5bd b721 cabd
000003e0: 389d b9bd 2b2e 25bd e722 4b3d 7d14 d03d
000003f0: c58c d9bd 6a09 3f3d f874 253d 4b4c 4e3a
0.099148914 0.06035235 -0.031857703 -0.072919786 0.04505932 -0.053567763 0.027922817 0.07397327
-0.073267564 -0.06486238 -0.06379877 -0.09321616 -0.04913955 0.09903298 0.030172689 -0.05056705
-0.0017481449 -0.03139037 -0.08979944 -0.027659975 -0.0062423856 -0.059287578 -0.10547673 0.030379966
0.011460957 -0.066727884 0.023136541 0.121194005 0.014637881 -0.0562832 0.110902525 0.14901961
-0.0004022567 -0.07220097 -0.04338389 0.12263508 0.056506705 -0.04492319 0.0226257 0.010995739
0.04623604 0.0016654048 -0.04986847 -0.022249438 -0.0020666264 -0.021673413 -0.049770657 -0.07713637
-0.05424791 0.10040037 -0.12171286 -0.093138956 0.111283615 0.0189802 0.059133902 0.054979812
-0.04809867 -0.082979895 -0.08774594 0.019539064 0.022568028 -0.117793985 -0.10788766 0.08385091
0.019969339 0.09404356 0.101583295 0.06068434 -0.011606501 -0.04686467 0.01341077 0.09325575
-0.1034553 0.041533876 -0.10527951 -0.08947152 -0.00024437235 0.08061258 0.03361935 0.01778467
-0.010808633 0.016020764 -0.11477902 -0.06910404 -0.009660518 -0.01977223 -0.01989847 0.07491765
0.023582896 -0.05354356 -0.05746905 -0.08167721 0.06083974 -0.08377189 0.039675087 0.057188928
0.1161147 -0.08836923 -0.06523838 0.029365411 -0.0013340028 -0.026155682 0.13576348 -0.13432346
0.076574236 0.0590598 -0.021950897 0.04075475 0.022725064 -0.08007983 0.06872878 -0.004785121
-0.018000776 0.19052339 0.10099775 -0.051634442 -0.035552714 0.03277729 0.0678964 -0.0900478
-0.10389863 0.031328935 -0.06736056 0.10950851 -0.0937279 -0.08145702 0.039440203 0.03870976
-0.032384664 -0.07214572 0.03817301 0.024106823 0.044855446 -0.10709828 -0.04967984 -0.06591426
0.026022391 0.11053941 -0.08593904 0.00914244 0.038029056 0.06905209 -0.12776218 -0.011854119
0.11408467 -0.071459465 0.06454989 -0.012225345 0.10350076 -0.09931052 0.02395029 0.08892132
0.07178968 -0.064886235 -0.124248035 0.005331151 -0.06546231 0.0684327 -0.06269614 0.048633005
-0.095361635 -0.00052935997 0.1303355 0.0819489 0.04581324 -0.07195513 0.11745732 -0.09461913
0.12541158 -0.10260463 -0.037862126 -0.03270802 0.026502237 0.091470584 0.008520914 -0.024241488
-0.104626775 -0.021658048 -0.07203925 -0.0743016 0.0684542 -0.00047702936 -0.07209332 0.065091096
-0.09718285 -0.09532169 -0.010419061 0.086925715 0.06631657 -0.10001085 -0.09722158 0.029533377
-0.0019518073 0.014292055 -0.018372327 -0.107114345 -0.0145351775 -0.026794208 -0.04039048 0.066037625
-0.09717767 0.012518931 0.12073735 -0.10384601 -0.011461261 0.17042488 0.06449256 0.04982235
-0.028340567 0.08345908 -0.0025021848 0.15774754 -0.132486 0.07115084 -0.078169785 -0.13383557
0.08308555 -0.0016292395 -0.08890177 -0.122203045 -0.04874199 -0.0009901565 -0.0044934414 0.055958666
0.053343702 0.07564043 -0.08728354 -0.03285755 0.10879872 -0.07402932 0.11218994 -0.056860745
0.048367165 -0.06924569 0.06628033 -0.0024017608 0.027992375 0.14314517 -0.1449577 0.101854675
0.060115565 0.05933705 -0.058168992 0.14678153 0.024586149 -0.15222701 -0.096603945 -0.09869712
-0.0906319 -0.040327232 0.049593832 0.10160158 -0.10622553 0.046639837 0.040394753 0.0007869645

gru.bias_ih_l0 f4 [192]
00000000: f933 603d fcda 923d 6798 973d a7f3 be3c
00000010: 6510 8a3d ed0b 00bd d307 cabc 6147 9b3d
00000020: 08f1 61bd 30c5 9fbc bf66 12be e736 a2bd
00000030: 716c 253c 53f9 3c3e 781e a63d 7403 1cbe
00000040: 6c8f 393d 1168 953c 6165 0d3c af22 0c3e
00000050: 8c45 db3d b543 113c 53d3 d3bc 962f 27bd
00000060: e64b 06be 9f9f b03c ae0e 7fbc dbe1 40bd
00000070: 9272 fa3d 3466 b13d d30c b53c 84b9 86bd
00000080: 76bc a23d 00ec 733b e99f b3bc 1c17 19bd
00000090: b32a 64bb ee69 553d 1215 adbd 487a 993d
000000a0: 68d1 fa3d 856b c43d 8f07 72bd 9b23 453d
000000b0: 17a2 4a3e 9dcd 833d ff2b 34be 19eb abbc
000000c0: a1a0 11bd 1393 23bd 7189 1d3d 1cb2 393e
000000d0: b6a3 50bd 4da3 febd 3670 d23d 31f8 b9bc
000000e0: acf4 d53d effb 61bd 5cce c03d 8bdb ebbd
000000f0: a348 bd3d f7a1 2a3d 0bb9 19bc 8b64 d53b
00000100: c570 1d3e e5e8 923d e72a 0f3e 93ef 28bd
00000110: bb0e 6c3c cece 853d 0a9f b13d 9737 473d
00000120: da05 403d 398a ba3d 9e6c 183e 211f a1bd
00000130: 4c02 be3d b82c b53e 0f45 293d 7fcf a63b
00000140: e696 55bd aa88 6d3e fa7f 83bd caaf 9e3b
00000150: 0887 853d ec6d ce3d 6d80 753d f6ff 87bb
00000160: 3555 843e 849b 733d 22ac 353e 403f c93d
00000170: d651 153e 4ce7 8b3e bf60 133e c353 2a3e
00000180: fd0f 103b a8c9 cc3d 95b0 f4bc 0345 193e
00000190: affd 8abd 8526 453e 01a9 b33d 035b 823d
000001a0: 3e8a b63d bdbc 143e 256a cbbd c342 563d
000001b0: 43ee ee3d 615e f63d 32a7 f73c f414 333e
000001c0: 8b50 b43d ac08 923e f7e0 fbbc a360 433e
000001d0: 60bf d43d 0d5c cb3d 085a 44bd 9279 f33d
000001e0: 23ac 9b3d 0c4d 0bbc b46e 1b3e d9a5 c0bd
000001f0: bb34 433d 896b 0c3e 36f7 ea3d 8555 a13d
00000200: 7b35 8a3b d7ee e13c 91e6 103d 302b 3a3d
00000210: fce3 04be 5a2e adbd 1d66 c0bd d357 343d
00000220: 7188 c4bd 1ed9 c43b 92ed a73d 47fc 51bb
00000230: ab59 823b 8c8f ce3d 88a5 cbbc ef93 8a3d
00000240: dcdd aa3c 127b 10be 1f75 ba3d c830 eebc
00000250: 685f 5f3d a83d 1dbe 2529 7f3c 2c8c b9bd
00000260: 3d27 2dbc 0f97 cfbd 0405 543d 980a 9abd
00000270: f9c8 cb3d bb97 2e3c 45a5 2f3d c7bc 0e3e
00000280: 1ec7 acbd 47af 8abd 7c1e dabd a390 ebbd
00000290: e549 743d 153f c23d 0df2 6fbd c063 3a3d
000002a0: d42b 9abd 35d9 adbc 62f1 a4bd 5808 613d
000002b0: 8c35 d53d 1e9b 06bd accb e53d 88ea e33d
000002c0: b67a ca3d 2961 093e 5ac8 4e3c 234d bc3d
000002d0: 5bc6 d03c 1d13 9ebc 2eb1 263d 7376 c13d
000002e0: ee70 3e3d 3470 0f3e 08f7 6f3d 007e a4bd
000002f0: eac3 e23d 9dde d13d f994 363d 4cf5 a63d
0.054737065 0.07170674 0.07402115 0.023309542 0.06741408 -0.031261373 -0.024661934 0.07581974
-0.055161506 -0.019503206 -0.14297007 -0.07920628 0.010096655 0.18454485 0.0811128 -0.15235692
0.045302793 0.0182381 0.008630128 0.13685106 0.107066244 0.00886624 -0.025857603 -0.040816866
-0.1311489 0.021560488 -0.015567465 -0.047090393 0.12228884 0.08662072 0.022100842 -0.06578353
0.07946102 0.0037219524 -0.021926837 -0.037375554 -0.003481549 0.052102976 -0.084512845 0.074940264
0.12246972 0.0959082 -0.05908924 0.04812966 0.19788395 0.06435702 -0.17594908 -0.020986127
-0.03555358 -0.039935183 0.038461152 0.1813435 -0.050937377 -0.12433491 0.10275309 -0.022701355
0.10447058 -0.055171903 0.0941436 -0.11516484 0.0924237 0.041658368 -0.009382497 0.00651223
0.1537505 0.07173327 0.1398121 -0.0412441 0.014407809 0.065335855 0.086729124 0.048637
0.04688058 0.09108395 0.14885184 -0.078672655 0.09277782 0.3538568 0.041325625 0.0050906534
-0.05214586 0.23196664 -0.06420894 0.004842733 0.06519896 0.1007956 0.05993693 -0.004150386
0.25846258 0.059474483 0.17741445 0.09826517 0.14581999 0.27324903 0.14392374 0.16633515
0.0021982186 0.099994004 -0.029869357 0.14967732 -0.067866676 0.19252975 0.08772469 0.06365015
0.08913086 0.14525123 -0.09932355 0.052309763 0.116665386 0.1202972 0.030231092 0.17488462
0.08804425 0.2852224 -0.03074692 0.19079833 0.103880644 0.09929667 -0.047937423 0.11888422
0.07601192 -0.008502256 0.15178949 -0.09406633 0.04765771 0.13712896 0.11472933 0.0787764
0.004217801 0.027579708 0.035376135 0.045451343 -0.12977594 -0.084561065 -0.093944766 0.04402907
-0.09596337 0.0060073277 0.0819961 -0.0032041238 0.0039779744 0.10085973 -0.024859205 0.06766497
0.020857744 -0.14109448 0.0910437 -0.029075995 0.054534346 -0.15355551 0.015573774 -0.09059939
-0.010568437 -0.10136234 0.051762596 -0.07521552 0.09950442 0.010656293 0.042882223 0.139392
-0.08436416 -0.06771713 -0.10650346 -0.11502197 0.059640784 0.09484688 -0.058580447 0.045505285
-0.07527891 -0.021221736 -0.080538526 0.054939598 0.10410604 -0.032862775 0.11220488 0.11128718
0.098866865 0.1341597 0.01262101 0.091944 0.025485208 -0.019296223 0.040696315 0.094464205
0.046494417 0.14007646 0.058585197 -0.08031845 0.11072524 0.10247538 0.044575665 0.081522554

gru.bias_hh_l0 f4 [192]
00000000: f24b d13d a0d2 ae3d 2a12 93bd cad5 febc
00000010: f5a7 0e3b d18d 993c 3a28 aabd 6a70 4b3d
00000020: 5a4e da3b a49f b33d be7b f73a f939 87bd
00000030: 503f c2bc e14d c83c 9061 f03d 3de2 78bd
00000040: f97a 0b3e a9fc 133c 9238 19be 7782 173e
00000050: 6fa8 113d b3d1 5b3b 6d61 d9bd e579 16be
00000060: 5ddd 1ebd 494c d2bd f6e0 b1bd 7bfe c3bd
00000070: 96e9 393d 8a6e d23d 4be2 2dbe 30ed f83d
00000080: 7d9b 0a3d fd63 1abd f6c2 8fbd b711 74bd
00000090: 497e 423d 9d55 bbbd cbb5 243d a697 ab3c
000000a0: 8695 ef3d 0175 423d 5b33 b1bd 76f8 7ebb
000000b0: 37e3 3c3e 6882 02be dee3 c6bd b979 93bc
000000c0: 3dbd a43d a28f 44bd 3745 c2bd b7bf 483e
000000d0: 10e3 48bc 2743 07be e18c d83c 262a 773d
000000e0: c1bc 8cbd 4816 ad3c 7dc1 3a3e 667d 0f3d
000000f0: 22db a6bd bed4 01be 0fba 533d 240c e8bd
00000100: 4480 13bd b3a8 4dbd d614 0e3d d849 8c3c
00000110: 8257 973d 5712 aabd 202a 95bd 1981 96bd
00000120: e3ef 2fbd e0c7 0a3c faa9 9d3c c118 143d
00000130: 36e5 c33d f25f a23e b879 e03d a39d 5bbd
00000140: 2063 1e3e 3f59 683d b93e 11bc 362c 023e
00000150: 03b7 703c eb71 e43c 0894 903d 6582 8f3d
00000160: 376d 713d 7f6e b43d 0114 c03d c5c1 2b3e
00000170: 7e76 f73d a271 2a3e f728 963d acea 7a3d
00000180: e290 963d 3ee0 d1ba 36a5 a63d 3639 7abd
00000190: cb4b 263d f952 a33d 125b 973d e0c8 87bc
000001a0: 7422 94bd 8832 903d 5747 a7bd 258f d53c
000001b0: 1a4e 023e b61c b3bc c667 383e ba1f 4b3e
000001c0: f7f9 39b9 777e a23e 31b6 813c 2492 383d
000001d0: 2d6f ab3c bb33 af3d 0784 113d a3a7 bcbb
000001e0: 5240 aa3d 0206 cb3d 23af 3a3e 2492 49bd
000001f0: 0793 05bb 1123 0d3e 181c 94bd a239 263d
00000200: 4657 dbbd 1687 c83d 5164 e8bc 0ecd ab3d
00000210: 14e6 6f3d ccbf 14bc cc68 603d 3457 fcbc
00000220: 02d1 15be 2b21 3ebd 6a54 a3bc 50ee 8fbd
00000230: 0ed1 02be b22d debd 0946 f93d c4ce 5ebb
00000240: b7aa bcbc 6501 22bd 497c a03d adbc b9bd
00000250: 2dff fc3d 8d7a 903c 03b8 68bd aa35 cd3d
00000260: e188 983d 2b9d 3a3d e77f fb3d 2026 9c3d
00000270: c79d bd3d 8013 833d b9b3 71bd 33cf e7bd
00000280: 6c5d 4ebd 4828 c03d 7f86 39bc 5d97 0cbd
00000290: 320b 23b9 eb8d cdbc 8439 14bd 9d45 0d3e
000002a0: 2873 7ebb 606b 1bbe 2a70 f73c 0c5a 14bd
000002b0: 7ee4 143d 73be c4bd 9f81 13bd 063d 2cbd
000002c0: 4101 1bbd 49c3 df3d ff7d f23d 1b69 77bd
000002d0: aa23 963d 0cd5 8d3d 3c3b ee3c 45ca 6fbd
000002e0: 00b8 a93d 1f89 f8bc 7eef 943d fe9c 84bb
000002f0: 740c 20bd 7833 d53d 4581 063d 0646 f8bb
0.102195635 0.08536267 -0.07181199 -0.031107802 0.002176759 0.018744381 -0.08308454 0.049667753
0.0066621723 0.087706834 0.0018881483 -0.06602854 -0.02371183 0.024451198 0.117373586 -0.060762633
0.13621129 0.009032407 -0.14962986 0.14795862 0.03556102 0.0033541739 -0.106142856 -0.14694937
-0.038785327 -0.102684565 -0.08685486 -0.09570023 0.04538878 0.1027499 -0.16980855 0.12154615
0.03383969 -0.037693013 -0.07019608 -0.059587207 0.047483716 -0.09147189 0.040212434 0.020946335
0.11698441 0.047474865 -0.086523734 -0.0038905418 0.1844605 -0.12745059 -0.09711431 -0.018002378
0.08043907 -0.04798854 -0.09485858 0.19604383 -0.012261167 -0.1320921 0.026434364 0.06034293
-0.068719395 0.021128789 0.18237872 0.0350317 -0.08147265 -0.12678811 0.05169111 -0.11330441
-0.036010996 -0.050209712 0.03468784 0.017125055 0.07389738 -0.08304279 -0.07283425 -0.07348842
-0.042953383 0.0084705055 0.01924609 0.03615642 0.09565203 0.31713825 0.10960716 -0.05361713
0.154675 0.056725737 -0.008865052 0.12712178 0.014692071 0.027886352 0.07059485 0.07007293
0.058942046 0.08810138 0.093788154 0.16773136 0.120831475 0.1664491 0.07332032 0.061258957
0.07351853 -0.0016012264 0.0813698 -0.061089717 0.040599626 0.0797481 0.07390417 -0.016575277
-0.07233134 0.07040888 -0.08167904 0.026069233 0.12725106 -0.021864276 0.18008336 0.19836321
-0.00017736094 0.3173711 0.015833946 0.045061246 0.020927036 0.08554789 0.0355263 -0.0057572885
0.083130494 0.09913255 0.18230872 -0.049211636 -0.0020381825 0.13782908 -0.07231921 0.040582307
-0.107100055 0.097913906 -0.028368147 0.083887205 0.05856903 -0.009078931 0.054787442 -0.0308033
-0.14630511 -0.04641835 -0.019937713 -0.070278764 -0.1277506 -0.108485594 0.12171561 -0.0033997754
-0.023030622 -0.03955211 0.078362055 -0.0906919 0.123533584 0.017636562 -0.056816112 0.10020001
0.074479826 0.045560043 0.12280255 0.07624459 0.09258609 0.06400204 -0.059009288 -0.11318817
-0.050382063 0.09382683 -0.01132357 -0.03432404 -0.00015549062 -0.025092086 -0.036187664 0.13796087
-0.0038825963 -0.15177679 0.030204851 -0.036218688 0.03635072 -0.09606638 -0.03601229 -0.042050384
-0.037842993 0.109259196 0.11840438 -0.06040297 0.07331021 0.06925401 0.02908098 -0.05854251
0.08287048 -0.030338822 0.07272242 -0.0040470352 -0.039074376 0.104102075 0.032838125 -0.007576707

head.0.weight f4 [64, 64]
00000000: b417 253d 97cd 92bc a998 adbd b1e4 f9bd
00000010: dc8a 003e 86e1 a1bd f065 78bd 3bd6 093c
00000020: 4bab b93d a79f ad3d 468e 983c 7178 febd
00000030: 678b e13c b934 aebd 2957 9d3d e2ba 8ebd
00000040: c91a 4a3c a23e b4bc 1d4c 933c 8b0c a33d
00000050: bde4 053d 1c37 a63d 088e c73d 2515 ce3d
00000060: bb7b c63d 5032 cebd cc70 72bd 1ef1 39bd
00000070: 9e6e af3d dbe0 ba3d 4d5b 123d 6e87 863d
00000080: 0467 f93d e0a7 b33d dbb3 023e 09bc c8ba
00000090: 2a43 563d af4c febd dd5c d3bd 0760 2dbd
000000a0: f96a 46bd 5fbd bd3c e61d f63c ae8d 053e
000000b0: 018c 273d 5f8c ad3c 1e6f 8cbc 19e3 2dbd
000000c0: 8c21 a0bd 805f 96bd 8587 e13b 799d 023d
000000d0: fa8c 0b3d ee09 0d3d 8234 b43d ffe7 4ebd
000000e0: 9baa d2bd 359a aabd 92a8 11bd 353a 8c3d
000000f0: f22f c5bd 19f5 89bd 85c0 723d 9d9c 403d
00000100: 2591 713d ebe5 95bd 0189 82bd 790e f93d
00000110: 5444 febd d6d6 71bd 38ea ea3d f516 bdbd
00000120: 8c5b 7ab9 dbbf cebd df7e 043e c843 d6bc
00000130: 2d52 2e3b c971 28bd 8a3e bdbc 7c04 7a3c
00000140: 91f5 dabb 430e 073c bde4 9ebd 5548 503d
00000150: 01f2 5b3d fc36 2ebd 6263 7f3d e210 a5bc
00000160: 51d3 77bd f95a 053e 9049 82ba 79c0 6e3d
00000170: 2f7e 73bd e0aa f93d bdc6 803d f0ec b93d
00000180: de5d 803c 48be e1bc ef4f 0ebe 0f95 0dbe
00000190: 52a3 26bd cb4e af3c cfb8 8abd 4c26 af3d
000001a0: b2b1 13be 7d33 833c fb3e 553d 9d08 0eb6
000001b0: 112e 083e 8e11 0cbe 028b 84bd 74c4 99bd
000001c0: 3610 d53d 9ef6 9e3d 1793 753d cda4 29bc
000001d0: c89f b0bd cdcf c93b 1b55 c53d c645 b0bc
000001e0: c7e0 dbbd d814 ca3d 9580 e5bd c9ba 3fbd
000001f0: bba5 fa3c ec99 6a3d bb70 9339 12d3 5abd
00000200: 464a 863d 7519 6ebd 5fee cabc 2180 46bd
00000210: 28d6 adbd adbd a3bc d76b 873d 325e 92bd
00000220: ebe4 a2bb 44d5 2c3d 69b0 933c b234 48bd
00000230: c2fc ebbb 5c19 fabd b00d f6bd 4f35 f63c
00000240: 0df3 3bbd 4eb6 3bbd 9046 463d 3642 3c3c
00000250: 3a54 bf3c 7af1 72bd 803d b43d 4373 733d
00000260: e739 e13d c006 e0bd 681c 99bc 9621 6dbd
00000270: 881c 76bd 96c0 46bd 8848 25bd 350a 06bc
00000280: 5cce 8abd ca81 d23d f9e4 bebc ebea 213d
00000290: c936 c53d 4a61 d13d 1f6b ba3d 0712 d8bc
000002a0: d14c 20bc daf1 d4bc 8a58 dc3d 6f13 8cbd
000002b0: 8860 8ebd b2b7 e3bd 1f28 2fbd bfd1 ba3d
000002c0: 7063 8abd b8b6 f2ba 416a 913d c1ec bf3d
000002d0: 3dc8 65bc 562a 013e c218 623d 5467 90bd
000002e0: 2708 8dbc 7dbd 213d 1a65 a03d 62ad 8cbb
000002f0: 4242 ee3d 1fb8 423c f005 953d 14a5 adbc
00000300: faa6 99ba fd99 433b c707 783d e230 bdbd
00000310: 9170 bdbd f5c3 89bb 326d 2bbd 231c c0bd
00000320: 9455 55bd e4e7 26bd 0b1e 91bd 0827 243c
00000330: 331c 7dbd 91af 8ebd 3272 133d ba47 60bd
00000340: 7a1c b6bd df0f a2bd 38d4 ed3d 3a5f b4bd
00000350: b091 033d 1e55 91bd 1f57 a43d 27e9 ac3c
00000360: 57ff 803c 1b27 4cbd 797f 4b3d 7664 6d3d
00000370: 54c2 b5bc 3221 2dbb c52d 083e 49ea 64bc
00000380: 9ba2 c73d 6fe7 f43c d81b 7d3b ca81 f6bc
00000390: 8ae2 b8bd af56 35bd 8cf7 76bd 24fc f9bd
000003a0: 6665 553b f594 453b 5d06 6fbb dfc0 193d
000003b0: 5a3d 443d 926d 92bd 4a44 4cbd 783f b2bc
000003c0: 86f7 ee3d 1f69 34bc c074 b53d c176 e1bd
000003d0: 7595 2c3d 1c11 9c3c f3c7 cfbd 21ff ba3d
000003e0: 3b5b 82bd d5bd e53d c6b9 3c3d e16a 56bd
000003f0: a36d bfbb c174 bb3d debe 2cbd e876 7fbc
0.04030581 -0.017920299 -0.08476383 -0.122018225 0.1255297 -0.07904343 -0.06064409 0.008412893
0.09065875 0.08477717 0.018622529 -0.12425316 0.027532293 -0.0850615 0.0768264 -0.06969239
0.012335488 -0.022002522 0.01798063 0.07961377 0.032688845 0.0811598 0.09743887 0.10062627
0.096915685 -0.1006819 -0.059189603 -0.045395963 0.085660204 0.09124919 0.035731602 0.065688
0.12177852 0.08772254 0.12763922 -0.0015314828 0.052310146 -0.1241697 -0.10320447 -0.042327907
-0.04844186 0.023161588 0.030043554 0.13042328 0.040905003 0.021185098 -0.017142829 -0.042452905
-0.078188986 -0.07342434 0.0068826103 0.03188846 0.034069993 0.034433298 0.087990776 -0.050514217
-0.10286447 -0.08330194 -0.03556115 0.068470396 -0.096282855 -0.06736202 0.059265632 0.047024358
0.05897631 -0.07319244 -0.06373788 0.121609636 -0.12415376 -0.059042774 0.11470455 -0.09232894
-0.00023875962 -0.10095187 0.12939022 -0.026155367 0.0026599274 -0.04112414 -0.02310111 0.015259858
-0.006682106 0.008243146 -0.07758472 0.05085023 0.05369759 -0.042532906 0.06235064 -0.020149652
-0.06050426 0.13022985 -0.0009940136 0.058289025 -0.05944651 0.12190795 0.06287906 0.09078395
0.01566976 -0.027556553 -0.1389768 -0.13826393 -0.0406831 0.021399876 -0.06773531 0.085522264
-0.14423254 0.016015762 0.052062016 -2.1164662e-06 0.13298823 -0.13678572 -0.06471826 -0.075081736
0.104034826 0.07761882 0.05995473 -0.010354233 -0.08624226 0.006158805 0.09635373 -0.021517646
-0.10736232 0.09867257 -0.11206166 -0.04680899 0.030596605 0.057275698 0.00028122016 -0.05342395
0.06557135 -0.058129746 -0.024771867 -0.048462037 -0.08488113 -0.019987905 0.06612366 -0.071468726
-0.004971137 0.042195573 0.018028455 -0.04887838 -0.007201762 -0.12211868 -0.120143294 0.030054716
-0.04588609 -0.045828156 0.048407137 0.011490395 0.023355592 -0.05931232 0.08800793 0.059436094
0.10997372 -0.109387875 -0.018690303 -0.05789336 -0.060085803 -0.048523508 -0.040352374 -0.0081811445
-0.06777641 0.102786615 -0.023302542 0.039530676 0.0962959 0.102236345 0.09102463 -0.026375784
-0.009783939 -0.02599423 0.10759075 -0.06839644 -0.069520056 -0.111190215 -0.04276287 0.09122037
-0.067572474 -0.0018517589 0.071003444 0.09371329 -0.014024791 0.12613806 0.055199392 -0.07050958
-0.017215801 0.03948735 0.078317836 -0.00429313 0.116337314 0.011884718 0.07276523 -0.02119688
-0.0011722737 0.0029846423 0.060554292 -0.09237839 -0.09249986 -0.004204268 -0.041852184 -0.09380367
-0.052083567 -0.040748492 -0.07085808 0.010019071 -0.06179447 -0.069670804 0.035997577 -0.054755904
-0.0889215 -0.079131834 0.11612743 -0.088072255 0.03212136 -0.07096313 0.080244295 0.02110727
0.015746756 -0.04984198 0.049682114 0.057957135 -0.02218739 -0.002641749 0.1329871 -0.013971874
0.097478114 0.029895512 0.0038621332 -0.030091185 -0.09027584 -0.04427212 -0.060294673 -0.12206295
0.003256166 0.00301486 -0.0036472299 0.03753745 0.047910072 -0.07149805 -0.049869813 -0.02175878
0.11668305 -0.011011391 0.08860159 -0.11008979 0.04213472 0.019051127 -0.10145559 0.09130693
-0.06365057 0.11217848 0.046075605 -0.05234802 -0.005841927 0.091531284 -0.042174213 -0.015592314

head.0.bias f4 [64]
00000000: c1e2 c53c 0aea b33d 210e 9abd 4a39 dbbd
00000010: df98 2ebd ca40 bf3d 2aed b63d f387 93bd
00000020: 726b 463d 3092 093e 65d1 f9bc 0b55 35bc
00000030: 8922 da3c 8c95 85bd a27d b9bd b608 1cbd
00000040: 5889 463d 18ab b8bd 82f6 f5bd a11b d13c
00000050: d8ba febd 6a10 993d bae3 113e b59f 103d
00000060: b669 b7bd 4cb5 0e3e fca1 a7bc f7d5 50bd
00000070: e26b 913d 2dc1 01bd d07c 87bb 8116 d2bc
00000080: 2107 bcbd 4b62 87bd e253 46bd 8350 d9bc
00000090: 1dc6 773d 4813 7d3d 7c77 df3d b753 bebd
000000a0: 0fbd 0d3d d366 073d 63e3 9b3d 6410 7ebc
000000b0: 136d 033e b618 843d b122 d53b 1f16 b8bd
000000c0: dfc1 b03d 7e07 c7bd 05e6 e93d 6e9a d63d
000000d0: 6574 f5bc c2c7 b6ba bc43 edbc fbda dc3d
000000e0: 4bc3 c1bd 96e8 c7bd da76 0fbc 6d23 893d
000000f0: 07f5 4c3c c960 003d 6f05 ac3d 857a a23d
0.024155976 0.08784874 -0.07522226 -0.107042864 -0.042626258 0.093385294 0.08931954 -0.07203665
0.04844231 0.13434672 -0.030495355 -0.011067639 0.026627796 -0.065226644 -0.09057166 -0.038094245
0.048470825 -0.090170085 -0.12009908 0.02552587 -0.12437981 0.07473834 0.14247027 0.03530856
-0.0895571 0.13936347 -0.020462982 -0.050985303 0.07100655 -0.031678367 -0.004134752 -0.025645496
-0.09181047 -0.06610545 -0.04841984 -0.026527649 0.06049167 0.061785966 0.10911462 -0.09293311
0.03460413 0.033057045 0.0761173 -0.0155068375 0.12834577 0.06450026 0.0065043797 -0.08988594
0.08630728 -0.09718226 0.11420826 0.10478674 -0.029962728 -0.001394503 -0.028962962 0.10783955
-0.09461077 -0.09761159 -0.008756364 0.0669621 0.012509591 0.0313423 0.08399474 0.07933525

head.2.weight f4 [1, 64]
00000000: 3d73 e33b 7b4e 583d c3fb 753d 9ead 553d
00000010: 6782 c5bd 8344 24bd 237b f03d 3399 45bd
00000020: 215e eb3d ae94 cb3d 272a 7fbd c77a 0d3e
00000030: ccc6 033e f1a3 9cbd f064 4b3c 6195 aebb
00000040: 2126 bfbd 8cdb 043e 1354 b9bd a980 57bd
00000050: 27d7 d73d 13fe 033e fcd1 b33d 33d8 aa3b
00000060: 5594 633c 2765 233d 648e c4bd 36c5 ebbd
00000070: 55cb a6bc 99b9 c6bd 0c30 d23d 33ed a83d
00000080: 25fa cebd 39aa 25bc 4111 96bd 6709 31bd
00000090: f18c d4bd 5c94 d03d ad4a ef3d 2268 963a
000000a0: 450c 91bc a4d9 673d ccab b73d 080d eb3d
000000b0: 6378 1abd 35d9 42bd 544f bd3d ff7d 2938
000000c0: 800d 1bbd a00a 6dbd 7306 0bbe 4b47 923c
000000d0: 5067 92bd febd 89bd d9e1 5bbd 083a eb3d
000000e0: 9909 9abc 577f bcbd e004 b0bd 210b f93d
000000f0: a6a8 8bb9 422b 05be a2ac f8bc 2f13 cfbd
0.0069412277 0.05280922 0.06005455 0.052167527 -0.09644013 -0.0401044 0.117422365 -0.048241805
0.11492563 0.09940468 -0.06229606 0.13816367 0.12868804 -0.07648457 0.012414202 -0.005327866
-0.093334444 0.12974375 -0.09049239 -0.052612934 0.10539084 0.1288989 0.08780286 0.0052137612
0.013890346 0.03989139 -0.09597471 -0.115122244 -0.020360628 -0.09703369 0.102630705 0.08248367
-0.10106305 -0.010111385 -0.0732751 -0.043221857 -0.10378445 0.10184547 0.11684165 0.0011475126
-0.017706046 0.056604043 0.089683145 0.11477095 -0.037712466 -0.047570426 0.09243646 4.0410083e-05
-0.03785467 -0.05787146 -0.13576679 0.01785626 -0.071486115 -0.06725691 -0.053682182 0.11485678
-0.018803405 -0.09203976 -0.0859468 0.12160326 -0.000266378 -0.13004783 -0.030355755 -0.10111081
