outputs/exp_0002_20251212_235529/runs/seed2/h1/SlidingWindowSGD/model_final.pt (torch, 71493 bytes, 7 tensors)

gru.weight_ih_l0 f4 [192, 1]
0	0x3dcd9dfd	0.100398995
1	0xbdc65d42	-0.09685756
2	0x3d912cdf	0.070886366
3	0xbd8d7323	-0.06906726
4	0x3d08e587	0.03342202
5	0x3ca7ace8	0.02046819
6	0xbc99af50	-0.018760353
7	0xbcc452c3	-0.023965245
8	0x3af785ce	0.0018884481
9	0xbe3229d3	-0.17398767
10	0xbdc3c14e	-0.09558354
11	0xbc2a8bac	-0.010409277
12	0x3c421576	0.011845937
13	0x3ddcf899	0.10789604
14	0x3c92f3f8	0.017938599
15	0x3d145ef2	0.03622336
16	0x3d304593	0.0430351
17	0x3d0079ba	0.031366087
18	0xbd53af8e	-0.051681094
19	0x3e5f8fc4	0.21832186
20	0xbe119fff	-0.1422119
21	0x3b23b397	0.002497887
22	0xbd775866	-0.060387038
23	0x3e3fab42	0.18717673
24	0x3cdbfca2	0.026853863
25	0x3c0e4c47	0.008685178
26	0xbd81b71d	-0.06333754
27	0xbdfc6bcb	-0.123252474
28	0xbd5eca22	-0.054391988
29	0xbcf6342a	-0.03005417
30	0xbe12062e	-0.1426017
31	0xbd46b323	-0.04851068
32	0x3d5c03df	0.05371463
33	0x3db28a43	0.087177776
34	0xbda7d357	-0.08194607
35	0xbe0bd1a2	-0.13654187
36	0x3d6db978	0.058038205
37	0x3cf26928	0.029591158
38	0xbdb04bd8	-0.08608216
39	0xbd062ff7	-0.032760587
40	0xbc532ed0	-0.012889579
41	0xbe1d6bcc	-0.15373152
42	0x3d748ee8	0.0597066
43	0x3d0e776f	0.03478187
44	0x3dd52efd	0.10409353
45	0x3ba9a6ed	0.00517737
46	0x3d8b2ff5	0.067962565
47	0x3b3597f7	0.0027708986
48	0x3d7b850d	0.061406184
49	0x3d916fe8	0.071014225
50	0x3d90477a	0.07044883
51	0x3dde9e1a	0.10869999
52	0x3e188b40	0.1489687
53	0x3e13507f	0.14386176
54	0xbd7bb655	-0.061453182
55	0xbd25c8a5	-0.040474553
56	0xbcb60104	-0.022217281
57	0x3d4311d7	0.047624435
58	0x3d92ecf8	0.071741045
59	0x3d1667f5	0.036720235
60	0x3d565b07	0.052332904
61	0xbe0a2679	-0.13491239
62	0x3d13f940	0.036126375
63	0x3e01e504	0.12685019
64	0x3e146554	0.14491779
65	0x3d5dd9d4	0.054162815
66	0x3d84575c	0.06461975
67	0xbd52fc8b	-0.051510375
68	0xbd726f23	-0.05918802
69	0x3dc887b2	0.09791507
70	0xbdd2588e	-0.10270797
71	0x3e1fe9f8	0.15616596
72	0xba16ec9b	-0.0005757303
73	0x3cb3828f	0.021912841
74	0xbcaf4c86	-0.021398794
75	0x3d312ec0	0.043257475
76	0x3d8fd974	0.07023898
77	0xbd0d3ade	-0.03447997
78	0xbd031a9d	-0.032007802
79	0xbd4460b2	-0.04794378
80	0x3ddf5969	0.109057255
81	0x3d1211a3	0.03566135
82	0xbddb3fc7	-0.10705524
83	0x3c390dfe	0.01129484
84	0x3d6c5b5e	0.057704322
85	0xbd14d316	-0.03633412
86	0x3ca2b0ca	0.01985969
87	0x3d25681c	0.04038249
88	0xbd4c189a	-0.04982815
89	0xbd15c804	-0.036567703
90	0x3d934148	0.07190186
91	0xbdb410f3	-0.08792295
92	0x3dc5ec64	0.096642286
93	0x3cc63043	0.024192935
94	0x3dc3a759	0.095534034
95	0x3dcce683	0.10004904
96	0xbd75c978	-0.06000659
97	0xbe0039ac	-0.12522
98	0x3d3f114e	0.046647362
99	0x3d475d9f	0.04867327
100	0xbd885716	-0.06657235
101	0xbbc8affc	-0.0061244946
102	0xbdd63285	-0.104588546
103	0x3e22fcd1	0.15916754
104	0x3db4b3a2	0.08823325
105	0xbd337fe1	-0.043823127
106	0x3e183419	0.14863624
107	0x3d79e230	0.061006725
108	0xbc75f6e5	-0.0150124775
109	0x3d5a2760	0.053260207
110	0x3e1e9647	0.15487014
111	0xbc381e37	-0.0112376725
112	0xbcd2f018	-0.025749251
113	0x3d30796f	0.043084558
114	0xbceac8bb	-0.028660169
115	0x3cf428f5	0.029804686
116	0xbc6208b0	-0.013796017
117	0x3e41677d	0.18887134
118	0xbaf12435	-0.0018397631
119	0x3d0752d2	0.033037968
120	0x3d5afbea	0.0534629
121	0x3e3faf09	0.18719114
122	0xbcada934	-0.021198846
123	0x3dc07ffa	0.093994096
124	0x3d751790	0.059836924
125	0xbd6e5c9a	-0.05819378
126	0xbd80a0ab	-0.06280645
127	0x3e18a5c3	0.14906983
128	0xbe57107c	-0.21002382
129	0xbd67384e	-0.05645018
130	0xbe1c280b	-0.1524965
131	0x3d07be28	0.03314033
132	0xbd99d262	-0.075108305
133	0xbe35f7cf	-0.17770313
134	0x3cd10746	0.025516164
135	0x3def4ad1	0.11684192
136	0x3cfc0e97	0.030768676
137	0xbd281456	-0.04103502
138	0x3d6f8522	0.058476575
139	0x3c8331ba	0.016014922
140	0xbe098f86	-0.13433656
141	0xba96b8c5	-0.0011499157
142	0x3d4e212b	0.0503246
143	0x3df99e8e	0.12188445
144	0x3cd20234	0.025635816
145	0x3d998b6a	0.07497294
146	0xbde5bb1e	-0.112173304
147	0x3dbbb8a1	0.091660745
148	0x3d8c6fcb	0.0685726
149	0xbe24b849	-0.16085924
150	0x3c0e5c8f	0.00868906
151	0x3c1223cc	0.008919667
152	0xbdb75334	-0.089514166
153	0xbd816a39	-0.063190885
154	0xbda14462	-0.07874371
155	0xbe2d499b	-0.1692261
156	0xbe0f3815	-0.13986237
157	0xbcf5b6ae	-0.029994335
158	0x3d9979b9	0.0749392
159	0x3d77cdba	0.06049893
160	0xbe0f570f	-0.13998054
161	0x3da19373	0.07889452
162	0x3d4e424d	0.050356198
163	0xbd75400e	-0.05987554
164	0x3c85df80	0.016341925
165	0x3dde4f2e	0.10854946
166	0xbdb6cdd7	-0.089259796
167	0x3cec807f	0.028869865
168	0xbe129e07	-0.14318095
169	0xbdaedb12	-0.08537878
170	0xbe3f97e0	-0.1871028
171	0x3d25db5a	0.040492393
172	0x3e0c4955	0.13699849
173	0x3cf3ed11	0.029776128
174	0xbe07104f	-0.13189815
175	0x3d69c78b	0.057075065
176	0xbda8fa0d	-0.082508184
177	0x3d1aec99	0.037823293
178	0x3e0b8166	0.1362358
179	0x3d7968e8	0.060891062
180	0xbdba0534	-0.09083024
181	0xba8dcb2b	-0.0010817995
182	0x3c5897f7	0.013219825
183	0x3cad50e8	0.021156743
184	0xbde9147a	-0.11380859
185	0xbd1e28d9	-0.038613174
186	0x3c90fbc5	0.017698178
187	0x3e54e7ec	0.20791596
188	0x3e0c2d0b	0.13689058
189	0x3e04f9a9	0.12985863
190	0x3d642af9	0.055705044
191	0xbe4555c3	-0.19270997

gru.weight_hh_l0 f4 [192, 64]
0	0x3cfc0a0a	0.030766506
1	0x3d473ec9	0.04864386
2	0xbd4fac9f	-0.050701734
3	0xbd5fe23b	-0.05465911
4	0x3d1951a0	0.03743136
5	0xbe09a69e	-0.13442466
6	0x3db27103	0.087129615
7	0x3daab776	0.08335774
8	0xbe020cc0	-0.12700176
9	0xbd7dbba9	-0.061946545
10	0xbd27c1e9	-0.04095641
11	0xbdcfd6d6	-0.101483986
12	0xbd3ab24a	-0.045580186
13	0x3c907c6a	0.01763745
14	0x3cf3ff7d	0.029784912
15	0xbc2c859e	-0.010529904
16	0xbd797305	-0.060900707
17	0xbd06a77d	-0.032874573
18	0xbdc7d6ba	-0.09757753
19	0xbd2d36ea	-0.0422887
20	0x3bd1a66d	0.0063980133
21	0xbe219c84	-0.15782362
22	0xbdaf9119	-0.08572597
23	0x3d6ccaeb	0.057810705
24	0xbca9ccf1	-0.020727606
25	0xbda33db3	-0.079707526
26	0x3d2234b0	0.039601028
27	0x3de20fe3	0.110381864
28	0x3c018d1f	0.007907181
29	0xbe1590e6	-0.14606056
30	0x3e432983	0.19058804
31	0x3e0db45e	0.13838336
32	0xbdacc956	-0.08436839
33	0xbd229818	-0.03969583
34	0xbd0aebc6	-0.033916257
35	0x3d4e3283	0.05034114
36	0x3d14f36f	0.03636497
37	0x3d28a158	0.041169494
38	0xbd4ecec1	-0.050490145
39	0x3dc0f078	0.09420866
40	0xbd43d301	-0.04780865
41	0x3c2b809d	0.0104676755
42	0xbe1df51c	-0.15425533
43	0xbdfa6c46	-0.12227683
44	0x3d8c4c74	0.0685052
45	0xbd33c8e2	-0.04389275
46	0xbda5dd06	-0.080987975
47	0xbcef5720	-0.02921635
48	0xbd7cae74	-0.06168981
49	0x3d7f4927	0.062325623
50	0xbd128da7	-0.03577962
51	0xbdd60a76	-0.10451214
52	0x3dde7181	0.10861493
53	0x3da667d1	0.0812527
54	0x3d189877	0.037254777
55	0x3c57530b	0.013142358
56	0xbd02d598	-0.03194198
57	0xbd5b82ca	-0.053591527
58	0xbdd1b718	-0.102400005
59	0x3e5d3a46	0.21604261
60	0x3d845db1	0.06463183
61	0xbd00c017	-0.03143319
62	0xbde5f157	-0.112276725
63	0x3d2a3cdf	0.041561957
64	0x3d2e6083	0.04257251
65	0x3e062ba6	0.13102588
66	0x3e290073	0.16504078
67	0x3d295194	0.041337565
68	0x3c43e913	0.011957425
69	0xbcc5e5b0	-0.024157375
70	0xbcc81ba6	-0.024427246
71	0x3da92454	0.08258882
72	0xbde893e3	-0.11356332
73	0x3daf31b6	0.085544035
74	0xbe048f0e	-0.12945196
75	0xbd84bb0e	-0.0648099
76	0xbd67e487	-0.056614425
77	0x3d8c1e3f	0.068417065
78	0x3b7c50e6	0.0038500368
79	0xbc23eae5	-0.010004734
80	0x3b1359ce	0.0022483948
81	0x3a929c99	0.0011185586
82	0xbd6cab01	-0.05778027
83	0xbd982885	-0.074296035
84	0xbd1c8d4c	-0.03822069
85	0xbc520517	-0.012818596
86	0xbd61ab38	-0.055094928
87	0x3d6e6f36	0.058211528
88	0xbd56c694	-0.052435473
89	0xbd857398	-0.065161884
90	0xbd7d847b	-0.06189392
91	0xbd90aa52	-0.07063736
92	0x3df0988a	0.117478445
93	0xbd905053	-0.07046571
94	0xbbd6fa93	-0.0065606325
95	0x3dce96c0	0.10087347
96	0x3e02c600	0.12770844
97	0xbe09e52b	-0.13466327
98	0xbd8ff26f	-0.070286624
99	0x3d1951af	0.037431415
100	0xbb77bc0f	-0.00378013
101	0xbd87816e	-0.06616484
102	0x3e29faf3	0.16599636
103	0xbde61a2f	-0.11235463
104	0x3db73208	0.089450896
105	0x3dd4d9f0	0.10393131
106	0xbc4c3a5e	-0.012465088
107	0x3c049c67	0.00809393
108	0x3d530df4	0.05152698
109	0xbd781f0c	-0.060576484
110	0x3e04e05c	0.12976211
111	0x3cb4e9c1	0.022084119
112	0x3c886f3b	0.016654601
113	0x3e5cdd69	0.21568836
114	0x3da2cbc2	0.0794902
115	0x3c9cc6eb	0.01913782
116	0x3cf7189a	0.030163098
117	0x3d06c50e	0.03290277
118	0x3d322af5	0.043498
119	0xbe0a538f	-0.13508438
120	0xbcea3448	-0.028589383
121	0x3d15965b	0.036520343
122	0xbcc2348a	-0.023706693
123	0x3dd0bf70	0.10192764
124	0xbdd8a098	-0.10577506
125	0xbd92b0eb	-0.07162651
126	0x3bdd34f9	0.0067506996
127	0x3dd33299	0.10312385
128	0xbd5f97a8	-0.05458799
129	0xbdcee9b1	-0.10103167
130	0x3c14aafe	0.009073971
131	0x3d428116	0.047486387
132	0x3c695125	0.014240538
133	0xbe03350c	-0.12813205
134	0xbca99eb4	-0.020705558
135	0xbcdb4645	-0.026766906
136	0x3ce13d56	0.027495068
137	0x3da6d348	0.081457675
138	0xbda7cde9	-0.08193571
139	0xbccd7910	-0.025082141
140	0xbce54e61	-0.027991476
141	0x3d8a4943	0.06752255
142	0xbdabd7f6	-0.08390801
143	0x3bdfb37b	0.0068268157
144	0x3dc2160e	0.09476863
145	0x3b1c7eed	0.0023879365
146	0x3c7ab4b6	0.015301874
147	0x3d7d0414	0.061771467
148	0x3e09ce07	0.134575
149	0xbddb6c3c	-0.107140034
150	0x3d19fca4	0.037594453
151	0x3cf4dfa5	0.029891798
152	0x3ce5f015	0.028068582
153	0xbcc835d1	-0.024439724
154	0xbde57c40	-0.112053394
155	0xbc4796ea	-0.012181977
156	0xbdfd0466	-0.123543546
157	0x3dcf1fd1	0.101134904
158	0xbd1c232b	-0.038119476
159	0x3d2e8094	0.04260309
160	0xbdd82480	-0.10553837
161	0x3ce16cb6	0.027517658
162	0x3dd51b2e	0.10405575
163	0x3da21ba8	0.07915431
164	0x3d826915	0.06367699
165	0xbd910f88	-0.070830405
166	0x3dd0629f	0.101750605
167	0xbdbbb2ca	-0.09164961
168	0x3de727fc	0.11286923
169	0xbdfb4bb0	-0.122702956
170	0xbd923201	-0.07138444
171	0xbc6a7ccc	-0.01431198
172	0x3c10ab33	0.00882988
173	0x3d8e37ca	0.06944235
174	0xbc800c56	-0.015630882
175	0xbd6c91b7	-0.057756152
176	0xbe1c8b67	-0.15287553
177	0xbd821c5a	-0.06353064
178	0xbd48d4a8	-0.04903093
179	0xbd5db1ba	-0.05412457
180	0x3cf7f3bd	0.03026759
181	0x3ce41cc3	0.027845746
182	0xbd553744	-0.05205466
183	0x3db6304f	0.08895933
184	0xbe01188c	-0.1260702
185	0xbdafe74d	-0.08589039
186	0xbd2885cb	-0.04114322
187	0x3dae4bdf	0.08510565
188	0x3d985dce	0.07439767
189	0xbdbbc87e	-0.091691
190	0xbd96d3da	-0.07364626
191	0xbc828798	-0.015933797
192	0xbd0863b0	-0.033298194
193	0x3c27e806	0.01024819
194	0xbc437589	-0.011929878
195	0xbdafc866	-0.08583145
196	0xbd38b03f	-0.045089956
197	0xbd2c8215	-0.042116243
198	0xbd300c9a	-0.042980768
199	0x3dc3da71	0.09563149
200	0xbdcc1c1e	-0.099663004
201	0x3bac9498	0.005266737
202	0x3dede3c8	0.116157115
203	0xbded077c	-0.11573693
204	0xbd80420c	-0.062625974
205	0x3e199702	0.14999011
206	0x3dce46d7	0.100721054
207	0x3daf425f	0.08557581
208	0xbcd3d3ae	-0.025857773
209	0x3d9b1236	0.07571833
210	0x3c9226e1	0.017840805
211	0x3e49b425	0.19697626
212	0xbdc61b16	-0.09673135
213	0x3cf226e5	0.029559562
214	0xbdb87d2a	-0.09008248
215	0xbe2eebd7	-0.17082153
216	0x3c2e646b	0.010644059
217	0x3a6b1746	0.00089680066
218	0xbda84728	-0.08216697
219	0xbe3d320e	-0.18476126
220	0xbcc737c8	-0.02431859
221	0x3c132c4f	0.008982732
222	0xbc99ce6f	-0.018775193
223	0x3d97f153	0.07419076
224	0x3cf34e5a	0.029700447
225	0x3dbf55ed	0.09342561
226	0xbdcc4744	-0.0997453
227	0xbd29bc85	-0.04143955
228	0x3e169201	0.14704134
229	0xbe01b5bd	-0.12666984
230	0x3dc9515f	0.098299734
231	0xbd19d38c	-0.037555262
232	0x3d144d30	0.036206424
233	0xbdca279d	-0.09870837
234	0x3c816b09	0.015798109
235	0x3bd26a9c	0.0064214002
236	0x3d1f0f80	0.03883314
237	0x3ddfb2ca	0.10922773
238	0xbde76d71	-0.11300171
239	0x3d8d8515	0.06910149
240	0x3d873e41	0.06603671
241	0x3d531e52	0.051542588
242	0xbd085952	-0.033288307
243	0x3e440f52	0.19146469
244	0x3d69443e	0.056949846
245	0xbe1158d4	-0.14194041
246	0xbd9b14e1	-0.07572342
247	0xbdd85086	-0.105622336
248	0xbd95f013	-0.07321181
249	0xbd28cd38	-0.041211337
250	0x3d9e312f	0.07724225
251	0x3dc4da1a	0.09611912
252	0xbd6ba7ee	-0.057533197
253	0x3d748cf8	0.05970475
254	0x3d90cb00	0.07069969
255	0x3c6d7b5e	0.014494745

gru.bias_ih_l0 f4 [192]
0	0x3e0519cc	0.12998122
1	0x3de2fd72	0.11083497
2	0x3d144ac7	0.036204126
3	0x3d3814fa	0.04494188
4	0x3d8b3b03	0.06798365
5	0xbd433826	-0.04766097
6	0xbc811e06	-0.015761387
7	0x3e37ce1e	0.17949721
8	0xbd881cc5	-0.06646112
9	0x3d82b6ee	0.06382547
10	0xbd489584	-0.048970714
11	0xbd8098ac	-0.0627912
12	0xbce35f21	-0.027755322
13	0x3e34ac37	0.1764382
14	0x3e0edb42	0.13950828
15	0xbda0d778	-0.078535974
16	0x3db8c343	0.09021618
17	0x3d9179af	0.071032874
18	0x3d319704	0.04335691
19	0x3e3aa499	0.18226852
20	0x3e5a24bb	0.21303074
21	0xbc3ac836	-0.011400273
22	0x3d70eca3	0.058819424
23	0x3d597512	0.053090163
24	0xbdec1ebc	-0.115292996
25	0x3d3db0ce	0.046311192
26	0xbc1315aa	-0.008977333
27	0x3da82dec	0.08211884
28	0x3dfb25aa	0.12263043
29	0x3d4aeac8	0.04954031
30	0x3deff6bf	0.11716985
31	0xbe016315	-0.12635453
32	0x3d0f1540	0.034932375
33	0x3d0f1821	0.03493512
34	0x3c8d7e55	0.017272154
35	0x3b257ebf	0.0025252549
36	0xbc010c2c	-0.007876437
37	0x3df2ec0c	0.118614286
38	0xbd1dcde7	-0.038526442
39	0x3df3599e	0.118823275
40	0x3dee7133	0.11642685
41	0x3dfca445	0.123360194
42	0xbb5c000d	-0.0033569366
43	0x3dbdc04a	0.09265192
44	0x3e0e9c72	0.13926867
45	0x3e02740e	0.12739584
46	0xbe24b30f	-0.1608393
47	0x3de77d70	0.11303222
48	0x3cc6b7f0	0.02425763
49	0xbde58cec	-0.11208519
50	0x3b9076f1	0.00440871
51	0x3cffc374	0.031221129
52	0x3ca5405d	0.020172292
53	0xbd90e8f4	-0.07075682
54	0x3e0c8faf	0.13726686
55	0x3ad8f617	0.0016552833
56	0x3dd93a2e	0.106068
57	0xbd9fb7c1	-0.0779872
58	0xbda527e3	-0.080642484
59	0x3d616e8f	0.055037078
60	0x3e136adf	0.14396237
61	0x3dcb5495	0.09928242
62	0xbb3a2908	-0.0028405804
63	0x3d742bd9	0.05961213
64	0x3d701e05	0.05862238
65	0x3e13c9d8	0.14432466
66	0x3e29d75c	0.1658606
67	0xbd2cda9c	-0.04220067
68	0x3d7ee10b	0.062226336
69	0x3da15a8f	0.07878601
70	0x3e10ea54	0.14151889
71	0xb94976a6	-0.00019213054
72	0x3deaa5c2	0.11457397
73	0x3e222c61	0.15837242
74	0x3e81996f	0.25312373
75	0xbb9b516e	-0.004739932
76	0x3c94c6df	0.018161235
77	0x3e8e0d94	0.27744734
78	0x3e1b342e	0.15156624
79	0x3cc2febb	0.023803106
80	0xba828f2d	-0.0009960883
81	0x3e850b4a	0.25985175
82	0x3cf2e214	0.029648818
83	0x3d174815	0.036933977
84	0x3e2411d7	0.1602243
85	0xbc43387f	-0.011915325
86	0x3e02e9e2	0.12784532
87	0x3d021eb6	0.03176757
88	0x3e881abb	0.26582894
89	0x3d2dfeb7	0.042479243
90	0x3e57016c	0.20996636
91	0x3cb329b0	0.021870464
92	0x3e4ea7db	0.2018122
93	0x3e89f3f5	0.26943937
94	0x3dfc3aed	0.12315927
95	0x3dbfe49c	0.09369776
96	0xbb87561e	-0.004130139
97	0x3e3cff2a	0.18456712
98	0xbdb4a3ba	-0.08820291
99	0x3e32f716	0.17477068
100	0xbd9ecfec	-0.07754502
101	0x3e74547d	0.23860355
102	0x3e06f43b	0.13179104
103	0x3e3ddd33	0.18541412
104	0x3cb072d0	0.021539122
105	0x3e4bf7e2	0.19918779
106	0xbe4de975	-0.20108588
107	0xbcc6dce6	-0.024275254
108	0xbd97f31e	-0.07419418
109	0x3de07f67	0.109618
110	0x3d7c742c	0.061634228
111	0x3eabdca8	0.33566785
112	0x3e3015be	0.17195794
113	0x3e537412	0.20649746
114	0xbb38e980	-0.0028215349
115	0x3e162803	0.14663701
116	0x3e2fad93	0.17156057
117	0x3e035bc1	0.1282797
118	0x3cc69f15	0.024245778
119	0x3e2cdf22	0.16881993
120	0x3e25fd7a	0.16209975
121	0x3d97e360	0.07416415
122	0x3d8f7aba	0.0700583
123	0xbe89604c	-0.2683128
124	0x3dac03a8	0.08399135
125	0x3e432908	0.19058621
126	0x3e10390d	0.14084263
127	0x3d8235ef	0.06357943
128	0x3c45d396	0.012074372
129	0xbc8b5642	-0.017008904
130	0x3d58b120	0.052903295
131	0x3d261339	0.040545676
132	0xbe0d7776	-0.13815102
133	0xbda012b8	-0.0781607
134	0xbdacdb44	-0.08440259
135	0x3d3c22f3	0.045931768
136	0xbddf843e	-0.10913895
137	0xbc8feae5	-0.017568061
138	0x3dc6bd4a	0.09704073
139	0xbc85ce67	-0.016333772
140	0x3aff4a06	0.0019477017
141	0x3d97c679	0.074109025
142	0xbca3ac9d	-0.01997977
143	0x3da59803	0.080856346
144	0x3c8b6b32	0.017018888
145	0xbe2f5b3a	-0.17124644
146	0x3de2dca4	0.1107724
147	0xbcbdf4ee	-0.02318808
148	0x3d9cf104	0.076631576
149	0xbe1a0912	-0.15042523
150	0x3ceb8657	0.028750582
151	0xbdafb9b1	-0.0858034
152	0xbd1961b5	-0.037446696
153	0xbdf5cee3	-0.12002351
154	0x3d66eab9	0.056376193
155	0xbd765a35	-0.060144622
156	0x3e055491	0.13020541
157	0xbccbe1bc	-0.024887912
158	0x3d30944b	0.043110173
159	0x3e2a14ae	0.16609451
160	0xbda2cecb	-0.07949599
161	0xbd42cc2b	-0.04755799
162	0xbdd44a80	-0.10365772
163	0xbe252c71	-0.16130234
164	0x3d90f903	0.07078745
165	0x3d5d9aad	0.05410259
166	0xbda004d9	-0.078134246
167	0x3d5816fc	0.052756295
168	0xbd9215d8	-0.071330726
169	0xbcd68dd1	-0.02619067
170	0xbdb61441	-0.08890582
171	0x3cd39dd9	0.025832104
172	0x3df3b71d	0.119001605
173	0xbd6d1d10	-0.057889044
174	0x3dd889ca	0.10573156
175	0x3e147372	0.14497164
176	0x3d869141	0.06570674
177	0x3e0e1123	0.13873725
178	0x3c9d5f62	0.019210521
179	0x3dcf2b73	0.10115709
180	0x3d892d35	0.06698076
181	0xbd28af20	-0.041182637
182	0x3d2d16f6	0.042258225
183	0x3dd5d9b3	0.104419135
184	0x3d85b70b	0.06529053
185	0x3dd5212e	0.10406719
186	0x3d82460e	0.06361018
187	0xbd5d1a00	-0.053979874
188	0x3de8a759	0.11360044
189	0x3dfa6d91	0.122279294
190	0x3d465eb8	0.048430175
191	0x3dbc88f0	0.09205806

gru.bias_hh_l0 f4 [192]
0	0x3e35b2ff	0.17744063
1	0x3dfef4db	0.12449046
2	0xbde08532	-0.10962905
3	0xbc1b3e74	-0.009475339
4	0x3b33f956	0.0027461848
5	0x3b19aa6a	0.0023447522
6	0xbd97ed6f	-0.07418334
7	0x3e1d065c	0.15334457
8	0xbb97f80d	-0.0046377243
9	0x3e2f2424	0.1710363
10	0x3dc4609d	0.0958874
11	0xbd4b37d5	-0.049613792
12	0xbd7c2a61	-0.061563853
13	0x3c85e4a4	0.016344376
14	0x3e33fce5	0.1757694
15	0x3c55f199	0.01305809
16	0x3e3978aa	0.18112436
17	0x3d7d3e5b	0.061827045
18	0xbdeb5258	-0.11490315
19	0x3e460460	0.19337606
20	0x3e10ebe6	0.14152488
21	0xbc8a8bb2	-0.016912315
22	0xbcafd9ad	-0.0214661
23	0xbd594319	-0.053042505
24	0xbcbbd67c	-0.022929423
25	0xbd9f9bf9	-0.07793421
26	0xbda461a6	-0.080264375
27	0x3d09414c	0.033509538
28	0x3d3b4f83	0.045730125
29	0x3d867df1	0.0656699
30	0xbd991125	-0.07473973
31	0x3d79c0b2	0.060974784
32	0xbc2f214b	-0.01068909
33	0xbbd45449	-0.006479774
34	0xbcfded8b	-0.030997058
35	0xbca1454a	-0.01968636
36	0x3d307df0	0.043088853
37	0xbccc78ea	-0.02496
38	0x3db08904	0.08619884
39	0x3d84c57e	0.06482981
40	0x3de3355d	0.110941626
41	0x3d9972ef	0.07492625
42	0xbcfc3e18	-0.030791327
43	0x3d266d66	0.040631674
44	0x3e00dd93	0.12584524
45	0xbd83ea03	-0.064411186
46	0xbda7f270	-0.08200538
47	0x3ded99cc	0.116016
48	0x3e0f9dce	0.14025041
49	0xbdf60b45	-0.12013868
50	0xbe04014e	-0.12891123
51	0x3d3c17f4	0.04592128
52	0x3d710b1e	0.058848493
53	0xbda0cbf2	-0.078513995
54	0x3d79a570	0.06094879
55	0x3dad771f	0.08469986
56	0xbd89773f	-0.067121975
57	0xbadd0529	-0.00168625
58	0x3bf8c8c7	0.007592294
59	0x3e5228b4	0.2052334
60	0xbcf538e9	-0.029934363
61	0xbd8da5d7	-0.06916397
62	0x3d6e85c6	0.058233045
63	0xbd769893	-0.0602041
64	0xbe064976	-0.1311396
65	0x3cb75767	0.022380544
66	0x3d78c66e	0.060736112
67	0x3c8473a8	0.01616843
68	0x3df94640	0.12171602
69	0xbd8e86b6	-0.06959288
70	0xbc93d217	-0.018044515
71	0xbdfa8152	-0.12231697
72	0x3ccaabe9	0.024740176
73	0x3d9b27c0	0.07575941
74	0x3dfcf7bf	0.12351941
75	0x3de176e7	0.11009007
76	0x3cac528e	0.021035459
77	0x3e76815c	0.24072784
78	0x3e611fc8	0.2198478
79	0xbd0ef785	-0.03490402
80	0x3e52c3b7	0.20582472
81	0x3dad48f3	0.084611796
82	0x3dae10c6	0.08499293
83	0x3e2308b6	0.15921292
84	0x3de0b36f	0.10971724
85	0xbdadb8a6	-0.084824845
86	0x3e0dd3c6	0.13850316
87	0x3dd911bd	0.105990864
88	0x3d87ccf6	0.0663089
89	0x3d91a02f	0.07110631
90	0x3e015fa5	0.12634142
91	0x3dbb0eb0	0.09133661
92	0x3e351145	0.17682369
93	0x3e268b0c	0.1626398
94	0x3d57454a	0.052556314
95	0xbc3a6eda	-0.011378968
96	0x3d899aeb	0.067190014
97	0x3da9ed21	0.08297182
98	0x3cbcb870	0.023037165
99	0xbd137032	-0.03599567
100	0x3cfd4e50	0.030921131
101	0x3e00d792	0.12582234
102	0x3df19a81	0.117970474
103	0x3dd76cb6	0.10518782
104	0xbe0f4806	-0.13992319
105	0x3dfea935	0.124346174
106	0xbe3bd81b	-0.18344156
107	0xbd4ee9a0	-0.05051577
108	0xbd824529	-0.063608475
109	0xbd054cc6	-0.03254392
110	0x3e588fad	0.21148558
111	0x3eb7e20c	0.35914648
112	0x3dab7e00	0.08373642
113	0x3e745fac	0.23864621
114	0x3d333cfe	0.04375934
115	0x3a6b9c84	0.0008987861
116	0x3db5779c	0.08860704
117	0x3dea8f3d	0.11453102
118	0x3ddc969a	0.107709125
119	0x3d34f434	0.044178203
120	0x3e2d478e	0.16921827
121	0x3e3a296d	0.18179865
122	0x3dcdfb87	0.10057741
123	0xbe64d286	-0.22345933
124	0x3d0c7950	0.03429538
125	0x3e43e091	0.19128634
126	0xbd3d41dd	-0.04620539
127	0x3ccff42b	0.025384983
128	0xbdd19ac4	-0.10234597
129	0x3d59cd79	0.05317447
130	0xbc45147c	-0.01202881
131	0x3da64218	0.08118075
132	0x3d6065f5	0.054784734
133	0xba6da29e	-0.00090650644
134	0x3d8bff5b	0.068358146
135	0xbd022876	-0.031776868
136	0xbe1cef74	-0.15325719
137	0xbd8e6b54	-0.06954065
138	0xbbccca48	-0.0062496997
139	0xbda3145b	-0.07962867
140	0xbdfc0f9c	-0.12307665
141	0xbe06755e	-0.1313071
142	0x3e02d698	0.12777174
143	0x3b329ba2	0.002725341
144	0xbceaf328	-0.028680399
145	0xbd356cc7	-0.04429319
146	0x3dcc707e	0.09982394
147	0xbdb2ebc9	-0.08736379
148	0x3e16e8b1	0.14737202
149	0x3ca05206	0.019570362
150	0xbd12ab78	-0.035808057
151	0x3dd1615a	0.102236465
152	0x3d548316	0.051882826
153	0x3d13b1ce	0.03605824
154	0x3e026dcf	0.12737201
155	0x3dd9825f	0.106205694
156	0x3df51d56	0.11968486
157	0x3cab8c3c	0.020940892
158	0xbd86d939	-0.06584401
159	0xbdaf69a9	-0.08565075
160	0xbd4a3e43	-0.049375784
161	0x3de6e243	0.11273625
162	0xbc8f1acf	-0.017468838
163	0xbdb180f5	-0.08667175
164	0x3bebb014	0.007192621
165	0xbd82ece7	-0.06392842
166	0xbd69bef6	-0.05706688
167	0x3e195be7	0.14976464
168	0x3b85efef	0.00408744
169	0xbe26e62c	-0.16298741
170	0x3cd9cdec	0.026587449
171	0xbd8bd59f	-0.06827854
172	0x3d413ad7	0.047175255
173	0xbdf81408	-0.12113196
174	0xbd3ea560	-0.046544433
175	0x3c47cfa1	0.012195499
176	0xbd91b6a1	-0.07114912
177	0x3dfda0a8	0.123841584
178	0x3e008d6d	0.1255395
179	0xbd24aa87	-0.04020169
180	0x3dedaf4a	0.11605699
181	0x3d6df7f1	0.058097783
182	0x3d0a32f4	0.03374
183	0xbd43af93	-0.047774862
184	0x3dcaa346	0.09894423
185	0xbda031b0	-0.07821977
186	0x3dafa479	0.085762925
187	0x3caed6fc	0.021342747
188	0xbd20b556	-0.039235435
189	0x3e0384eb	0.12843673
190	0x3d1afcc3	0.03783871
191	0xbbbd0419	-0.0057683107

head.0.weight f4 [64, 64]
0	0x3db66675	0.08906261
1	0x3cecc532	0.028902624
2	0xbcfefd43	-0.031126624
3	0xbe36a0ec	-0.17834824
4	0x3e24713b	0.16058819
5	0xbc7ac8b7	-0.015306643
6	0xbe09583f	-0.1341257
7	0xbcb19b39	-0.021680461
8	0x3dde9fdd	0.10870335
9	0x3e073db7	0.13207136
10	0xbcd054a7	-0.02543099
11	0xbdbce838	-0.0922398
12	0x3d7ec2b1	0.06219739
13	0xbd041973	-0.032250833
14	0x3d2c389b	0.04204617
15	0xbe078416	-0.1323398
16	0x3d8a2107	0.06744581
17	0xbd803bd8	-0.06261414
18	0x3d9360b4	0.07196179
19	0x3d0d4b40	0.034495592
20	0xbb24df60	-0.0025157556
21	0x3e15110f	0.14557289
22	0x3d1449a9	0.03620306
23	0x3dc8b35d	0.09799836
24	0x3df0d7c0	0.11759901
25	0xbe07d5fd	-0.13265224
26	0xbd801ce8	-0.062555134
27	0x3c07b3c3	0.008282605
28	0x3e026d51	0.12737013
29	0x3decb146	0.1155725
30	0xbc88cb21	-0.016698422
31	0x3da3927a	0.079869226
32	0x3e4d3851	0.20041014
33	0x3d1ce463	0.038303744
34	0x3e1177fd	0.14205928
35	0x3db7eb6b	0.08980449
36	0x3d56e8ae	0.052467994
37	0xbe2b6cca	-0.16740718
38	0xbce798ac	-0.028271042
39	0xbd2d7c08	-0.042354614
40	0x3cd66933	0.02617321
41	0x3d802c57	0.06258457
42	0x3da03008	0.07821661
43	0x3dd355fa	0.10319133
44	0x3c93fa01	0.018063547
45	0x3d32134e	0.04347544
46	0x3d03bff7	0.032165494
47	0xbd9920d8	-0.074769676
48	0xbd27ce9c	-0.040968522
49	0xbd2f7e4b	-0.04284505
50	0xbdaff684	-0.08591941
51	0x3cdfeebc	0.027335517
52	0x3d8bdf69	0.068297215
53	0xbcab0372	-0.020875666
54	0x3d7952a6	0.060869835
55	0xbdc049ed	-0.093891
56	0xbd883cfa	-0.06652255
57	0xbdf78b57	-0.12087124
58	0xbc77d0b3	-0.015125441
59	0xbcc9ba7e	-0.02462506
60	0xbe06d5b8	-0.13167465
61	0xbdb92652	-0.09040512
62	0x3cc114cd	0.023569489
63	0x3dce8ec8	0.10085827
64	0x3d8f6fbc	0.070037335
65	0xbd5c4166	-0.053773306
66	0xbd1bf86c	-0.03807871
67	0x3de1c0c0	0.11023092
68	0xbe0b8a2f	-0.13626932
69	0xbd428746	-0.047492288
70	0x3dd0f4ec	0.10202965
71	0xbdce952f	-0.10087048
72	0xbc90081f	-0.017581997
73	0xbdb5792d	-0.08861003
74	0x3dd729ee	0.10506044
75	0xbc9bb60f	-0.01900771
76	0xbd0a5b45	-0.033778448
77	0xbd1e1d7e	-0.038602345
78	0xbcce8d59	-0.025213884
79	0x3c83ffef	0.01611325
80	0x3c0972c5	0.00838918
81	0xbd4b970f	-0.049704608
82	0xbcf6f8b3	-0.030147886
83	0x3d660060	0.0561527
84	0x3d8d10a6	0.06887941
85	0xbd6fe867	-0.058571246
86	0x3d60d154	0.05488713
87	0xbd1ecdc9	-0.03877047
88	0xbe02e401	-0.12782289
89	0x3e0afa5d	0.13572069
90	0x3c04732a	0.008084098
91	0x3d9d7a8a	0.07689388
92	0xba9eeb8c	-0.0012124642
93	0x3dc969bd	0.09834621
94	0x3cce9126	0.025215697
95	0x3e0fd497	0.1404594
96	0x3cf7f5fb	0.03026866
97	0xbd1369d2	-0.03598959
98	0xbe091dfe	-0.13390347
99	0xbe1bfa9e	-0.15232322
100	0xbcc03aa0	-0.023465455
101	0x3bc5d3cb	0.0060372106
102	0xbd815016	-0.06314103
103	0x3dda8ec5	0.106717624
104	0xbe0f6d82	-0.14006618
105	0x3cab02dc	0.020875387
106	0x3d35b649	0.044363294
107	0xbcc3f99a	-0.02392273
108	0x3e2470fd	0.16058727
109	0xbe252728	-0.16128218
110	0xbd36b25f	-0.0446037
111	0xbd19736b	-0.037463587
112	0x3ddf2f73	0.10897722
113	0x3df175b0	0.11790025
114	0x3d49610e	0.049164824
115	0x3d2e2fac	0.042525932
116	0xbcd01547	-0.02540077
117	0x3b9f6d1e	0.0048653027
118	0x3ddc56e9	0.10758764
119	0xbd033aff	-0.032038685
120	0xbd89cc23	-0.06728389
121	0x3dad09de	0.08449148
122	0xbd5c2ba0	-0.05375254
123	0xbcdee85a	-0.027210403
124	0x3d3f2b48	0.046672136
125	0x3d56869f	0.05237448
126	0xbb12c5ea	-0.0022395798
127	0xbcb11d13	-0.021620309
128	0x3da30cce	0.07961427
129	0xbd77f1fa	-0.0605335
130	0xbbf71955	-0.0075408616
131	0xbcf86656	-0.030322235
132	0xbde8cc2f	-0.1136707
133	0xbd0f3850	-0.034965813
134	0x3da5280e	0.080642805
135	0xbd9c7960	-0.07640338
136	0xbd4d33bc	-0.050098166
137	0x3d09516b	0.03352491
138	0x3d1d228d	0.03836303
139	0xbd98570b	-0.07438477
140	0xbcb97e76	-0.02264331
141	0xbe098a43	-0.13431649
142	0xbde1a227	-0.11017256
143	0x3d20a800	0.039222717
144	0xbd86d836	-0.06584208
145	0xbdd2d9ef	-0.10295474
146	0x3db3bf52	0.08776726
147	0x3c3add4b	0.011405299
148	0x3d52dde9	0.05148116
149	0xbda36666	-0.07978515
150	0x3deb8a73	0.115010165
151	0x3ca51965	0.02015371
152	0x3d9b5f3f	0.07586526
153	0xbd972924	-0.07380894
154	0x3cb8b9ff	0.022549627
155	0xbc45d4fa	-0.012074703
156	0xbc1bb39a	-0.00950327
157	0xbd8d26f7	-0.068921976
158	0xbd0617c4	-0.03273751
159	0x3c3a7ad2	0.011381822
160	0xbd92e228	-0.07172042
161	0x3df06cd7	0.117395096
162	0xbd58e0c0	-0.052948713
163	0x3c067af6	0.008208027
164	0x3de83a03	0.1133919
165	0x3df2f8de	0.11863874
166	0x3d922f33	0.07137909
167	0x3c9b12f5	0.018929938
168	0xbcfbf3b9	-0.030755864
169	0xbcf7d5e5	-0.03025336
170	0x3dd47d2f	0.103754394
171	0xbd70477e	-0.05866193
172	0xbd8c575e	-0.068526015
173	0xbe211d9c	-0.15733951
174	0xbc491b71	-0.012274609
175	0x3e0778e5	0.13229711
176	0xbd579bb8	-0.05263874
177	0x3c3a3a4d	0.011366439
178	0x3da0f5e3	0.07859399
179	0x3de1905f	0.11013865
180	0x3c8a89ec	0.01691147
181	0x3e1fd6f9	0.1560935
182	0x3db30a65	0.08742217
183	0xbd64e6ec	-0.055884287
184	0x3c96617b	0.01835703
185	0x3d805ff6	0.06268303
186	0x3dadd6cd	0.084882356
187	0x3b88a1eb	0.0041696928
188	0x3dd97269	0.10617525
189	0x3d28b0d5	0.041184265
190	0x3db13042	0.086517826
191	0x3d5c4454	0.0537761
192	0x3c8dd00b	0.017311117
193	0xbb00a323	-0.0019628487
194	0x3d874176	0.066042826
195	0xbda3b34b	-0.07993182
196	0xbe0153d3	-0.12629633
197	0xbc54a29c	-0.012978222
198	0xbd1e21e2	-0.038606532
199	0xbde868f2	-0.11348142
200	0xbdbeac95	-0.09310261
201	0xbd5bfc9d	-0.053707708
202	0xbd727c50	-0.059200585
203	0xbc8d9e8e	-0.017287519
204	0xbdc245a9	-0.09485943
205	0xbd8589aa	-0.06520398
206	0x3d54c2cc	0.051943585
207	0xbd6856be	-0.05672335
208	0xbdc0e98a	-0.09419544
209	0xbdbeace5	-0.09310321
210	0x3e049406	0.12947091
211	0xbd915031	-0.070953734
212	0x3d77cbc6	0.060497068
213	0xbdc6d642	-0.09708835
214	0x3dcf73bc	0.101294965
215	0xbd026390	-0.03183323
216	0xbd56c485	-0.05243351
217	0xbc3ac508	-0.011399515
218	0x3db9a95e	0.09065507
219	0x3dc82cb3	0.09774151
220	0x3bc010fe	0.0058614006
221	0x3a5d1eed	0.0008435089
222	0x3e06fc19	0.13182105
223	0x3cd87787	0.026424183
224	0x3dd8f699	0.1059391
225	0x3d3c5e6e	0.045988493
226	0xbc9c1ee2	-0.019057695
227	0xbd5fb459	-0.054615352
228	0xbd822d5c	-0.06356308
229	0xbd1ed462	-0.038776763
230	0xbd98df84	-0.07464507
231	0xbdb7e473	-0.0897912
232	0xbc898b58	-0.016790077
233	0xbc794e0a	-0.01521636
234	0x3bb03b66	0.0053781746
235	0x3d691cc0	0.056912184
236	0x3d2c032d	0.041995216
237	0xbdef2e86	-0.116787955
238	0xbca74933	-0.020420646
239	0x3c4b6b67	0.012415743
240	0x3e025712	0.12728527
241	0x3bfb5f5f	0.007671281
242	0x3db51a62	0.08842923
243	0xbd922749	-0.07136399
244	0x3d7bce9f	0.061476346
245	0x3d204b93	0.039134573
246	0xbd76458d	-0.060124923
247	0x3de664cb	0.112496935
248	0xbd4553b9	-0.048175547
249	0x3df9bc12	0.12194075
250	0x3d77f21a	0.06053362
251	0xbd5fa322	-0.054598935
252	0xbc0c503b	-0.00856405
253	0x3de262ab	0.11053976
254	0xbccf80ef	-0.025330035
255	0x3cbaa3e0	0.02278322

head.0.bias f4 [64]
0	0x3cbc299e	0.022969063
1	0x3defbc82	0.11705877
2	0xbcd53233	-0.026024913
3	0xbd933687	-0.07188135
4	0xbd87f5f1	-0.066387065
5	0x3e2d7343	0.169385
6	0x3dd6c032	0.10485877
7	0xbd9468c5	-0.07246546
8	0x3d86e19d	0.06586001
9	0x3e24030a	0.16016784
10	0xbd3ad0e6	-0.045609377
11	0x3cfc2f98	0.030784413
12	0x3d82a828	0.063797295
13	0xbc3b1af9	-0.011420005
14	0xbd6f5946	-0.058434747
15	0xbd58710c	-0.052842185
16	0x3d7200c2	0.059082754
17	0xbdbf9269	-0.093540974
18	0xbd7f6b53	-0.06235821
19	0x3d7ea0e3	0.062165152
20	0xbd955dad	-0.07293258
21	0x3dba0e1c	0.090847224
22	0x3e4976d2	0.19674233
23	0x3d23162f	0.039816078
24	0xbd21c863	-0.039497744
25	0x3e44599e	0.19174811
26	0x3c8eb6b2	0.0174211
27	0xbd32f1e6	-0.043687724
28	0x3a68fa5f	0.0008887406
29	0xbdc5f3fc	-0.09665677
30	0x3ca7dae2	0.020490114
31	0xbb23b34a	-0.002497869
32	0xbdeb3c74	-0.1148614
33	0xbd486f72	-0.048934408
34	0x3c45901b	0.012058283
35	0xbd402e68	-0.046919256
36	0x3dc43fbd	0.095824696
37	0x3dbea403	0.093086265
38	0x3e13202c	0.14367741
39	0xbcb6a5dc	-0.022295885
40	0x3da0c64d	0.07850323
41	0x3ddfe387	0.10932069
42	0x3e528724	0.20559365
43	0x3c136c1d	0.008997944
44	0x3e0958cd	0.13412781
45	0x3d9148be	0.070939526
46	0x3cd99cc7	0.026564015
47	0xbdc193dc	-0.0945203
48	0x3d8cca52	0.06874527
49	0xbddb0bc2	-0.10695602
50	0x3dc31399	0.09525222
51	0x3dbf492b	0.093401276
52	0x3d273666	0.040823363
53	0x3d1c7ee1	0.03820694
54	0xbc86af5a	-0.016441036
55	0x3e019c31	0.12657239
56	0xbcf8c736	-0.030368429
57	0xbdbd8b7c	-0.0925512
58	0x385a12c2	5.199272e-05
59	0x3ded3c7d	0.11583803
60	0x3934f25c	0.00017256424
61	0x3d11e1b7	0.03561565
62	0x3e246f51	0.16058089
63	0x3d7bbaae	0.06145733

head.2.weight f4 [1, 64]
0	0xbd753b40	-0.05987096
1	0x3d54f831	0.051994506
2	0x3dd08485	0.10181526
3	0x3dcd04bb	0.10010668
4	0xbe14c59c	-0.14528507
5	0x3da68b4e	0.08132039
6	0x3df55617	0.11979311
7	0xbe58ff5f	-0.21191166
8	0x3e04025f	0.1289153
9	0x3de5a628	0.112133324
10	0xbe0c0716	-0.13674578
11	0x3e13246e	0.14369366
12	0x3e15df42	0.14635947
13	0xbe20ee32	-0.15715864
14	0x3d85973c	0.06522986
15	0x3bbcd53d	0.0057627247
16	0xbe1ed7d0	-0.15512013
17	0x3df5cb79	0.120017
18	0xbe2cb9c9	-0.16867746
19	0xbdc39ae0	-0.095510244
20	0x3e64bc38	0.22337425
21	0x3e0cc39b	0.13746493
22	0x3de95645	0.11393408
23	0xbd9d758f	-0.07688438
24	0xbda8d905	-0.08244518
25	0x3d7b3433	0.061329078
26	0xbe3d98dd	-0.18515344
27	0xbe4b2e5a	-0.198419
28	0xbc819e83	-0.015822655
29	0xbde391ab	-0.11111768
30	0x3dd93889	0.10606486
31	0x3d9abd84	0.075556785
32	0xbd7d497e	-0.061837666
33	0xbd4d08b6	-0.050057136
34	0xbe0655b9	-0.13118638
35	0xbd8adc1d	-0.067802645
36	0xbdef02ac	-0.116704315
37	0x3dfdc53f	0.12391137
38	0x3e0adfef	0.13561986
39	0x3c35bf7a	0.011093015
40	0xbe0740bf	-0.13208292
41	0x3dbf8303	0.093511604
42	0x3e8da215	0.2766272
43	0x3e035acc	0.12827605
44	0xbd90f8ec	-0.07078728
45	0xbd9672a5	-0.073460855
46	0x3e465f91	0.19372393
47	0x3ac21d9e	0.0014809852
48	0xbd0ebce8	-0.034848124
49	0xbe454819	-0.19265784
50	0xbe3d45c8	-0.1848365
51	0x3d6f2871	0.058388177
52	0xbe09464b	-0.13405721
53	0xbe05f0fb	-0.13080208
54	0xbdb83e21	-0.08996225
55	0x3df4047c	0.11914918
56	0xbe219a08	-0.15781415
57	0xbda2676e	-0.07929884
58	0xbde2f562	-0.11081959
59	0x3e04c5f7	0.12966143
60	0xbe306bfd	-0.17228694
61	0xbe28d5a1	-0.16487743
62	0x3e0f319a	0.13983765
63	0xbdf27373	-0.118384264
