outputs/exp_0002_20251212_235529/runs/seed3/h5/DriftRPL/model_final.pt (torch, 71493 bytes, 7 tensors)

gru.weight_ih_l0 f4 [192, 1]
0	0xbe32436d	-0.17408533
1	0xbe1b4c8e	-0.15165922
2	0xbdc61a66	-0.09673004
3	0xbd9a35f2	-0.075298205
4	0xbd81ed17	-0.063440494
5	0xbe21a52f	-0.15785669
6	0x3c902feb	0.017600974
7	0x3daad715	0.08341805
8	0xbc9c4a40	-0.019078374
9	0x3d5ab88b	0.05339865
10	0xbd78b545	-0.060719747
11	0x3d0881e0	0.033326983
12	0xbe051b6d	-0.12998743
13	0xbd8226ff	-0.06355094
14	0xbe094c03	-0.13407902
15	0xbd03ce8a	-0.032179393
16	0xbe00d156	-0.12579855
17	0x3da37505	0.07981304
18	0x3d4825ac	0.04886405
19	0x3dfc7792	0.12327494
20	0x3c529284	0.012852315
21	0xbdcdfbde	-0.100578055
22	0x3d86296d	0.0655087
23	0xbe2d4216	-0.16919741
24	0xbdfa774a	-0.12229784
25	0xbdb92999	-0.09041137
26	0xbd407507	-0.046986606
27	0x3ca6bc4c	0.020353459
28	0xbe0284c6	-0.12745962
29	0xbe0dac9d	-0.13835378
30	0xbdb8ef16	-0.09029977
31	0x3d1d5b19	0.038416956
32	0xbe07b031	-0.13250805
33	0xbe08dbae	-0.13365051
34	0xbe241f3c	-0.1602754
35	0xbdc3daa6	-0.09563188
36	0x3ca59d67	0.020216657
37	0xbe333f99	-0.1750473
38	0xbda91df8	-0.08257669
39	0xbb8947d6	-0.0041894717
40	0xbc9b38f9	-0.018948065
41	0xbd90e3ad	-0.07074676
42	0xbc91c2df	-0.017793117
43	0xbdebd013	-0.115142964
44	0x3d1332b4	0.035937026
45	0x3cba9e0d	0.022780443
46	0xbe09244e	-0.13392755
47	0xbda615e5	-0.08109645
48	0xbd895941	-0.06706477
49	0x3d831b82	0.06401731
50	0x3c3824b9	0.011239224
51	0xbae684b5	-0.0017587157
52	0xbd35d023	-0.044387948
53	0x3d5f3ba8	0.054500252
54	0x3dc97c3b	0.09838148
55	0xbc2ebbd2	-0.010664897
56	0xbdbdeb34	-0.09273377
57	0x3dac3231	0.08408011
58	0x3d24d8f7	0.040245976
59	0xbdda94b9	-0.10672898
60	0x3d2ae72d	0.041724373
61	0xbce13133	-0.02748928
62	0xbd7ce1fd	-0.061738957
63	0xbd8f76ea	-0.07005103
64	0xbdc38f1e	-0.09548782
65	0xbd31a9b4	-0.043374732
66	0xb9d5e21f	-0.00040795
67	0xbd9cfde3	-0.076656125
68	0x3dcd932d	0.10037837
69	0x3d8b6438	0.068062246
70	0x3cef1f43	0.029189711
71	0x3da721f9	0.08160777
72	0xbd26f154	-0.040757492
73	0x3cab9d42	0.02094901
74	0x3de11839	0.10990948
75	0x3d2eca1d	0.04267322
76	0x3c655548	0.013997383
77	0x3e3bf343	0.18354516
78	0x3cebe694	0.028796472
79	0x3d9b1910	0.0757314
80	0xbd3a6347	-0.045504835
81	0xbe187e86	-0.14892015
82	0xbdd3343d	-0.10312698
83	0xbc0a7443	-0.0084505705
84	0x3e0d5cb6	0.13804898
85	0xbdd34d8a	-0.10317524
86	0x3d81d647	0.06339698
87	0xbd5fccc0	-0.054638624
88	0xbdb2e9f6	-0.08736031
89	0xbd0cd3da	-0.034381725
90	0xbd446430	-0.04794711
91	0x3d1ad8a2	0.037804253
92	0xbdc4857e	-0.09595774
93	0x3db8e4c8	0.090280116
94	0x3d1f4080	0.03887987
95	0x3dc3e4b8	0.09565109
96	0xbd350ba9	-0.044200573
97	0x3d981390	0.07425606
98	0xbcae1e4d	-0.021254683
99	0xbd43280b	-0.04764561
100	0xbab836c3	-0.0014054406
101	0x3dd948f2	0.10609616
102	0xbc3cc2f4	-0.01152109
103	0x3cfeef9d	0.031120116
104	0x3c7b1edf	0.015327184
105	0xbd0630ce	-0.032761388
106	0xbbd287dc	-0.006424887
107	0x3cbb1b59	0.022840189
108	0x3dbb82ba	0.091557935
109	0xbd93f0be	-0.07223652
110	0x3daa7b39	0.08324284
111	0x3d4f9acf	0.050684746
112	0xbd364656	-0.04450067
113	0xbd693de9	-0.056943808
114	0xbd4a0e7e	-0.049330227
115	0xbe12127f	-0.14264868
116	0x3e11037c	0.14161485
117	0x3e2257b0	0.15853763
118	0xbc692ef6	-0.014232388
119	0x3e01d9a6	0.12680683
120	0x3d8cbdf2	0.06872167
121	0xbe0b2409	-0.13587965
122	0xbe308663	-0.17238764
123	0xbd5f1d2e	-0.054471187
124	0xbdd7a31d	-0.10529158
125	0x3c681aa4	0.014166508
126	0x3caf115d	0.021370584
127	0xbc97ea8b	-0.018544456
128	0x3d16077f	0.036628243
129	0xbd15e5ab	-0.03659598
130	0x3e314260	0.17310476
131	0x3cd535e0	0.026026666
132	0x3cb14e5d	0.021643812
133	0x3cbb8f6d	0.02289554
134	0xbe25d796	-0.16195521
135	0x3d975202	0.073886886
136	0x3dee973c	0.116499394
137	0x3e052885	0.13003738
138	0xbd9f1ca4	-0.07769135
139	0x3d027bb3	0.03185625
140	0xbe3c395f	-0.1838126
141	0x3d3d30b6	0.046189032
142	0xbd62719c	-0.055284128
143	0x3dd95231	0.1061138
144	0xbda3dca2	-0.08001067
145	0x3d166500	0.036717415
146	0x3da84568	0.08216363
147	0xbe398015	-0.18115266
148	0x3de2e5e1	0.11079002
149	0x3e465793	0.19369344
150	0xbe1a0d7d	-0.15044208
151	0x3e1c69ec	0.15274781
152	0x3d855aa9	0.06511433
153	0x3e460a1d	0.19339795
154	0x3e1ff00c	0.15618914
155	0xbe237810	-0.15963769
156	0x3e255163	0.16144328
157	0x3d9c3aa5	0.07628373
158	0xbd0b63c8	-0.034030706
159	0xbd88ed86	-0.06685929
160	0xbe1ab0a3	-0.15106444
161	0xbd478a9e	-0.04871618
162	0xbc79ed0e	-0.015254272
163	0x3dc67115	0.096895374
164	0xbe05f9bc	-0.13083547
165	0xbe2a1b5b	-0.16611998
166	0x3af06a05	0.0018342143
167	0xbd434976	-0.04767748
168	0xbd925bca	-0.071464136
169	0x3befa89f	0.0073138024
170	0x3d7f9544	0.06239821
171	0x3d60c42a	0.054874577
172	0xbe28fc27	-0.16502438
173	0x3db5f26f	0.08884131
174	0x3d829f92	0.06378092
175	0x3bf9ed0d	0.0076271356
176	0xbde9c169	-0.11413843
177	0x3e120622	0.14260152
178	0x3e0a9fb8	0.1353749
179	0xbdceff61	-0.101073034
180	0x3e2335c0	0.15938473
181	0xbd084e98	-0.033278078
182	0x3e259155	0.16168721
183	0x3e2f3735	0.17110904
184	0xbcee9d9b	-0.029127887
185	0xbd170eaf	-0.036879238
186	0x3d11128f	0.03541809
187	0x3d3e6717	0.046485033
188	0xbe2ceceb	-0.16887252
189	0x3cf1f584	0.029536016
190	0x3e1dfe9a	0.15429154
191	0xbd93cfa7	-0.07217341

gru.weight_hh_l0 f4 [192, 64]
0	0xbdbb4ece	-0.0914589
1	0x3d09872c	0.033576176
2	0x3c671f41	0.014106573
3	0x3cfccd32	0.030859563
4	0x3c966a8e	0.018361356
5	0x3c55dd93	0.013053316
6	0xbd02289d	-0.031777013
7	0x3dbecbc2	0.093162075
8	0xbddb83e9	-0.10718519
9	0x3d4117c7	0.047141816
10	0x3d8c7f9e	0.068602785
11	0x3dc8ead5	0.09810416
12	0x3e112113	0.14172773
13	0xbd7deee8	-0.061995417
14	0x3de702db	0.112798415
15	0xbdeadf69	-0.11468393
16	0x3de90124	0.11377171
17	0xbdb6b40e	-0.089210615
18	0xbdd23e5d	-0.10265801
19	0xbd576297	-0.052584257
20	0x3dc4d36f	0.0961064
21	0x3bbd8c04	0.0057845134
22	0xbd734252	-0.05938942
23	0xbdf7706b	-0.12081989
24	0xbc32536a	-0.010884145
25	0xbd6779b2	-0.056512542
26	0xbbedc8ed	-0.0072566182
27	0x3de3a4fd	0.111154534
28	0xbde13a7f	-0.10997485
29	0xbde760f4	-0.11297789
30	0x3ca39fa9	0.019973593
31	0x3de5edc0	0.11226988
32	0x3dd8371b	0.105573855
33	0x3cd35ade	0.025800165
34	0xbcc95542	-0.024576787
35	0x3c44e5fd	0.012017724
36	0x3df65562	0.12028004
37	0xbda853b7	-0.08219092
38	0x3ba8fad4	0.005156854
39	0x3dc0afe3	0.09408548
40	0x3df0be60	0.11755061
41	0x3dcd5ddb	0.10027667
42	0x3cee99ed	0.029126132
43	0x3dd042c3	0.10168984
44	0xbda75da8	-0.081721604
45	0xbd06d4ce	-0.03291779
46	0xbbae064c	-0.0053108092
47	0x3dcce664	0.10004881
48	0x3d3ca5ed	0.046056677
49	0x3d52290d	0.05130868
50	0xbe08db9c	-0.13365024
51	0x3cab75a7	0.020930124
52	0x3c600ad9	0.013674461
53	0x3d9d532e	0.07681881
54	0xbc7e374e	-0.015516115
55	0x3d3a3258	0.045458168
56	0xbca3db0b	-0.020001909
57	0x3b8c3a46	0.0042794077
58	0x3d9da280	0.0769701
59	0x3dc1a0b8	0.09454483
60	0x3df2c068	0.11853105
61	0xbe057b11	-0.13035227
62	0xbd82af0e	-0.06381045
63	0xbdab9360	-0.08377719
64	0x3dc28005	0.09497074
65	0x3df36fad	0.11886535
66	0x3d27a205	0.040926
67	0xbdf23739	-0.11826939
68	0xbd7e672b	-0.062110107
69	0xbdc0c5b2	-0.094127074
70	0x3d876f5c	0.06613037
71	0x3da63667	0.08115845
72	0xbd20741e	-0.039173238
73	0xbe1c9894	-0.15292579
74	0xbcc1dd1e	-0.023665007
75	0x3babe320	0.0052455813
76	0x3d10d4b3	0.035359096
77	0x3d4ca1c4	0.04995896
78	0x3d6ad435	0.057331283
79	0xbd5edb86	-0.054408573
80	0xbd83e0fc	-0.06439397
81	0xbc2dc348	-0.010605641
82	0xbd96bd9d	-0.073603846
83	0xbd85499a	-0.06508179
84	0xbdc0e779	-0.0941915
85	0xbe127fba	-0.14306536
86	0x3d21a417	0.03946313
87	0xbd6ee7c1	-0.058326486
88	0xbdcd99eb	-0.10039123
89	0xbb6ef4c8	-0.003646182
90	0xbd4d415b	-0.050111156
91	0xbd5b944e	-0.05360823
92	0x3cd2e3a2	0.02574331
93	0xbdf30572	-0.11866273
94	0xbbc416ad	-0.0059841485
95	0x3df5d14a	0.12002809
96	0x3e0692ac	0.13141888
97	0x3dba54cb	0.09098204
98	0xbca093a5	-0.019601652
99	0x3b6db920	0.0036273673
100	0xbd3bdb44	-0.045863405
101	0x3c9caf0a	0.019126434
102	0x3df65ee1	0.120298155
103	0xbd6316c8	-0.055441648
104	0xbdcc25d1	-0.099681504
105	0x3db5fbc8	0.08885914
106	0x3d063d0a	0.032773055
107	0x3d856fa1	0.06515432
108	0xba9a8f1e	-0.001179192
109	0xbdf5413b	-0.11975332
110	0xbd2c4d62	-0.042065986
111	0xbcdd5645	-0.027018676
112	0x3d14b31d	0.03630363
113	0xbd672197	-0.05642852
114	0xbd6a78a3	-0.057243954
115	0xbd3b3f3f	-0.045714613
116	0xbda37ac7	-0.07982402
117	0xbdb5a5b5	-0.08869497
118	0xbd24d6fc	-0.040244088
119	0x3d225d84	0.039639965
120	0x3d985ddb	0.074397765
121	0x3d0f927d	0.03505181
122	0xbe0636c2	-0.13106826
123	0xbbf454c9	-0.0074563962
124	0x3caebba3	0.021329707
125	0x3d994dbd	0.074855305
126	0xbd4a8d6b	-0.049451273
127	0x3dd46167	0.103701405
128	0x3dddcf0e	0.10830508
129	0xbc88540a	-0.016641635
130	0xbdd79324	-0.10526112
131	0xbe0ea45c	-0.13929886
132	0x3dbbbb60	0.09166598
133	0xbd53dff7	-0.05172726
134	0x3bad7415	0.005293379
135	0x3d47dddf	0.048795577
136	0xbb8f8d8b	-0.004380887
137	0xbdfceb02	-0.12349512
138	0xbbc30b2d	-0.00595226
139	0x3d0517f2	0.03249354
140	0xbd4f927d	-0.05067681
141	0x3c2642f7	0.010147802
142	0x3cb172b4	0.02166114
143	0x3d37b29f	0.04484808
144	0xbd52b2e9	-0.051440153
145	0x3df89f28	0.12139732
146	0x3de58813	0.11207595
147	0x3dc5734f	0.09641134
148	0xbdaa5417	-0.0831682
149	0xbda067a4	-0.07832268
150	0x3c88a4ad	0.016680086
151	0xbd8cd0a9	-0.06875736
152	0xbbaf619a	-0.005352211
153	0xbd8743b8	-0.06604713
154	0xbd8a58b7	-0.06755202
155	0x3c9ea615	0.019366303
156	0xbdd8dfb0	-0.1058954
157	0x3d53f7d9	0.051750038
158	0xbc78a37c	-0.015175696
159	0xbd4909b1	-0.049081508
160	0xbd6cb890	-0.0577932
161	0xbd913e15	-0.07091919
162	0x3dbbfd77	0.09179204
163	0x3a78c30e	0.00094895146
164	0x3c4c6a9b	0.012476589
165	0xbc8c7dd6	-0.017149847
166	0xbdd6c87b	-0.10487457
167	0xbdcd694a	-0.10029848
168	0xbdc6395f	-0.096789114
169	0xbccf44a1	-0.02530128
170	0xbd6ef29b	-0.058336835
171	0x3d3e4cd8	0.046460003
172	0x3dc2eba5	0.09517602
173	0xbe162f14	-0.14666396
174	0x3da7588e	0.08171187
175	0xbd2a4ec0	-0.041579008
176	0xbd1e20cf	-0.038605507
177	0x3def4fe4	0.1168516
178	0xbda391ea	-0.07986815
179	0x3d954c54	0.07289949
180	0x3cf23738	0.029567346
181	0x3cb00e49	0.021491187
182	0xbdbd298c	-0.0923644
183	0x3dcb622d	0.09930835
184	0xbdbc85f8	-0.0920524
185	0xbd449b67	-0.047999766
186	0x3db3134a	0.087439135
187	0xbd1ccce3	-0.038281333
188	0xbd3a0f6c	-0.045424864
189	0xbde54577	-0.1119489
190	0xbe452211	-0.19251277
191	0xbd8c37c0	-0.06846571
192	0xbd36e5aa	-0.04465262
193	0xbdb735f1	-0.089458354
194	0x3d85c578	0.06531805
195	0xbc2520d2	-0.010078626
196	0xbd84a811	-0.064773686
197	0xbda7a446	-0.081856295
198	0x3dec1b08	0.11528593
199	0x3c3e391e	0.0116102975
200	0x3d2a68d6	0.041603886
201	0x3d4b258d	0.049596358
202	0x3da4772c	0.08030543
203	0xbbb16e60	-0.005414769
204	0xbd3a5f63	-0.045501124
205	0xbd27ee48	-0.040998727
206	0xbdbef956	-0.09324901
207	0xbcc3bad6	-0.023892801
208	0x3b25ad94	0.0025280463
209	0x3c45bd6b	0.012069087
210	0x3d037682	0.03209544
211	0xbd1d72d9	-0.038439605
212	0x3e0244f3	0.12721615
213	0x3d0b53da	0.034015514
214	0xbd472d1c	-0.048627004
215	0xbd63a072	-0.055572934
216	0xbdeba0ec	-0.11505303
217	0xbd8a58ce	-0.067552194
218	0x3d9ef827	0.07762175
219	0x3dcf40fd	0.101198174
220	0xbb99888d	-0.0046854676
221	0x3db7600f	0.089538686
222	0xbc334198	-0.010940932
223	0x3d0ba0bf	0.034088846
224	0x3d8e82ee	0.069585666
225	0xbdce1ee4	-0.10064486
226	0xbc5b54e1	-0.013386936
227	0xbd375feb	-0.04476921
228	0xbd926b23	-0.07149341
229	0x3db5ad41	0.08870936
230	0xbd1c4838	-0.03815481
231	0x3ddcb1cc	0.107760996
232	0x3c893ba0	0.016752064
233	0xbdebdb8b	-0.11516484
234	0xbbf36351	-0.007427611
235	0xbb271914	-0.0025497125
236	0xbdd01f70	-0.10162246
237	0x3e06ce3b	0.13164608
238	0xbda9e773	-0.082960986
239	0x3de4b6f6	0.111677095
240	0xbdb53f58	-0.088499725
241	0xba80e78a	-0.0009834629
242	0x3d9706cf	0.073743455
243	0xbddb47d1	-0.10707057
244	0xbd6ac9e0	-0.05732143
245	0xbd5dc1c6	-0.054139875
246	0x3dc0c0d6	0.094117805
247	0xbd91cffd	-0.07119749
248	0xbdab4b9c	-0.08364031
249	0x3dbf9694	0.093548924
250	0x3d7a3303	0.061083805
251	0xbc8b46dd	-0.017001564
252	0x3dbba45e	0.0916221
253	0xbd8d1827	-0.06889372
254	0x3d870b0a	0.065939024
255	0xbd679234	-0.056535915

gru.bias_ih_l0 f4 [192]
0	0xbc686dc3	-0.0141863255
1	0x3d4d089c	0.05005704
2	0x3d0bff4b	0.034179013
3	0xbc5da00f	-0.0135269305
4	0xba3cfc8a	-0.0007209262
5	0xbde81904	-0.11332896
6	0xbb94f78a	-0.0045461105
7	0xbd860f6a	-0.06545909
8	0x3de5350d	0.11191759
9	0xbdb3cf2e	-0.08779751
10	0xbc120fa2	-0.00891486
11	0x3dd5ab7d	0.104330994
12	0xbd310a83	-0.043222915
13	0x3cd52606	0.026019108
14	0xbd5a296e	-0.053262167
15	0xbd43e43f	-0.047825094
16	0xbd73804b	-0.05944852
17	0xbd95c24b	-0.07312449
18	0xbda9cf01	-0.08291436
19	0x3d05771d	0.0325843
20	0x3d828bf3	0.063743494
21	0xbc515141	-0.01277572
22	0x3d8172c3	0.06320717
23	0x3c87e4b0	0.016588539
24	0xbdb8a6ef	-0.09016215
25	0x3d9280a2	0.07153441
26	0xbdb7ae27	-0.08968764
27	0x3d9eda7a	0.07756515
28	0xbb3fd3b1	-0.0029270465
29	0xbcef894a	-0.02924027
30	0xbd5e9bd0	-0.054347813
31	0xbd851707	-0.06498533
32	0x3dc45750	0.09586966
33	0xbd264880	-0.040596485
34	0x3d5bc7f5	0.05365749
35	0xbd38b944	-0.045098558
36	0x3dc79888	0.0974589
37	0x3d856ac6	0.06514506
38	0xbd40f369	-0.047107134
39	0x3ddf0359	0.108893104
40	0xbdd86c8d	-0.105675794
41	0x3b595618	0.0033162888
42	0x3cec4cea	0.02884527
43	0x395add32	0.00020872502
44	0xbe02b550	-0.12764478
45	0x3d89fc76	0.06737606
46	0x3db4ae04	0.08822253
47	0xbddc19a8	-0.10747081
48	0xbd18f670	-0.037344396
49	0xbdb56f99	-0.08859176
50	0x3d951dd8	0.07281083
51	0xbe0cd884	-0.13754469
52	0xbd3cb44a	-0.046070375
53	0xbcf8fe03	-0.03039456
54	0xbc678b23	-0.014132294
55	0xbd63f0c2	-0.055649526
56	0x3df5b3c3	0.119971775
57	0xbd3e132b	-0.046405
58	0xbd44a339	-0.048007224
59	0x3e141522	0.14461187
60	0xbbcac817	-0.0061884033
61	0x3d2cf251	0.04222328
62	0x3df2034b	0.11817034
63	0x3de890d5	0.113557495
64	0x3c11780a	0.008878717
65	0x3dcc7a79	0.09984297
66	0xbe1c0c9d	-0.15239187
67	0xbcd0ef62	-0.025504772
68	0x3da01086	0.078156516
69	0xbe0abdcc	-0.13548964
70	0x3c317d54	0.010833103
71	0x3d72cfa0	0.059280038
72	0xbdeb3f61	-0.11486698
73	0xbe375c50	-0.17906308
74	0x3ce9a66e	0.028521743
75	0xbc497451	-0.012295798
76	0xbdaad611	-0.08341611
77	0x3da1d5b9	0.079020925
78	0x3d3c5101	0.04597569
79	0x3c8e9a61	0.017407598
80	0xbdf4cd55	-0.119532265
81	0x3c2da8c1	0.010599316
82	0x3d1588bf	0.036507364
83	0xbd076b52	-0.033061333
84	0xbd9e81ed	-0.07739625
85	0x3c8adc5a	0.016950775
86	0x3cc616e4	0.024180837
87	0x3d9331fe	0.0718727
88	0x3d8cd962	0.068774
89	0xbe0ac6cc	-0.13552397
90	0xbe385f7a	-0.18005171
91	0xbe30f2e0	-0.1728015
92	0x3c2b5673	0.010457623
93	0x3d263d0f	0.040585574
94	0x3e070c7e	0.13188359
95	0x3d1fdd11	0.039029185
96	0xbd877537	-0.06614154
97	0xbe1ae32e	-0.15125725
98	0x3d975e4d	0.07391033
99	0xbde7875e	-0.11305116
100	0xbd7c5a99	-0.06160984
101	0xbc901aae	-0.017590847
102	0x3da2df7c	0.079527825
103	0xbc00eace	-0.007868482
104	0xbe105ea4	-0.14098603
105	0x3a6bbdae	0.0008992803
106	0xbe3315b3	-0.17488746
107	0xbe0ada62	-0.13559869
108	0xbd89e1e3	-0.067325376
109	0x3e1f54ac	0.15559644
110	0x3c2ba3fd	0.01047611
111	0xbd4eb3c5	-0.05046441
112	0xbd8f2ad4	-0.06990591
113	0xbdcedb68	-0.10100442
114	0xbd070f18	-0.03297338
115	0x3d99f66b	0.075177036
116	0x3d0e9f3c	0.034819826
117	0xbda9d171	-0.08291901
118	0xbcd2d035	-0.025734046
119	0xbcfc9c49	-0.030836241
120	0xbe134502	-0.14381793
121	0x3b591d7c	0.0033129146
122	0x3de2b15b	0.11068984
123	0x3e16ae44	0.14714915
124	0x3b43482a	0.0029797652
125	0xbd8431bb	-0.06454798
126	0xbddad9d2	-0.10686077
127	0x3cabeb0f	0.020986108
128	0x3cba7b6f	0.022763936
129	0x3daeb9cc	0.08531532
130	0x3d4741fc	0.048646912
131	0x3e02b300	0.12763596
132	0x3db42a9c	0.087971896
133	0x3d2803db	0.0410193
134	0x3d98adc0	0.07455015
135	0xbd62c6c7	-0.05536535
136	0xbdd601aa	-0.10449536
137	0xbc697f08	-0.014251478
138	0xbcc2eb71	-0.023793908
139	0xbdd4a0d5	-0.10382239
140	0x3d0b8316	0.03406056
141	0xbd90271a	-0.07038708
142	0x3dbe1851	0.09281982
143	0xbc977732	-0.018489454
144	0x3c7e0061	0.01550302
145	0xbbd9bb33	-0.0066446303
146	0xbdaecc6c	-0.08535084
147	0x3d4123d1	0.047153298
148	0xbdebaf85	-0.11508087
149	0xbddc6006	-0.107605025
150	0xbc477c68	-0.012175657
151	0xbd73e5b1	-0.059545223
152	0x3c05d936	0.008169463
153	0xbbdd0d01	-0.006745935
154	0xbd0d5028	-0.03450027
155	0x3d5eda97	0.054407682
156	0xbd50988c	-0.05092673
157	0x3dfc4462	0.123177305
158	0xbd93c7e8	-0.072158635
159	0xbc625cef	-0.013816102
160	0x3d284644	0.041082636
161	0x3d1a2b0d	0.037638713
162	0xbd9f8bb7	-0.0779032
163	0xbd21c040	-0.039489985
164	0xbdcd8436	-0.10034983
165	0x3db725ae	0.08942734
166	0x3dd3351d	0.10312865
167	0x3ca6a84d	0.020343924
168	0x3b9c673c	0.0047730487
169	0xbd43c2bd	-0.04779314
170	0xbdcb00eb	-0.099122845
171	0xbd646bf2	-0.055767007
172	0x3cec077c	0.028812163
173	0x3c4f5746	0.012655085
174	0xbc46980f	-0.0121212145
175	0x3dd511c8	0.10403782
176	0xbd67d48e	-0.056599192
177	0xbcaa4b13	-0.020787751
178	0xbd643157	-0.055711117
179	0xbe17193e	-0.14755723
180	0xbda5fafd	-0.08104513
181	0xbc5660f3	-0.013084638
182	0xbd74f6d8	-0.05980572
183	0xbd2eb288	-0.04265073
184	0x3bbc25c5	0.005741807
185	0x3df51dc7	0.1196857
186	0x3ca6754b	0.020319602
187	0x3e223132	0.15839079
188	0x3cfd5bf3	0.030927634
189	0x3bfcf15c	0.007719202
190	0xba1ad599	-0.00059064623
191	0xbdf327f0	-0.11872852

gru.bias_hh_l0 f4 [192]
0	0x3d8a61d2	0.06756939
1	0xbdc42d90	-0.09579003
2	0xbde21128	-0.110384285
3	0x3d8050c9	0.062654085
4	0xbd8c005c	-0.06836006
5	0x3d3267f2	0.04355616
6	0x3dc26837	0.09492534
7	0xbdd20180	-0.10254192
8	0xbdddc9b2	-0.10829486
9	0x3df3fdd3	0.119136475
10	0x3deaf0a4	0.1147168
11	0x3dfb4d10	0.12270558
12	0xbdd1c19a	-0.10242005
13	0x3da1008e	0.07861434
14	0x3da0ed7b	0.07857796
15	0x3ca1cdfd	0.019751543
16	0xbdd8aae4	-0.1057947
17	0x3dd0ffb2	0.1020502
18	0xbd631875	-0.055443246
19	0x3d36812d	0.044556785
20	0x3dbd20a9	0.09234745
21	0xbdcb6566	-0.099314496
22	0xbcb41017	-0.021980328
23	0xbd9af074	-0.07565394
24	0x3da54e2d	0.080715515
25	0x3dd2d728	0.10294944
26	0x3da02ebf	0.07821416
27	0x3d9bb969	0.076037236
28	0x3d189732	0.037253566
29	0x3d71f8cd	0.059075166
30	0x3cd3e2c9	0.025864976
31	0x3cd9d64b	0.02659144
32	0xbd8ed501	-0.06974221
33	0xbdbbe3ed	-0.09174333
34	0x3db98826	0.090591714
35	0x3dcc8368	0.09986001
36	0x3d1dcbad	0.03852432
37	0x3df7c92e	0.12098919
38	0xbd150512	-0.03638179
39	0xbc648e58	-0.013949953
40	0xbdc958e7	-0.0983141
41	0xbd2e1bf3	-0.042507123
42	0xbc465e07	-0.012107379
43	0xbdc0d20f	-0.094150655
44	0xbd568aac	-0.05237834
45	0x3d64f3a7	0.055896427
46	0xbb4caaf5	-0.0031229828
47	0xbda6c378	-0.081427515
48	0xbdc28ae5	-0.09499148
49	0xbdc71411	-0.09720624
50	0xbccf79ab	-0.02532657
51	0xbd4bfca7	-0.049801495
52	0x3dc8b30e	0.09799777
53	0x3ca690e9	0.02033277
54	0x3c7b4161	0.015335412
55	0x3d844f7a	0.064604715
56	0x3ca6d80d	0.020366693
57	0x3d442fd5	0.04789718
58	0x3c4d26e3	0.012521478
59	0xbd9272c7	-0.07150798
60	0xbd449c1b	-0.048000436
61	0x3bdf4762	0.0068139294
62	0x3d82c1f6	0.06384651
63	0x3da7c04a	0.08190973
64	0xbd84c5f7	-0.06483071
65	0xbe05cdb2	-0.13066748
66	0xbd2ed413	-0.04268272
67	0x3e39e32d	0.18153067
68	0x3da02b5a	0.07820769
69	0xbd981f60	-0.07427859
70	0x3cfc3a32	0.030789468
71	0x3d095af8	0.03353402
72	0xbe203a1e	-0.1564717
73	0x3d54021c	0.051759824
74	0x3e1ccf45	0.15313442
75	0x3d093779	0.03350017
76	0xbe13dce4	-0.14439732
77	0xbdfc5a6e	-0.123219356
78	0xbe0d7758	-0.13815057
79	0x3b6d2b03	0.0036188967
80	0x3dc47287	0.09592157
81	0xbdbfd06a	-0.09365924
82	0xbd1efaed	-0.03881352
83	0xbdfd4142	-0.123659626
84	0xbc90ec2b	-0.017690739
85	0xbdab928a	-0.083775595
86	0xbd86f09a	-0.0658886
87	0x3dccabd1	0.09993709
88	0x3cc68a31	0.024235817
89	0xbe07775f	-0.1322913
90	0xbd7436b0	-0.059622467
91	0xbc845a8f	-0.016156463
92	0x3cb60901	0.02222109
93	0xbcda7923	-0.02666909
94	0xbd850372	-0.06494798
95	0xbc9a5dcc	-0.018843554
96	0xbd594f62	-0.05305422
97	0xbd0fce7e	-0.035109036
98	0x3d8c6363	0.06854894
99	0xbda22e25	-0.079189576
100	0x3d0214d6	0.031758152
101	0x3d9af6a9	0.07566578
102	0xbe0e786c	-0.13913125
103	0xbdfea985	-0.12434677
104	0xbe10b38c	-0.14130992
105	0xbc1ff7ee	-0.009763701
106	0xbe22da31	-0.15903546
107	0x3d8a4687	0.06751733
108	0xbd98b637	-0.0745663
109	0x3df5760a	0.11985405
110	0x3d95b25d	0.07309411
111	0x3c879c1b	0.01655393
112	0x3d6f0bbc	0.0583608
113	0xbc105afa	-0.008810753
114	0xbd15e31a	-0.036593534
115	0xbcaa1e96	-0.020766538
116	0xbe0d5065	-0.138002
117	0xb880a5a6	-6.13437e-05
118	0xbdf213a7	-0.11820155
119	0xbe359ffd	-0.17736812
120	0xbdda7ad1	-0.106679566
121	0xbd3897a3	-0.045066487
122	0xbd9385cb	-0.07203253
123	0x3d8c7535	0.06858293
124	0xbe059cc7	-0.13048087
125	0xbdcc39ac	-0.099719375
126	0xbd585082	-0.052811153
127	0x3cbdf581	0.023188354
128	0xbdb133bd	-0.086524464
129	0xbbd80d88	-0.00659341
130	0xbcdaa69b	-0.026690772
131	0x3d8430e8	0.064546406
132	0x3db2f385	0.08737854
133	0xbd2aadd9	-0.0416697
134	0x3d880995	0.066424526
135	0x3cf43bfc	0.029813759
136	0xbd4a5526	-0.04939761
137	0xbdadd6ff	-0.08488273
138	0xbde44a7c	-0.11147019
139	0xbdca4f1f	-0.098783724
140	0xbd65402c	-0.055969402
141	0x3d42fc59	0.04760394
142	0xbdbdf625	-0.09275464
143	0x3d8aaa7e	0.067708
144	0x3dc89d9c	0.097956866
145	0xbd646e22	-0.055769093
146	0xbdac1c2a	-0.08403809
147	0xbdfae519	-0.12250728
148	0x3ba04ff7	0.004892345
149	0x3c4058a3	0.011739883
150	0xbd8532ee	-0.06503855
151	0xbd396d27	-0.04527011
152	0x3cd52600	0.026019096
153	0x3e0a11cb	0.1348335
154	0x3cdbf08b	0.026848098
155	0x3db9a9e3	0.090656064
156	0xbdc25eed	-0.09490762
157	0x3c8086c4	0.015689261
158	0x3d80f53f	0.06296777
159	0x3d055882	0.03255511
160	0xbd07eaa7	-0.033182766
161	0xbdc62ceb	-0.09676536
162	0x3e078e24	0.13237816
163	0x3d83a0d1	0.06427158
164	0xbdd4c26a	-0.10388644
165	0x3d990325	0.07471303
166	0xbdea49bb	-0.11439844
167	0xbda58e87	-0.080838256
168	0x3db94931	0.09047163
169	0xbd514aa2	-0.051096566
170	0x3d9d3be2	0.07677437
171	0x3cc08d63	0.023504918
172	0xbd406d81	-0.04697943
173	0x3d917b5c	0.07103607
174	0xbceaa703	-0.02864409
175	0x3c96d467	0.018411828
176	0x3da6de9a	0.08147927
177	0x3c4870d4	0.012233932
178	0xbdfbc726	-0.12293844
179	0x3bf8d70e	0.007593996
180	0x3dc55274	0.09634867
181	0xbc905aaa	-0.017621357
182	0xbd841952	-0.06450142
183	0x3cad948d	0.021188999
184	0x3dad907e	0.08474825
185	0xbd9c3d80	-0.07628918
186	0x3dddb394	0.108252674
187	0x3d2bf850	0.041984856
188	0x3c7ada63	0.0153108565
189	0xbc61f843	-0.0137921
190	0x3d047754	0.032340363
191	0xbd9bfdc7	-0.076167636

head.0.weight f4 [64, 64]
0	0xbc534c37	-0.012896589
1	0x3e296ecd	0.16546173
2	0xbd0ecaca	-0.034861363
3	0xbde06097	-0.10955923
4	0x3d1bd3e0	0.038043857
5	0x3d4c7705	0.049918193
6	0x3e2211bf	0.15827082
7	0x3cfaa31b	0.030595353
8	0x3d3307fb	0.043708783
9	0xbdbf5137	-0.093416624
10	0xbdc9c780	-0.09852505
11	0xbde59a9f	-0.11211132
12	0x3b474fa6	0.0030412464
13	0xbe180eb2	-0.14849356
14	0x3d067be4	0.032832995
15	0xbdb1e438	-0.086861074
16	0x3dd70d9c	0.10500643
17	0xbb6c045c	-0.003601334
18	0x3d4b78d3	0.049675774
19	0x3dc2fa3f	0.09520387
20	0xbd95c96f	-0.07313811
21	0xbb807bce	-0.0039210087
22	0xbd0cbe51	-0.034361187
23	0xbb7b2a16	-0.0038324646
24	0xbe0b005a	-0.13574353
25	0xbe0d2006	-0.13781747
26	0xbdb98592	-0.0905868
27	0xbce46f91	-0.02788523
28	0xbcd3f65a	-0.025874306
29	0x3d88e0de	0.06683515
30	0x3d890b7a	0.06691642
31	0x3d733e33	0.05938549
32	0x3cad6650	0.02116695
33	0x3ca67aa3	0.02032215
34	0xbda7e14e	-0.0819727
35	0xbcaa90aa	-0.020820934
36	0x3d62bf4a	0.05535821
37	0xbd4ed877	-0.050499406
38	0x3ddb8af0	0.107198596
39	0xbc9c99c5	-0.019116292
40	0xbd202fd1	-0.0391081
41	0xbdd4473a	-0.10365148
42	0xbe0c8782	-0.13723567
43	0xbde43820	-0.111435175
44	0xbd0f5bd9	-0.034999702
45	0xbdae6a19	-0.0851633
46	0xbe261077	-0.16217218
47	0x3d4ff21a	0.050767995
48	0xbd649124	-0.05580248
49	0x3c05bdce	0.008162929
50	0x3d859513	0.06522574
51	0x3dee7642	0.1164365
52	0x3d204524	0.039128438
53	0xbc0c0a96	-0.008547446
54	0x3d41a8c7	0.0472801
55	0xbdb95eb4	-0.09051266
56	0x3d9c18a8	0.0762189
57	0x3d981d59	0.074274726
58	0xbd905b35	-0.07048646
59	0xba0046c2	-0.0004893356
60	0x3daccf8a	0.084380224
61	0xbc81b073	-0.015831208
62	0xbc87a35e	-0.016557392
63	0x3ce897fe	0.028392788
64	0x3ce3a0cd	0.027786637
65	0x3cbc96d1	0.023021134
66	0x3e1b6f7b	0.15179245
67	0x3dca82ed	0.09888253
68	0xbc8c03b6	-0.017091613
69	0x3dee0516	0.11622064
70	0x3dcf6f1e	0.10128616
71	0x3e086ad8	0.13322008
72	0x3dfd2489	0.12360484
73	0x3da4d751	0.08048881
74	0x3d421005	0.04737856
75	0x3beba314	0.0071910713
76	0xbdab8fc2	-0.08377029
77	0xbd91ee6c	-0.071255535
78	0x3d4f4bf5	0.050609548
79	0x3d24940a	0.040180244
80	0xbc82f674	-0.015986659
81	0xbd5f1d08	-0.054471046
82	0xbdfe2c90	-0.12410843
83	0xbe164b8b	-0.14677255
84	0xbdb2ac13	-0.08724227
85	0xbd72fcac	-0.059322998
86	0xbb078d28	-0.00206835
87	0x3d264f4f	0.04060298
88	0x3d707c30	0.058712184
89	0x3dc62ec9	0.09676892
90	0x3e1c8957	0.15286766
91	0xbd7cbf10	-0.06170565
92	0xbce4a9d7	-0.027913017
93	0x3e0d565a	0.13802472
94	0x3c1c2170	0.0095294565
95	0xbd18b37c	-0.037280545
96	0x3cc09b36	0.02351151
97	0x3d5a6cb9	0.053326342
98	0x3da2051b	0.0791113
99	0xbbce55d4	-0.0062968526
100	0xbda27147	-0.07931762
101	0xbe12406c	-0.14282387
102	0xbc6065a6	-0.01369611
103	0xbdba74d8	-0.091043174
104	0x3cbf9d6e	0.023390498
105	0xbc826189	-0.015915649
106	0x3d981992	0.07426752
107	0xbd1296c1	-0.0357883
108	0xbd1e0875	-0.038582284
109	0x3dbd1445	0.09232382
110	0x3e0ac900	0.13553238
111	0x3d038415	0.032108385
112	0xbd882db7	-0.066493444
113	0xbd411e8a	-0.047148265
114	0x3e075602	0.13216403
115	0x3c4529b8	0.012033872
116	0xbd7e61fe	-0.06210517
117	0xbd885c9e	-0.0665829
118	0x3d85a180	0.06524944
119	0x3e1361af	0.14392732
120	0xbd69075a	-0.056891777
121	0xbd5173a3	-0.05113567
122	0xbd931b87	-0.07182985
123	0x3e13eec3	0.14446549
124	0xbd20985d	-0.039207805
125	0xbda043cf	-0.078254335
126	0x3ddf0d5e	0.108912215
127	0xbe0e8c5d	-0.13920732
128	0x3dfe9dc7	0.124324374
129	0x3cadfc04	0.021238334
130	0xbca7e4c5	-0.020494828
131	0x3e0d9a91	0.13828494
132	0x3dca7228	0.09885055
133	0x3e0b0274	0.13575155
134	0xbe018e99	-0.12652053
135	0xbd68d3d3	-0.056842636
136	0x3d836b7d	0.06416986
137	0x3dad5052	0.084625855
138	0x3d8e528a	0.06949337
139	0xbd8f6c52	-0.07003082
140	0xbd88a20e	-0.066715345
141	0xbcf29beb	-0.029615363
142	0xbe0b86d7	-0.13625656
143	0x3e0129f6	0.12613663
144	0x3c317834	0.010831881
145	0x3e0fc1e1	0.14038803
146	0xbcdfcc16	-0.027318995
147	0xbaf9cca4	-0.001905818
148	0x3dc09ba5	0.09404687
149	0xbd9da6e5	-0.07697848
150	0xbd8f82c0	-0.070073605
151	0x3e02f836	0.12789997
152	0xbd2f075e	-0.042731635
153	0xbc5c286a	-0.01343737
154	0xbdcab207	-0.09897237
155	0xbd1dd736	-0.03853532
156	0xbd71c451	-0.059025113
157	0x3dfa45a9	0.12220318
158	0xbba92178	-0.0051614605
159	0x3d883fd2	0.06652798
160	0x3d2a4efb	0.041579228
161	0xbe018b6e	-0.12650844
162	0x3d51cf09	0.051222835
163	0xbc9c28c6	-0.019062411
164	0x3c85e0c2	0.016342524
165	0x3d9f28d4	0.07771459
166	0xbcc78d20	-0.024359286
167	0x3e069347	0.1314212
168	0xbe04d39b	-0.12971346
169	0x3e10f6fb	0.14156716
170	0xbd0456ba	-0.03230927
171	0x3db7e45c	0.08979103
172	0x3d0bde12	0.03414733
173	0xbd59fe03	-0.05322076
174	0x3e008100	0.1254921
175	0x3db75377	0.089514665
176	0xbdd7a8b8	-0.105302274
177	0x3e08b9ab	0.13352077
178	0x3de00ac3	0.10939553
179	0x3d54eba3	0.051982533
180	0x3c4bded5	0.012443264
181	0xbdfda978	-0.12385839
182	0x3d3e2eb8	0.046431273
183	0xbdab34f3	-0.08359709
184	0xbd2a3264	-0.041551962
185	0x3d977797	0.07395857
186	0xbd518903	-0.051156055
187	0xbcbfef90	-0.023429662
188	0xbdd8447f	-0.105599396
189	0xbcff18d0	-0.031139761
190	0x3a20e29c	0.0006137283
191	0xbdefd6e2	-0.117109075
192	0xbcd8b833	-0.02645502
193	0x3c8fe066	0.017563056
194	0x3dc5974e	0.09648
195	0x3ce2df35	0.027694324
196	0xbdca54f5	-0.098794855
197	0x3dd42bbd	0.10359905
198	0xbd97545d	-0.07389138
199	0x3dd4419e	0.10364078
200	0xbbd99c5f	-0.0066409553
201	0x3d355be0	0.044277072
202	0xbdb4ad28	-0.088220894
203	0x3dbacc44	0.09120992
204	0xbe29c2b2	-0.16578177
205	0xbd38524d	-0.045000363
206	0x3d47b859	0.048759792
207	0x3e04e166	0.12976608
208	0xbd846405	-0.0646439
209	0xbc8b1284	-0.016976602
210	0x3e11f71f	0.14254425
211	0x3d82d7da	0.06388827
212	0x3cb58cc3	0.022161847
213	0x3d66455d	0.056218494
214	0x3c68bb5d	0.014204827
215	0x3df7e1f3	0.12103643
216	0x3d8c86c8	0.06861645
217	0xbbcbbd62	-0.0062176445
218	0x3dec3d8f	0.11535179
219	0xbd8daa15	-0.06917206
220	0x3d9b9a69	0.07597811
221	0xbc40cfa8	-0.011768259
222	0xbcd32edc	-0.02577918
223	0xbd26f17e	-0.04075765
224	0xbd438f88	-0.047744304
225	0xbc203313	-0.009777802
226	0xbdb035c7	-0.08604007
227	0x3e23ee1a	0.16008797
228	0xbd44f65b	-0.048086505
229	0xbd9d02af	-0.076665275
230	0xbd36f3a7	-0.04466596
231	0xbdc8ed60	-0.09810901
232	0x3cf20b94	0.029546537
233	0xbd6f635f	-0.058444377
234	0xbd20ee46	-0.039289735
235	0x3dae664b	0.085156046
236	0xbd80dbb3	-0.06291904
237	0x3d3de20c	0.046358153
238	0xbd890e11	-0.06692136
239	0xbd18baf4	-0.037287667
240	0xbd3850ea	-0.04499904
241	0x3cfa51fd	0.030556673
242	0x3d9dbad3	0.077016495
243	0x3d905b8b	0.070487104
244	0x3cf6ab75	0.030111054
245	0xbd0e0eda	-0.034682132
246	0x3cdac88d	0.026706958
247	0x3dd082c6	0.10181193
248	0x3da767c5	0.08174089
249	0xbd3dab2b	-0.046305817
250	0x3e08dfd9	0.13366641
251	0xbd469533	-0.04848213
252	0x3cc69957	0.02424304
253	0xbd0c2e1d	-0.034223665
254	0xbd0a1867	-0.03371468
255	0xbaab47d1	-0.0013067668

head.0.bias f4 [64]
0	0x3e0985f3	0.13430004
1	0xbba33a3e	-0.0049813082
2	0xbd4caa65	-0.04996719
3	0x3d4c0005	0.049804706
4	0xbd86c254	-0.06580034
5	0x3dc1c037	0.0946049
6	0xbd735155	-0.059403736
7	0x3e1d2afc	0.15348428
8	0xbbbf82e7	-0.005844462
9	0x3d94392b	0.072374664
10	0x3d2cfc1a	0.04223261
11	0x3e05a4aa	0.13051096
12	0x3dc8bc84	0.098015815
13	0x3db5b338	0.08872074
14	0xbd8b5d95	-0.06804959
15	0xbcd1bf6c	-0.025603972
16	0x3d7e8b34	0.062144473
17	0x3dba6361	0.09100986
18	0x3db0949f	0.08622097
19	0x3d8e8f85	0.06960968
20	0x3c5366cc	0.012902927
21	0xbd24776c	-0.040152952
22	0x3df3287c	0.11872956
23	0xbe17a968	-0.14810717
24	0x3d31352c	0.0432636
25	0xbd617981	-0.055047516
26	0xbbc42327	-0.005985636
27	0xbaba3b9c	-0.0014208439
28	0x3e0b846c	0.13624734
29	0xbd485b53	-0.04891522
30	0xbc348f72	-0.011020528
31	0x3d95a087	0.07306009
32	0x3df4d7d6	0.1195523
33	0x3e0160c3	0.12634568
34	0xbd891ca8	-0.06694919
35	0x3dbdc516	0.09266107
36	0x3e11db0b	0.14243715
37	0x3df70313	0.12061133
38	0x3dcb0fe3	0.099151395
39	0x3bf34e4a	0.0074251043
40	0x3e061376	0.13093361
41	0xbdebad0a	-0.11507614
42	0xbd8aaffb	-0.06771847
43	0xbd3f9cec	-0.04678051
44	0xbdb56ba6	-0.08858423
45	0x3dcd830b	0.1003476
46	0x3dd29c86	0.10283761
47	0xbde7cb10	-0.11318028
48	0x3dd0e1c0	0.101993084
49	0x3e1b55bb	0.15169422
50	0x3d4335d3	0.047658753
51	0xbcfca100	-0.03083849
52	0x3cd82a0c	0.026387237
53	0x3c044c57	0.008074841
54	0xbba6a250	-0.005085267
55	0x3cc81e6f	0.024428574
56	0xbdd246c3	-0.10267403
57	0xbd216ecb	-0.0394123
58	0xbda0de44	-0.07854894
59	0x3e04ca04	0.12967688
60	0xbca5484a	-0.020176072
61	0x3a7bec42	0.00096100953
62	0xbd81a195	-0.063296475
63	0xbcf1589d	-0.0294612

head.2.weight f4 [1, 64]
0	0xbdcf237b	-0.10114189
1	0x3d286ca3	0.04111923
2	0x3d77a1ae	0.060456924
3	0x3d58bf48	0.052916795
4	0xbe04d55a	-0.12972012
5	0xbda9ac52	-0.082848206
6	0x3cde348c	0.027124666
7	0x3dd69974	0.104784876
8	0x3e1c1e1e	0.15245864
9	0xbd61eab5	-0.055155475
10	0xbcfa67e8	-0.030567124
11	0xbd785a4d	-0.060632993
12	0xbe239926	-0.1597639
13	0x3e01922f	0.12653421
14	0x3dce11bc	0.10061976
15	0x3e15ba20	0.14621782
16	0x3dbfd992	0.0936767
17	0xbd011b68	-0.031520277
18	0x3d326907	0.043557193
19	0x3dbee9c8	0.09321934
20	0xbdd5c5ea	-0.1043814
21	0x3dbd0dd3	0.092311524
22	0x3d52256c	0.05130522
23	0xbb367d54	-0.0027845697
24	0xbd1c7ac3	-0.038203012
25	0x3e092141	0.13391592
26	0xbddf9764	-0.10917547
27	0xba55ed81	-0.0008160696
28	0xbdf49e9f	-0.11944317
29	0x3d11aaef	0.035563406
30	0x3c95c6a6	0.0182832
31	0x3db96a23	0.09053447
32	0x3db9890c	0.09059343
33	0xbda0ee60	-0.078579664
34	0xbd522f49	-0.051314626
35	0xbdb58642	-0.08863498
36	0xbdd896e0	-0.10575652
37	0x3d22465a	0.039617874
38	0x3d0ed64c	0.03487234
39	0x3d76bb66	0.06023731
40	0xbd5cb28b	-0.05388121
41	0x3d82ad85	0.063807525
42	0x3db4b4cb	0.08823546
43	0xbe046ab5	-0.1293133
44	0xbdc90222	-0.0981486
45	0xbe2e4214	-0.17017394
46	0x3d990105	0.074708976
47	0x3b9f06e0	0.0048531145
48	0x3d6c9cc0	0.057766676
49	0xbe077370	-0.1322763
50	0x3d37bf75	0.044860322
51	0x3c50a5b2	0.012734817
52	0x3d35e93f	0.044411894
53	0x3e00f2a7	0.12592565
54	0x3e0c48e9	0.13699688
55	0xbe2024a2	-0.15638974
56	0x3e0d5e06	0.13805398
57	0x3d2d4dbc	0.04231046
58	0xbd5a53cc	-0.05330257
59	0x3d951546	0.07279448
60	0xbe07557f	-0.13216208
61	0x3db8914d	0.09012089
62	0xbd62ccfa	-0.055371262
63	0xbc85c9d7	-0.016331596
