outputs/exp_0002_20251212_235529/runs/seed1/h1/SlidingWindowSGD/model_final.pt (torch, 71493 bytes, 7 tensors)

gru.weight_ih_l0 f4 [192, 1]
00000000: 9144 863e 7a4d c33c 5b3d abbd 6792 263d
00000010: f367 acbd 7406 ba3e 8f3b ae3d 6a80 0b3e
00000020: ed60 403d 1885 753d 53b1 b2bd 6620 d8bb
00000030: ebc1 8d3d 0cfc 3fbd f99a f83d e821 71bd
00000040: 6a41 d03d 9003 bf3d ba47 ec3d f105 033e
00000050: 075a 3e3d ae2a ae3c cc71 8e3d 688d 70bc
00000060: 2ed6 8bbc 871d 4b3c 9aa1 803e 5372 5d3e
00000070: 682e 6cbd c3f5 123e 88ea c63c e15d f13d
00000080: 1dca 393e 2ee9 31be d138 12be 3657 f7bd
00000090: 4f19 db3d d09c 803c b3d6 863d 0363 513d
000000a0: 195a 843d 7885 7bbd de34 3f3e 8b15 693d
000000b0: 142e aebc 3142 7b3c c786 afbc 14cc bd3d
000000c0: 20e2 2a3b 5eec a23d 8419 3ebe 7ce4 c7bb
000000d0: e30b 113e 4f8f e63d 72f8 2f3e d9fe 073e
000000e0: 7434 ed3d c8d9 d1bc 791f ec3d 53ed 3abc
000000f0: 2093 60bc f5b2 3d3d 3e2d e23d 6502 f43d
00000100: 6773 61bd 99e6 14bd 1d8b 25ba f8ec 053d
00000110: a6a8 b3bd 0bc9 59bb 72c3 9d3a 71bd f5bd
00000120: e76e de3d 155d 283d d533 09bb e588 ca3d
00000130: 32ac bd3d 139e 573e e86e 10be c126 763d
00000140: 0470 04be 6420 85bd 264e 633d 1fcd 1fbb
00000150: b12b 9b3d 60bd 89bd 97d2 5fbd 67d7 fc3d
00000160: b541 07bc 298e be3d d42d 423e 6f44 d7bd
00000170: 89aa f43c 8bc8 953d 5005 cabd 941b 9b3d
00000180: 58fd 373d c5e6 dd3d f103 37bd 7c60 84bd
00000190: 2c00 cd3d f46e 873d 7bf0 c23d b399 b43d
000001a0: c434 a53c 0eb5 4fbd e8c4 c93d 3a30 4dbc
000001b0: 4d2c 2d3e 03e4 3fbd 0b3d 493d 8a9f 3d3e
000001c0: 7df2 293e 729a d23d 350b 17bc b036 043e
000001d0: f0b1 003e a791 cc3d a3d7 10be cfef 56bd
000001e0: b849 83bd 0bdf 08bd 6e54 403e bb24 b6bd
000001f0: e400 783d 84ae 7abd aa61 7e3c 2f10 1b3c
00000200: 5606 0e3e 74d4 dd3d 9185 f8bd 0733 2d3c
00000210: 67b6 083e 4c82 2d3e a088 f13d 4bfd b43d
00000220: 7c3e 1a3e 2cbb 663c c093 0fbe 1910 16be
00000230: ee8a 05bd becc 983d ffd8 92bd 7703 613b
00000240: 5f6b a73d 80cc 91bc 82be 773c cb79 c03d
00000250: 8bdc b53d 60fb 383e f43b babd 8185 f23d
00000260: 955b 5d3c 9301 b63a 0465 29be c4be 4dbe
00000270: c7f5 47bd 3737 6bbd ce42 d53d 82e8 94bd
00000280: 16dc a2bd 8376 963c 4934 8a3d 043f e93d
00000290: 5bd7 0ebe 5f58 d43c c14b 68bd 91a4 bbbc
000002a0: 7df3 8fbe 1f95 44bd 7d25 0abd b9b0 9e3d
000002b0: 8d9c ac3a 8925 293d 56dc 053e 58a8 e13d
000002c0: 9fe2 aa3d dc1b a2bd 9231 e7bd b4f7 8b3d
000002d0: ca44 563d 2261 00bc ac40 f9bd 76a4 46bd
000002e0: 2993 12be c0d0 943d 9d83 74be f265 11be
000002f0: 1546 bcbc 76f1 b6bd 247b bb3c c2fb 15bd
0.26224187 0.023840655 -0.08361312 0.040666964 -0.08418264 0.36333048 0.08507454 0.13623205
0.046967436 0.05994138 -0.08725228 -0.006595659 0.069217525 -0.04687123 0.12138934 -0.058870226
0.10168727 0.09326851 0.11537118 0.12795235 0.046472576 0.021260586 0.06955299 -0.014682151
-0.017069902 0.012397177 0.25123292 0.21625642 -0.057661444 0.14351563 0.024281755 0.11785484
0.18143506 -0.17374107 -0.14279486 -0.12077181 0.106981866 0.015699774 0.065839194 0.051119816
0.06462497 -0.061406583 0.18672511 0.05690531 -0.021262206 0.0153356055 -0.021426572 0.092674404
0.0026074722 0.0795524 -0.18564421 -0.0061002355 0.1416469 0.11257803 0.17184618 0.1328081
0.1158227 -0.025616542 0.115294404 -0.011409122 -0.013706952 0.046313245 0.110437855 0.11914519
-0.055041697 -0.036352728 -0.000631498 0.032696694 -0.087724015 -0.0033231403 0.0012036397 -0.11999024
0.10860997 0.041104395 -0.0020935435 0.09889392 0.09261359 0.21056394 -0.14104807 0.060095552
-0.12933356 -0.06500319 0.05549445 -0.0024383736 0.07576693 -0.067255735 -0.054644194 0.12345772
-0.008255412 0.09304459 0.18962795 -0.105110995 0.029866474 0.07313641 -0.098642945 0.075736195
0.04491934 0.108350314 -0.044681493 -0.064637154 0.100097984 0.066129595 0.09518524 0.08818378
0.020166762 -0.050709777 0.0985201 -0.012523705 0.1691143 -0.04684831 0.04913048 0.1851789
0.16596408 0.10283364 -0.009218981 0.12911487 0.12567878 0.099887185 -0.14144759 -0.052474793
-0.06410545 -0.033415835 0.18782207 -0.088937245 0.060547724 -0.061201587 0.015526215 0.009464308
0.13869604 0.10831538 -0.12134851 0.010571248 0.13350831 0.16944236 0.11793637 0.08837374
0.15062898 0.014082711 -0.14021206 -0.14654578 -0.032603197 0.074609265 -0.07170295 0.003433434
0.08174776 -0.017797709 0.015121104 0.0939823 0.08879956 0.18064642 -0.090934664 0.1184187
0.013510604 0.0013885967 -0.1654244 -0.20092303 -0.048818376 -0.057425704 0.104131326 -0.0727091
-0.07952134 0.018367058 0.06748254 0.113889724 -0.13949339 0.025921045 -0.05671287 -0.02290562
-0.28115454 -0.047993775 -0.033727158 0.07748551 0.0013169214 0.041295562 0.13072333 0.11018437
0.08344006 -0.0791547 -0.11288752 0.06834355 0.052311696 -0.007835658 -0.12170538 -0.048496686
-0.1431395 0.072663784 -0.23878331 -0.14199045 -0.022982636 -0.08932774 0.022885866 -0.036617048

gru.weight_hh_l0 f4 [192, 64]
00000000: a817 b0bb 0e60 ae3d 9ffc 503d 0e7d d0bc
00000010: bfd4 0a3e beee 103e d689 aa3d b50b f43d
00000020: c89b 4e3d 4539 22bb d0ac a63d 7be9 dcbc
00000030: 74ec ac3d 5223 0fbe 12c2 0abe a9b2 0b3e
00000040: 2dd8 a83d a033 81b9 22da 073e ef1f 883d
00000050: 375a 96bd 8c0a 5a3d 3a72 013d a1d3 973d
00000060: 59ce 0b3e 7781 2fbd 8946 843d fed3 683d
00000070: 7554 20be 7766 573e 6365 e0bd 3492 673d
00000080: 503b 2cbc 338e 0abe 3850 f63c 9bf8 8c3d
00000090: d43b ebbc 35f1 853e f7a4 7fbc d45e a9bc
000000a0: 0e11 103e 71ea 21bd 9c3e c0bd d15f 6f3d
000000b0: a319 113d 0cca 7a3e 8eac b93d d1a4 42be
000000c0: 6edf 2cbd 1da7 e23d ce91 b53d a2ba 06bc
000000d0: 4d7a 27be f11a 86bd 81bb 6abe ab92 4abe
000000e0: 127c f6bd 6b52 8e3e 98f7 873d 9f60 f0bd
000000f0: 84af d03d c373 1f3d 1097 e1bd 4e23 d0bd
00000100: a904 ff3d 3a5c 103e e4b9 36bd 7d47 96bb
00000110: 8ed4 373e 2e04 133e 3687 41bd 8942 593d
00000120: 92d8 ea3d 487b 64bc 49af 3a3d f2d0 08be
00000130: 732c 3d3e 7edc 15be 92eb 21bd f199 d83d
00000140: 3251 103d ffd1 5a3d a3d7 383c 9d9e e43c
00000150: fbbc 6cbd 3fd2 073d 9661 fabd e76d 203d
00000160: 5b10 7d3d d212 063d 4193 c63d 475f 673c
00000170: 5e29 dbbd 025d da3b b88e 90bd e3ae 1c3e
00000180: bd93 b3bd cb30 18bc 7ebc 833d 8155 98bd
00000190: 7c8a f8bb 0c0a 163e 3b92 943c 68d8 3db7
000001a0: cbf8 66bd 2e83 80bd 225c 08be 3a1e 0a3d
000001b0: 3b2d 8c3d f8a8 e83c 5e92 b73d a6b6 abbd
000001c0: 0935 533d e2fb 2b3d 0851 16be a97d a43d
000001d0: c219 13bd 057c 6a3d 3c87 bdbd 7b2d a9bd
000001e0: 58d9 2cbe f0f2 033b ebe4 8fbb 9ca1 41be
000001f0: 76c8 de3c b0f8 c63b 44e6 1c3c 1b91 97bc
00000200: bb03 983c 26dd 8ebd 636c 583e dd4c 28be
00000210: 081d be3c 22b8 03be 6ec6 0abe a80b 9ebd
00000220: af60 10be 0d90 39bd 63a0 a03e 0ead f03d
00000230: 0141 243e 4a38 0bbe ae9a 033c 46db 14bd
00000240: 69df 2a3d 9d61 adbd 0dee aa3c 491a 7abc
00000250: 3a60 3fbd 2d11 1dbe d471 a9bd e4e5 b43d
00000260: 6738 6ebd 318d 00be 4fdb afbc 9446 823b
00000270: d415 c2bd e66c 70bd caa2 c4bc 2da3 523d
00000280: b652 41bd 9555 a5bd f0b1 803d a395 e9bd
00000290: 8f97 353e 4b80 413d afc6 973e 9cd3 c93b
000002a0: 7aee 873b 3dd0 16be e11d af3d 2bb1 e6bc
000002b0: b842 413d ffcb ea3c 6309 11be 9f75 abbd
000002c0: 7ba6 c83b 6471 7abc c33e 64bc 5a8e 41bd
000002d0: aac3 c138 ac12 5dbd f557 5a3d ce7c 213d
000002e0: c7ef 713c f8f8 f73d e61f d83d 34e6 023e
000002f0: 4245 1abc fe2e 74bd 60ce bf3d 7453 99bc
00000300: 1a64 8abd f22f fb3d 7c70 bb3d fe01 f4bd
00000310: 7729 c73c 0560 d5bc 3ead 4d3d d9ca 643d
00000320: ded4 a73d b217 223b 7571 8a3e 28dd 443b
00000330: f1b2 473e e017 43bc 16fb 813d 2c0d 033e
00000340: ab0a 1bbd 062c 15ba 10b7 673d 1f88 96bd
00000350: 9c91 603d 67ed 92bd 4ce5 ffbd 103e 74bd
00000360: 4bd1 143e 7034 29be 7a08 96bc fcb2 c03d
00000370: 4dfb 16bc 0b19 84bb 50fa ab3d 38d0 ba3d
00000380: ef4d 26be 77aa 3f3d 6b20 8abb 8e56 12be
00000390: e109 0ebe b26a 283e 809f 773d 60d5 463e
000003a0: 9a49 673d ae90 1ebc 6190 dfbd 97fc 1abd
000003b0: 2a42 c03d e137 a33c ae37 c13c 86b3 f6bd
000003c0: 58d5 413d 9b4c fa3d 2d48 863d 7cbe 63be
000003d0: 9fde 17bc 5c5b 9cbd 400e 033d 4648 613d
000003e0: 4d2f febd 30a3 173e 21ce 28be 6b8f d53d
000003f0: 02df 993d cad3 323d 33db 07be 1cb3 fd3c
-0.005373914 0.08514415 0.05102217 -0.025450256 0.13557719 0.14153573 0.08327071 0.119162954
0.050441533 -0.0024753374 0.0813843 -0.0269668 0.08443537 -0.13978317 -0.13550594 0.13642372
0.08244357 -0.0002464326 0.13266805 0.06646716 -0.07341426 0.053232715 0.031603076 0.07413412
0.13652934 -0.042848077 0.06458766 0.056842797 -0.15657218 0.21035181 -0.10956838 0.056535915
-0.010512188 -0.13530807 0.030067548 0.06883355 -0.028715052 0.2616059 -0.0156032955 -0.0206751
0.14069006 -0.03953022 -0.09386942 0.058440987 0.03542484 0.24491137 0.09066115 -0.19008185
-0.042205267 0.110670306 0.08865701 -0.008223208 -0.16355248 -0.065481074 -0.2292309 -0.19782512
-0.12035383 0.27797255 0.06639022 -0.11737179 0.10189727 0.03892876 -0.11015141 -0.10162984
0.12452061 0.14097682 -0.044610873 -0.004586159 0.17952177 0.14357063 -0.047248088 0.05304197
0.11467089 -0.013945408 0.04557732 -0.13360956 0.18473987 -0.14634892 -0.039531298 0.10576237
0.035233684 0.053422924 0.011281881 0.027907664 -0.057797413 0.03315949 -0.12225644 0.03916731
0.061783176 0.032732792 0.09696055 0.014121837 -0.107012495 0.0066639194 -0.070584714 0.15301089
-0.08768413 -0.009288977 0.064324364 -0.074381836 -0.007584868 0.1465227 0.018136134 -1.1315664e-05
-0.05638961 -0.062750205 -0.13316396 0.033720233 0.068445645 0.028400883 0.08963464 -0.08384447
0.05156425 0.04198826 -0.14679348 0.0803178 -0.035913236 0.05724718 -0.092543095 -0.08260628
-0.16879785 0.0020133816 -0.004391303 -0.18909305 0.027195197 0.0060721263 0.009576384 -0.018501809
0.018556466 -0.069757745 0.21135096 -0.16435571 0.023207203 -0.1286321 -0.13552257 -0.07717067
-0.14099382 -0.045303393 0.31372365 0.117517576 0.16040422 -0.13595691 0.008032484 -0.036341928
0.041716967 -0.08465884 0.020865465 -0.015265056 -0.04672263 -0.15338583 -0.08273664 0.08832911
-0.05815926 -0.1255386 -0.02146688 0.0039756987 -0.0947682 -0.058697604 -0.024003405 0.051425148
-0.04719802 -0.08072964 0.06283939 -0.11405494 0.17733596 0.04724149 0.2964377 0.006159259
0.0041483017 -0.14727874 0.08550621 -0.028160652 0.04718277 0.028661726 -0.14163737 -0.08372044
0.0061233616 -0.0152858235 -0.013930979 -0.047254898 9.2394024e-05 -0.053972885 0.05330654 0.039425664
0.01476664 0.12108034 0.10552959 0.12783128 -0.009415926 -0.059615128 0.09365535 -0.018716551
-0.06757374 0.12265004 0.09152314 -0.119144425 0.024311764 -0.026046762 0.050214045 0.055857513
0.08194898 0.0024733362 0.27039686 0.0030039046 0.19501854 -0.011907548 0.06346719 0.12797993
-0.03785197 -0.0005690459 0.056571066 -0.07350182 0.054826364 -0.07174187 -0.12494907 -0.0596295
0.14532964 -0.1652391 -0.018314589 0.094091386 -0.009215188 -0.0040313057 0.08397353 0.09121746
-0.16240667 0.046793427 -0.0042152903 -0.1429083 -0.13870956 0.16446951 0.060454845 0.19417334
0.056466676 -0.009678049 -0.1091621 -0.037838545 0.0938762 0.019924106 0.02358612 -0.1204596
0.0473226 0.122216426 0.06556735 -0.22240633 -0.009269386 -0.07634613 0.03199601 0.055000566
-0.12411366 0.14808345 -0.16484882 0.104277454 0.075132385 0.04365901 -0.13267212 0.030969195

gru.bias_ih_l0 f4 [192]
00000000: 083a c23d 483e a63d 59dc e4bc ef92 c23c
00000010: 1a93 003e e6ea 9d3c 4021 4a3c 204a d83e
00000020: a391 8c3c 38da 153e e14d 0bbc ab0a 173e
00000030: ea63 5d3d cb15 de3d 3a6b bbbc ab12 77bd
00000040: a841 f33d 8435 c63d a2a0 fabc 6e14 87bb
00000050: de47 953d 7be3 51bd a503 0a3e ca87 e93d
00000060: 686a 1c3d dafc 4c3d d63f a03d 2ac6 a73d
00000070: 9b16 883d d81c e43d e9a7 0b3e 4ac4 0f3e
00000080: 135b 9bbb d3a2 9d3d 27e6 8d3d c23b 32bd
00000090: 8b46 f03d 3a58 513d 5808 4b3c f9d4 373e
000000a0: b336 593e ec57 2f3d 12b9 3f3d 5abc ab3d
000000b0: 80fa 9f3d d900 093e 0cb9 d43d ef76 d63c
000000c0: 22f4 1e3e 2aa4 b83d 4916 da3c 6b16 c93d
000000d0: 1af0 173e 1a79 d13d a981 173e fbaf 14bc
000000e0: ea46 f23d f5f6 143e 6e49 153e de75 a9bc
000000f0: 8b13 1abc e6b4 fb3d 2245 123c 8259 0dbd
00000100: 8a20 b4be 4f7b 3e3d d742 f03d 5715 3b3e
00000110: 951d a63d 88fd 71bd 939e 12be 55ec 3fbf
00000120: ee1e f6be 70ed 83bd 0e78 3b3e adce 3bbd
00000130: 63e3 eb3d 6b02 433e de97 23be 7446 d1bc
00000140: 51d3 b3be 949c e93d 0297 df3d 0f42 d03c
00000150: d9df 453d cc7e 81bd d951 26b9 2b76 a23c
00000160: afe2 bbbe f4a3 a83d 7208 88bc 5556 34bf
00000170: ee85 a03d c9e9 8c3c aa07 1b3e e1b4 92be
00000180: ba20 433d b5bc c0bd d085 25be 2536 403e
00000190: fe5d 00be 1f8e 9fbc 60cc 433c 381a 8f3c
000001a0: 1fff c5be facc 363e 272c 883c 5b9d a43d
000001b0: 00b3 0c3e ee9f d13d 47c5 1c3e 1fbe 243e
000001c0: 62bd ddbb 1717 353d 5b84 073d ebcf 803e
000001d0: c8c5 1d3c 5199 ff3d aedb 04bc efcb 5e3d
000001e0: 32df aa3d f905 9fbe 819b ccbe 4ecf b3bd
000001f0: 7ab5 093e 72cb 0e3e 7446 063e a6b3 0c3d
00000200: f35f 123d cae6 733d 663f c4bd 8527 193e
00000210: 65e3 913d 48a7 ddbc cfdd dcbd 893b d4bc
00000220: c7a8 bebb 6870 f5bb 2330 fd3c c9b6 943d
00000230: f8f8 423d b842 21be 45b8 4dbe e9c1 183e
00000240: 7d70 b73b 9715 003e 050b 1e3e edcf cfbc
00000250: c925 aebd 7e5e edbd 61cd af3c 183a dfbd
00000260: 0ede 5c3d d910 193e e7c8 d0bd f9f1 0ebc
00000270: 4404 7bbc c872 423c 120d 99bd 9fbf 313e
00000280: 8662 85bc dc2c ccbd 6096 c53b dd5a 09bd
00000290: 60ec de3b a466 4b3e cf1b cf3c 26b4 a03d
000002a0: 8be1 f73d 5ea8 1f3d 7135 e23d 0dd3 c03d
000002b0: 201e 903d 922c 513e 9aa9 8bbd d558 23be
000002c0: 3d79 0a3e d16c b93d 81a4 c6bb 6d39 8f3d
000002d0: e93c 3abd 3966 213d 8312 b0bd 6df8 20be
000002e0: 81d6 363c 723e 0e3e f26b eebd 15dd 09be
000002f0: bd32 df3d 24d2 62bd c2c7 09be 9cea 45bd
0.09483725 0.08117348 -0.027937101 0.023751704 0.12556115 0.019277047 0.012337029 0.42244053
0.017159289 0.14634025 -0.0085024545 0.14750163 0.054050364 0.108440004 -0.022878278 -0.060320538
0.11877757 0.09678176 -0.030594174 -0.0041223085 0.07289098 -0.051242333 0.13477953 0.11402853
0.038187414 0.050045826 0.07824676 0.08192094 0.06644937 0.11138314 0.13638271 0.14039722
-0.0047410815 0.07697072 0.06928664 -0.04351402 0.11732205 0.05110953 0.012392126 0.17952336
0.21212272 0.04280846 0.046807356 0.083855346 0.07811451 0.1337923 0.103868574 0.026179759
0.15522817 0.09015687 0.026621955 0.09818729 0.14837685 0.102281764 0.14795555 -0.00907516
0.11829932 0.14547332 0.14578792 -0.020686086 -0.0094040735 0.12290363 0.008927615 -0.03450919
-0.35181075 0.046504315 0.11731499 0.18269859 0.08111111 -0.059079677 -0.14318304 -0.7496999
-0.48070472 -0.06441772 0.18307516 -0.0458514 0.1151798 0.19043891 -0.15975901 -0.02554629
-0.3512216 0.11406818 0.10917474 0.025422124 0.04830918 -0.06323013 -0.00015861484 0.019831738
-0.36696383 0.082343966 -0.01660559 -0.7044423 0.07838045 0.017201321 0.15139642 -0.28653625
0.047638632 -0.09410993 -0.16164327 0.18770654 -0.12535855 -0.019476948 0.011950582 0.017468557
-0.38671204 0.1785163 0.016622616 0.08037826 0.13740158 0.10235582 0.1530963 0.1608815
-0.006766961 0.044211473 0.03308521 0.2515863 0.009629674 0.12480415 -0.008109016 0.054393705
0.083433524 -0.31059244 -0.3996239 -0.087797746 0.13448134 0.13944796 0.13112813 0.034351014
0.035736036 0.05954627 -0.09582405 0.14956482 0.0712345 -0.027057305 -0.10784494 -0.025907295
-0.0058184597 -0.0074902065 0.030906742 0.07261426 0.047600716 -0.15748107 -0.20089824 0.14917721
0.0055981264 0.12508236 0.15433891 -0.025367701 -0.08503301 -0.115902886 0.021460237 -0.108997524
0.053922705 0.14947833 -0.10194569 -0.008724683 -0.015320841 0.011868186 -0.07473196 0.17358254
-0.016282331 -0.09969494 0.006029889 -0.03353392 0.0068030804 0.19863373 0.025281815 0.078468606
0.12103566 0.038978927 0.110453494 0.09415255 0.07036996 0.20427158 -0.06819458 -0.15951855
0.13522811 0.09053958 -0.006062091 0.06993375 -0.045468245 0.039404128 -0.08597281 -0.15719767
0.01115954 0.13891008 -0.11641683 -0.13463242 0.108983494 -0.055376187 -0.13455108 -0.048319444

gru.bias_hh_l0 f4 [192]
00000000: 5299 813e cf55 533e 657b 803c 391a a13b
00000010: 488c 653d 1e2f 323c cd20 a73d 2628 d23e
00000020: 7f29 1a3d c180 fd3d 0dc9 1d3e c388 1bbc
00000030: a414 933d 884a bf3d 0025 a93d 6eb8 44bc
00000040: 79d1 f83d 56ba debd eafa 373e 705a 093d
00000050: 4c38 1fbd ffe8 6a3d 107f c6bd 45e0 5e3c
00000060: 0321 163d 5ef1 093e dc99 51bd 8cdf 073e
00000070: edf6 0d3e 1811 c73d 27ba bc3d 45a2 d83d
00000080: d1df bfbb 7903 333e 8524 0c3e 5517 473c
00000090: bca8 853d 205e f13d 21bf bf3d 3e12 16bd
000000a0: 34e2 eebc 1067 cf3d 77a3 93bd b5c7 43bc
000000b0: b03c f23d 28c0 d53c 05d7 0b3e 75a1 0a3d
000000c0: 89f9 033d 9cfc e3ba b376 9e3d 1191 103e
000000d0: 92bd 18bd aa35 8cb7 9d8f b03c 4572 cd3d
000000e0: fc51 80bd 0d13 693e dcd4 cd3d c318 8b3c
000000f0: 20e1 173e 88d7 823d 7834 f13b e15e ff3c
00000100: 0a5d 8fbe b1cd ca3d e321 163d 176f b93a
00000110: 755b 2fbc f21a 0dbe e534 47be 347b 43bf
00000120: aa01 debe d4a3 d93d bf7a eebb 713b f63c
00000130: e6e9 923d cfcc 073d c0b8 76bb cfc5 a63d
00000140: 9ae1 a6be abd2 233c 32d8 b63d 38f1 973d
00000150: 139c 823d 76c7 1dbe b110 a3bd 4cc2 10bd
00000160: d481 88be 64a2 473d 91d6 f73c 2b0e 3abf
00000170: 7b9d fd3d 6fdb eabc d8c0 8d3d 9ca2 61be
00000180: 35c0 f4bb 30e9 8cbb 7072 e4bd c6d2 06bb
00000190: 836c d9bd f7d1 dd3d 435a db3d eb4a 0fbc
000001a0: 463b ebbe 4d79 fabb 7e81 4e3b e553 09bd
000001b0: b2f9 60bd 57eb 363e e30d 733c 7231 173e
000001c0: c1ba d3bc 86b5 003c be89 153e 3385 ec3d
000001d0: e570 013e 32cb 80bd 9335 ffbd 8791 94bd
000001e0: d448 43bd 552b 5bbe 8a3b e0be 19f7 38be
000001f0: 4ff1 e83c 2835 743d 5d9f a53d 1499 3ebd
00000200: d4dc acbc 4380 d03d a4f3 36bd a4ee bfbd
00000210: b564 a43d ce1d 24bd 7885 0fbe 204f 333c
00000220: be1a 39be b002 8e3d 2b25 423c 7c54 bd3d
00000230: e94a 9b3d 1574 393d 60ca 3abc b5d4 d53d
00000240: ac76 df3d c546 d1bd 93fc 023e 1951 523d
00000250: 065b a43d de01 6f3c 8ae0 a4bd ef8f 99bd
00000260: d933 c43d aa2c 62bc f23c f23d 8abd 0a3d
00000270: dad7 223c 4171 ef3d 5572 1cbd 3686 2f3d
00000280: 8845 f43d f57a 44bd e4c2 0e3c cf17 39bd
00000290: 33ff 0bbe c16c 603e 577a 913d 0fd5 ebbd
000002a0: e9ea a03d 36a8 8e3d 080e e7bc 99f2 8fbd
000002b0: 830e babd 6335 0c3e c71c 173e 5721 c8bd
000002c0: cb2a 5fbd 02ca ebbd 4224 843d 61a0 43bc
000002d0: 853d e03d 1005 fe3d 8f4b 21be 5945 35bc
000002e0: 3a6e cd3c 30ba 013e 61e8 86bc 74c0 2f3d
000002f0: 46c0 de3d 9b39 a13b 330c 02be 1599 53bd
0.25312287 0.20638202 0.01568384 0.004916456 0.056041986 0.010875491 0.08160553 0.41046256
0.03763723 0.123780735 0.15408726 -0.009493056 0.07181671 0.093403876 0.0825901 -0.012006862
0.12149329 -0.108753845 0.1796681 0.033533514 -0.03887205 0.05735111 -0.09692204 0.013603275
0.036652576 0.1347098 -0.051172122 0.1326887 0.13863726 0.09720057 0.09215193 0.105778255
-0.0058555384 0.17481793 0.13685806 0.012151559 0.06526324 0.11785531 0.09362627 -0.03663849
-0.029160596 0.101270795 -0.07208913 -0.011949469 0.118279815 0.026092604 0.13656242 0.033845384
0.032220397 -0.0017394009 0.07737484 0.14117838 -0.037290163 -1.671429e-05 0.021552855 0.10031561
-0.06265637 0.22761174 0.10050365 0.01697958 0.14831972 0.063887656 0.007360991 0.031173171
-0.2800067 0.09902514 0.03665341 0.0014147487 -0.010702957 -0.1377981 -0.19453771 -0.7635987
-0.43360645 0.10626951 -0.007277816 0.03005764 0.07173519 0.033154305 -0.003764674 0.08143198
-0.32593995 0.009998958 0.08927955 0.07419056 0.06377425 -0.1540812 -0.07962168 -0.035341546
-0.2666155 0.048738852 0.03025368 -0.7267787 0.12383553 -0.028669087 0.06921548 -0.22034687
-0.007469202 -0.004300259 -0.1115464 -0.0020572408 -0.106164 0.10831063 0.107105754 -0.008745889
-0.4594366 -0.0076438547 0.0031510289 -0.033527274 -0.054925628 0.17863213 0.014834854 0.14764956
-0.025845887 0.007855779 0.14603326 0.11548843 0.12640722 -0.062887564 -0.1246139 -0.0725432
-0.047676876 -0.21403249 -0.43795425 -0.1806301 0.028435377 0.059621006 0.08087037 -0.046532705
-0.021101393 0.10180714 -0.044665948 -0.09371689 0.08027021 -0.040067486 -0.14015758 0.010944158
-0.18076608 0.06934106 0.011849682 0.0924463 0.07582647 0.04527672 -0.011400789 0.10440961
0.10911307 -0.10218576 0.12791662 0.051346872 0.08025174 0.0145878475 -0.0805064 -0.07498156
0.09580202 -0.013804594 0.11828031 0.033872165 0.009939158 0.11691523 -0.038194973 0.042852603
0.119273245 -0.047968823 0.008713458 -0.04518872 -0.1367157 0.21916486 0.071034126 -0.11515247
0.078573056 0.069656774 -0.028204933 -0.07028694 -0.09084799 0.1369224 0.14757071 -0.09771984
-0.05448417 -0.11513139 0.06452228 -0.011940093 0.10949234 0.12403309 -0.1575148 -0.011063897
0.025076974 0.12668681 -0.016468229 0.042908147 0.10876517 0.004920197 -0.12699966 -0.051659662

head.0.weight f4 [64, 64]
00000000: b32c 433e 3238 ba3d 73d8 333c 4280 16bd
00000010: fce1 d0bd d4fe 6d3e 8dd3 913c 3feb a6bd
00000020: d04d afbc cc48 023e e347 9fbd 38a9 c43d
00000030: d139 fb3d dd04 9f3c fb9f 07be 32f1 a23d
00000040: e617 9bbd cf49 a9bd f316 5fbd 302a 393e
00000050: df91 ba3d 903e da3d 9f22 ae3d 21de 2bbd
00000060: 4e73 5a3d c4a2 b03c 77f5 d2bd efa9 4d3e
00000070: d6ca 24be ff02 af3d d79c dc3b f80d f03d
00000080: c9cf acbb 468a 123e 74ae 443d 1df6 f5bc
00000090: c992 a0bd 317c e63d 8f2a 18bd d92c e53d
000000a0: 9b02 82bd 2555 033d 0cee 20be b5a1 2a3e
000000b0: d3b6 1abd 53ca dd3c 9d15 3bbd b707 d33d
000000c0: 1d6d b43d edb7 d0bd 182c cabd 0f4d 64bd
000000d0: 3a83 86bd d7e6 22be 2b44 5e39 7788 13bc
000000e0: c571 73bd 105c 24bd 169d 0ebd b28a f63d
000000f0: 0924 fc3d 7a81 9b3d 914b 1c3d af53 9dbd
00000100: 9328 983d b2d8 5d3d 5a03 a0bd 4bfc 0d3d
00000110: b7db ebbc 8854 55be 23c2 33be d8c7 513d
00000120: c13c c9bc b877 c5bd dd82 453d e2dd f33d
00000130: d461 503c 8c8c 083e cbb5 753c ee40 363c
00000140: a953 f13d c951 fb3d ee18 f83c 42be 4abd
00000150: 4573 e83d 6274 2dbd a21a 313d bd26 febd
00000160: e680 03be ecd7 0abe 1b7e 3b3e 99fb 3dbe
00000170: 2a5f 96bd d232 ef3d ffe9 2d3d 0fe1 c6bc
00000180: b1e8 60bd 89e9 233d 06bf 2bbe 60dd 193c
00000190: abec 27bd 1c5b 723d 6144 2abd 9277 893d
000001a0: 8182 8d3d 6b06 7cbd 5f6a 83bd ff5f 9d3d
000001b0: ade8 9bbd 8a39 6abd c251 57bd df73 27bc
000001c0: f7a2 963d e89c b73d bc33 5dbd f605 8437
000001d0: 422e ab3c cc2f 4bbd 0bd4 ffbd 6672 e0bd
000001e0: db03 a33d adfb 76bd 622d af3d 09a1 94bc
000001f0: 76b4 113e e8b0 b3bd ad18 a73c d714 c8bd
00000200: 2170 97be 4cca f7bd e1e8 82bd 88bf c63d
00000210: d4bd e9bd a580 47be 2328 3e3b c6be 883d
00000220: 40d6 f73c e96c 4abe 2f5d 273d da28 b4bc
00000230: 5319 96bd 6bb4 623e b6f3 423e 2da2 7ebd
00000240: 84ef 0c3e 701c c63d 2f98 f9bd 085d 503d
00000250: 3cad d8bd 88a5 b5bd 4828 323e 0cbd 50be
00000260: 2131 0ebc 6741 e33d 8937 f53d d268 61be
00000270: a490 bf3d f914 463d 222d 21bd c23f b63d
00000280: db53 223e 4db1 58bd 4fad 1ebe 6ebe 0f3a
00000290: 13a4 443e 8a55 6d3d b032 183e 14e9 b3bd
000002a0: 7d6c 2a3d 5454 a43d 0170 3e3e 0ec5 b53d
000002b0: 59d2 26be b4d8 873d a13a 50be 1a8a 2a3c
000002c0: 27c7 3bbe 7490 ccbd e00e 3a3d 6133 a6bd
000002d0: 701f bf3d 9b1e 2a3e 5863 163e a51a d23d
000002e0: 2ba3 52bd 3f4a c93c 2127 c33d f977 ffba
000002f0: 24e3 0b3d 0128 56bb a60f 033e b0b0 413e
00000300: fdba 13be 95ad 98bd 967c 19bc 8032 febd
00000310: 1d0a 34bc e0ea 28be 29b2 2abe bcd4 123e
00000320: cc29 7a3c 9e37 3f3d daf9 203e 9a61 0c3e
00000330: d510 6a3d 149b 803d 86a2 223d 4147 313d
00000340: 9d3a 3abd 8cf8 e33d ba6b 533d d3f7 c83d
00000350: 1bab 7a3d 5950 e0bd f980 9dbd d803 573d
00000360: d293 a43d 97a4 9cbd 2369 0d3e 1056 6bbe
00000370: ff1b aabd 19f6 c5bd ac9d adbd 7ff1 9fbd
00000380: 5e8d 78bd 6841 94bc 3c87 aabb 26a4 a6bd
00000390: bb44 013e b5e6 bfbd 2c3c 853c 65f3 a33d
000003a0: f255 8cbd baac 0bbd 7250 efbd 7f0e e93c
000003b0: 1391 fd3d edf9 bf3d 17b6 8e3c 1509 d5bd
000003c0: a674 d73d a895 d8bd 6ef2 da3d c0dd f5bd
000003d0: da21 8b3d 7f69 9ebb 9b33 d6bd 6591 ad3d
000003e0: e880 043e cfc3 ffbb f82a d73c fcd5 0a3e
000003f0: fd62 f53d 53c1 babb ca82 a1bd b817 733a
0.1906002 0.0909275 0.0109768985 -0.03674341 -0.10199353 0.2324174 0.01780107 -0.081503384
-0.021399409 0.12723082 -0.07777383 0.096025884 0.12266887 0.019411499 -0.13244621 0.079561606
-0.07572918 -0.08266031 -0.054465245 0.180825 0.09109854 0.10656464 0.08502697 -0.041959886
0.05333262 0.021561988 -0.10300725 0.20084356 -0.16093001 0.08545493 0.006732564 0.11721414
-0.0052737934 0.1431056 0.048017934 -0.030024583 -0.07840497 0.112541564 -0.037149962 0.11190195
-0.06348153 0.032063622 -0.15715808 0.16663249 -0.03777201 0.027074015 -0.04567491 0.10304206
0.08809874 -0.10191331 -0.098716915 -0.05573755 -0.06567998 -0.15908371 0.00021196964 -0.009004704
-0.05943467 -0.04012686 -0.034817778 0.12038173 0.12311561 0.07593055 0.038158003 -0.07681977
0.07429614 0.054161735 -0.07813139 0.034664433 -0.028791292 -0.20833027 -0.17554526 0.051215976
-0.024565103 -0.09641975 0.048220504 0.11907555 0.012718637 0.13334864 0.014996956 0.011123879
0.11783535 0.12271459 0.030285325 -0.04949785 0.11350111 -0.04234732 0.04323829 -0.124097325
-0.1284214 -0.1355893 0.18309824 -0.18553008 -0.0734237 0.11679615 0.042459484 -0.024277238
-0.05490941 0.04001764 -0.16772088 0.009391159 -0.04099719 0.05916892 -0.041569117 0.06712259
0.06909657 -0.06152956 -0.06416773 0.076843254 -0.07612739 -0.05718378 -0.052568205 -0.010220497
0.07355302 0.08965474 -0.054004416 1.5738402e-05 0.02089608 -0.04960613 -0.12491616 -0.1095932
0.0795972 -0.06029861 0.08553578 -0.018143194 0.14228997 -0.087739766 0.020397509 -0.097696
-0.29577735 -0.12099132 -0.063920744 0.097045004 -0.1141316 -0.19482668 0.0029015623 0.06677012
0.03025353 -0.19768108 0.04086035 -0.021992136 -0.07329049 0.22139136 0.19038281 -0.06216638
0.13763243 0.09673393 -0.1218723 0.05086997 -0.10579917 -0.08869463 0.17398179 -0.20384616
-0.008678705 0.11096459 0.11973483 -0.22012642 0.0935376 0.048359845 -0.039349683 0.088988796
0.15852301 -0.052903462 -0.154958 0.00054833933 0.19203214 0.057942905 0.14863086 -0.087846905
0.04160737 0.08023897 0.18597414 0.08875476 -0.16291179 0.0663313 -0.20334865 0.010408903
-0.1833769 -0.0998849 0.045424342 -0.081152685 0.09332168 0.16613238 0.14686334 0.10258988
-0.05142514 0.024571536 0.095289476 -0.0019490711 0.034152165 -0.0032677653 0.12798938 0.18915057
-0.14426799 -0.07454983 -0.0093680825 -0.12411976 -0.010988739 -0.16495848 -0.16669525 0.14338964
0.015268754 0.0466839 0.15720311 0.13709107 0.05714496 0.06279579 0.039705776 0.043280844
-0.045466054 0.11131391 0.051616408 0.09812894 0.061198335 -0.10952825 -0.07690615 0.0524939
0.08036007 -0.076485805 0.13809638 -0.22982049 -0.08306121 -0.0966608 -0.08477339 -0.078097336
-0.060681693 -0.018097594 -0.0052041095 -0.081367776 0.12623875 -0.09370176 0.016264044 0.08005408
-0.0685233 -0.03410027 -0.116852656 0.028449295 0.12381186 0.093738414 0.017420812 -0.10402123
0.10520296 -0.1057542 0.10690771 -0.12005186 0.06793566 -0.0048343535 -0.10459062 0.084749974
0.12939799 -0.0078053246 0.026265606 0.13558191 0.11981771 -0.0056993156 -0.07886274 0.0009273249

head.0.bias f4 [64]
00000000: e970 bc3d 4570 533c 3c61 293d c621 e93d
00000010: 951d 9ebd ff4e a0bd fee7 5f3d 9db3 8939
00000020: 95db c7bd f4ac 8abd b0a1 263d 2dde fa3d
00000030: 9126 66bd 0758 e43d 5082 913d 16f2 323e
00000040: 8f24 97bd 7cd8 ca3d 251c f5bd 8c80 0ebe
00000050: 7d5d 573d 2f04 803c 7257 f43c 4605 e7bd
00000060: 7d7f 89bd f817 e3bd 1b77 f6bd 41df 94bd
00000070: 0528 083d 25fe e9bd ed24 02bc 3ec2 913d
00000080: 7435 c73d 0a0f 003e 1ecb 9c3d b60b c43d
00000090: 79f3 e0bb 0f0c 06be 81eb b63c 617f 8cbc
000000a0: 0050 053e fd55 7f3d 1327 eebd b717 8f3c
000000b0: b404 5bbd 8280 88bb 083f c3bd d23e fe3b
000000c0: 60cd a1bd f4b7 403d fadc e53d a966 25bc
000000d0: c3d5 85bd bfdd e93d e6ce 933d 2942 a83d
000000e0: 794b adbc 25b4 853c 10db a03d cfa9 db3c
000000f0: b63f 063e f390 c33d 0f82 813a 9f56 a2bc
0.092012234 0.012905185 0.041352496 0.11383395 -0.07720486 -0.07827567 0.054664604 0.000262645
-0.09758679 -0.067712694 0.04068154 0.12249408 -0.056189124 0.111496024 0.07104933 0.17475161
-0.0738002 0.09904572 -0.11968259 -0.13916224 0.05257939 0.015626995 0.029826853 -0.11280303
-0.067137696 -0.11088556 -0.12034436 -0.07269145 0.03324129 -0.11425427 -0.007943374 0.07117127
0.09726992 0.12505737 0.07655929 0.09572546 -0.0068649617 -0.13090537 0.022329094 -0.017150583
0.13018799 0.062337864 -0.116285466 0.017467363 -0.053471282 -0.00416571 -0.09533507 0.0077589536
-0.079005 0.04705043 0.112237886 -0.010095277 -0.065349124 0.11419248 0.07217197 0.08215744
-0.021154152 0.016321251 0.07854283 0.02681437 0.13110241 0.09549131 0.000988068 -0.019816695

head.2.weight f4 [1, 64]
00000000: 6ef5 e53d fde4 c8bd f7f8 f9bd 4a1d 06be
00000010: 0577 11bd 1a4d 063e 5bb3 0e3e 15d6 0a3e
00000020: e858 d83d 04b5 7f3d 60b1 45bd 6a24 31bd
00000030: 9c68 a83d e2b3 213e d78e a13d b4a2 c2bd
00000040: f553 b13d 8ef1 20be 5656 a2bd 051e 92bd
00000050: 458d 2c3e 76f7 083e 510c debd fe24 093e
00000060: c51a 2b3e c47d f03d b274 8e3d cb22 5abd
00000070: 0be0 b13d 83ff 1e3e 56da f9bd 2476 c0bd
00000080: f502 833d 7989 fe3d 2d2d b4bc dc44 22bd
00000090: 6c7e 3dbe f70b b33d 1fea 06be 0b03 763e
000000a0: 39ba ff3d 54d8 b5bd 54a7 a4bd 4b41 27be
000000b0: 1c27 58be bc15 063e a7e4 32be 8166 f63d
000000c0: 6c5f 5b3e ccf3 c5bd 1560 0a3e d0b6 3e3d
000000d0: ae7c f63d 385e 563d da95 af3d e4d5 0e3e
000000e0: 650d d23c 4e46 c43d 07a1 b33d f591 6dbe
000000f0: 4fc4 c73d e097 63be f8f9 8ebd 150a 2f3e
0.112284526 -0.09809301 -0.122056894 -0.1309711 -0.035513896 0.1311535 0.13935606 0.13558228
0.105638325 0.06242849 -0.04826486 -0.043247618 0.08223078 0.15791276 0.07888573 -0.095036894
0.08658592 -0.15717146 -0.079266235 -0.07134632 0.16850765 0.13375649 -0.10842193 0.13393018
0.1670943 0.11742738 0.069558516 -0.053255837 0.08685311 0.15527157 -0.121998474 -0.093975335
0.063970484 0.124285646 -0.021994198 -0.03961645 -0.18505257 0.087425165 -0.13175248 0.24024598
0.12486691 -0.08879152 -0.08039728 -0.16333501 -0.21108669 0.13094229 -0.17470036 0.1203127
0.2142312 -0.09665641 0.13513215 0.046561062 0.120354995 0.052335948 0.08573504 0.1394878
0.025641153 0.09583722 0.08770948 -0.2320021 0.0975424 -0.22225904 -0.069812715 0.1709369
