outputs/exp_0002_20251212_235529/runs/seed3/h1/DriftRPL/model_final.pt (torch, 71493 bytes, 7 tensors)

gru.weight_ih_l0 f4 [192, 1]
00000000: 2b12 32be 2133 15be 23b5 b8bd 18f0 b3bd
00000010: 2653 68bd 66b2 18be 15f7 e23c 7380 cd3d
00000020: 787e 5fbc d3ba 7a3d 66f2 a7bc 31c9 333d
00000030: a104 02be dd67 68bd 0942 ecbd d361 babc
00000040: 8b6c 06be df67 aa3d af22 ae3d 7012 293e
00000050: 1d63 4e3d 923d d8bd dc4c 913d 961f 29be
00000060: e24c 9dbd ea9e babd 91d2 8abc 614e 553d
00000070: 06bc ffbd 6ca3 0abe b6a4 90bc 91e4 3d3d
00000080: 0be6 06be c22a febd 981a 1ebe 4d43 03bd
00000090: 81ca ac3c 816c 34be bd38 95bd 3814 09bc
000000a0: d347 58bc 662a 2fbd ff23 523c eb09 82bd
000000b0: 9c9c f73d ecda c6bb 0d13 07be 9177 91bd
000000c0: 8da4 88bd 96dc b63d 30e5 883c bf9b cbbd
000000d0: c439 15bd ede2 973d 153c f53d d144 a93b
000000e0: 0f83 c2bd 9e21 c93d a952 d43d 0c42 4abd
000000f0: 5d58 523d b79d dcbc 29c7 92bd b083 0dbd
00000100: a4dc a4bd be30 78bd 550b bcbb a21d f7bd
00000110: 8b34 b53d dd47 003e db37 e53c 66c9 923d
00000120: a89e c6bc e3d3 cd3c efa2 bf3d 9469 053a
00000130: 361e b8ba 6d15 0e3e 2803 103d 462d 613d
00000140: 457a 64bd 9d85 25be e9d2 c1bd 8881 9bbc
00000150: 882e f23d 9e63 a4bd 057e 223d ade5 93bd
00000160: e4bd eebd ab04 27bd c317 38bd c4c5 183c
00000170: 8e1d aebd 5fee d23d 4129 2fbc b2b6 1b3d
00000180: 4e46 33bd f87a 963d 51a6 12bd 7348 a5bd
00000190: 33dc 3dbc 13a2 af3d c77e d93a 56e0 6bbc
000001a0: d977 f63c 5653 62bd d79b 72bc e858 24bd
000001b0: 1bcc 063d 3a9a eebd 8b1c 9c3d 80b4 033d
000001c0: 268c 92bd d73c 8ebd 7124 73bd b43a 02be
000001d0: 6b2f ed3d 9e75 f03d dcfa 7bbd ee75 e13d
000001e0: 2a30 c43d 8782 dbbd 9238 36be 775f a3bd
000001f0: a021 c5bd 3eb2 11bc e896 f83c 4639 8abd
00000200: 38b7 073d 6f3d 31bd dccc 313e d52a 1f3d
00000210: c41d 0f3d 9553 2f3c 54d8 15be aee2 863d
00000220: f068 cb3d eed6 033e 2b0f e2bd bb01 6e3c
00000230: 1e1a 36be 43a7 453d 17db 39bd 371f d03d
00000240: 6879 a1bd d06e edbb d8a4 a43d 67e4 3cbe
00000250: afa3 d93d afb7 333e 5136 1dbe ea30 373e
00000260: 923c 5b3d 754f 4d3e 0032 113e 5184 1abe
00000270: e992 1f3e fe0d 903d 1d3a 6e3d 11e0 a6bd
00000280: 6cb1 19be d5b3 3dbd 2350 92bc e38e c33d
00000290: ad95 0fbe 5ffa 2abe 9389 a23b 60fa 91bb
000002a0: 270f 58bd 2930 833c 0484 0d3d 8fd3 6f3d
000002b0: e22c 24be f84a 893d 11fe 793d 7acf c23b
000002c0: 9c28 f9bd 4848 163e 33af 0f3e 7668 00be
000002d0: 3b1e 273e e397 48bd d26c 053e aa77 2c3e
000002e0: 2408 cfbc a009 d1bc 1285 693d c036 f83d
000002f0: 89f3 25be 407f 0f3d 358b 163e 886b b1bd
-0.17389743 -0.14570285 -0.09018924 -0.087860286 -0.05671992 -0.14911804 0.027705709 0.10034265
-0.013640992 0.061213326 -0.020501327 0.043893043 -0.12697078 -0.056739677 -0.11536033 -0.022751724
-0.13127343 0.08320593 0.08502709 0.1651094 0.05038749 -0.105586186 0.07094738 -0.16515955
-0.0768068 -0.09112342 -0.016946109 0.0520767 -0.124870345 -0.13538903 -0.017656665 0.046360556
-0.13173692 -0.12410499 -0.15439832 -0.032046605 0.021092655 -0.17619516 -0.072862126 -0.008366637
-0.013200718 -0.042765044 0.012825965 -0.06349548 0.12090418 -0.006068578 -0.13190861 -0.071028836
-0.066720106 0.08928792 0.016710848 -0.099418156 -0.036432043 0.074163295 0.1197435 0.0051656743
-0.09497654 0.09820865 0.10367329 -0.049379393 0.0513538 -0.026930673 -0.07166893 -0.034549415
-0.08049896 -0.06059336 -0.0057386556 -0.12066199 0.088479124 0.12527414 0.027980736 0.0716732
-0.024245575 0.02512545 0.09357249 0.000508928 -0.001404709 0.13875361 0.03515926 0.054974817
-0.055780668 -0.1616425 -0.09464056 -0.018982664 0.118252814 -0.08026813 0.039670963 -0.072215416
-0.116573125 -0.040775936 -0.044944536 0.009324495 -0.08501731 0.10299372 -0.010690988 0.03801603
-0.04376822 0.07347673 -0.035803143 -0.08070459 -0.011588144 0.08575835 0.0016593569 -0.014396748
0.030086445 -0.055255257 -0.014807663 -0.04012385 0.032909494 -0.1165051 0.07622632 0.03215456
-0.071556374 -0.06945198 -0.059360925 -0.12717706 0.1158131 0.11741184 -0.061518535 0.110088214
0.09579499 -0.107182555 -0.17795017 -0.07977193 -0.09625554 -0.008892594 0.030345395 -0.06749205
0.033133715 -0.04327148 0.17363304 0.038859207 0.034940496 0.01070108 -0.14633304 0.065862045
0.099321246 0.12874958 -0.11038049 0.01452678 -0.177834 0.048255216 -0.045374956 0.10162204
-0.078844845 -0.007245876 0.08039254 -0.18446504 0.10626923 0.17550538 -0.15352751 0.17889753
0.05352456 0.20049842 0.1417923 -0.15089537 0.15583386 0.07033919 0.05816089 -0.08148206
-0.15009087 -0.04631408 -0.017860478 0.09548738 -0.1402194 -0.16697071 0.004960248 -0.004454896
-0.052748825 0.016014175 0.034549728 0.058551367 -0.16032746 0.06703752 0.061033312 0.0059451433
-0.12165949 0.1467601 0.14031677 -0.12539849 0.16320126 -0.048972975 0.13029793 0.16842523
-0.025272436 -0.025517285 0.05701167 0.12119818 -0.16206183 0.035033464 0.14701541 -0.08663088

gru.weight_hh_l0 f4 [192, 64]
00000000: d613 c5bd 72a1 1f3d a215 0a3c 4f7a 1e3d
00000010: 771b 0b3c ce0c ef3b 925f c8bc 0af2 b43d
00000020: c507 e4bd b606 383d 840b ac3d 9173 cf3d
00000030: 545a 173e a669 89bd 3e2f f03d 1320 f8bd
00000040: 7ee1 f13d 11f8 87bd 7b5b e8bd b60b 47bd
00000050: 5b1f b93d 3c83 a83a dc33 54bd 028a 02be
00000060: 94f7 5cbb 32c4 83bd 4664 01bc edbe f23d
00000070: 639d ecbd 4696 f0bd 092c e3bb 52f8 f03d
00000080: 2c21 e43d 6436 fd3c 3869 d2bc db90 113b
00000090: 96f8 fd3d b1cf 9bbd 474a 403c 720f c43d
000000a0: ccff f83d de37 c33d c88b db3c c7b0 c43d
000000b0: aba6 8ebd 62e8 43bc 8d68 14bc 516a c43d
000000c0: 3f7b 593d 97e1 323d 2ce0 10be 83e4 a13b
000000d0: ec93 263c 7270 a63d c49f b9bc ae03 2b3d
000000e0: 36d2 69bc cc75 e23b 5947 ac3d bfcd 583d
000000f0: 0c94 fd3d 19d9 0cbe 5578 83bd 0ec2 92bd
00000100: ca82 bb3d 9798 f83d 686f 1b3d 64ff e2bd
00000110: 95fd 90bd 83c2 cbbd cf8c 923d 08ce 9e3d
00000120: d582 22bd a5c6 18be 2c0e 38bc 83b2 283c
00000130: c156 1d3d 553f 3f3d 8348 713d 0602 74bd
00000140: 8df7 7fbd 9447 fc3b 7105 a3bd f82a 88bd
00000150: 25f0 c6bd acda 13be 646d 373d a275 7bbd
00000160: 14e9 b1bd e217 1ebc 0652 36bd ff3b 53bd
00000170: bbd1 c03c 8c35 febd a2c7 04bd 37d8 fa3d
00000180: 0196 083e b599 c23d 3069 a7bc 4585 4dbb
00000190: e6b5 30bd 63ea b23c cb00 003e 89a7 6cbd
000001a0: 2e94 c7bd 5484 b13d 0d60 133d ec6e 833d
000001b0: 5bf5 db3b 1243 b2bd d8e4 36bd 79ed fdbc
000001c0: 8585 263d 8321 77bd 310b 7cbd 3c88 89bd
000001d0: 7702 a1bd 9ea5 afbd 2369 24bd 699d 213d
000001e0: cac8 a03d 3931 133d 6bc3 05be c615 44bd
000001f0: f915 b83c c33f 8e3d 53a5 27bd c79c ef3d
00000200: 2d5b da3d 0a95 84bc 2e39 dfbd 130c fabd
00000210: 664a bc3d 5b12 62bd 86c8 063c aa8b 2b3d
00000220: 5587 6fbb 8dc4 fbbd 2937 aaba 9256 1b3d
00000230: 3692 40bd bf8d 133c f087 ac3c cb0c 263d
00000240: bbda 52bd 2eb3 f63d de03 dd3d a670 ca3d
00000250: e4cb afbd 4548 a4bd 9a72 a73c 0f94 90bd
00000260: f620 eb3b f00b 92bd 974c 88bd 2c56 d13c
00000270: 1768 ddbd 8f46 433d cae1 86bc 8cdd 41bd
00000280: 48bd 62bd d0fa 8bbd 8855 bf3d 0ffd 97bb
00000290: 57fc 633c 5734 81bc 22f4 cdbd 555b d5bd
000002a0: 8069 c6bd 02d8 f5bc 9e77 66bd 3c5a 3a3d
000002b0: 3178 ec3d 9a02 ecbd 6d69 a33d e1a1 29bd
000002c0: 0151 11bd aabb e53d 443f a8bd 1d4a 173d
000002d0: f1df e93c c3ef c73c db8a cabd c06b c33d
000002e0: 1651 babd d853 46bd d562 ba3d 5415 74bd
000002f0: c503 2fbd e5e0 ecbd ab72 36be 815b 84bd
00000300: 3deb 2ebc 859c e2bd af57 a53d 5c5d a2bc
00000310: ffa2 acbd 0646 4abd 45a4 ae3d b98a 013d
00000320: 2493 723d 83e6 593d 8879 eb3d 3be2 053c
00000330: bf58 82bd e57a 78bc 4661 e6bd 8ab2 fa39
00000340: 464e 9cbc ed0d 67bb e8e0 313d 1d34 26bd
00000350: 45c6 133e 4486 5b3d a0be 8ebd 059b 27bd
00000360: 5281 d7bd 6d24 46bd 0a38 a63d c081 c33d
00000370: c3e3 233c 930f f83d 042b 18bc 1c55 213c
00000380: 2602 613d 6edc 01be 9562 3fbd eca9 cbbc
00000390: b95b 64bd 1423 973d 2618 a7bd 43f9 f33d
000003a0: cb0d 56bb 39b1 d6bd 997f 163b cf17 c93b
000003b0: 9947 d5bd d5d9 c03d 3d3c 5abd f5e3 c73d
000003c0: 6101 debd cab1 ea3b c690 c03d 8f55 c0bd
000003d0: 2cc7 3ebd 8f22 a8bd 0788 b23d d335 82bd
000003e0: 4542 ebbd d75a 6c3d bf4d 423d 7c7d f23a
000003f0: fb3d aa3d 3743 1ebd eedc 5f3d 649e b4bb
-0.09622924 0.038972326 0.008428009 0.03869086 0.008490435 0.0072952276 -0.024459634 0.08835228
-0.111342944 0.044928275 0.08400634 0.101294644 0.14780551 -0.06709604 0.11727761 -0.12115493
0.11810587 -0.06639112 -0.113455735 -0.048595153 0.09039184 0.0012856494 -0.05180727 -0.12747958
-0.0033716904 -0.06433906 -0.007897442 0.118528225 -0.11553457 -0.117474124 -0.0069327396 0.11766113
0.111391395 0.030909725 -0.025684938 0.0022211585 0.1240093 -0.07607973 0.011736459 0.095732585
0.121581644 0.0953214 0.026800051 0.0960403 -0.06965383 -0.01195726 -0.00905813 0.09590591
0.053096052 0.04367217 -0.14148015 0.004940571 0.010167103 0.08126916 -0.02265919 0.041751556
-0.01427131 0.006911015 0.08412046 0.05293059 0.12381753 -0.13754691 -0.06419436 -0.07165919
0.091558054 0.12138479 0.037948042 -0.11083868 -0.07079617 -0.099492095 0.07155763 0.07754141
-0.039675552 -0.14919527 -0.011233848 0.010296467 0.038412813 0.046691258 0.058907043 -0.059572242
-0.062491942 0.0076989625 -0.07960022 -0.06648821 -0.09713773 -0.14438885 0.044782057 -0.06139148
-0.08687034 -0.009649249 -0.044511817 -0.05157089 0.023537507 -0.12412557 -0.032416947 0.12248271
0.13338472 0.095019735 -0.0204359 -0.0031359952 -0.043142222 0.02184028 0.12500302 -0.05777696
-0.0974506 0.08667818 0.035980273 0.06417641 0.0067125983 -0.08704199 -0.044651836 -0.030997025
0.040654678 -0.060334694 -0.06153411 -0.06715438 -0.07861798 -0.08576511 -0.04013933 0.03945676
0.078507975 0.035935614 -0.13062827 -0.047872327 0.022471415 0.06945755 -0.04092915 0.11699825
0.10661922 -0.016184349 -0.10899578 -0.12209334 0.09193878 -0.055193286 0.008226519 0.04188124
-0.003654917 -0.122933485 -0.001298641 0.037924357 -0.047014438 0.009005963 0.021060914 0.040539544
-0.05147813 0.120458946 0.10791753 0.09884767 -0.08583811 -0.08021597 0.020440388 -0.0705949
0.00717556 -0.07131183 -0.06655233 0.025553785 -0.10810869 0.04767471 -0.016465086 -0.047330424
-0.055356294 -0.06834948 0.09342486 -0.004638321 0.013915143 -0.015772028 -0.1005633 -0.10417811
-0.09688091 -0.030010227 -0.05626642 0.04549621 0.11546362 -0.11523934 0.07979093 -0.041414145
-0.035477642 0.11217435 -0.08215192 0.036935914 0.028549166 0.02440632 -0.09889766 0.09542036
-0.09097497 -0.048419803 0.09100882 -0.059590653 -0.042728204 -0.11566333 -0.1781718 -0.064627655
-0.010676202 -0.1106501 0.08073365 -0.019819908 -0.084295265 -0.049383186 0.08527426 0.031626437
0.059222355 0.05319835 0.114977896 0.008171613 -0.06364583 -0.015166019 -0.11249022 0.00047816738
-0.019080292 -0.0035256103 0.043427378 -0.040577043 0.14431103 0.053594843 -0.069699526 -0.040919323
-0.10522713 -0.048374582 0.08116157 0.09546232 0.010003033 0.121123455 -0.0092875995 0.009846952
0.05493369 -0.12681744 -0.046724875 -0.024861299 -0.055751536 0.073797375 -0.08158903 0.11912777
-0.003266203 -0.10483021 0.0022964238 0.0061368714 -0.10414047 0.09416548 -0.053280104 0.09760276
-0.10840107 0.0071623074 0.09402613 -0.09391319 -0.046576664 -0.082097165 0.087173514 -0.063579224
-0.11487249 0.05770382 0.047437426 0.0018500532 0.08312603 -0.03863832 0.054654054 -0.0055120457

gru.bias_ih_l0 f4 [192]
00000000: 1d3a c1bb 8467 5f3d 13a8 103d a03a 14bd
00000010: eeb2 bdbc bfbb e5bd e44d c03a 38f2 63bd
00000020: 0672 d53d dc1b b3bd 9e10 72bc 64cc c03d
00000030: 7c45 28bd f6d4 d83c 3d7b 6ebd 710e 0abd
00000040: 0526 84bd 784c bcbd fabc d0bd aecb 173d
00000050: 3edf f63c 13ff 52bc b268 9d3d 41dd c83c
00000060: 0cab 00be e29c bf3d a74e f1bd e045 483d
00000070: c443 7ebb 1d92 4e3c d073 2dbd a0ef 68bd
00000080: b450 c33d b4f6 01bd 0310 5f3d e5f1 a5bd
00000090: af7b 463d 9c86 823d eb52 07bd 125a a03d
000000a0: 0d73 f1bd 759c ecbb 0631 86bb 6dee 7cbc
000000b0: 0692 09be 34c9 383d 7b63 b03d 5f8e d8bd
000000c0: 1205 02bd 3518 c4bd e000 9c3d 0c49 a8bd
000000d0: f383 21bd e2c2 60bc 981b 96bd 76ae 6fbd
000000e0: 5a1b f93d 4be8 54bd 6f47 81bd d192 e53d
000000f0: ba4d 20bc 695c 253d 4bd8 ce3d c468 943d
00000100: e863 723c 6573 613d c987 febd 5550 cebd
00000110: bf9d 9f3d 21a5 abbd d578 933d fa6e 7f3d
00000120: 5531 32bd 4b00 2abe facc 2f3c fe0e bbbc
00000130: 99ec 08bd 2cd8 cf3d d337 9c3d 2481 4b3d
00000140: ba9c d5bd 6c89 c23c 7a6b 873d aae1 00bd
00000150: 257a acbd 4ac7 713d 769c 903d 1f95 fe3c
00000160: 311f e63d 8595 dbbd 617a 0dbe 24c9 00be
00000170: b27e b43c 38bd 4f3d 1883 c93d 1784 0bbc
00000180: d74a 52bd ba7f 09be f2d8 7b3d 583b ccbd
00000190: fd54 7fbd 9265 8f3b fb1a 7f3d 7d06 e8bc
000001a0: e601 1cbe 3d0b ed3c bd0b c4bd 340c 12be
000001b0: 3bf8 b8bd 5cfa 2f3e 1221 4f3d bdab 00bd
000001c0: 6051 8fbd 0a72 ccbd 15cc 1cbd a019 8f3d
000001d0: c335 dd3c 204e c7bd 553c 413d 2e1f 2c3c
000001e0: b434 ffbd 856e 583b 4942 0c3e 9a88 723d
000001f0: 005c 003d f77c aebd 29bf 6cbd 8878 d7bc
00000200: 170d 803c 9486 a73d bd1e 2c3d c086 dc3d
00000210: 5ef1 9f3d 0c5e 363d 1fd5 af3d ffac 4ebd
00000220: 8cc3 ebbd 06e7 82bc a244 81bc f579 cebd
00000230: 5b5d 303d 84da 84bd e46d ba3d ed3b bdbc
00000240: fb4d 993c ddca 61b9 053d b7bd c490 343d
00000250: c7e2 e6bd 26fa f4bd 8a34 7dbb 21fd 6abd
00000260: 3b79 3d3a 7cab 40bc c33d 10bd 4911 6c3d
00000270: 8e81 40bd a0e9 c13d 2234 fbbc 4001 9abc
00000280: 6648 3d3d 3edd 2b3d e598 9cbd 9755 eabc
00000290: ee93 97bd 4916 bd3d c490 d53d 25f4 c13d
000002a0: 0158 593b 6fcc cbbc f5bf b9bd 252b 36bd
000002b0: f03f 023c 9dfa 8f3c f16b 68bc c219 d63d
000002c0: 1512 65bd ea91 5bbc 1a19 61bd 7f5f e9bd
000002d0: 2958 abbd 9c77 e0bc e7ca 3fbd 5f06 2cbd
000002e0: aded 953c c771 f13d ace7 2c3d 0beb 063e
000002f0: c9df 013d c079 803c d4c2 8abb af4f d1bd
-0.00589682 0.05454208 0.035316538 -0.03618872 -0.02315661 -0.1121745 0.0014671651 -0.05565092
0.10422139 -0.08745548 -0.01477447 0.094139844 -0.04108189 0.026468735 -0.058222998 -0.03370518
-0.06452564 -0.09194273 -0.101922944 0.03705948 0.030135747 -0.012878197 0.07685985 0.024519565
-0.12565249 0.09356095 -0.1178258 0.048894763 -0.0038797716 0.012608078 -0.042346776 -0.05686915
0.09536877 -0.031729415 0.05445863 -0.08102778 0.048457798 0.06373331 -0.03303806 0.078296795
-0.11789522 -0.0072207996 -0.0040951995 -0.0154377045 -0.1343461 0.045113757 0.086127244 -0.1057403
-0.031743117 -0.095749296 0.076173544 -0.082170576 -0.039432477 -0.013718339 -0.07329482 -0.05851599
0.1216342 -0.051979344 -0.06312453 0.11209644 -0.009784156 0.040371332 0.10099848 0.07246545
0.014794327 0.05504169 -0.12428243 -0.10073916 0.077937596 -0.08381105 0.07200781 0.062361695
-0.043504078 -0.16601674 0.010730023 -0.022834297 -0.033428762 0.101486534 0.07627835 0.049683705
-0.10430284 0.023747168 0.066122964 -0.03146521 -0.08421735 0.059027947 0.070610926 0.031076966
0.11236418 -0.10721878 -0.13816215 -0.12576729 0.02203307 0.050717562 0.09839457 -0.008515379
-0.051340904 -0.1342763 0.061486192 -0.099722564 -0.06233691 0.004376122 0.06228159 -0.028323406
-0.15235099 0.028936023 -0.095725514 -0.14262468 -0.09031721 0.17185348 0.050568648 -0.031413782
-0.06997943 -0.09982689 -0.038280565 0.069873095 0.027003175 -0.09731698 0.047176678 0.010505481
-0.12461224 0.003302486 0.13697161 0.059212305 0.031337738 -0.08519929 -0.057799492 -0.026302591
0.015631242 0.081799656 0.0420215 0.10767889 0.07809709 0.044523284 0.085855715 -0.05045795
-0.11511907 -0.015979301 -0.015779797 -0.10081855 0.04305778 -0.06486991 0.09102991 -0.023099864
0.018713942 -0.00021533245 -0.089471854 0.04408337 -0.11273723 -0.119617745 -0.0038636052 -0.05737031
0.00072278426 -0.011759635 -0.03521515 0.057633672 -0.046998553 0.094683886 -0.030664507 -0.018799424
0.046211623 0.04195904 -0.0764635 -0.028605266 -0.07401262 0.09232766 0.104280025 0.09470395
0.0033164027 -0.024877755 -0.09069816 -0.04447474 0.007949814 0.017575556 -0.0141858915 0.10454132
-0.055925447 -0.013401488 -0.05495558 -0.113951676 -0.083664246 -0.027400784 -0.046824362 -0.041998263
0.01830181 0.117892794 0.042213127 0.131756 0.03170756 0.015683055 -0.004234651 -0.102202766

gru.bias_hh_l0 f4 [192]
00000000: d65b 9b3d bcfd babd b5bc dfbd f2ce 233d
00000010: 2ef3 b9bd 2322 373d 12b9 ce3d 7eeb bdbd
00000020: ba8c edbd 1eb1 f43d 91f0 de3d 406e e63d
00000030: 335f cdbd 68ec a13d 93c4 963d e6bc 0a3d
00000040: cd10 e3bd 8475 aa3d 0c7a 98bd b6d5 483d
00000050: 1099 703d b19a cbbd 956f 08bc 37b2 8abd
00000060: 2b3e 393d 40f3 ff3d 6c1c 4d3d c203 423d
00000070: 3db0 143d f2b0 ce3d 9b19 1b3d 9c29 0e3d
00000080: a0db 8fbd 20bb a9bd 0a2c bb3d eeed 823d
00000090: 72a7 2bbc 81e5 f43d f8c9 b6bc 6176 36bd
000000a0: 675f e2bd ca44 59bd 1b84 38bd 4edd e0bd
000000b0: a9fe 71bd 0dc4 093d 1cfe aabb 2f38 a3bd
000000c0: 5e12 b7bd adbc d5bd 0cee b3bc ce9f b63b
000000d0: 604b d63d 7d96 173d 7783 33bd 68e1 7c3d
000000e0: 7d75 b43c b55a 2d3d cf1f 2abb 3f0a d5bd
000000f0: bd56 53bd da98 a23b ac2d 3f3d 1030 273d
00000100: b550 71bd eaad 33be d9c3 6ebc 2bb2 d93d
00000110: 93b8 9f3d e423 b9bc b457 bc3d 76fa 153d
00000120: 924d aebd acb9 843d 1597 0a3e c91a bc3c
00000130: ed59 c1bd 1c58 cebd 4adf dcbd a106 133d
00000140: 9ca3 e33d 21e3 a4bd 53b3 16bc 70fc f9bd
00000150: 93cb c8bc 1bcc 2abd 9067 9fbc f43d 723d
00000160: d0e7 8a3d abf6 d4bd 7645 91bc 3cf2 fc3c
00000170: 596e 0a3d e778 87bc 3a99 c9bd 60f6 87bd
00000180: 0bb0 1cbd cb80 94bc 1ee3 653d 60e2 86bd
00000190: d634 fe3c 94f3 c73d 4621 20be ed46 14be
000001a0: ce56 1cbe 06b1 953c b494 a3bd bdc3 773d
000001b0: 8fcc c7bd f460 0b3e 5ece e73d ebd5 113d
000001c0: 94be 6e3d 3621 fabb 1ca0 2bbd 3090 d5bc
000001d0: 7e51 15be 5de4 6cbc e682 39bd a04a 0bbe
000001e0: fc24 b3bd 90a2 38bd 5565 3bbd 968d 9ebc
000001f0: 9625 d1bd ed84 f6bd 9ebc 75bb 0c6e c5bc
00000200: f31a bfbd 9db0 ebbb ec1d 05bd 378f 333d
00000210: 9b51 9a3d 5583 1bbd 8ccf 9a3d bea5 033d
00000220: 0c2f 6ebd 5449 b0bd d9de d2bd 4ba7 c2bd
00000230: 061f 41bd 36c8 583d 66e1 c1bd ac72 803d
00000240: 51ee c93d 7642 51bd 8e4a adbd 5fad 04be
00000250: bf21 c53b b05d 043b 000f 6bbd a27e 3abd
00000260: 2b03 b53c de54 043e 334b d53c 20d2 b93d
00000270: b00f b9bd 3310 83bc 1b6d c83d c4ae f33c
00000280: e6c7 e9bc 0c27 bbbd 9819 0a3e 52b8 a03d
00000290: d9a4 a3bd 92aa 9e3d 0a1a e4bd 312a 28bc
000002a0: 4af6 ac3d f50d f5bc f34b b33d b229 0b3d
000002b0: 9a46 93bd bbe1 933d fc13 f2bc 2afb a93c
000002c0: 1f29 ad3d 0b10 9c3c 67d9 f9bd d92b 413d
000002d0: 9026 be3d 3446 e3bc fd8c 43bd f77b b23c
000002e0: ab7a c03d d5c5 a2bd 9c10 0e3e 3b97 363c
000002f0: f41e 823c 6b5c c3bb f749 d83c 2b09 79bd
0.07585876 -0.09130427 -0.10924665 0.03999228 -0.09079586 0.04471029 0.10093893 -0.09273432
-0.11599107 0.11947845 0.10885728 0.11251497 -0.100279234 0.07906419 0.07361712 0.033871554
-0.11087189 0.083231956 -0.074451536 0.049031936 0.05873972 -0.099416144 -0.0083273845 -0.06772273
0.045225304 0.12497568 0.050075933 0.047366865 0.036300886 0.100923434 0.037866216 0.03470765
-0.07024312 -0.082876444 0.09139259 0.06393038 -0.010476934 0.11957837 -0.022313103 -0.04454649
-0.11053353 -0.053044118 -0.04504786 -0.109797105 -0.059080753 0.033634234 -0.0052182805 -0.079697005
-0.0893905 -0.10436378 -0.021964096 0.0055732494 0.104635954 0.03700875 -0.043826547 0.0617384
0.022028679 0.042322833 -0.00259589 -0.10402345 -0.051596392 0.004962069 0.046674415 0.04081732
-0.05891486 -0.17546812 -0.014573061 0.10629686 0.077988766 -0.022600122 0.091964155 0.03661581
-0.08510889 0.064807266 0.13534196 0.02296199 -0.0944098 -0.10075399 -0.107847765 0.035894994
0.111151904 -0.08051134 -0.009198028 -0.12206352 -0.024511134 -0.041698556 -0.019458562 0.059141114
0.06782496 -0.10398611 -0.017733317 0.030877225 0.033796642 -0.016537143 -0.09843679 -0.06638789
-0.038253825 -0.01812782 0.0561248 -0.06586146 0.031031054 0.09763256 -0.15637693 -0.14480181
-0.15267488 0.018272888 -0.07987347 0.060489405 -0.09755813 0.13611203 0.11318658 0.0356044
0.05828722 -0.0076333536 -0.04190074 -0.02606973 -0.14581868 -0.014458743 -0.04529085 -0.13602686
-0.087472886 -0.045076907 -0.045750935 -0.019354623 -0.10212247 -0.12037072 -0.0037496458 -0.024100326
-0.09331312 -0.007192685 -0.03249924 0.043837752 0.07535096 -0.037967045 0.07559118 0.032140486
-0.058150336 -0.08607736 -0.10296411 -0.09504565 -0.047148727 0.05292531 -0.094668195 0.06271872
0.09859908 -0.051088773 -0.08461486 -0.12956761 0.0060159857 0.0020197444 -0.057387352 -0.045530923
0.022096237 0.12923 0.026036834 0.09073281 -0.09036195 -0.015998935 0.09786435 0.02974642
-0.028537702 -0.09138307 0.13486326 0.07847656 -0.079904266 0.077473775 -0.11137779 -0.010263965
0.084454134 -0.029913882 0.087547205 0.03397531 -0.071912006 0.07220789 -0.029550545 0.020749647
0.08455109 0.019050619 -0.12199669 0.047160957 0.09284699 -0.027743436 -0.04774188 0.021787627
0.09398397 -0.0794789 0.13873523 0.011144455 0.0158839 -0.005961945 0.026402457 -0.06079976

head.0.weight f4 [64, 64]
00000000: cf46 15bb ef1b 203e 77fa e8bc 7f32 e1bd
00000010: ac88 973c a53c 673d 7c5c 1d3e 6abc 0c3d
00000020: be55 543d 30a1 acbd 4ec7 8abd 1a8c cbbd
00000030: 139e 48bb d2dc 0dbe cfe4 b13c 4b1c a4bd
00000040: d573 c73d 66b0 a63c 3b06 6b3d b432 be3d
00000050: 1f17 88bd d968 233b 593d 20bd 3b20 eb3a
00000060: 858d fdbd ee45 09be 9f63 acbd 6415 0cbd
00000070: 88a4 9ebc f07f 8f3d 7b33 c03c 632d 613d
00000080: ef89 663c 1db8 543c d40d cabd 8e43 73bc
00000090: aeea 6f3d c47e 68bd 10a9 cb3d beca 5639
000000a0: 325a 43bd bd9c aabd d131 eebd 03b7 c9bd
000000b0: 66a7 1fbd da48 68bd a7b5 1bbe 3f91 df3c
000000c0: 5d1a 7ebd d9ea 713c 7d6a 913d 0ef0 e43d
000000d0: 06cc 403d 638d 8ebc e6bf 553d 04fa a9bd
000000e0: d5ae 8e3d 4d5c 883d b211 89bd b28f 6bbd
000000f0: 8e43 9e3d ec4c 20bc ca12 1ebc 737d 2a3d
00000100: 44c1 003d 4571 cb3a 93e0 0b3e 93bf a23d
00000110: 7da4 0dbd 67e6 ff3d 681c b03d 96d1 fc3d
00000120: 3e8d 0a3e d5d0 6e3d d989 603d 1ef6 4d3c
00000130: bfaf 96bd 5514 7abd 726b 3a3d 9962 ea3c
00000140: 8ac3 78bc 3526 acbd 1e35 d3bd d36c e7bd
00000150: 230c a4bd a5be 7bbd 9a8a 1c3c a310 083d
00000160: f5c7 f93c be15 a73d 5e97 ff3d da73 4dbd
00000170: 921b 1cbd 4206 fb3d f6fa 043d f133 a1bc
00000180: e8a0 133d 897a 7f3d 854e 903d cb16 82bc
00000190: 74c0 43bd 7113 1abe 9857 14bd 9a3a d3bd
000001a0: 9e94 593c f52d 56bc fba7 523d 99d5 46bd
000001b0: d765 17bc f127 883d 4b90 123e 6414 863c
000001c0: cbd2 61bd 2329 80bd f44d 0a3e 8efa 343d
000001d0: 5c3e a2bd 4f55 5bbd db8d f03c 1926 013e
000001e0: f9e5 afbd bd1f a4bd 9239 d2bd a118 073e
000001f0: 2b0e cebc 4e1e a8bd fa92 8b3d ada6 fabd
00000200: 8135 013e ce3d fa3c 2325 adbc e545 103e
00000210: 7657 c73d efcc 0d3e b5bf 01be 1535 66bd
00000220: f314 853d 027d ab3d 77e5 7b3d c16e 95bd
00000230: e24e 85bd 0c9f 0ebd c6c1 07be b449 003e
00000240: 875b 423c f121 d73d a7ac 41bd 1374 7bb8
00000250: c309 b43d ac16 9cbd ae29 8fbd 235a 013e
00000260: eafe 35bd 3613 63bc ce04 cdbd 40c9 17bd
00000270: 289e 75bd c221 fe3d 3666 ca3c 25cd 8a3d
00000280: 733f 2f3d 58c9 01be 6940 553d 8f89 cdbc
00000290: 5d1f 853c f71b a43d 04a8 cabc 3165 b33d
000002a0: f06c 01be 4b3c 033e 980c 7bbd 348b a33d
000002b0: 7e4c 203d 0bf8 69bd c28d 013e 66e1 b43d
000002c0: 22fd d7bd cfc9 053e 8d08 db3d 1e34 473d
000002d0: 66e7 393c 17de f8bd 4a6f 303d edaa afbd
000002e0: 569b 21bd f4d9 8d3d c506 4fbd 334d 85bc
000002f0: 3d2d d4bd d254 0fbd 9693 4aba 12cd f6bd
00000300: 92c6 04bd 033d e63c ccf9 ae3d 01d4 a83c
00000310: a8eb b9bd e7ef d43d 1d5f 87bd 8a8f c93d
00000320: a107 b3bc 6c06 043d 7d3a aebd b449 a23d
00000330: 8095 1dbe 0d70 4dbd 873d 853d dbc9 f83d
00000340: d46f 59bd 973f 8abd 973c 0a3e 40fa 973d
00000350: e224 0c3c 3e80 303d c29e c03c 7af2 d73d
00000360: c19f 683d f03b 88bc 8ad8 d53d 0f95 5dbd
00000370: 6ee0 7e3d f656 43bc ce02 d63c 77f3 05bd
00000380: 0123 12bd bc58 17bb 0fd1 aabd 04d3 143e
00000390: f4c1 1bbd 4a96 81bd 75ae 44bd dd60 a4bd
000003a0: cc8a 5d3d 0b7d 9abd a287 a1bd fd17 923d
000003b0: e773 49bd e422 0a3d e23b 8ebd d273 ddbb
000003c0: e9ff 11bd aff5 973c b73c 833d 080a 9c3d
000003d0: 6962 903c c67e e7bc dd8d 3b3c a26f b73d
000003e0: b733 a13d 80af 22bd 950c 063e 1c36 f1bc
000003f0: ea49 193d 3c03 26bd 20bb 29bd 21bb ba3b
-0.00227778 0.15635656 -0.028439743 -0.109959595 0.018497787 0.05645432 0.15367311 0.034359373
0.051839583 -0.084291816 -0.067762956 -0.099388316 -0.0030611798 -0.13853768 0.02171555 -0.08013209
0.0973889 0.020347785 0.05737899 0.092870146 -0.06645035 0.002493432 -0.039121006 0.0017938683
-0.12380508 -0.13405582 -0.08417439 -0.034200087 -0.019365564 0.07006824 0.023462048 0.054974925
0.014070972 0.012983349 -0.09865919 -0.014847649 0.058573417 -0.056761518 0.099443555 0.00020484158
-0.04769344 -0.08330677 -0.116305955 -0.0984936 -0.038978003 -0.0567101 -0.15206014 0.027290938
-0.06203686 0.014765465 0.07100389 0.11178599 0.047069572 -0.017401403 0.05218496 -0.0829964
0.0696694 0.0665823 -0.06692828 -0.057510085 0.07727729 -0.009783965 -0.009648034 0.041623544
0.031434312 0.0015521428 0.13659887 0.07946696 -0.034580696 0.12495118 0.08599168 0.12344663
0.13530442 0.058304626 0.05481896 0.012570886 -0.0735774 -0.061054546 0.045512624 0.028611468
-0.015183339 -0.08405725 -0.10312866 -0.113000534 -0.080101274 -0.06146111 0.00955453 0.03321899
0.030490855 0.08158444 0.12480043 -0.050159313 -0.03811223 0.12257053 0.032465898 -0.019678088
0.036042124 0.062372718 0.070462264 -0.01588001 -0.04779096 -0.15046479 -0.03621635 -0.10313912
0.013280062 -0.01307248 0.05142973 -0.048543546 -0.009240589 0.06648243 0.14312856 0.016367145
-0.05513267 -0.06257846 0.135063 0.04418426 -0.0792205 -0.053548153 0.029364517 0.1261219
-0.08588786 -0.08013866 -0.10264887 0.13192989 -0.02515324 -0.08208905 0.06815143 -0.12238822
0.12618066 0.030547049 -0.021135872 0.14089163 0.09733479 0.13847707 -0.12670787 -0.056202967
0.06498136 0.08373453 0.06149813 -0.07296515 -0.06509186 -0.034819648 -0.13257512 0.12528116
0.011862642 0.10504521 -0.047283795 -5.9951166e-05 0.087909244 -0.07621512 -0.06990372 0.1263204
-0.044432558 -0.013859561 -0.10010682 -0.03705716 -0.059965283 0.124087825 0.024706941 0.067774095
0.04278512 -0.12674463 0.05206338 -0.025090007 0.016250307 0.08013146 -0.02473832 0.08759535
-0.12639213 0.12815969 -0.061291307 0.07985535 0.03913545 -0.057121318 0.12651733 0.08832054
-0.10546328 0.13065265 0.1069499 0.048633687 0.011346674 -0.12151735 0.043074884 -0.085775234
-0.03945478 0.06926337 -0.050543565 -0.016272163 -0.10360191 -0.034993 -0.00077276805 -0.12050833
-0.032415934 0.028105265 0.08543739 0.020608904 -0.09078151 0.1039732 -0.06609938 0.09841831
-0.021854224 0.032232687 -0.085072495 0.07924214 -0.15389061 -0.050155688 0.06505876 0.12147876
-0.053085163 -0.0675041 0.13499676 0.07420778 0.008553715 0.04309105 0.023513202 0.105442956
0.05679298 -0.016630143 0.10441692 -0.05409723 0.06222575 -0.011922589 0.026124384 -0.03270289
-0.035677914 -0.0023093661 -0.08340656 0.14533621 -0.038026765 -0.063274935 -0.048017938 -0.08026288
0.054087445 -0.07543381 -0.07887198 0.07133482 -0.0491828 0.03372468 -0.069450155 -0.0067581916
-0.035644446 0.018549768 0.06408065 0.07619101 0.01762505 -0.028258692 0.011447397 0.08956839
0.07871192 -0.03971815 0.13090737 -0.029444747 0.037424006 -0.04053043 -0.041438222 0.005698577

head.0.bias f4 [64]
00000000: b32c 093e 5824 16bd 15b1 51bd 243f 153d
00000010: 314c 63bd 846d c03d f166 82bd f91f 0c3e
00000020: 63a0 39bd aa0d 8f3d 05c8 993d 24ad 033e
00000030: 47f5 c83d 14fd b73d fde4 88bd 6244 86bd
00000040: 75d0 933d 98ac aa3d 26ed cd3d 7c17 5c3d
00000050: 1a79 4d3c 5430 2cbd 62cf ea3d 64ff 13be
00000060: e7e3 163d 11d5 76bd 77a8 96bd 61db 473c
00000070: c074 0b3e 096c 65bd df14 cd3b 8f7b dc3d
00000080: 19b6 1b3e 0b8e 003e 7dae 24bd df88 bc3d
00000090: 4190 113e 8b8b 103e 2465 fb3d 9ada 033c
000000a0: 9a9b 033e 9f1d c2bd d097 b5bd 6292 09bd
000000b0: 863d 91bd f6d0 cd3d b95e e43d 10cb e7bd
000000c0: 6fbe fb3d c953 1b3e 88ae f33c 5a75 15bd
000000d0: 3cbe 27bd f7a3 3ebd 7a74 6fbc 26b3 c83c
000000e0: 003d ffbd 6c43 30bd 79ac 9dbd 445a cf3d
000000f0: eb60 a5bc d3d0 8ebb 404f d9bd 929d 06bd
0.13395958 -0.036655754 -0.05119427 0.03643717 -0.055492584 0.093958884 -0.06367291 0.13684072
-0.045318972 0.06985028 0.07508854 0.12859017 0.09812408 0.08983818 -0.06684301 -0.06556012
0.072174944 0.08333701 0.10054998 0.053733334 0.01254108 -0.042038277 0.114653364 -0.14452893
0.03683844 -0.06026179 -0.07356351 0.0121983 0.13618755 -0.056011233 0.0062585915 0.107657544
0.15206183 0.12554185 -0.040205467 0.092057936 0.14215185 0.14115731 0.122751504 0.008047724
0.12852326 -0.09478306 -0.088668466 -0.033586867 -0.07091813 0.10049622 0.111508794 -0.11318028
0.12292182 0.1516868 0.029746309 -0.03648887 -0.040952906 -0.046543088 -0.0146151725 0.024499487
-0.12462807 -0.04303305 -0.07698912 0.10124639 -0.020187816 -0.00435839 -0.10610819 -0.032865115

head.2.weight f4 [1, 64]
00000000: 20b3 b6bd 1f4e 0d3d d827 803d d7c2 283d
00000010: b615 fdbd 9e1f 96bd bde7 8d3c b46f c33d
00000020: d981 ee3d 155e 3dbd 9ebb 8fbd c289 53bd
00000030: 0287 1bbe df75 ee3d 928b d33d d0c6 ea3d
00000040: 1ce8 ca3d ba28 a8bc 725f 633d a46a ed3d
00000050: a344 c3bd 4b89 bb3d 1fc7 bf3c 5017 953a
00000060: cba8 e8bc 67b2 013e 161c 13bd b663 683c
00000070: 4ac0 e2bd d366 383d 554c 9e3c e915 e83d
00000080: da6d 0c3e c7be 90bd 3811 2dbd 7b0a a2bd
00000090: 6366 c8bd 3ea5 533d 9d8e 8d3d 008e 843d
000000a0: 55c4 37bd 5d8b ad3d 8f2d ad3d f865 04be
000000b0: 8a51 91bd aeb7 26be a2ef b13d e006 9f3b
000000c0: 3809 573d c3af fdbd 0f50 143d 8b3c 273c
000000d0: 8a3b 523c ed40 9c3d 6782 023e f99c 16be
000000e0: 64bc f63d 2fb1 0a3d bffd 1bbd 8d94 473d
000000f0: ee49 ffbd 1ab2 b03d a028 55bd 7860 5bbc
-0.08920884 0.03449833 0.062575996 0.04120144 -0.12357657 -0.07330249 0.017322415 0.0954279
0.1164586 -0.0462323 -0.07018207 -0.051645048 -0.1518822 0.11643576 0.10329355 0.11463702
0.099075526 -0.020527232 0.055510946 0.11592606 -0.09534576 0.09157046 0.023410378 0.0011374746
-0.0284008 0.12665711 -0.035915457 0.014183929 -0.110718325 0.045019936 0.019323507 0.11332304
0.1371378 -0.07067638 -0.04225275 -0.07912155 -0.09785154 0.05167126 0.06911967 0.06472397
-0.04486497 0.08473847 0.08455955 -0.12929523 -0.070956305 -0.16281006 0.086882845 0.0048531145
0.052499026 -0.123870395 0.036209162 0.010207306 0.012831578 0.07629571 0.12745057 -0.14708318
0.120476514 0.03386038 -0.038083788 0.048725653 -0.12465273 0.0862772 -0.052040696 -0.013389699
