outputs/exp_0002_20251212_235529/runs/seed4/h5/Static/model_final.pt (torch, 71493 bytes, 7 tensors)

gru.weight_ih_l0 f4 [192, 1]
0	0x3c7447a0	0.014909655
1	0x3c720ae0	0.014773101
2	0xbdd12c92	-0.10213579
3	0xbd947a76	-0.0724992
4	0xbdfc50fe	-0.123201355
5	0xbdec0d30	-0.11525953
6	0x3dfc5cae	0.12322365
7	0x3dd38390	0.10327828
8	0x3cf2d990	0.029644758
9	0x3df2e312	0.118597165
10	0xbd396f18	-0.045271963
11	0xbd920208	-0.07129294
12	0x3dda3ece	0.1065651
13	0xbbd8f260	-0.00662069
14	0x3cc272f0	0.023736447
15	0x3d97566e	0.07389532
16	0x3d86e76e	0.065871105
17	0xbd92958e	-0.071574315
18	0xbd460260	-0.04834211
19	0xbdec42b8	-0.11536163
20	0x3bb47640	0.0055072606
21	0xbd378f50	-0.044814408
22	0x3cdbe930	0.02684459
23	0x3bbe8fc0	0.005815476
24	0x3dda3fd4	0.106567055
25	0x3c306340	0.010765851
26	0x3d804b06	0.062643096
27	0x3d219000	0.03944397
28	0x3de3216e	0.110903606
29	0xbd54d7ac	-0.051963493
30	0x3dd5c12a	0.10437234
31	0x3db79d92	0.08965601
32	0xbd4c5968	-0.049889952
33	0x3d9cebfa	0.076621965
34	0x3decabcc	0.11556205
35	0xbd90bf90	-0.07067788
36	0xbd47b4f8	-0.04875657
37	0x3daf215c	0.08551285
38	0x3dce6aea	0.10078986
39	0x3d071078	0.03297469
40	0x3d1d3a20	0.03838551
41	0x3dbd9c62	0.09258343
42	0x3de05a84	0.109547645
43	0xbda1e88c	-0.07905683
44	0xbd529aa4	-0.051417008
45	0x3dd78b40	0.10524607
46	0x3d8a4550	0.067515016
47	0xbd703c34	-0.058651164
48	0xbd2db958	-0.042413086
49	0x3df86f5a	0.121306136
50	0xbda056be	-0.07829045
51	0x3da4ae40	0.08041048
52	0x3d948cfc	0.07253453
53	0xbdf58426	-0.11988096
54	0xbdff8cc8	-0.12478024
55	0x3d29f80c	0.04149632
56	0x3d7b35c8	0.061330587
57	0x3de2eae6	0.110799596
58	0x3c7c6cf0	0.015406832
59	0x3dadacc4	0.08480218
60	0xbdb5ef42	-0.088835254
61	0x3d98cf72	0.07461442
62	0xbdf69e02	-0.12041856
63	0x3da6c464	0.08142927
64	0x3c5e0910	0.013551965
65	0x3d9e21e0	0.07721305
66	0x3d4a3f44	0.04937674
67	0xbdb11a4e	-0.08647595
68	0x3aaa2480	0.0012980849
69	0x3c8185d8	0.015810892
70	0x3c933580	0.017969847
71	0xbde02468	-0.10944444
72	0xbd814ed2	-0.06313862
73	0xbd712e38	-0.05888197
74	0xbd8b2644	-0.06794408
75	0x3dd9fc2c	0.10643801
76	0x3d90cf86	0.07070832
77	0x3d52d2f8	0.051470727
78	0xbd197d08	-0.037472755
79	0xbdcfb56a	-0.10142024
80	0x3cd9e8b8	0.026600227
81	0x3dec8870	0.11549461
82	0x3d63ddc8	0.05563143
83	0xbdceae74	-0.10091868
84	0xbc359190	-0.011082068
85	0x3ba65da0	0.005077079
86	0x3da277d4	0.07933012
87	0x3d584b1c	0.052806005
88	0xbdb4886e	-0.088150844
89	0xbdf16c5c	-0.11788246
90	0x3d1806dc	0.037115917
91	0x3d79f2d4	0.061022595
92	0x3d92d3e6	0.07169323
93	0x3db039e0	0.08604789
94	0x3de24caa	0.11049779
95	0xbd55b888	-0.052177936
96	0xbdf90162	-0.12158467
97	0x3d7abc90	0.061214983
98	0x3df6efb6	0.1205744
99	0xbdba778a	-0.091048315
100	0xbd80df2a	-0.06292565
101	0x3ddb3066	0.10702591
102	0x3dc7f210	0.09762967
103	0xbc43e070	-0.011955366
104	0xbd921eb6	-0.07134764
105	0x3cbbba40	0.02291596
106	0xbdfabc8a	-0.12242992
107	0xbd4a3c18	-0.049373716
108	0xbc848418	-0.016176268
109	0xbcf40e50	-0.029791981
110	0x3d52f79c	0.05150567
111	0x3b2d5800	0.0026450157
112	0xbdc9b2c4	-0.0984855
113	0xbc48e7c0	-0.012262285
114	0x3c3e4360	0.011612743
115	0x3d9ff496	0.07810323
116	0x3be6a100	0.0070382357
117	0xbd328870	-0.04358715
118	0x3d47687c	0.04868363
119	0x3d6beca0	0.05759871
120	0x3cc25c88	0.023725763
121	0xbd897764	-0.06712225
122	0x3d0a8024	0.03381361
123	0x3c9263e8	0.017869905
124	0x3d8fb46a	0.07016833
125	0xbd0be4f0	-0.03415388
126	0xbc050420	-0.008118659
127	0x3d8594e4	0.06522539
128	0xbc880a28	-0.016606405
129	0x3d859906	0.065233275
130	0xbca487e0	-0.020084321
131	0x3de0d74e	0.10978566
132	0xba7bca00	-0.00096049905
133	0xbcd801d0	-0.026368052
134	0x3d3188a0	0.043343186
135	0xbbcf6080	-0.0063286424
136	0x3dccedc0	0.10006285
137	0xbc8fade8	-0.01753898
138	0x3dac1bd6	0.08403747
139	0xbd04652c	-0.032323048
140	0x3c33e960	0.010980934
141	0x3d260bb0	0.04053849
142	0xbdf04404	-0.11731723
143	0x3cc51750	0.024058968
144	0x3d8b3622	0.067974344
145	0x3d4a206c	0.049347326
146	0x3b48d840	0.0030646473
147	0xbc538c40	-0.012911856
148	0x3d2122ac	0.039339706
149	0x3d1b0158	0.03784308
150	0xbd76a604	-0.06021692
151	0x3d47d83c	0.0487902
152	0xbddb3ae6	-0.10704593
153	0x3ba10000	0.00491333
154	0xbd3009d8	-0.042978138
155	0xbd563a60	-0.052301764
156	0xbdcf9f12	-0.10137762
157	0x3dc93bea	0.09825881
158	0x3c3ca7e0	0.011514634
159	0x3c0cd870	0.008596525
160	0xbc9a2208	-0.018815055
161	0xbd545468	-0.05183831
162	0xbdc5eb62	-0.09664036
163	0x3cc30f40	0.023810983
164	0xbdc7b58a	-0.09751423
165	0xbd5b1b30	-0.053492725
166	0x3d80b068	0.06283647
167	0x3dd63380	0.104590416
168	0xbd23a4a4	-0.039951935
169	0xbdfc301c	-0.12313864
170	0x3dfa5cc2	0.122247234
171	0x3d8a955c	0.06766769
172	0x3db8bf54	0.09020868
173	0xbcbac440	-0.022798657
174	0xbcd30040	-0.025756955
175	0x3c484310	0.01222302
176	0x3cfa9cf8	0.030592427
177	0x3b53bf00	0.003230989
178	0xbd84ddba	-0.064876035
179	0x3de4ab3c	0.11165473
180	0x3d6f1d04	0.05837728
181	0xbc3907d0	-0.011293367
182	0xbdda1354	-0.10648218
183	0xbd7c2a24	-0.061563626
184	0xbd3292d8	-0.043597072
185	0xbcaacb60	-0.02084893
186	0x3d0db340	0.034594774
187	0xbcab1fc8	-0.020889178
188	0x3d312acc	0.043253705
189	0xbda647ec	-0.08119187
190	0xbce010c8	-0.027351752
191	0x3d6768a4	0.056496277

gru.weight_hh_l0 f4 [192, 64]
0	0x3dfb6bac	0.12276396
1	0xbdd84414	-0.1055986
2	0x3c54e8f0	0.01299499
3	0x3d873252	0.06601395
4	0xbc5cefd0	-0.01348491
5	0x3cee9250	0.029122502
6	0x3d9fd4c4	0.07804254
7	0xbdfe5ed2	-0.12420429
8	0x3d9796cc	0.07401809
9	0xbde4dbf2	-0.11174764
10	0x3cbe3b48	0.023221627
11	0x3d9af468	0.07566148
12	0xbd68bd90	-0.056821406
13	0x3a93e580	0.0011283606
14	0xbdf5c31a	-0.12000103
15	0xbbfc4800	-0.0076990128
16	0x3d90434a	0.07044084
17	0x3d7f3080	0.062302113
18	0x3d08d464	0.033405676
19	0xbc280db0	-0.01025717
20	0xbd51c864	-0.051216498
21	0x3dd0180a	0.10160835
22	0x3d173724	0.03691782
23	0x3d362d28	0.044476658
24	0x3d794e60	0.06086576
25	0xbd10b838	-0.035331935
26	0xbc1c3e30	-0.009536311
27	0x3df18fba	0.11794992
28	0x3de52448	0.11188561
29	0xbdfe1486	-0.12406258
30	0xbdda77fc	-0.106674165
31	0xbd1321b4	-0.035920814
32	0x3d016b40	0.031596422
33	0xbd85f63a	-0.065411046
34	0x3d7db058	0.061935753
35	0xbde5adc8	-0.11214787
36	0xbc779070	-0.01511012
37	0x3da50398	0.08057326
38	0xbd02b1c0	-0.031907797
39	0xbd031134	-0.031998828
40	0x3cde1e60	0.027114093
41	0x3dc41b98	0.095755756
42	0x3ce5b4d8	0.028040335
43	0x3b4afd00	0.0030973554
44	0xbb4ab600	-0.0030931234
45	0xbdd8f1b4	-0.10592976
46	0xbd4ac604	-0.04950525
47	0x3dfefa9e	0.12450145
48	0xbdab564c	-0.08366069
49	0x3d7196cc	0.0589817
50	0xbd31cb08	-0.043406516
51	0x3d2d4a1c	0.042307004
52	0x3d634c6c	0.055492803
53	0x3db50be6	0.0884016
54	0xbd9eda4e	-0.07756482
55	0xbc81ed98	-0.015860364
56	0xbdae819e	-0.08520816
57	0x3cd0b020	0.025474608
58	0xbd725a60	-0.05916822
59	0x3c4a7030	0.012355849
60	0xbdd29ce8	-0.10283834
61	0xbce72100	-0.028213978
62	0xbdd5da1c	-0.10441992
63	0xbdd89c18	-0.105766475
64	0x3d30d068	0.0431675
65	0x3ba73dc0	0.0051037967
66	0xbd3c58e8	-0.045983225
67	0xbd6190bc	-0.05506967
68	0x3ddec0f2	0.10876645
69	0x3c598f00	0.013278723
70	0x3d0e48e4	0.034737483
71	0x3dff4f46	0.12466292
72	0x3df768a2	0.12080504
73	0xbcd98a70	-0.02655527
74	0x3d81611e	0.06317352
75	0xbaa79880	-0.0012786537
76	0xbdc4fe02	-0.09618761
77	0x3da5cc46	0.08095603
78	0xbc8112f0	-0.0157561
79	0xbc4da870	-0.012552366
80	0x3cf390e0	0.029732168
81	0x3dcb96d8	0.099408805
82	0xbc93a5a0	-0.018023312
83	0xbc6d5a60	-0.014486879
84	0x3d5a54d4	0.053303555
85	0x3cb5e810	0.022205383
86	0x3d73205c	0.059357032
87	0x3dfaf29e	0.12253307
88	0xbd186c5c	-0.037212715
89	0x3dbbbe2a	0.0916713
90	0xbddb2714	-0.10700813
91	0x3c982b70	0.0185754
92	0x3d252094	0.040314272
93	0xbdecc64c	-0.115612596
94	0xbdfc6a6e	-0.12324987
95	0xbd0eee44	-0.034895197
96	0xbc839938	-0.016064271
97	0x3da409ec	0.08009705
98	0xbd53cbe0	-0.051708102
99	0x3dd2af7c	0.10287377
100	0xbd312750	-0.043250382
101	0x3d05ac74	0.032635167
102	0x3db5f66a	0.088848904
103	0x3d882dd6	0.066493675
104	0xbd4f1db0	-0.05056542
105	0x3d69a1d0	0.057039082
106	0x3d1370d8	0.035996288
107	0xbdd0747c	-0.10178468
108	0x3db5c3a4	0.08875206
109	0x3deefe82	0.11669637
110	0xba5a6d00	-0.00083322823
111	0x3df9576e	0.12174879
112	0xbc46da10	-0.012136951
113	0xbb882d80	-0.0041558146
114	0xbc54dd00	-0.012992144
115	0x3ce49f60	0.027908027
116	0x3d6745d4	0.056463078
117	0xbdc924d2	-0.09821476
118	0xbd2d0fb4	-0.042251304
119	0xbdb9fdb0	-0.0908159
120	0xbcc5b0d8	-0.024132177
121	0x3d0ffd38	0.035153598
122	0xbda1762c	-0.078838676
123	0x3caf5a68	0.021405414
124	0xbdf52a08	-0.119709074
125	0x3d4b6ba4	0.0496632
126	0x3d9ad562	0.07560231
127	0xbd28876c	-0.041144773
128	0x3d906908	0.07051283
129	0xbc97af68	-0.018516257
130	0xbdae6e8e	-0.085171804
131	0xbded30e2	-0.11581589
132	0xbde62904	-0.11238292
133	0x3d1a4e94	0.037672594
134	0x3ca230f0	0.019798726
135	0xbdbfa694	-0.09357944
136	0xbc863a50	-0.016385227
137	0x3c02d710	0.007985845
138	0x3b894fe0	0.00419043
139	0x3d8a3ff6	0.06750481
140	0x3df60e3a	0.12014432
141	0x3d9f55a0	0.077800035
142	0x3d6e1c94	0.058132723
143	0x3d9ca63a	0.07648893
144	0xbd7f97f8	-0.062400788
145	0xbd4e4b90	-0.05036503
146	0xbd685880	-0.056725025
147	0x3cae26f8	0.021258816
148	0x3ce77228	0.028252676
149	0x3ceb4f40	0.028724313
150	0xbda247f6	-0.07923882
151	0xbdfc2e72	-0.12313546
152	0xbd14d5e0	-0.03633678
153	0x3d704df8	0.058668107
154	0xbdeef8ac	-0.11668524
155	0x3d51557c	0.051106915
156	0x3d3e70a4	0.04649414
157	0xbd8f758e	-0.07004844
158	0x3dc3f320	0.09567857
159	0xbd8e68da	-0.069535926
160	0x3d661c1c	0.05617915
161	0xbbf65220	-0.0075171143
162	0xbdc331a0	-0.095309496
163	0xbd3d97b0	-0.04628724
164	0x3d77de9c	0.06051503
165	0xbdca1d72	-0.098688975
166	0x3dd95696	0.10612218
167	0xbd3cd830	-0.04610461
168	0xbd3637bc	-0.044486746
169	0xbdd4a97a	-0.103838876
170	0xbdd36aa0	-0.103230715
171	0xbde969b2	-0.11397113
172	0x3cfa2660	0.030535877
173	0x3dd02eee	0.10165201
174	0x3d303cec	0.04302685
175	0x3dcc3cca	0.09972532
176	0xbdbc64c4	-0.09198907
177	0xbdcce17e	-0.10003947
178	0x3de7733e	0.113012776
179	0x3c669fe0	0.014076203
180	0x3d91038a	0.07080753
181	0x3d69cdcc	0.05708103
182	0x3cfddff0	0.03099057
183	0xbd6e9190	-0.058244288
184	0x3de3dfd8	0.11126679
185	0xbcc06d28	-0.02348955
186	0xbded1e4e	-0.11578046
187	0x3d40d50c	0.047078177
188	0xbdb11262	-0.08646084
189	0x3ce118e0	0.027477682
190	0x3df47420	0.119362116
191	0xbd514ddc	-0.051099643
192	0xbd419648	-0.04726246
193	0xbbb02520	-0.0053755194
194	0xbcb10550	-0.021608979
195	0x3c05d710	0.008168951
196	0xbc679590	-0.01413478
197	0x3df5569e	0.119794115
198	0x3d934e36	0.07192652
199	0xbad2a380	-0.0016070455
200	0xbd0a6928	-0.03379169
201	0x3c33d6e0	0.010976523
202	0x3db362c6	0.08759074
203	0xbd790d18	-0.060803503
204	0xbd303a98	-0.04302463
205	0x3dbfabf4	0.09358969
206	0xbd6b46e4	-0.057440653
207	0x3d831904	0.06401256
208	0xbddbaaf2	-0.107259646
209	0xbd82fd30	-0.06395948
210	0xbc9d05a8	-0.019167736
211	0xbdf46bae	-0.11934601
212	0x3daa425c	0.08313438
213	0xbd85bb9e	-0.06529926
214	0x3daee304	0.085393935
215	0xbb2b6880	-0.0026154816
216	0x3d2f4524	0.042790547
217	0x3d7cbdc0	0.061704397
218	0xbd92a7d4	-0.07160917
219	0xbc5c4a80	-0.013445497
220	0x3c3dcf50	0.011585072
221	0xbcee5f48	-0.029098168
222	0x3df3f08a	0.119111136
223	0xbdf75db0	-0.12078416
224	0xbdd32abe	-0.10310887
225	0xbc865518	-0.016397998
226	0xbdaa613c	-0.08319327
227	0xbd5c11f4	-0.05372806
228	0x3dd0d220	0.10196328
229	0x3a39d500	0.00070889294
230	0x3dd48dea	0.103786305
231	0x3dd058ec	0.101732105
232	0x3d8af84c	0.0678564
233	0x3dc2815a	0.09497328
234	0xbd9f0306	-0.077642485
235	0xbdefd100	-0.117097855
236	0xbd61309c	-0.054978
237	0xbd8e4776	-0.06947224
238	0x3d143054	0.0361789
239	0x3d153e4c	0.036436364
240	0xbac0f580	-0.0014721602
241	0xbd9de0c8	-0.07708889
242	0x3c4540a0	0.012039334
243	0xbde9a1c2	-0.11407806
244	0xbd9511ae	-0.07278763
245	0xbd48ffd0	-0.049072087
246	0x3db1dd82	0.086848274
247	0x3df1d878	0.11808866
248	0x3d957cc2	0.07299186
249	0x3db22012	0.08697523
250	0xbc9287b0	-0.017886966
251	0xbd98f882	-0.07469274
252	0x3da9db74	0.082938105
253	0x3df799d0	0.12089884
254	0x3c3481c0	0.011017263
255	0x3d76a3c4	0.060214773

gru.bias_ih_l0 f4 [192]
0	0x3de86cc4	0.113488704
1	0x3cc37fd0	0.023864657
2	0x3d832218	0.06402987
3	0x3d8f4512	0.06995596
4	0xbd88cfc0	-0.0668025
5	0x3cb18b28	0.0216728
6	0xbdba4d4e	-0.09096776
7	0x3d6042f4	0.05475135
8	0x3cf2c0c8	0.02963294
9	0x3d5657ac	0.052329704
10	0xbdc7d4bc	-0.09757373
11	0xbd132010	-0.03591925
12	0x3d166e78	0.036726445
13	0x3ba682c0	0.0050815046
14	0xbdb9e7d2	-0.09077419
15	0x3dfe6048	0.12420708
16	0xbddd13ce	-0.10794793
17	0xbd87a3d0	-0.06623042
18	0xbdf89b6c	-0.12139019
19	0xbdc7e91a	-0.097612575
20	0xbd2e5bac	-0.042567894
21	0x3d88cf7c	0.066801995
22	0xbd90e434	-0.07074776
23	0xbcb3cd78	-0.021948561
24	0xbcc35c30	-0.02384767
25	0x3caf2430	0.02137956
26	0x3da932ee	0.08261667
27	0x3ddb7620	0.1071589
28	0xbdf0278a	-0.117262915
29	0x3ce1b7b8	0.027553424
30	0xbddedf0c	-0.108823866
31	0xbd9060ca	-0.07049711
32	0xbdac852c	-0.08423838
33	0x3dfe552a	0.124185875
34	0x3df74710	0.12074101
35	0x3d45b530	0.048268497
36	0xbcc405b0	-0.023928493
37	0x3baf50c0	0.0053502023
38	0x3c9cae40	0.019126058
39	0x3d9b1d26	0.07573919
40	0xbc269380	-0.010167003
41	0x3d08ffac	0.033446953
42	0x3dc01148	0.09378296
43	0xbdc50976	-0.09620945
44	0x3c576a40	0.013147891
45	0xbd9767e8	-0.073928654
46	0x3dd4bbb6	0.103873655
47	0xbc96d108	-0.01841022
48	0x3ad1c500	0.0016004145
49	0x3d1d275c	0.038367614
50	0xbd84b7fa	-0.06480403
51	0x3df21ad8	0.11821526
52	0x3c7254f0	0.0147907585
53	0x3dba7bb4	0.09105626
54	0x3de0714e	0.10959111
55	0xbdc0dab2	-0.09416713
56	0x3d250b1c	0.040293798
57	0xbd73d80c	-0.05953221
58	0xbd7658b4	-0.060143188
59	0x3d93f900	0.07225227
60	0xbde2a4f2	-0.11066617
61	0xbb4fe8c0	-0.0031724423
62	0x3dde3226	0.10849409
63	0x3cf36990	0.029713422
64	0xbc8eb640	-0.017420888
65	0x3d943726	0.07237081
66	0xbdfd6332	-0.12372436
67	0x3dee4612	0.116344586
68	0xbc8cc1a8	-0.017182186
69	0x3c870108	0.016479984
70	0x3dda1370	0.10648239
71	0x3d0b6e4c	0.034040734
72	0xbdb0f050	-0.08639586
73	0xbc46d280	-0.012135148
74	0xbdef37ba	-0.11680551
75	0xbcb32d38	-0.021872148
76	0x3d8606f4	0.06544295
77	0x3df30af4	0.118673235
78	0xbbe1b2a0	-0.006887749
79	0x3d16d740	0.036826372
80	0x3d3773fc	0.044788346
81	0xbc923978	-0.017849669
82	0xbd9cc734	-0.076551825
83	0xbdac0c3e	-0.084007725
84	0x3cd56128	0.026047304
85	0xbd3b737c	-0.04576443
86	0x3bcd6f60	0.0062693805
87	0xbd6e9808	-0.058250457
88	0xbc46faa0	-0.012144715
89	0x3d95bc56	0.07311313
90	0xbda90af6	-0.08254044
91	0x3df19d88	0.11797625
92	0xbde1113c	-0.10989615
93	0xbcc94130	-0.024567217
94	0x3dd5293c	0.104082555
95	0xbda2d3ca	-0.07950552
96	0xbdd0060c	-0.10157403
97	0x3c35d5c0	0.011098325
98	0xbce6dbd8	-0.028181002
99	0xbd3eadc8	-0.04655245
100	0xbd494608	-0.049139053
101	0x3b9e9940	0.004840046
102	0xbda3c574	-0.079966456
103	0xbd47fe70	-0.048826635
104	0x3d3b193c	0.045678362
105	0xbdedd0f6	-0.11612122
106	0xba5db900	-0.0008458048
107	0x3df3f7a6	0.119124696
108	0x3d62a27c	0.05533074
109	0x3da513b0	0.08060396
110	0x3dad4f60	0.08462405
111	0x3db7c5c6	0.08973269
112	0x3dbe4cc0	0.09291983
113	0x3d8d429c	0.0689747
114	0xbdf6da0e	-0.120533094
115	0xbbba37e0	-0.0056829304
116	0xbd411684	-0.047140613
117	0x3d9a08ea	0.075212315
118	0x3c42d930	0.011892602
119	0xbd4f21b8	-0.050569266
120	0x3dce819a	0.10083313
121	0x3dd66fd8	0.10470551
122	0x3dfed018	0.124420345
123	0x3d3c8c74	0.046032384
124	0x3db7ab1c	0.089681834
125	0x3ccf7f00	0.025329113
126	0xbc882588	-0.016619459
127	0x3dbae78a	0.09126194
128	0xbd28ef30	-0.041243732
129	0x3da3df60	0.0800159
130	0x3dabc1dc	0.08386585
131	0xbd643ec8	-0.055723935
132	0xbdc7a99c	-0.09749147
133	0x3bc55520	0.0060221106
134	0xbdfa3e66	-0.12218933
135	0xbc94f3a8	-0.01818259
136	0xbd96acd8	-0.07357186
137	0xbdbde1c0	-0.09271574
138	0xbc9a74a8	-0.018854454
139	0x3cf07ac8	0.029355422
140	0xbcfb6ef0	-0.030692548
141	0x3de60c1e	0.1123278
142	0xbde1a9d2	-0.11018719
143	0xbd53387c	-0.05156754
144	0x3d25d76c	0.040488645
145	0xbdeb2c66	-0.11483078
146	0xbd36ab24	-0.044596806
147	0x3d2488e4	0.04016961
148	0xbd8852a2	-0.06656386
149	0xbdf8426e	-0.121220455
150	0x3dd1e808	0.102493346
151	0xbc3ffe10	-0.011718288
152	0x3dac95d8	0.08427018
153	0xbc42d090	-0.0118905455
154	0xbc5a2ad0	-0.013315871
155	0x3d82900c	0.06375131
156	0x3ce2f210	0.027703315
157	0x3d878e68	0.06618959
158	0x3dc56e30	0.09640157
159	0xbd2ded74	-0.04246278
160	0x3dcb078a	0.09913547
161	0xbdbafcd8	-0.09130257
162	0xbd696fe4	-0.056991473
163	0x3d8680f8	0.065675676
164	0xbdcf5c3a	-0.10125013
165	0x3d7be35c	0.061496124
166	0x3df1d7c0	0.11808729
167	0xbdd0fc74	-0.102044016
168	0xbd0dd830	-0.03463
169	0x3da42f90	0.08016884
170	0x3def5624	0.11686352
171	0x3ca46b58	0.020070717
172	0x3db84f60	0.089995146
173	0xbddbd1e2	-0.10733391
174	0xbdc52e02	-0.09627916
175	0xbd78dbb0	-0.060756385
176	0xba798b00	-0.0009519309
177	0x3db0ebce	0.08638726
178	0xbc5055a0	-0.012715727
179	0x3c9734a0	0.01845771
180	0xbd74261c	-0.059606656
181	0x3be49180	0.0069753528
182	0x3d692bbc	0.056926474
183	0xbce66568	-0.028124526
184	0x3dd039fc	0.1016731
185	0xbd46b850	-0.048515618
186	0xbd23a738	-0.039954394
187	0xbd4a8ec4	-0.04945256
188	0xbd434e54	-0.04768212
189	0x3c77cf20	0.015125066
190	0xbd90fb74	-0.07079211
191	0xbdbf5b74	-0.09343615

gru.bias_hh_l0 f4 [192]
0	0x3dbbb902	0.09166147
1	0xbd8abaa6	-0.067738816
2	0x3dcf66f2	0.10127057
3	0x3c4f5ac0	0.012655914
4	0xbcdd23a0	-0.026994526
5	0x3d53f794	0.05174978
6	0xbdc447f4	-0.095840365
7	0x3df5be92	0.11999239
8	0xbd4271b8	-0.047471732
9	0x3bdfe680	0.0068328977
10	0x3ba31c60	0.004977748
11	0xbd9a9926	-0.07548742
12	0x3df473f0	0.11936176
13	0x3d6a4cac	0.057202026
14	0xbdd4cba4	-0.10390404
15	0xbdfa70e6	-0.12228565
16	0x3d669d58	0.0563024
17	0x3da93438	0.08261913
18	0xbd48c708	-0.049017936
19	0x3de11c2c	0.109917015
20	0xbdd3adaa	-0.10335858
21	0x3cee8b30	0.029119104
22	0xbc6376a0	-0.013883263
23	0xbdb77460	-0.08957744
24	0xbcb39368	-0.021920875
25	0xbc794a10	-0.015215412
26	0x3c42b910	0.011884943
27	0x3cf95c80	0.030439615
28	0xbd5b189c	-0.053490266
29	0x3d5eec68	0.054424673
30	0x3df7d480	0.12101078
31	0xbdba6c94	-0.09102741
32	0x3ca089c8	0.01959695
33	0x3cb2ef88	0.021842733
34	0x3df9001e	0.121582255
35	0xbae9f080	-0.0017848164
36	0x3c80dc90	0.015730172
37	0x3d869a7a	0.06572433
38	0x3d6873a4	0.05675091
39	0xbde23176	-0.1104459
40	0x3c2ae130	0.010429665
41	0xbd85467c	-0.065075845
42	0x3de1ee50	0.110317826
43	0x3ddeab7e	0.10872553
44	0x3c6cddc0	0.014457166
45	0xbd84b8d0	-0.06480563
46	0xbd06a9b4	-0.032876685
47	0xbda21b18	-0.07915324
48	0x3d6c9d5c	0.057767257
49	0x3c4ef600	0.012631893
50	0x3de1f644	0.110332996
51	0xbda56180	-0.08075237
52	0xbdd7db9e	-0.105399355
53	0x3ded4bd0	0.11586726
54	0xbde9ca2c	-0.11415514
55	0xbd3c4b44	-0.045970216
56	0xbcae2928	-0.02125986
57	0xbca97bf8	-0.020688996
58	0x3cc50a70	0.024052829
59	0xbd726d20	-0.0591861
60	0x3d84377c	0.06455895
61	0x3cd7da28	0.026349142
62	0x3dd80832	0.10548438
63	0x3da00532	0.07813491
64	0x3c508aa0	0.012728363
65	0x3d8848e0	0.06654525
66	0xbd1dd5e4	-0.03853406
67	0x3d26a954	0.040688828
68	0x3d4e2940	0.050332308
69	0xbb3729c0	-0.002794847
70	0xbd76f288	-0.06028989
71	0xbdc7729a	-0.097386554
72	0x3d183294	0.03715761
73	0x3c3b9010	0.011447921
74	0x3d9e1aae	0.077199325
75	0x3d6ab558	0.05730185
76	0xbca214e8	-0.01978536
77	0x3c9e2320	0.019303858
78	0xbde35e14	-0.11101928
79	0x3dd31d58	0.10308331
80	0x3d8df5f6	0.06931679
81	0x3cc27f08	0.023742214
82	0xbdee78c0	-0.11644125
83	0x3de98a66	0.114033505
84	0x3bf59d20	0.0074955374
85	0x3dde9870	0.10868919
86	0xbdda9d1c	-0.106744975
87	0x3ba8dfa0	0.0051536113
88	0xbd660a74	-0.056162313
89	0xbdd49174	-0.103793055
90	0xbd083624	-0.033254758
91	0x3c821488	0.01587893
92	0xbdfb23ca	-0.122626856
93	0xbdc260ae	-0.094910964
94	0x3d412a54	0.047159508
95	0xbdea8fd8	-0.11453217
96	0xbdadd6c2	-0.084882274
97	0xbdd112d4	-0.10208669
98	0xbcc63e60	-0.024199665
99	0xbd5e3fc0	-0.054260015
100	0x3b9796e0	0.00462614
101	0xbde2ecdc	-0.110803336
102	0x3ce3ff38	0.027831659
103	0xbdfabe82	-0.12243368
104	0xbc389220	-0.011265308
105	0x3c0a2d90	0.0084337145
106	0x3cccd4b0	0.025003761
107	0x3c02cad0	0.007982925
108	0x3dc2e398	0.09516066
109	0xbd03ce78	-0.032179326
110	0xbde30966	-0.11085777
111	0x3d76908c	0.060196444
112	0xbdb3516a	-0.08755763
113	0x3d3b81e0	0.045778155
114	0x3dc93de0	0.09826255
115	0x3de4b1fa	0.11166759
116	0xbd104934	-0.035226062
117	0x3d561268	0.052263647
118	0x3d13119c	0.035905465
119	0x3cd22780	0.0256536
120	0xbc698ff0	-0.014255509
121	0xbda7f8ba	-0.08201738
122	0x3dafae4c	0.08578166
123	0x3d0b70c4	0.03404309
124	0xbd4f6cdc	-0.050640926
125	0xbd18c73c	-0.03729938
126	0x3d48e7bc	0.049049124
127	0x3d2effd0	0.04272443
128	0x3d262654	0.040563896
129	0xbdc9bb72	-0.098502055
130	0x3db571ce	0.08859597
131	0xbd46091c	-0.04834853
132	0xbcef40f8	-0.029205784
133	0xbde84bc2	-0.11342575
134	0xbd39e51c	-0.04538451
135	0x3df9b98c	0.121935934
136	0x3d1a9bf8	0.0377464
137	0xbde7ef96	-0.11324994
138	0xbd1089b0	-0.03528756
139	0xbd8c4d50	-0.06850684
140	0x3db7a7ea	0.08967574
141	0xbd9c498a	-0.07631214
142	0xbd7a3f94	-0.06109579
143	0x3d8fb982	0.07017805
144	0xbd259f1c	-0.04043494
145	0x3c83e668	0.016101077
146	0x3cb766c0	0.022387862
147	0xbcf732d8	-0.030175611
148	0x3de22ef4	0.11044112
149	0x3ded2be4	0.11580637
150	0x3d200100	0.039063454
151	0xbd5a6c40	-0.05332589
152	0xbd955ae4	-0.07292727
153	0x3d815dd0	0.063167214
154	0x3df184be	0.11792897
155	0x3d83e43c	0.064400166
156	0x3d2ee7c8	0.042701513
157	0xbd94fa5a	-0.07274313
158	0xbd8c176c	-0.06840405
159	0xbdca90a4	-0.09890869
160	0x3dd051d2	0.10171856
161	0x3de2f8d2	0.11082615
162	0x3d3dd4f0	0.04634565
163	0x3db0f97e	0.08641337
164	0x3d2465a8	0.04013601
165	0xbcb65b18	-0.022260234
166	0xbd911220	-0.07083535
167	0xbd45df78	-0.04830882
168	0x3dd592c0	0.10428381
169	0xbb877de0	-0.0041348785
170	0x3de9c04c	0.11413631
171	0x3d1c1294	0.038103655
172	0xbd154de0	-0.03645122
173	0x3d30adb0	0.04313439
174	0xbd98122c	-0.07425341
175	0xbd8b63be	-0.06806134
176	0xbd9a0458	-0.0752036
177	0xbd976140	-0.07391596
178	0xbcb46ca8	-0.022024468
179	0x3d8c4372	0.06848802
180	0x382cb000	4.117191e-05
181	0x3dca7e5a	0.09887381
182	0xbda90ef2	-0.08254804
183	0x3da9fbf2	0.08300008
184	0x3d9273d6	0.07151
185	0x3d0c7340	0.0342896
186	0x3d1f9580	0.038960934
187	0x3c2aa350	0.010414913
188	0x3da01ade	0.078176245
189	0x3df0c1a6	0.117556855
190	0x3c483b90	0.012221232
191	0xbda495ba	-0.080363706

head.0.weight f4 [64, 64]
0	0x3dc46648	0.09589821
1	0x3ddefc04	0.10887912
2	0xbdef895c	-0.11696121
3	0x3dab242e	0.0835651
4	0x3cb38f50	0.021918923
5	0xbd34c258	-0.044130653
6	0xbdcf00f8	-0.10107607
7	0x3dba7d44	0.09105924
8	0x3db8fcfc	0.09032628
9	0xbd6251ec	-0.055253908
10	0x3d3187e4	0.043342486
11	0xbcddffb0	-0.02709946
12	0xbd99b376	-0.075049326
13	0x3d911be6	0.07085399
14	0xbd929f58	-0.07159299
15	0xbdffb7b6	-0.12486212
16	0xbd9566d6	-0.07295005
17	0x3da01cac	0.07817969
18	0xbdbc17d0	-0.091842294
19	0xbd60be0c	-0.054868743
20	0xbd37caec	-0.044871256
21	0x3c5fde60	0.013663858
22	0xbd088884	-0.033333316
23	0x3d98a25a	0.07452841
24	0x3dfede10	0.12444699
25	0xbd545b1c	-0.0518447
26	0xbd1c942c	-0.038227245
27	0x3da1c2a6	0.07898454
28	0x3d8257a0	0.063643694
29	0x3dfa68ae	0.12226997
30	0xbd0953f0	-0.033527315
31	0xbd835ba0	-0.064139605
32	0x3c5b97f0	0.013402924
33	0xbc6395d0	-0.013890699
34	0x3d4424e0	0.04788673
35	0x3d858b24	0.065206796
36	0xbd90c32a	-0.070684746
37	0x3bd406a0	0.0064705163
38	0x3d8aa43e	0.06769608
39	0x3df510d6	0.11966102
40	0x3dda2cb4	0.10653058
41	0x3cda9670	0.026683062
42	0xbd2e8abc	-0.042612776
43	0x3cf63100	0.030052662
44	0xbda595e0	-0.08085227
45	0x3d72edf8	0.059308976
46	0x3cd3b378	0.025842413
47	0x3dff0322	0.124517694
48	0xbd04a234	-0.03238125
49	0xbd31f238	-0.04344389
50	0xbd73d3e0	-0.05952823
51	0xbc2933f0	-0.010327324
52	0xbbe7ee80	-0.007077992
53	0x3cead790	0.028667241
54	0xbc1e1e30	-0.009650752
55	0x3d317d9c	0.04333268
56	0x3d20c3cc	0.039249226
57	0xbdd2ee5c	-0.1029937
58	0xbd9d0a6c	-0.076680034
59	0x3cb51d58	0.022108719
60	0x3d319a30	0.043359935
61	0x3d10c2f0	0.035342157
62	0x3d92c298	0.07166022
63	0x3d27042c	0.040775463
64	0xbcb52e28	-0.022116736
65	0x3d8cd5fa	0.0687675
66	0xbdfbab34	-0.12288514
67	0xbdcaa51a	-0.09894772
68	0xbd927b54	-0.07152429
69	0xbdc953ec	-0.0983046
70	0xbdb026d2	-0.086011544
71	0xbd69e5a4	-0.057103768
72	0x3dc40504	0.09571269
73	0x3d0992e0	0.033587337
74	0xbd116274	-0.035494283
75	0x3dc34118	0.095339
76	0x3d3ba1ac	0.04580848
77	0xbd1137dc	-0.035453662
78	0xbc525830	-0.012838408
79	0x3d9454f4	0.07242766
80	0xbd915366	-0.07095985
81	0xbc13c3f0	-0.009018883
82	0xbdfca54a	-0.12336214
83	0x3dd9a6ee	0.106275424
84	0x3d8c43ac	0.06848845
85	0x3d7134b8	0.058888167
86	0x3ddd8b2a	0.10817559
87	0x3d281410	0.041034758
88	0x3de278f8	0.11058229
89	0x3d7b9fbc	0.06143163
90	0xbd8f3c6a	-0.06993945
91	0x3dd8648c	0.10566053
92	0xbc7e10c0	-0.015506923
93	0x3df04c4c	0.117333025
94	0xbda2d8d6	-0.079515144
95	0x3d6d9e58	0.058012336
96	0xbd5a4350	-0.05328685
97	0xbcc0a720	-0.023517191
98	0x3dfe961a	0.12430973
99	0x3d471064	0.048599616
100	0x3d733504	0.05937673
101	0xbd668b4c	-0.056285188
102	0x3cd80b40	0.026372552
103	0xbda5bb18	-0.08092326
104	0x3dbdf196	0.092745945
105	0x3da43b9e	0.080191836
106	0xbb397e40	-0.002830401
107	0xbdb72ca8	-0.089440644
108	0xbd069d6c	-0.032864973
109	0xbb685840	-0.0035452992
110	0xbdb849ea	-0.08998473
111	0xbd82e7d6	-0.063918754
112	0x39d2b400	0.00040188432
113	0x3d6ee0a8	0.058319718
114	0x3d93f710	0.07224858
115	0xbd84097c	-0.064471215
116	0x3d6dce5c	0.058058128
117	0xbd5a46a0	-0.05329001
118	0xbc535de0	-0.0129007995
119	0x3d4d33e8	0.05009833
120	0xbcd8bf60	-0.026458442
121	0x3d3cb994	0.04607542
122	0x3c88f368	0.016717628
123	0x3dc1c34c	0.09461078
124	0xbb0c02c0	-0.0021363944
125	0xbc49a3b0	-0.012307093
126	0xbdda6ddc	-0.10665485
127	0x3cd361f0	0.025803536
128	0xbd903f5e	-0.07043336
129	0x3db8f908	0.09031874
130	0x3d01fb3c	0.031733736
131	0xbdf5b644	-0.11997655
132	0x3d2448e4	0.040108576
133	0x3d118570	0.035527647
134	0xbc6d2a20	-0.014475375
135	0xbda7c232	-0.08191337
136	0xbdb195f8	-0.086711824
137	0x3d6485d0	0.055791676
138	0x3d2742e8	0.04083529
139	0x3d660cac	0.05616443
140	0x3cf6f8f8	0.030148014
141	0x3bf06260	0.007335946
142	0xbdff4b82	-0.12465574
143	0x3c21e230	0.009880587
144	0xbdbfd22c	-0.09366259
145	0x3d326d88	0.04356149
146	0xbc8ce070	-0.017196864
147	0xbdb477f0	-0.08811939
148	0x3d86f642	0.06589939
149	0x3d8521e8	0.06500608
150	0xbbbe0fc0	-0.0058002174
151	0xbd314c1c	-0.043285474
152	0xbd025030	-0.031814754
153	0xbd0775b8	-0.03307125
154	0xbd7a2654	-0.06107171
155	0x3d2a4c4c	0.04157667
156	0x3df43f9e	0.119261965
157	0xbd844478	-0.06458372
158	0xbd9aec16	-0.07564561
159	0x3ca4e000	0.020126343
160	0xbdc9acb6	-0.09847395
161	0x3d64a5d8	0.055822223
162	0x3de0063c	0.10938689
163	0x3dca74ec	0.09885582
164	0x3dde6d62	0.10860707
165	0xbda1b2ea	-0.07895453
166	0x3cab4df8	0.020911202
167	0x3ddde5d2	0.1083485
168	0xbdc20854	-0.09474245
169	0x3defaec2	0.11703254
170	0xbdd94bc2	-0.10610153
171	0x3cbeca58	0.023289844
172	0xbdc78d3a	-0.09743734
173	0x3d23dbc4	0.040004507
174	0x3cb87c10	0.022520095
175	0x3d56ffb0	0.052489936
176	0xbcd68140	-0.026184678
177	0xbd3ff5e8	-0.046865374
178	0x3d866170	0.065615535
179	0x3db55c64	0.08855513
180	0x3c88d9e0	0.016705453
181	0xbd119f90	-0.03555256
182	0x3cdda6c0	0.027057052
183	0xbdd3bcb4	-0.10338727
184	0xbd8cf050	-0.068817735
185	0xbdc65e90	-0.09686005
186	0xbd3fa9e0	-0.046792865
187	0xbd4017f4	-0.046897843
188	0x3c4053c0	0.011738718
189	0x3cf719e0	0.030163705
190	0xbd8d6392	-0.06903757
191	0xbd297e10	-0.04137999
192	0x3dc20446	0.09473471
193	0x3db8faa8	0.09032184
194	0x3dd4ea10	0.103962064
195	0x3cb8c6b0	0.02255568
196	0x3db5f166	0.08883934
197	0xbdd20472	-0.10254754
198	0x3d13c084	0.03607227
199	0x3d63cf30	0.05561751
200	0xbdce3224	-0.10068157
201	0xbde087f2	-0.109634295
202	0x3da21842	0.07914783
203	0xbdc0a058	-0.09405583
204	0x3dff8f50	0.124785066
205	0x3d7375c0	0.059438467
206	0xbdca4186	-0.09875779
207	0xbdfdc0b4	-0.12390271
208	0xbd778d78	-0.06043765
209	0x3cd42260	0.025895298
210	0x3d6b21dc	0.057405338
211	0x3db7f976	0.08983128
212	0x3d87f3f6	0.06638329
213	0x3c9bc178	0.019013152
214	0xbd304d00	-0.043042183
215	0xbcfe3bb0	-0.03103432
216	0x3d8f7b52	0.07005943
217	0xbd3ca9b8	-0.046060294
218	0x3df40ef0	0.119169116
219	0x3d3d40d4	0.046204403
220	0x3d8dd8c8	0.06926113
221	0x39c90a00	0.00038345158
222	0x3dd639f4	0.104602724
223	0xbd7d3178	-0.061814755
224	0xbc795ba0	-0.015219599
225	0xbdf46012	-0.119323865
226	0xbd8071e8	-0.06271726
227	0x3d86939c	0.06571123
228	0xbdbb9e04	-0.091609985
229	0x3dac1774	0.08402911
230	0xbd831e9a	-0.06402321
231	0xbd947aee	-0.072500095
232	0x3c675a70	0.014120683
233	0x3b859660	0.004076764
234	0xbdc5376e	-0.09629713
235	0x3cccf0d0	0.025017172
236	0xbd350e58	-0.044203132
237	0x3d325de0	0.043546557
238	0xbd931f60	-0.07183719
239	0x3d3981b4	0.04528971
240	0xbd9376aa	-0.07200368
241	0x3dbd1972	0.09233369
242	0x3dd4f2d4	0.10397878
243	0xbd2f10b4	-0.04274054
244	0xbd86b938	-0.065782964
245	0xbd8da502	-0.06916238
246	0x3da0b830	0.07847631
247	0xbd28f8b8	-0.04125282
248	0x3b8670e0	0.004102811
249	0x3dcef354	0.10105005
250	0x3d2e7784	0.042594448
251	0xbd14ef98	-0.036361307
252	0xbd552ed4	-0.052046612
253	0x3c3a1270	0.011356935
254	0x3d922ff0	0.071380496
255	0x3da6f166	0.08151512

head.0.bias f4 [64]
0	0xbdf37ef4	-0.11889449
1	0xbd6c8898	-0.057747453
2	0xbdb597da	-0.08866854
3	0x3da34de2	0.07973839
4	0xbddd6f5e	-0.10812257
5	0xbde3f3fa	-0.11130519
6	0x3dcf184e	0.101120576
7	0x3d91f79a	0.071273044
8	0xbd904018	-0.07043475
9	0xbd909dac	-0.070613235
10	0xbd7c97f8	-0.061668366
11	0x3d71ebac	0.059062645
12	0x3ad9fe80	0.0016631633
13	0xbbb62b80	-0.005559385
14	0x3d81793c	0.06321952
15	0x3dc98768	0.0984028
16	0x3c1308a0	0.008974224
17	0x3dec8a2a	0.1154979
18	0xbdbf7b12	-0.09349646
19	0xbdb3ea72	-0.08784951
20	0xbc2049f0	-0.009783253
21	0x3ddcc636	0.10779993
22	0xbda3c07a	-0.07995696
23	0xbd7bc69c	-0.061468706
24	0xbccf2cd0	-0.025289923
25	0xbd27a844	-0.040931955
26	0x3dadb362	0.0848148
27	0xbddd50d2	-0.10806431
28	0xbd73fc5c	-0.05956684
29	0x3dd695b0	0.104777694
30	0xbc1aefb0	-0.00945656
31	0xbdb1f43c	-0.08689162
32	0x3c358920	0.011080056
33	0xbdbc931e	-0.09207748
34	0xbdc6dd5c	-0.0971019
35	0x3df86fb6	0.12130682
36	0x3c927b68	0.01788111
37	0x3c477cc0	0.012175739
38	0x3b319040	0.0027094036
39	0xbd8b184a	-0.06791742
40	0x3dbae762	0.09126164
41	0x3c8eec98	0.017446801
42	0x3d3df334	0.046374515
43	0xbdb3518a	-0.08755787
44	0x3c780e60	0.015140146
45	0xbc036330	-0.008019254
46	0xbd922e80	-0.071377754
47	0x3c935088	0.017982736
48	0xbdb6b6b0	-0.089215636
49	0xbd3997a4	-0.04531063
50	0x3ddf8d3a	0.10915609
51	0x3da703a6	0.08154993
52	0xbc8295e8	-0.015940621
53	0x3cddf710	0.027095348
54	0xbdb432da	-0.08798762
55	0xbd8f4316	-0.069952175
56	0xbca061c8	-0.019577876
57	0x3dea07f6	0.114273
58	0xbd3308a4	-0.043709412
59	0x3cfc6410	0.030809432
60	0xbd549860	-0.05190313
61	0x3d1a78b8	0.037712783
62	0xbdefbaba	-0.11705537
63	0xbbeccfc0	-0.007226914

head.2.weight f4 [1, 64]
0	0xbd4c26e8	-0.04984179
1	0xbcdf2d58	-0.027243301
2	0x3c772e90	0.015086785
3	0x3dc2368a	0.09483059
4	0xbdf37548	-0.11887604
5	0xbddc68fe	-0.10762213
6	0x3d52d018	0.051467985
7	0xbda3187e	-0.07963656
8	0x3dd2fcae	0.10302101
9	0x3df6542a	0.12027772
10	0x3c6a4c40	0.014300406
11	0x3dcec8e0	0.100969076
12	0x3d3817c8	0.044944555
13	0x3dca3816	0.09873979
14	0xbd0d3ed8	-0.03448376
15	0xbba732e0	-0.0051025003
16	0x3d1f8d44	0.03895308
17	0x3d875d0a	0.06609543
18	0x3df73a0c	0.120716184
19	0xbdc15ae4	-0.09441164
20	0x3dddbef0	0.10827434
21	0xbd5db258	-0.05412516
22	0x3df7bfc8	0.12097126
23	0x3d9b07b6	0.0756983
24	0x3dbfc62c	0.0936397
25	0x3cd95500	0.026529789
26	0xbda11980	-0.07866192
27	0xbdf505a6	-0.11963968
28	0xbd3f10d4	-0.046646908
29	0xbd9def26	-0.077116296
30	0xbd2e6540	-0.04257703
31	0x3de7260c	0.11286554
32	0xbdf74d62	-0.120753065
33	0x3d9083f0	0.07056415
34	0xbd931558	-0.07181805
35	0x3c11feb0	0.00891082
36	0xbd698e48	-0.057020456
37	0xbc092810	-0.008371368
38	0x3df66858	0.12031621
39	0xbdd2c19c	-0.10290834
40	0xbd21ac3c	-0.039470896
41	0xbdb88646	-0.090099856
42	0xbc4fd100	-0.012684107
43	0xbda1ede4	-0.07906702
44	0x3da4ab88	0.080405295
45	0xbc92e438	-0.017931089
46	0xbae03a80	-0.0017107278
47	0xbdaa639e	-0.08319782
48	0x3de7a188	0.113101065
49	0x3d13eb6c	0.036113188
50	0xbd9d5094	-0.07681385
51	0x3dd6fafe	0.10497092
52	0x3d810460	0.062996626
53	0xbdf916a4	-0.121625215
54	0x3c9b8f10	0.018989116
55	0xbdfa9cc0	-0.12236929
56	0x3de6bfcc	0.11267051
57	0x3d9b69ca	0.07588537
58	0xbd835dbe	-0.06414364
59	0x3d28342c	0.04106538
60	0x3d081d70	0.0332312
61	0x3d1d9c7c	0.038479313
62	0x3da445e6	0.080211446
63	0x3d288dc4	0.041150823
