outputs/exp_0002_20251212_235529/runs/seed0/h10/ReservoirReplay/model_final.pt (torch, 71493 bytes, 7 tensors)

gru.weight_ih_l0 f4 [192, 1]
0	0x3dbf1d8e	0.09331809
1	0x3db490bd	0.08816669
2	0xbe12c86c	-0.14334267
3	0xbe2fb74c	-0.17159766
4	0x3d2936de	0.04131209
5	0xbc2f14d9	-0.010686123
6	0x3e6b326d	0.22968455
7	0x3e2f7798	0.17135465
8	0xbe923249	-0.2855399
9	0x3d8ecb55	0.06972376
10	0xbd92d323	-0.071691774
11	0x3d9ae7ef	0.07563769
12	0xbec2b1ff	-0.38026425
13	0xbbcf8f6b	-0.0063342354
14	0x3c2f11a9	0.010685363
15	0x3d83a437	0.06427806
16	0xbe035aa5	-0.12827547
17	0x3e6f0fb1	0.2334583
18	0x3d734515	0.059392054
19	0xbea90473	-0.33011207
20	0x3d9a1872	0.07524194
21	0x3e2192a9	0.15778603
22	0xbc9175a3	-0.017756289
23	0x3dde5a70	0.10857093
24	0x3d917221	0.071018465
25	0xbe3afba2	-0.18260053
26	0x3e3eca67	0.18631898
27	0xbd6b3921	-0.05742753
28	0xbe211193	-0.1572936
29	0x3cd009f8	0.025395378
30	0xbc74ddf3	-0.014945495
31	0xbd74775e	-0.05968415
32	0xbdf3bc2e	-0.11901127
33	0x3a2125eb	0.0006147313
34	0xbcd34e83	-0.025794273
35	0xbe2db1df	-0.16962384
36	0xbe2d76ed	-0.16939898
37	0x3ea5f01d	0.32409754
38	0x3caf962b	0.02143391
39	0xbb53930e	-0.0032283696
40	0x3e21d957	0.15805565
41	0x3d47d6e4	0.04878892
42	0x3d2e0051	0.04248077
43	0x3c65d85f	0.014028638
44	0xbdc0bdb8	-0.09411186
45	0xbdd7412e	-0.10510479
46	0x3e478e78	0.19487941
47	0x3e3d49d2	0.18485191
48	0xbc832c05	-0.016012201
49	0xbdd6c330	-0.10486448
50	0x3e30bf13	0.17260389
51	0x3e24c770	0.16091704
52	0x3859d488	5.1934767e-05
53	0x3df96def	0.12179171
54	0x3e721e16	0.2364429
55	0x3ea5aa90	0.3235669
56	0xbdafd66d	-0.0858582
57	0x3d2ad3b7	0.041705813
58	0xbe5510f1	-0.20807244
59	0x3cfa3fcc	0.030547999
60	0x3e1f46c0	0.15554333
61	0x3ec91842	0.3927632
62	0xbd19fabe	-0.037592642
63	0x3e961d00	0.29319
64	0x3c406749	0.011743375
65	0x3ebf23f4	0.37332118
66	0x3dbb08c5	0.09132532
67	0x3d117830	0.03551501
68	0x3e0c64af	0.13710283
69	0xbccf998e	-0.025341775
70	0xbc8a2693	-0.016864097
71	0xbdf23dc7	-0.11828189
72	0x3ec07577	0.3758962
73	0x3de941f0	0.1138953
74	0x3e87e630	0.26542807
75	0x3d9a3d31	0.075312026
76	0x3e287955	0.16452534
77	0xbdf59fdb	-0.11993381
78	0x3d20e8cb	0.03928451
79	0xbdc3572f	-0.09538113
80	0xbf552712	-0.8326274
81	0x3dc3567c	0.0953798
82	0xbdefc41a	-0.11707325
83	0xbf57505c	-0.84106994
84	0x3cc6278a	0.024188776
85	0x3e361a49	0.17783464
86	0x3d58b243	0.05290438
87	0xbd30f765	-0.043204684
88	0x3ea08a60	0.31355572
89	0x3dd3d7e3	0.103439115
90	0xbe5a5974	-0.21323186
91	0xbd01de63	-0.031706225
92	0x3de78912	0.11305441
93	0x3d643aae	0.055720024
94	0xbd58037f	-0.05273771
95	0xbf0a92d0	-0.5413027
96	0x3c84ce9c	0.0162118
97	0x3e04b2ab	0.12958781
98	0x3da41edd	0.08013699
99	0x3dc2ab1c	0.09505293
100	0x3df964e6	0.12177448
101	0x3e0f14ff	0.13972853
102	0xbce8f1a8	-0.028435543
103	0x3e3b3bae	0.18284485
104	0x3de12f66	0.10995369
105	0xbdaf96f0	-0.08573711
106	0xbd3a14d5	-0.045430023
107	0xbc87a2a6	-0.016557049
108	0x3e3f1f34	0.18664247
109	0x3b4e7116	0.003150051
110	0x3dc6496c	0.09681973
111	0x3db7068e	0.08936797
112	0xbd3f5adf	-0.04671752
113	0xbdebb6bb	-0.115094624
114	0x3eb599b0	0.35468817
115	0x3c94c06e	0.018158164
116	0xbe271e69	-0.16320194
117	0xbe23b535	-0.15987094
118	0x3da08adc	0.07838985
119	0xbe549363	-0.20759349
120	0xbce8c143	-0.028412467
121	0xbda62a24	-0.081135064
122	0xbeb327b5	-0.34991232
123	0x3e69eb7a	0.22843733
124	0xbde55bc5	-0.11199144
125	0x3c70a079	0.014686697
126	0x3d968b74	0.07350817
127	0x3dd42917	0.103594
128	0xbd965d42	-0.07342006
129	0xbe552dc4	-0.2081824
130	0xbc030f4a	-0.007999251
131	0x3e2a2f64	0.1661964
132	0xbe4049ff	-0.18778227
133	0xbd59322a	-0.053026356
134	0x3e2522bc	0.16126531
135	0xbd6cad2c	-0.057782337
136	0x3cedd8d0	0.029034048
137	0x3d295fbd	0.04135107
138	0xbcf2cccd	-0.029638672
139	0x3dd75fe9	0.1051634
140	0x3ec52a2c	0.38508737
141	0x3dfc7798	0.12327498
142	0x3e211c63	0.15733485
143	0x3d422728	0.047400624
144	0xbea79289	-0.32728985
145	0xbe1265c2	-0.1429663
146	0x3e8af003	0.2713624
147	0xbed9defd	-0.4255294
148	0xbdd1af39	-0.10238499
149	0xbe89adb9	-0.26890352
150	0xbe1af160	-0.1513114
151	0xbe0e378b	-0.13888375
152	0xbe578b8d	-0.21049328
153	0x3d95e693	0.07319369
154	0x3dc98463	0.09839704
155	0xbe36b0ef	-0.17840932
156	0x3e052967	0.13004075
157	0xbdbcb18f	-0.09213554
158	0xbdefc602	-0.11707689
159	0xbe8119ee	-0.25215095
160	0xbab7bfee	-0.0014018991
161	0xbd80cb3c	-0.06288764
162	0xbe64dab8	-0.2234906
163	0xbdd7426f	-0.10510718
164	0xbb26524a	-0.0025378638
165	0x3d4493bb	0.04799245
166	0xbdefa0c1	-0.11700583
167	0x3df413b9	0.11917824
168	0xbe2804d8	-0.16408098
169	0x3da2a665	0.079418935
170	0x3e1cbcde	0.15306422
171	0x3e1794bb	0.1480283
172	0x3e4e97b3	0.20175056
173	0x3e560882	0.20901683
174	0xbe298c28	-0.16557372
175	0x3e09d374	0.13459569
176	0xbda2f96f	-0.07957732
177	0xbd62172a	-0.055197872
178	0x3e82e0dd	0.25562182
179	0xbe215df0	-0.1575849
180	0x3d0b0d4d	0.03394823
181	0xbd199f97	-0.037505712
182	0x3e1a8fdd	0.15093942
183	0x3eafe3db	0.34353527
184	0x3e0dbc37	0.1384133
185	0x3e6ea9a4	0.233069
186	0xbdbe0835	-0.09278909
187	0x3dc53303	0.0962887
188	0xbe2e8df4	-0.17046338
189	0xbd8f598f	-0.06999504
190	0x3d2907ca	0.041267194
191	0x3db7f984	0.08983138

gru.weight_hh_l0 f4 [192, 64]
0	0xbe5e35da	-0.2170023
1	0xbdbb8382	-0.091559425
2	0xbd4a9ff0	-0.049468935
3	0xbd84faf1	-0.06493176
4	0xbe5ccf01	-0.2156334
5	0x3c0c5e73	0.00856744
6	0xbcdda0fe	-0.027054306
7	0xbe1fef3e	-0.15618607
8	0xbdb87270	-0.09006202
9	0x3a70cb2c	0.00091855484
10	0xbe09f8ae	-0.1347377
11	0x3d81a03c	0.063293904
12	0xbdcc0956	-0.09962718
13	0x3e47b618	0.19503057
14	0x3d8be279	0.068303056
15	0x3cd6ac85	0.02620531
16	0x3c90925d	0.017647916
17	0xbd9b6a23	-0.07588603
18	0xbdbe70bd	-0.09298847
19	0xbd379c16	-0.04482659
20	0xbd51e59b	-0.05124436
21	0xbe2ff9b7	-0.17185102
22	0xbddb95f8	-0.10721964
23	0xbcb8cab7	-0.0225576
24	0xbdb9461d	-0.09046576
25	0x3d4d8854	0.05017884
26	0x3e6d4d82	0.23174098
27	0xbe65eadc	-0.22452873
28	0x3ca1c890	0.019748956
29	0xbc7d4d6c	-0.015460353
30	0xbd332127	-0.04373279
31	0xbcc789a2	-0.02435762
32	0xbe11bdaf	-0.14232515
33	0x3e5659e7	0.20932733
34	0xbdf3d0b1	-0.11905039
35	0xbe122aa4	-0.14274079
36	0xbcf9fd3b	-0.030516258
37	0x3d90bc40	0.07067156
38	0xbe0837eb	-0.13302581
39	0x3e6857e5	0.22689779
40	0xbdcaf8cc	-0.099107355
41	0x3e4f6194	0.20252067
42	0x3e2637c7	0.16232215
43	0xbc9a456d	-0.018831933
44	0x3dcde141	0.100527294
45	0xbd5cccc9	-0.053906236
46	0xbe217476	-0.15767083
47	0x3cd6967a	0.0261948
48	0x3c06ad25	0.008219992
49	0xbc18985a	-0.009313667
50	0x3abc56b7	0.0014369105
51	0xbd946f94	-0.07247844
52	0x3cc6c1cb	0.02426233
53	0xbe860796	-0.26177663
54	0x3e45f9de	0.19333598
55	0xbc9122dd	-0.01771682
56	0xbd1b5bf0	-0.037929475
57	0x3db39969	0.08769495
58	0xbdfcce6b	-0.123440586
59	0xbbbdcd30	-0.0057922825
60	0xbba5d056	-0.005060236
61	0xbde63f9a	-0.112426
62	0xbda08dd9	-0.07839555
63	0xbd82423d	-0.0636029
64	0xbe05815b	-0.13037626
65	0xbbe7dcc0	-0.007075876
66	0x3d7bcdfd	0.061475743
67	0xbc35037a	-0.011048192
68	0x3d88e87a	0.066849664
69	0xbd6f83e1	-0.05847538
70	0x3e50d67f	0.20394324
71	0x3df2ff45	0.11865095
72	0xbd74f605	-0.059804935
73	0x3dafcb4d	0.085836984
74	0xbe394da1	-0.1809602
75	0x3bda296b	0.0066577694
76	0x3dd1a6fd	0.102369286
77	0x3e0a6b40	0.13517475
78	0x3a6b50b3	0.00089765637
79	0xbdad3e01	-0.08459092
80	0xbdd29372	-0.10282029
81	0xbd8060ab	-0.06268438
82	0xbe5bf39f	-0.21479653
83	0xbe5dcdc2	-0.21660522
84	0xbc075e52	-0.008262234
85	0x3d8dba7c	0.06920335
86	0x3da850d7	0.08218544
87	0x3ddb49a5	0.10707406
88	0x3d3e7b51	0.046504322
89	0xbd2ac767	-0.04169407
90	0x3cba00b6	0.022705417
91	0x3e220857	0.15823494
92	0xbd9a41ed	-0.075321056
93	0x3c2c9b94	0.01053514
94	0xbe205a82	-0.15659526
95	0xbcddc643	-0.027072078
96	0x3de759f6	0.112964556
97	0xbe0060db	-0.12536947
98	0xbb71c591	-0.003689144
99	0x3e1f3043	0.15545754
100	0xbd840ec9	-0.064481325
101	0x3df391c6	0.118930385
102	0xbd7ce36a	-0.061740316
103	0xbcc2b1f3	-0.023766493
104	0xbcffd743	-0.031230574
105	0xbdde2931	-0.108477004
106	0xbc3bd343	-0.011463943
107	0x3d2e7c14	0.0425988
108	0xbe16978c	-0.14706248
109	0x3e0e55ea	0.13899961
110	0xbe26c950	-0.16287732
111	0xbcd7490a	-0.026279945
112	0xbdda61e6	-0.10663204
113	0xbe345fe8	-0.1761471
114	0xbd6f9f3e	-0.058501475
115	0xbd9969cf	-0.074908845
116	0x3e16dec3	0.14733414
117	0xbce3c1f4	-0.027802445
118	0x3c62d93e	0.01384574
119	0xbd10566f	-0.03523868
120	0x3dec5b1f	0.115408175
121	0xbe46efdd	-0.19427438
122	0xbd21f34e	-0.039538674
123	0x3dd1cb73	0.10243883
124	0xbe115b6f	-0.14195035
125	0xbe33bc7b	-0.17552368
126	0xbd470d6b	-0.04859678
127	0xbdc18d1b	-0.09450742
128	0x3cbc3d72	0.022978518
129	0x3ca92928	0.020649508
130	0xbd8c853a	-0.068613485
131	0xbcd3d38c	-0.02585771
132	0x3d867dce	0.06566964
133	0x3e03e474	0.12880117
134	0x3d866fee	0.06564318
135	0x3c53080f	0.012880339
136	0x3c008bea	0.007845858
137	0xbd7c16d6	-0.061545216
138	0xbe1f1cde	-0.15538356
139	0xbdc445ff	-0.09583663
140	0x3e1e0240	0.15430546
141	0x3d9d4fcf	0.07681238
142	0xbd929efd	-0.07159231
143	0x3d42e182	0.047578342
144	0x3e0c1b50	0.13682294
145	0x3e15c161	0.1462455
146	0xbc68211b	-0.014168049
147	0x3e155f1c	0.14587063
148	0xbd0404ff	-0.032231327
149	0xbd904c02	-0.07045747
150	0x3dcc5f89	0.099791594
151	0x3de4818a	0.1115752
152	0x3bd6979d	0.0065488354
153	0x3e3c79d8	0.18405855
154	0x3e268c02	0.16264346
155	0x3da289be	0.079364285
156	0xbdb6e122	-0.089296594
157	0x3cf2d840	0.029644132
158	0xbd73ac7f	-0.059490677
159	0x3e270eb7	0.16314207
160	0xbd75f6b3	-0.060049724
161	0x3da4ab19	0.08040447
162	0x3dbe3c08	0.09288794
163	0x3d71a0b2	0.05899114
164	0xbc62c3cd	-0.013840628
165	0x3cf0f1a5	0.0294121
166	0xbddf5680	-0.109051704
167	0x3d7757df	0.060386535
168	0xbd722a46	-0.059122346
169	0xbe2a2a52	-0.16617706
170	0xbe18b9ac	-0.14914578
171	0x3e014428	0.12623656
172	0x3d6c3c58	0.057674736
173	0x3d4f634d	0.05063181
174	0x3e0de3fd	0.13856502
175	0xbe030582	-0.1279507
176	0xbdc4eb04	-0.09615138
177	0xbd320f8c	-0.043471858
178	0xbe0bb7d4	-0.13644344
179	0x3db45352	0.088049546
180	0xbdca8c51	-0.098900445
181	0xbde5f431	-0.112282164
182	0xbe1fe7bc	-0.15615743
183	0xbcc8c304	-0.024507053
184	0x3c1e57dc	0.009664502
185	0x3e33d758	0.17562616
186	0x3dd31ec3	0.10308602
187	0x3e2198c1	0.15780927
188	0x3d9fcf69	0.07803232
189	0x3d9faf37	0.077970915
190	0x3c3096fc	0.010778185
191	0x3da66c35	0.081261076
192	0xbd111951	-0.035424534
193	0x3d64d30d	0.055865336
194	0x3d9e4043	0.07727101
195	0x3dc9fffd	0.09863279
196	0xbe10de5a	-0.1414732
197	0x3d93679a	0.07197495
198	0x3d052490	0.03250557
199	0xbda6433a	-0.08118291
200	0xbd93d465	-0.072182454
201	0xbd14948d	-0.03627448
202	0xbe27e875	-0.16397269
203	0x3e1673be	0.1469259
204	0x3de8cf04	0.1136761
205	0xbc445692	-0.011983531
206	0x3d2e9b8a	0.042628802
207	0x3e1a587f	0.15072821
208	0x3d9e7fe9	0.07739241
209	0x3b94a620	0.004536405
210	0xbe3691de	-0.17829081
211	0x3d8b168f	0.06791412
212	0x3d00d690	0.031454623
213	0xbe298274	-0.1655367
214	0x3df5a5ca	0.119945124
215	0x3dfdb581	0.12388135
216	0xbde0e62a	-0.109814
217	0x3e29f22a	0.16596285
218	0x3c053eb8	0.008132629
219	0xbc31210e	-0.0108111035
220	0x3df01230	0.11722219
221	0xbce905b8	-0.02844511
222	0xbe0711ef	-0.13190435
223	0xbe262f4a	-0.16228977
224	0xbd7b8d99	-0.061414335
225	0xbcb67133	-0.022270774
226	0x3c163a8b	0.009169231
227	0x3e2af69c	0.16695637
228	0xbabdb4db	-0.0014473455
229	0xbd8f8859	-0.07008428
230	0xbd1e6766	-0.038672827
231	0x3e20d4cd	0.15706177
232	0x3c889a68	0.01667519
233	0xbdc28ef4	-0.094999224
234	0xbd30335b	-0.043017726
235	0xbd624c78	-0.055248708
236	0xbda3d5b5	-0.07999746
237	0x3dad1fab	0.08453306
238	0xbe09f0b3	-0.13470726
239	0x3d736fac	0.05943267
240	0x3de17ab7	0.11009734
241	0xbd482d60	-0.048871398
242	0xbdb4ea45	-0.08833746
243	0xbd88cc7d	-0.06679628
244	0x3d5cf574	0.05394502
245	0xbe26e6f9	-0.16299047
246	0x3dbdb80f	0.09263622
247	0xbc0d7d25	-0.008635794
248	0xbe14f929	-0.14548172
249	0xbc8c66ab	-0.0171388
250	0xbd2cc3d6	-0.04217895
251	0x3e59fa40	0.21286869
252	0xbe72a53c	-0.23695844
253	0x3e0afe22	0.13573506
254	0xbdb8f73a	-0.0903153
255	0x3d11665c	0.035498008

gru.bias_ih_l0 f4 [192]
0	0x3ddad62f	0.106853835
1	0x3e1687ce	0.14700243
2	0x3d9138e9	0.07090933
3	0x3e06739d	0.1313004
4	0xbd0ee09f	-0.034882184
5	0x3cf3033c	0.029664628
6	0x3d8320a6	0.064027116
7	0xbd5faa14	-0.05460556
8	0x3de77f36	0.113035604
9	0x3e84b8c0	0.25922203
10	0x3e1eb61b	0.15499155
11	0xbdb87eb9	-0.090085454
12	0x3e0f7189	0.14008154
13	0x3e07b1bd	0.13251396
14	0x3cd1ea79	0.0256245
15	0xbce6178f	-0.028087405
16	0xbbec1bcf	-0.0072054635
17	0x3e1468d8	0.1449312
18	0x3d0220cd	0.031769563
19	0xbbd4de8a	-0.0064962553
20	0x3e057907	0.1303445
21	0x3db7b818	0.0897066
22	0x3d8d7149	0.06906373
23	0x3e505804	0.20346075
24	0xbd0864bf	-0.033299204
25	0x3e1c1880	0.15243721
26	0xbd55d757	-0.052207317
27	0x3ca54a27	0.02017696
28	0x3dfc85c2	0.123302
29	0x3d02cdbf	0.031934496
30	0xbc82f77e	-0.015987154
31	0x3dc22176	0.094790384
32	0x3e7da42e	0.24769661
33	0x3e0b149e	0.13582084
34	0xbdcf7c1c	-0.10131094
35	0x3dfe6238	0.124210775
36	0x3e55377b	0.20821945
37	0x3cdacde7	0.02670951
38	0xbc2a53a5	-0.010395919
39	0x3e02a000	0.12756348
40	0x3ddfdfa4	0.10931328
41	0x3cba59aa	0.022747833
42	0xbccb0e7d	-0.024787182
43	0x3db97d79	0.09057135
44	0x3d095fdf	0.033538695
45	0x3e2d5c34	0.16929704
46	0x3dede2ac	0.116155
47	0x3d93b1db	0.072116576
48	0x3e5c622c	0.21521825
49	0xbdae785c	-0.085190505
50	0x3d71c958	0.059029907
51	0x3dcd98fd	0.10038946
52	0x3d81c0e6	0.063356206
53	0x3c35e72d	0.01110248
54	0xbc207234	-0.009792853
55	0x3dbe8681	0.09302998
56	0x3de64432	0.11243476
57	0x3dbe0f36	0.09280245
58	0xbd5bb0db	-0.05363546
59	0x3db86260	0.090031385
60	0xbbaf26fe	-0.0053452244
61	0x3dd8e9b8	0.10591453
62	0x3e100db2	0.14067724
63	0xbaaf426b	-0.0013371235
64	0x3e1fb703	0.15597157
65	0xbd02aeb3	-0.031904887
66	0x3d337c1a	0.043819524
67	0xbd83b104	-0.064302474
68	0xbd9e0ccc	-0.077172846
69	0xbb7bbf6d	-0.003841366
70	0xbbe22c8d	-0.0069022835
71	0x3dd15e9b	0.10223123
72	0x3e155663	0.14583735
73	0x3c83b44e	0.016077187
74	0x3d074fde	0.03303515
75	0x3e042bd7	0.12907349
76	0xbe084db8	-0.13310897
77	0x3c10cd5f	0.008838027
78	0x3db0c0ec	0.08630547
79	0xbd61bf80	-0.05511427
80	0xbe63519d	-0.22199102
81	0x3d20e6f5	0.039282758
82	0x3de313d4	0.11087766
83	0x3e29e5b4	0.16591531
84	0xbdadc747	-0.08485275
85	0xbe109e86	-0.14122972
86	0x3c91b2de	0.017785486
87	0x3df3b818	0.119003475
88	0xbdfb8014	-0.12280288
89	0xbbe58559	-0.0070044217
90	0x3d81d837	0.06340068
91	0xbdd19cdb	-0.10234996
92	0xbcd4a68d	-0.025958324
93	0x3e020c14	0.1269992
94	0xbe31482d	-0.17312689
95	0xbcf6bbcb	-0.030118844
96	0x3ccb4ba9	0.024816351
97	0x3d8a972b	0.06767114
98	0x3e1c7abc	0.15281194
99	0x3d0f3332	0.034960933
100	0xbdad36af	-0.08457696
101	0xbd719699	-0.05898151
102	0xbd3f00df	-0.04663169
103	0x3ddc77eb	0.1076506
104	0x3d1e098a	0.038583316
105	0x3dbff3ea	0.09372695
106	0x3e28bcdf	0.16478299
107	0x3d875b5b	0.066092215
108	0x3d8a4641	0.06751681
109	0xbe1136dd	-0.14181085
110	0x3d874e47	0.06606727
111	0x3d8b571a	0.06803723
112	0xbcfbf26d	-0.030755246
113	0xbd0b9272	-0.034075208
114	0xbcd71970	-0.026257247
115	0x3dfe4dc3	0.124171756
116	0xbde71265	-0.11282805
117	0x3e03819a	0.12842408
118	0xbdb4af41	-0.088224895
119	0xbe47c795	-0.19509728
120	0xbd3e9e4f	-0.046537694
121	0x3e107911	0.14108683
122	0xbd7675cb	-0.06017093
123	0xbd6b15b3	-0.05739374
124	0x3d53b4d9	0.05168614
125	0x3e1effa4	0.15527207
126	0x3b531b03	0.0032212145
127	0x3e10528e	0.14093992
128	0x3dc844ac	0.09778723
129	0x3c20a760	0.00980553
130	0x3d76be5a	0.060240127
131	0x3dea91d0	0.11453593
132	0x3ca862ef	0.020554988
133	0xbda0c7e5	-0.07850627
134	0xbd392be5	-0.045207877
135	0x3e085f69	0.13317646
136	0x3c92bf57	0.017913504
137	0x3de8f07e	0.11373995
138	0xbd8806bb	-0.06641909
139	0xbe0c2c31	-0.13688733
140	0x3d191a0a	0.03737835
141	0xbd74603e	-0.059662096
142	0x3ce87f9f	0.028381167
143	0xbe0cfe5b	-0.13768904
144	0xbe11666f	-0.14199232
145	0x3d684d6b	0.056714457
146	0x3d82420f	0.06360256
147	0xbe14ef73	-0.14544468
148	0xbd9f9f7a	-0.077940896
149	0xbd7516fa	-0.059836365
150	0xbbf77cf7	-0.0075527388
151	0x3e1c96aa	0.15291849
152	0x3de3d0c6	0.11123805
153	0x3dc9710e	0.098360166
154	0x3d8d2a6d	0.06892858
155	0x3debc752	0.11512627
156	0xbdf462ff	-0.119329445
157	0xbdc3e287	-0.09564691
158	0xbd7bf275	-0.061510522
159	0xbe0678e2	-0.1313205
160	0x3e321452	0.17390564
161	0xbdedca6a	-0.11610873
162	0x3de8ccca	0.113671854
163	0x391805f6	0.0001449807
164	0xbe028e99	-0.12749709
165	0xbdae9b25	-0.08525685
166	0xbd1566d3	-0.036475014
167	0xbc8fcbd1	-0.017553242
168	0x3ddac6af	0.10682427
169	0xbe158be4	-0.14604145
170	0xbe32f273	-0.174753
171	0x3e2f5e56	0.1712583
172	0x3b54c9f4	0.0032469006
173	0xbca635ee	-0.020289388
174	0x3df10fc5	0.11770586
175	0xbd94e477	-0.07270139
176	0xbd16530b	-0.03670029
177	0xbda26831	-0.07930029
178	0xbdeaeb7d	-0.11470697
179	0x3d863fbb	0.06555124
180	0x3d9570e2	0.07296921
181	0xbbb27ab8	-0.005446758
182	0xbdaae525	-0.08344487
183	0x3db2cdfd	0.087306954
184	0x3e24119a	0.1602234
185	0x3d7ec2c7	0.062197473
186	0xbdc0d6b1	-0.09415949
187	0xbdc38e25	-0.09548596
188	0x3a4fa429	0.0007920885
189	0xbd89c1ba	-0.067264035
190	0xbdb1f15e	-0.08688615
191	0xbd9f209e	-0.07769893

gru.bias_hh_l0 f4 [192]
0	0x3e2257ff	0.1585388
1	0xbcf7c2ba	-0.03024422
2	0x3e5d8a6b	0.21634834
3	0x3e4e189e	0.20126578
4	0x3e2111d9	0.15729465
5	0x3e604d00	0.21904373
6	0x3e14842e	0.14503548
7	0xbd536ec9	-0.051619325
8	0x3e2a8ef4	0.16656095
9	0x3d591201	0.052995685
10	0x3e1bf79a	0.15231171
11	0x3e1c7a6c	0.15281075
12	0x3dd95247	0.10611396
13	0x3d009b8b	0.031398337
14	0xbd979619	-0.07401676
15	0xbcaea917	-0.021320863
16	0x3d13357b	0.035939675
17	0x3d8f334e	0.069922075
18	0x3d08471c	0.03327094
19	0x3dd3ab93	0.103354596
20	0x3d4272d6	0.047472797
21	0xbda1d51f	-0.07901978
22	0x3dbd46ec	0.09242043
23	0xbc8e083e	-0.017337915
24	0x3e1480d2	0.14502266
25	0xbaae0339	-0.0013276107
26	0x3e214751	0.15749861
27	0x3e24ee00	0.16106415
28	0x3dc831f9	0.097751565
29	0x3bbbe2aa	0.0057338076
30	0x3e2867bf	0.16445826
31	0x3d992e34	0.07479516
32	0x3b4a4aae	0.0030867266
33	0x3e8fb306	0.28066272
34	0x3dffa8e9	0.12483389
35	0x3ddeba9f	0.10875439
36	0x3bb478d4	0.005507568
37	0x3d9827d7	0.07429474
38	0x3d298c11	0.041393343
39	0x3e382ca1	0.17985775
40	0xbcd350ee	-0.025795426
41	0x3cf9952d	0.03046664
42	0x3d83648b	0.064156614
43	0x3de00b73	0.10939684
44	0xbc8bf5c0	-0.017084956
45	0xbce3dbd9	-0.027814792
46	0x3d10f4b0	0.035389602
47	0x3e0cdc9e	0.13756034
48	0x3e73952d	0.23787375
49	0x3cf31c3d	0.029676551
50	0xbd12bc86	-0.03582432
51	0x3e0f6125	0.14001901
52	0x3e72acba	0.23698702
53	0xbd2d0024	-0.042236462
54	0x3d6904e9	0.05688945
55	0x3e90df8f	0.28295562
56	0x3daed99f	0.08537602
57	0xbe094008	-0.13403332
58	0xbd0ea7c6	-0.03482797
59	0xbc8f1046	-0.017463814
60	0x3ca3c552	0.01999155
61	0x3e885e6a	0.26634532
62	0x3d990a70	0.07472694
63	0x3e5ae68f	0.21377014
64	0xbd886cf5	-0.06661407
65	0x3e443d5a	0.19164029
66	0x3cb521e8	0.022110894
67	0xbd781c7e	-0.060574047
68	0x3dd5307e	0.1040964
69	0xbe01801a	-0.12646523
70	0x3b9d1ff7	0.0047950703
71	0x3dd5e2ac	0.10443625
72	0x3e32daa3	0.17466216
73	0x3beea440	0.0072827637
74	0x3e1f07bc	0.15530294
75	0x3e11c7ee	0.14236423
76	0xbd876d32	-0.06612624
77	0x3ca05f60	0.019576728
78	0xbd652941	-0.055947546
79	0x3d2936a5	0.04131188
80	0xbe012cde	-0.12614772
81	0x3ddaca18	0.106830776
82	0xbd0d71d7	-0.034532394
83	0x3dc1c541	0.09461451
84	0x3d992cfe	0.07479285
85	0xbe111a20	-0.14170122
86	0xbe021960	-0.12704992
87	0xbd223cb5	-0.039608676
88	0xbdbf5714	-0.09342781
89	0x3a48d558	0.0007661185
90	0x3e5dd55d	0.21663423
91	0x3d0a859a	0.03381882
92	0x3ce50263	0.02795524
93	0x3db0083b	0.0859532
94	0xbd1d77e9	-0.038444433
95	0x3da6dfa8	0.08148128
96	0x3d7f77ea	0.06237022
97	0xbd674b05	-0.05646803
98	0x3e5ba14c	0.21448249
99	0x3ddbc204	0.10730365
100	0x3d7fe855	0.06247743
101	0x3df8d144	0.12149289
102	0x3cd530c5	0.026024232
103	0x3dce544f	0.10074674
104	0x3d15e8a0	0.0365988
105	0xbcfa2455	-0.030534903
106	0x3c603e19	0.01368668
107	0xbe26bc1e	-0.16282699
108	0x3d76b569	0.0602316
109	0xbd8cb3b6	-0.06870215
110	0x3dbd33a2	0.09238364
111	0xbdced89e	-0.1009991
112	0x3da7dffa	0.08197017
113	0x3e09f1c0	0.13471127
114	0x3d75c498	0.06000194
115	0xbdd1fcdd	-0.10253308
116	0xbd0265b2	-0.031835265
117	0xbce3768a	-0.027766485
118	0xbd4c2e3f	-0.04984879
119	0xbe40695b	-0.1879019
120	0xbd819519	-0.06327266
121	0xbc1c2a47	-0.009531564
122	0xbdadd4c9	-0.08487851
123	0xbd882304	-0.06647304
124	0x3b9fe15f	0.0048791612
125	0x3d947e94	0.07250705
126	0xbb75ebb4	-0.0037524523
127	0x3c5bebe7	0.013422943
128	0xbce3dd48	-0.027815476
129	0xbdcd89f9	-0.10036082
130	0x3e493b3c	0.19651502
131	0xbd83f9ec	-0.06444153
132	0x3de1e082	0.110291496
133	0xbd71f1a7	-0.05906835
134	0xbe2da580	-0.16957664
135	0xbdb94fe3	-0.0904844
136	0xbb22f3b7	-0.0024864504
137	0x3e31e59c	0.17372745
138	0x3d985fac	0.07440123
139	0x3d12a0bb	0.035797816
140	0x3e15e232	0.14637068
141	0x3c190bf9	0.009341233
142	0x3cdb1253	0.026742136
143	0x3dadfef2	0.084958926
144	0x3ccd98ac	0.025097214
145	0x3d7c6df9	0.061628316
146	0x3d688914	0.056771353
147	0x3be46cac	0.0069709625
148	0xbd40cc4e	-0.04706984
149	0x3d84bd1c	0.06481382
150	0x3de5d5b7	0.112224035
151	0x3e03fedf	0.12890194
152	0x3dfccb5e	0.12343477
153	0x3de5624f	0.112003915
154	0x39a06efe	0.00030600274
155	0x3bd7e044	0.006588014
156	0xbc3be33e	-0.011467753
157	0x3db81042	0.08987476
158	0xbd8a33f5	-0.06748191
159	0xbdbca937	-0.09211963
160	0xbce1670d	-0.027514959
161	0xbde7b47e	-0.11313723
162	0x3e1c9fe8	0.15295374
163	0x3ddda2c4	0.10822061
164	0xbd5ef0a2	-0.054428704
165	0xbe3fa74e	-0.18716165
166	0x3c9e40e4	0.019318052
167	0x3c6043c1	0.013688029
168	0x3d60fd5d	0.054929126
169	0xbdc8ea6e	-0.09810339
170	0x3d8e0425	0.06934384
171	0x3d94d239	0.07266659
172	0xbe0f8fc8	-0.14019692
173	0x3d66b690	0.05632645
174	0x3c957b57	0.01824729
175	0xbe1149cd	-0.14188309
176	0xbe2ba418	-0.16761816
177	0x3ad933e9	0.0016571257
178	0xbdcd8771	-0.10035599
179	0xbd9de573	-0.077097796
180	0x3dffa4bd	0.12482593
181	0xbc55aea0	-0.013042122
182	0xbe0c6330	-0.13709712
183	0x3da3a64c	0.07990703
184	0xbd828236	-0.06372492
185	0x3dcecaf4	0.10097304
186	0xbe12cab2	-0.14335135
187	0xbdd3b1ac	-0.103366226
188	0xbbb6dcad	-0.005580506
189	0xbe2bc09c	-0.16772693
190	0xbe3a993d	-0.18222518
191	0xbe34506a	-0.176088

head.0.weight f4 [64, 64]
0	0xbe1c7ff4	-0.15283185
1	0x3e5bcf3e	0.21465775
2	0xbca1e50b	-0.019762537
3	0xbdc99753	-0.09843316
4	0xbc8753e4	-0.016519494
5	0x3c407bbd	0.0117482515
6	0x3dfe9470	0.12430656
7	0xbd531ae3	-0.051539313
8	0x3da50c24	0.08058956
9	0xbdbd36ea	-0.0923899
10	0x3cd959de	0.02653211
11	0x3dd4013f	0.103518
12	0xbe91d244	-0.28480732
13	0x3d5704bf	0.05249476
14	0x3d14c7e5	0.036323447
15	0x3e22b7bf	0.15890406
16	0xbe15d3a4	-0.14631516
17	0x3e1ae914	0.15127975
18	0xbd4f41c4	-0.05059983
19	0xbe6bc29a	-0.23023453
20	0x3c94ab37	0.018148048
21	0x3daf02fa	0.085454896
22	0xbe4a253c	-0.19740766
23	0xb9bf07db	-0.00036436212
24	0x3e05f2e4	0.13080937
25	0x3dd2ea4c	0.10298595
26	0x3cdfa0c6	0.027298342
27	0xbe2d4cd6	-0.16923842
28	0x3dcd9a07	0.10039144
29	0x3de052f5	0.10953323
30	0xbc0a20c6	-0.008430665
31	0xbe56fecc	-0.20995635
32	0xbe4b79bd	-0.19870658
33	0x3e173129	0.14764847
34	0xbe43501f	-0.19073533
35	0xbe7244c0	-0.23659039
36	0x3e3b5e50	0.18297696
37	0x3d8b9703	0.068159126
38	0xbda0830f	-0.078374974
39	0x3e602a0e	0.21891043
40	0xbdcbaee6	-0.099454686
41	0x3e31927e	0.17341039
42	0xbd2ba596	-0.041905962
43	0x3e0014da	0.12507954
44	0x3e2cb201	0.16864778
45	0x3d8c07f9	0.06837458
46	0x3db07e20	0.086178064
47	0xbd30c4a6	-0.04315629
48	0x3d8447cd	0.064590074
49	0x3c288558	0.010285698
50	0xbdb24c60	-0.087059736
51	0xbda992e7	-0.082799725
52	0xbe53191d	-0.20615049
53	0xbcea0572	-0.02856705
54	0xbdd91a41	-0.10600711
55	0x3dfb4759	0.12269468
56	0xbdfa51d3	-0.12222638
57	0x3d82bd21	0.0638373
58	0xbc43c9c6	-0.011949962
59	0x3e805fa0	0.25072956
60	0x3bad64b0	0.005291544
61	0x3c1256d2	0.008931832
62	0xbca15b43	-0.019696837
63	0xbdd09c4a	-0.1018606
64	0x3b0b1991	0.0021224956
65	0xbc963f57	-0.01834075
66	0x3c0e0064	0.008667085
67	0xbdca8496	-0.0988857
68	0xbe1c5c56	-0.15269598
69	0xbc8b9808	-0.017040268
70	0x3cebe22f	0.028794376
71	0xbd63922f	-0.055559333
72	0xbd89237f	-0.066962235
73	0xbdb58d86	-0.08864884
74	0xbdb21401	-0.08695222
75	0x3d4c35fa	0.049856164
76	0x3e3ee9cd	0.18643875
77	0x3d95db92	0.0731727
78	0x3df19a67	0.11797028
79	0xbe3c28ee	-0.18374988
80	0x3dbabec4	0.09118417
81	0x3de72a1c	0.112873286
82	0xb7bed97d	-2.275104e-05
83	0xbda8e5b9	-0.08246941
84	0xbd2581d8	-0.04040703
85	0xbe209b76	-0.15684304
86	0x3cdfec4c	0.027334355
87	0x3cd67262	0.026177589
88	0x3c95798d	0.018246436
89	0x3dd5eeca	0.10445936
90	0x3e2ba849	0.16763414
91	0xbd9a51f1	-0.0753516
92	0x3d2d659d	0.042333234
93	0xbb47d2d4	-0.0030490654
94	0xbdd32a57	-0.1031081
95	0xbdb048f7	-0.08607667
96	0x3de182bf	0.11011266
97	0xbd7659e0	-0.060144305
98	0xbdb61e59	-0.08892507
99	0xbd66ef1c	-0.056380376
100	0xbc8b3430	-0.016992658
101	0xbdb42c26	-0.08797483
102	0xbe3bce9d	-0.18340535
103	0x3baaa553	0.0052076965
104	0x3dcb853f	0.09937524
105	0xbbfa62e2	-0.0076411823
106	0x3db8652a	0.090036705
107	0x3d42c931	0.047555152
108	0x3e1c1e52	0.15245941
109	0x3d470799	0.04859123
110	0xbcd6dcca	-0.026228327
111	0x3d9e4678	0.077282846
112	0x3cef86ce	0.029239085
113	0x3d185ea3	0.037199628
114	0x3e50f584	0.20406157
115	0xbd5fb865	-0.05461921
116	0xbddf816c	-0.10913357
117	0xbd706faa	-0.05870024
118	0x3cabb10b	0.020958444
119	0x3ce05d3f	0.027388213
120	0x3dd6739e	0.10471271
121	0x3d47ee5f	0.048811313
122	0x3d8a686c	0.06758198
123	0xbe81863c	-0.25297725
124	0xbdb72a20	-0.089435816
125	0xbe1a2062	-0.15051416
126	0xbb2b7111	-0.0026159922
127	0x3ca6b5e0	0.020350397
128	0x3cb455ad	0.02201351
129	0x3e41d6e7	0.18929635
130	0xbe16a249	-0.14710344
131	0x3ce36400	0.027757645
132	0xbd95298e	-0.072833166
133	0x3aaf69e6	0.0013383001
134	0xbd977046	-0.07394461
135	0x3c368247	0.011139459
136	0xbdbd5a7a	-0.09245773
137	0x3d944c3c	0.07241103
138	0xbc2e52fc	-0.010639902
139	0xbdda4815	-0.1065828
140	0x3db5084d	0.08839474
141	0xbdc0c48b	-0.094124876
142	0xbd42feaa	-0.047606148
143	0xbbbd6464	-0.0057797898
144	0xbe97eb33	-0.2967163
145	0xbd484d51	-0.04890186
146	0x3eabfedd	0.33592883
147	0xbeaa4176	-0.33253068
148	0xbc490d9a	-0.012271309
149	0xbde25ffa	-0.11053462
150	0xbcb07021	-0.021537842
151	0x3e189304	0.14899832
152	0x3e5adbc4	0.21372896
153	0xbe01b765	-0.12667616
154	0xbe8c00e4	-0.2734443
155	0xbd0bb4e3	-0.034108054
156	0xbde7cf0d	-0.11318789
157	0x3d6e28a8	0.05814424
158	0x3d8bbe51	0.06823409
159	0xbecc93a3	-0.39956388
160	0xbd338904	-0.04383184
161	0x3d6d9153	0.05799992
162	0xbdbef4f1	-0.093240626
163	0xbdb4c32f	-0.08826291
164	0xbe20ea64	-0.15714413
165	0x3caf4646	0.021395814
166	0x3d05f84a	0.03270749
167	0xbe4940dc	-0.19653648
168	0x3e563101	0.20917131
169	0xbbd83de2	-0.006599174
170	0xbc5e2821	-0.013559372
171	0x3e998251	0.29982236
172	0x3d285bc4	0.04110314
173	0xbd4affae	-0.04956024
174	0x3d4eb0eb	0.05046169
175	0x3ced9ea4	0.02900631
176	0xbd423373	-0.047412347
177	0xbba9a6e3	-0.005177365
178	0xbde56fa1	-0.11202932
179	0x3e09b19a	0.13446656
180	0xbc2b0031	-0.010437057
181	0x3e6a40c2	0.22876266
182	0xbe2fb161	-0.17157508
183	0x3c93c0a6	0.018036198
184	0x3e40eac3	0.18839554
185	0x3d2a366a	0.0415558
186	0xbe02dc8b	-0.12779443
187	0xbe1d6b22	-0.15372899
188	0xbc11af02	-0.008891823
189	0xbdfc5be0	-0.12322211
190	0x3ddfab5d	0.10921357
191	0xbda60183	-0.08105757
192	0xbd9505a6	-0.07276468
193	0xbe475459	-0.1946577
194	0x3c760905	0.015016799
195	0xbe1265d5	-0.14296658
196	0x3d0124e0	0.031529307
197	0xbe01726f	-0.12641309
198	0xbd5e3f44	-0.054259554
199	0x3e076577	0.132223
200	0xbd92f20c	-0.07175073
201	0xbdd791ef	-0.105258815
202	0xbd40cf21	-0.047072534
203	0xbe17a1bd	-0.14807792
204	0x3d69e665	0.057104487
205	0xbd6c17a7	-0.057639744
206	0xbd1a2e05	-0.037641544
207	0xbdb1b063	-0.08676221
208	0x3de562ce	0.11200486
209	0xbd9b468f	-0.07581817
210	0x3d8bd74e	0.068281755
211	0xbe91d1f2	-0.28480488
212	0xbd14cadd	-0.036326278
213	0xbc832591	-0.016009124
214	0xbd656e3e	-0.05601334
215	0x3d9bc268	0.076054394
216	0x3cf87bcf	0.030332474
217	0x3e03b333	0.12861328
218	0x3e86d636	0.26335305
219	0x3dad0b16	0.0844938
220	0xbdcc199d	-0.09965823
221	0xbd835fab	-0.064147316
222	0x3d8815a1	0.066447504
223	0xbb53eb3f	-0.0032336263
224	0xbd8d1014	-0.06887832
225	0x3deb8452	0.114998475
226	0x3d9b9b2c	0.07597956
227	0xbe0024f0	-0.1251409
228	0x3ccdfd2a	0.025145132
229	0x3c623b88	0.013808139
230	0xbc65d5e1	-0.0140280435
231	0xbd04c3d9	-0.032413337
232	0xbbdd228a	-0.006748502
233	0x3c22b052	0.009929733
234	0xbc99fef5	-0.01879833
235	0xbd2288fd	-0.039681423
236	0x3db8d534	0.0902504
237	0x3c56dce6	0.01311419
238	0xbcbc28d4	-0.022968687
239	0xbe22f8f3	-0.15915279
240	0xbe02575e	-0.1272864
241	0xbe052c64	-0.13005215
242	0x3c7331bf	0.014843403
243	0xbe081b89	-0.13291754
244	0xbda4920c	-0.08035669
245	0xbcd87dfa	-0.026427258
246	0xbce9d547	-0.028544081
247	0x3e3927eb	0.18081634
248	0x3ddf9ddb	0.109187804
249	0x3df2bbe4	0.118522435
250	0xbc32a79e	-0.010904221
251	0xbe57b911	-0.21066691
252	0xbcd398d5	-0.025829712
253	0xbee11d21	-0.43967536
254	0xbde8be6d	-0.11364446
255	0xbdcf20c6	-0.10113673

head.0.bias f4 [64]
0	0x3dd1bef0	0.102414966
1	0x3e0262e8	0.12733042
2	0x3d264f56	0.040603004
3	0x3c8378d9	0.016048836
4	0xbd1e4b02	-0.03864575
5	0x3d99d9d3	0.0751225
6	0xbe16db42	-0.14732078
7	0x3d237221	0.039903764
8	0x3dcc98b6	0.09990065
9	0x3dbb3f95	0.09142987
10	0x3d86da28	0.06584579
11	0xbd9f866d	-0.077893116
12	0xb9b7d387	-0.0003506208
13	0x3d53806a	0.051636137
14	0x3d7d29df	0.06180751
15	0xbdfe8868	-0.12428361
16	0x3db8031e	0.089849696
17	0xbd3001e6	-0.04297056
18	0xbd9d744a	-0.07688196
19	0x3c022c5d	0.007945147
20	0x3dd1cde3	0.10244348
21	0xbdf0cf2c	-0.11758265
22	0x3d408207	0.046999004
23	0xbe3093d9	-0.172439
24	0x3d886834	0.066605
25	0x3de07acc	0.10960922
26	0xbdf4a1c5	-0.119449176
27	0x3c92b354	0.017907776
28	0x3c7192e1	0.014744491
29	0x3d381d1f	0.044949647
30	0xbd953b3e	-0.0728669
31	0xbcb5eea6	-0.022208523
32	0xbc3faeff	-0.011699437
33	0x3c2739b9	0.010206633
34	0x3e137eba	0.14403811
35	0x3de55995	0.11198727
36	0xbd2ee057	-0.042694416
37	0x3de48137	0.11157458
38	0x3df978cb	0.121812426
39	0xbd048fc7	-0.03236368
40	0xbdb8a787	-0.09016328
41	0xbd8a598a	-0.067553595
42	0x3d579544	0.052632585
43	0x3d536d70	0.05161804
44	0xbe3556a7	-0.17708836
45	0xbd844dab	-0.064601265
46	0x3d9e29aa	0.077227905
47	0xbd35ca09	-0.04438213
48	0x3da55f5c	0.08074829
49	0x3df9cf32	0.121977225
50	0x3d98fcac	0.07470068
51	0xbd6a33b3	-0.05717821
52	0xbdb18c71	-0.08669365
53	0x3d378777	0.044806924
54	0xbdba08b3	-0.090836905
55	0xbcf0daf9	-0.02940129
56	0xbda9a91d	-0.08284209
57	0xbb668cfa	-0.0035179243
58	0xbd2a09d7	-0.04151329
59	0xbdeab495	-0.114602245
60	0xbe0492fc	-0.12946695
61	0x3ddb6bda	0.107139304
62	0x3e089edf	0.13341855
63	0x3d3d4691	0.046209875

head.2.weight f4 [1, 64]
0	0xbde8ac6b	-0.11361011
1	0x3e29f18c	0.16596049
2	0xbe906478	-0.28201652
3	0x3e254928	0.16141188
4	0x3dadb37e	0.08481501
5	0xbe3a2584	-0.18178374
6	0x3e8ecc32	0.27890164
7	0x3ed1b024	0.40954697
8	0x3e631177	0.22174631
9	0x3e8f4722	0.27983958
10	0x3e23c77e	0.15994069
11	0xbe891571	-0.2677417
12	0x3e667e69	0.22509159
13	0xbe41777c	-0.18893236
14	0x3e1f1d87	0.15538608
15	0xbea702d6	-0.3261935
16	0xbdf0c5c8	-0.11756474
17	0xbe8bffed	-0.27343693
18	0xbe92dff8	-0.286865
19	0xbec28bb1	-0.379972
20	0xbe1918a9	-0.14950813
21	0xbe99bcb6	-0.30026788
22	0xbe466f06	-0.1937829
23	0xbecfbbed	-0.40573063
24	0x3e7a6ce9	0.24455608
25	0x3e604a2b	0.21903293
26	0x3e233a63	0.15940242
27	0x3e3d4bee	0.18485996
28	0x3e009f9a	0.12560883
29	0xbe80e46e	-0.25174278
30	0xbe2de7c3	-0.16982941
31	0x3e6d73a5	0.23188646
32	0x3e15c04a	0.14624134
33	0xbe2b2c44	-0.16716105
34	0xbe150885	-0.14554031
35	0x3e44cda6	0.19219074
36	0xbee79694	-0.4523207
37	0x3deeabe9	0.11653883
38	0xbe9e0579	-0.3086355
39	0x3e1e6d02	0.1547127
40	0xbe44c3a4	-0.19215256
41	0xbe82c06e	-0.25537437
42	0xbe7b99eb	-0.24570434
43	0xbe41b538	-0.18916786
44	0x3e387e1a	0.18016854
45	0x3e215b58	0.15757501
46	0xbe4118b4	-0.1885708
47	0xbe9782a1	-0.2959185
48	0xbe6f98ad	-0.23398085
49	0xbe31b099	-0.17352523
50	0x3e454b6e	0.19267055
51	0xbe927ace	-0.28609318
52	0xbe3a56bf	-0.18197154
53	0x3e900b45	0.28133598
54	0x3e846289	0.25856426
55	0xbe75edd6	-0.24016508
56	0xbe8aac19	-0.27084425
57	0x3e523125	0.2052656
58	0xbea353e2	-0.31899935
59	0x3e17e074	0.14831716
60	0xbeef6314	-0.46755278
61	0x3e728487	0.23683368
62	0x3e02b7ee	0.12765476
63	0xbe67824d	-0.226083
