outputs/exp_0002_20251212_235529/runs/seed2/h10/OnlineSGD/model_final.pt (torch, 71493 bytes, 7 tensors)

gru.weight_ih_l0 f4 [192, 1]
00000000: b6ec ab3d 369f 3abc c5d5 563c a060 823d
00000010: 9cf7 023e b79c 943d cd13 853d 6e83 20be
00000020: dc7f c53d 0b9a febd 9ab7 06bd fcd9 9c3d
00000030: a955 4d3b e245 b83d afb5 8f3d 32bc 4b3d
00000040: 12b4 ee3d d846 f4bd 06d4 babd 18c9 b33d
00000050: 70d0 01be d54e 44bd 2e1b 1ebd c0f6 fb3c
00000060: 3ac6 e5bc dbc4 ab3d a176 6a3d 7f6a 10be
00000070: 3637 00be 1fe5 fcb7 3c63 18be 54ef 9fbc
00000080: 71fe da3d 768a 233e b4db d83c c94e 1fba
00000090: 4bec 073e 715e 02be 3a0c 99bc fcbe c6bd
000000a0: 3c15 6abc 2c4c 7ebd c153 be3d 5195 343d
000000b0: b133 9e3d ac0a 133c 1b45 3b3d e2d1 8b3c
000000c0: 9e10 003c deb0 393c 3284 e73d b6dc 723d
000000d0: 382a 1c3d 9b21 a43d 7429 ff3c fa6e 84bd
000000e0: 3a37 a0bd 755c eb3d bb40 1a3d a196 413e
000000f0: 900c 953d 9a22 1abe b1c6 dc3d 817e 033e
00000100: 3d08 a63d 7965 03bd c194 6dbc ee66 03be
00000110: 9018 dcbc 1ac9 1d3d e994 f1bd 4da8 c23c
00000120: 486e 16bd 99b8 88bc 6283 70bd 40ed c7ba
00000130: a5eb a23d 9c38 7cbe aa02 eebc c965 c8bd
00000140: a7ea cc3d 532b a73b 9d2b 2bbe 7421 813b
00000150: 217d fbbb 9274 1ebe bf83 83bd 6c23 fcbd
00000160: f419 05bd dbcc 12bd 0ad5 2e3d e3c0 03be
00000170: baa7 ed3c ecfe e33d cc2e b2bc 9f5b df3d
00000180: 04cd edbd 03e7 bebd 7e20 3bbd af0d 1abd
00000190: 2a84 8abd c04e 5b3c 5db0 0dbe 26d5 23bd
000001a0: c8a8 1c3d 9457 603c c3a8 403d 6f19 153d
000001b0: 5a3b 99bd a07e 1abd 7bd3 fd3c 858c 0abd
000001c0: 55ba f0bd dc2c 033d 1c96 9ebd e17c 153d
000001d0: cd39 a0bd 5e6d 543d f722 e1bc 274c 0fbc
000001e0: d9b3 713d bb45 f43d 181f e7bd 7c2c c83d
000001f0: 0ae2 463d 84c4 1ebe feb8 33bd 2e89 8f3d
00000200: 6b30 48be 1369 51be edc5 26be e8cd 053e
00000210: 15e6 14be bbd9 59be 42c7 f73d f204 aa3d
00000220: 0098 e4bc 270a 21be eea7 483e 7556 e8bd
00000230: 3a07 1bbe 3035 22bd bb69 313e 04cf cb3d
00000240: ff65 a7bd 7323 f63d 44db 49be f1d6 223e
00000250: 1137 183e 5406 f0bd c059 9a3d 678c fcbc
00000260: d904 24be 3573 113d bbc2 b13c a2de 29be
00000270: c153 2bbe 5e7e 5d3d e229 0f3e 79ee 763d
00000280: 4378 06be e434 3d3e e04e f4bc e80a 56be
00000290: ec08 083e 1f3d 0d3e 3226 3fbe d488 0e3d
000002a0: d8f3 1abe 6cef 52be 5f3e bfbd 41f4 3e3d
000002b0: 9a94 d93d 4ae0 85bd 0c75 24be 9ff5 59bd
000002c0: a6cb 03be 53a5 54bd e13b 303e 1a32 253d
000002d0: 06d1 a7bd 7059 02bc 51f3 163e 7653 9a3d
000002e0: 0e71 29be 3192 e8ba fcd6 82bd 5b85 0fbd
000002f0: 1b98 063e 7966 943d 0a15 113e 9c5b 0fbe
0.083947584 -0.011390498 0.01311249 0.06366086 0.12789768 0.072564535 0.06497917 -0.15675136
0.09643528 -0.12431725 -0.03288994 0.07658765 0.0031331575 0.08997704 0.07017075 0.049740024
0.116554394 -0.11927575 -0.091224715 0.0877859 -0.12677169 -0.047926743 -0.03860014 0.030757308
-0.028048623 0.083871566 0.05724204 -0.14103125 -0.12521061 -3.0147434e-05 -0.14881605 -0.0195233
0.10693062 0.15970787 0.02647195 -0.00060771086 0.13273732 -0.12731339 -0.018682588 -0.09704396
-0.014287289 -0.062084362 0.092933185 0.04408771 0.07724703 0.008974712 0.0457202 0.017067853
0.007816462 0.011333672 0.11304511 0.059292518 0.0381262 0.08014222 0.031147696 -0.064664796
-0.07823034 0.11492244 0.037659388 0.18905117 0.07277787 -0.15052262 0.10780085 0.12841226
0.0810704 -0.032079194 -0.014500798 -0.12832233 -0.026867181 0.038521864 -0.117959805 0.023761893
-0.036726266 -0.016689586 -0.058719046 -0.0015253201 0.07955102 -0.2463097 -0.029054005 -0.09785039
0.10005694 0.0051016 -0.16715856 0.0039407555 -0.0076748286 -0.15474156 -0.06421613 -0.12311444
-0.032495454 -0.035839897 0.04268364 -0.12866549 0.029010642 0.11132607 -0.02175083 0.10906147
-0.11611369 -0.09321406 -0.045685284 -0.037610706 -0.067634895 0.013385475 -0.13836809 -0.039998196
0.0382469 0.013692755 0.047035944 0.03640121 -0.074820235 -0.037718415 0.03098463 -0.033825416
-0.1175429 0.032025203 -0.07743475 0.036496047 -0.078235246 0.051862113 -0.027482493 -0.0087461835
0.059009407 0.119273625 -0.112852275 0.0977411 0.04855541 -0.15504652 -0.043877594 0.07008587
-0.1954972 -0.20450239 -0.1628644 0.13066828 -0.14540894 -0.21274464 0.12098552 0.083017245
-0.02790451 -0.15726529 0.1959531 -0.11344615 -0.15139475 -0.039601505 0.17325489 0.099515945
-0.08173751 0.1201848 -0.1971255 0.15902306 0.14864756 -0.11719957 0.0753665 -0.030828668
-0.16017474 0.03551026 0.0216993 -0.16588834 -0.16731168 0.05407559 0.13980821 0.06028602
-0.13131814 0.18477207 -0.029822767 -0.20902598 0.13284653 0.13792847 -0.18666914 0.03479846
-0.15132082 -0.20599145 -0.09338068 0.046619657 0.106240466 -0.0653692 -0.16060275 -0.05321276
-0.12870654 -0.051915478 0.17210342 0.040330984 -0.08194165 -0.007955894 0.14741255 0.0753545
-0.16547033 -0.0017743764 -0.06388661 -0.035039287 0.13143961 0.072461076 0.14168182 -0.1399979

gru.weight_hh_l0 f4 [192, 64]
00000000: 202f aa3d a191 0b3d 0ebf 89bd 7724 60bd
00000010: 8137 b93c d73c 9fbd 2850 7e3d 56fe ca3d
00000020: 7fa9 acbd 44ff 9abd c50e 13bd 9020 dfbd
00000030: 491e 5fbd 4400 dd3d e011 7f3d c0e1 1abd
00000040: 274b adbc cddc 9dbd bd32 29be 8e6a b53c
00000050: 2816 bd3c 0daf a6bd 0de0 a1bd 2cff ac3c
00000060: 956a df3c 8599 3ebd 4405 563c 2090 b73d
00000070: c0b5 e7bc ffc4 9bbd 4b13 143e b537 f33d
00000080: ce59 11bc d78d 31bd aa1a 66bd dcb0 e43d
00000090: 718d 793d 1f85 9cbd 1b84 263c c87f f9bb
000000a0: ff63 363d f518 21bc 5dac 96bd 4864 213c
000000b0: f286 82bc 48e9 62b9 86a4 97bd 0dfc 15be
000000c0: bedd dfbd a124 ef3c 1c88 e0bd 6370 9dbd
000000d0: 7423 993d c9da 0f3d ef26 a23d 7f87 a33d
000000e0: 5fbf dabd cbd1 92bd 28ac e3bd bcc3 4f39
000000f0: 27cc 1a3d ee03 05be 3d81 bbbd 1373 193d
00000100: f5b7 5f3c fbf1 9b3d ae51 af3d 8a15 aa3d
00000110: 7658 33bd cec8 91bd 65ae 283d 6e70 d53d
00000120: a172 f8bd 97f2 a53c c4d2 9dbd ef60 d8bd
00000130: c3f1 33bc 85db ee3d 69a2 693d eb4d 883d
00000140: 8bff 36bd 3420 0fbd ac86 08be 89f1 54bd
00000150: 45f8 85bb eb48 ccbc 2d6e e83b 6c1d 693d
00000160: 06aa 223d 08c7 ccbc b2cf 59bd 385c fcbd
00000170: ba46 593d 056b 97bd f7c5 223d 7fe6 213d
00000180: 3378 ba3d 4b67 86bd 8f82 afbd 0a0a 763c
00000190: f041 1a3c f585 14bd 061c 013e 8a8b ddbd
000001a0: f40a 943d f18d 413d f67f 53bd 230c 983d
000001b0: 5acf 893c 1193 8ebd f41f c83d 0bd4 95bd
000001c0: c3b4 46bd 1a3a e33d c714 f53d 04bf 65bd
000001d0: 5450 75bd 611b a53d 4696 c23d 0932 4cbd
000001e0: 1d69 f4bd d054 5e3d 5123 e5bd 2b31 b13d
000001f0: 0131 81bd b139 b3bd 0763 723d 6d2e 483d
00000200: 87c1 e13b 229c f8bc b65f 933d 564b 8abb
00000210: 33a8 843d f056 a7bd e465 a5bd aab0 a8bd
00000220: 4c0a 513d 8dc2 183e eebc e8bd fde7 303d
00000230: 987c 243d 334e 923d f0cd 23be 0d99 7dbc
00000240: 7de6 113e 47cc d7bd 56e6 993d 586c 0abd
00000250: c57a 9f3d af0d aebd 1d24 28bc d6ba dc3d
00000260: 6b0d bf3d 4f11 c9bd 08f1 2ebe 583f 473c
00000270: b264 0abd 82a0 3c3d 70e1 a4bd 6fcf 713d
00000280: 665c 83bd 2a28 14bd 3fc8 1f3e e9d5 f23d
00000290: 1af9 ff3b e4a2 a9bd a01e 243e 8b4d d1bd
000002a0: e51b 353e abad 80bd 76b0 cdbc 2760 85bd
000002b0: c690 213d d871 123e a81f 443d 73e6 46bd
000002c0: a3da abbd 33b7 86bd cf97 e8bd 914a 8cbd
000002d0: f4f2 883d 0e31 46bc d2cd cabd 661d 463d
000002e0: db56 8cbd b102 f4bd 682b 333c 2c35 ef3d
000002f0: 06ac 253d 2618 fcbd 85a7 05be 255d 243d
00000300: c9da 0cbd c13b 44bc 57e5 b8bc c001 82bd
00000310: 8adc 5dbd 7752 9abd 57ae b3ba bbc2 fd3d
00000320: 0798 12be 71ba b6bc 6a11 273e 4ab9 0cbe
00000330: f03f 59bc f04b 143e d775 c53d 2971 dd3d
00000340: 8750 93bd 4fea 0bba d61c 17bc 04c6 1d3e
00000350: bc65 6fbd 25f4 95bc f27c 5fbd 21fa 33be
00000360: c10a d63d af38 063d 2a2c 55bd 1ee5 2abe
00000370: 65d9 03bd 3e3f 61bc f9b4 4f3d b884 8e3c
00000380: 78c6 be3b ec07 e23d b678 febd 16a1 97bd
00000390: a5a9 0b3e b430 c8bd 2603 943d edc0 943c
000003a0: b45a 583c d948 bfbd 313d eb3c 6ae1 0d3d
000003b0: ef46 c63c 295d d73d 59e7 18be c4ca b23d
000003c0: 107e 763d 5dd7 d3bc 3d77 a4bc b547 1a3e
000003d0: 1437 573c 2abd edbd 8f29 7ebd 55ea a9bd
000003e0: a132 a8bd 6be9 ea3b 8203 043d c3e3 5f3d
000003f0: 64e1 85bd b78b d23d 15a3 8e3d 252a 40bc
0.0830977 0.03407443 -0.06725894 -0.054722276 0.022609474 -0.07775276 0.06208816 0.09911792
-0.08430766 -0.07568219 -0.035902757 -0.10894883 -0.05447224 0.10791066 0.062272906 -0.03781295
-0.021154 -0.0770813 -0.16523261 0.022145536 0.023081854 -0.08138857 -0.079040624 0.02111777
0.027272502 -0.046533126 0.013062779 0.089630365 -0.028284907 -0.076059334 0.14460485 0.1187586
-0.008871509 -0.04334816 -0.056177773 0.11166546 0.060925905 -0.07642578 0.010163332 -0.0076141097
0.044528957 -0.00983261 -0.073570944 0.009850569 -0.015933488 -0.00021639944 -0.07404427 -0.14646931
-0.10930966 0.02919227 -0.10963461 -0.07687452 0.07477465 0.03512076 0.07917582 0.07984828
-0.106810324 -0.07168921 -0.111168206 0.00019813975 0.03779235 -0.1298978 -0.091555096 0.03746326
0.013654699 0.076145135 0.08560501 0.083048895 -0.043785535 -0.071183786 0.04118194 0.10421835
-0.12131239 0.020257277 -0.07706216 -0.105653636 -0.010982933 0.11662964 0.057039652 0.06655487
-0.0446773 -0.03494282 -0.13332623 -0.05198816 -0.004088434 -0.024937114 0.007093212 0.056912825
0.03971293 -0.02499725 -0.05317659 -0.12322277 0.053045966 -0.07393459 0.039739575 0.03952646
0.091049574 -0.0656267 -0.08569824 0.015017042 0.009415135 -0.036260564 0.12608346 -0.108176306
0.07228652 0.047254506 -0.051635705 0.0742419 0.016822506 -0.069616444 0.097717196 -0.073158346
-0.04851223 0.11095066 0.119668536 -0.05609037 -0.05989106 0.08061863 0.09501319 -0.049852405
-0.11934111 0.054280102 -0.11188377 0.08651956 -0.06308175 -0.08751238 0.05917647 0.0488724
0.0068895253 -0.030347887 0.0719599 -0.0042204065 0.06477394 -0.08170879 -0.08076075 -0.08236821
0.05103521 0.14917965 -0.113641605 0.04318999 0.040157884 0.071438216 -0.15996528 -0.015478385
0.1424808 -0.1053701 0.07514636 -0.03379473 0.07787088 -0.08498704 -0.010262516 0.107778236
0.09328731 -0.098177545 -0.17084134 0.012161098 -0.033787437 0.04605151 -0.08050811 0.059035715
-0.06414108 -0.036171116 0.15603732 0.118572064 0.0078116776 -0.08283022 0.16027308 -0.10219868
0.17686422 -0.062831245 -0.025108557 -0.0651248 0.039444707 0.1430124 0.047881752 -0.048559617
-0.08391311 -0.06577911 -0.1135708 -0.0685016 0.06686965 -0.0120966565 -0.09902538 0.04836788
-0.06852504 -0.11914576 0.010935642 0.116800636 0.040447257 -0.123092934 -0.13052185 0.040127892
-0.034388337 -0.011977137 -0.022570295 -0.0634799 -0.0541654 -0.0753526 -0.0013708574 0.123906575
-0.14315806 -0.022305699 0.16315237 -0.13742557 -0.013259873 0.14482093 0.09641617 0.10812599
-0.07193094 -0.0005337344 -0.009223184 0.15407568 -0.05844663 -0.018304894 -0.054562517 -0.17575885
0.1045127 0.0327689 -0.05204407 -0.16688964 -0.032189745 -0.013747988 0.0507097 0.01739727
0.005821999 0.11036667 -0.124253675 -0.074037716 0.13638933 -0.097749144 0.07227163 0.0181584
0.013205219 -0.093400665 0.028715702 0.0346388 0.024203746 0.10515816 -0.14932002 0.08730081
0.060178816 -0.02585953 -0.020076388 0.15066417 0.01313569 -0.11608346 -0.062051352 -0.082966484
-0.08212782 0.007168939 0.032229908 0.05466057 -0.065371305 0.10280555 0.06964699 -0.011728798

gru.bias_ih_l0 f4 [192]
00000000: 353d d43c 44ef de3d 188a 313d 19c7 bb3d
00000010: 4ede b23d 5ddf 8dbc 91e8 e43c bbf2 fe3c
00000020: ed6a 64bd f28d afbd c7d7 35be 3511 8dbd
00000030: 3233 3c3c 0e4b 8e3d 5b63 143e 3089 f5bd
00000040: e816 ba3d d324 803d 3906 c4bc 7727 af3d
00000050: e2ca db3d 4d29 5b3b 8246 d23a b39a b6bd
00000060: 05ef fbbc 1941 f93c 63ce 1abd e618 3fbd
00000070: 1baa 883d d788 37bd 8c5a 1a3d 7883 173c
00000080: 6a40 6a3d 9d5e c43b 96f6 b23c fac4 44bd
00000090: 3661 ebbc 39af 0b3e 87d4 97bd b8d8 ce3d
000000a0: 620e df3d ddff 833d 9b63 b1bd 6dfc ac3d
000000b0: 5274 583e c0a4 a73c 37a8 f8bd da85 e1bd
000000c0: dd0f 29bd 863a 91bd 1d60 673d b6b1 8b3b
000000d0: c932 1cbe 2487 11be 6c4a 8f3d 37e2 52bd
000000e0: 1e88 833d d7c3 3bbd f947 81bd 3f9f 88bd
000000f0: 6809 b43c 306d 6a3d 527c 22bc eb83 7bbd
00000100: 2a83 313e e16a 8c3d 7e8c 163e 5cdc 923c
00000110: f9c1 9b3b 6676 6e3d bd80 0f3e 8e3e 663c
00000120: 8ed3 983d c3ea 03bc a410 843d de56 d1bd
00000130: 0962 303d 9497 c53d 35c8 823d 9e4b 9fbd
00000140: 51bc 883c 8336 8a3e 0c26 b0bd 7868 e5bc
00000150: f0e8 1abc 7b6b 673d 88fc c73d 3316 95bd
00000160: a091 613e af11 6a3d 8bf5 c23d ed9b df3d
00000170: 2ddd fe3d 4ae9 3d3e 7163 9e3d 023e 103e
00000180: 1f70 ffb9 5419 043e 7040 5d3b bf05 b13d
00000190: a9b5 acbd 1311 463e 5f4b 3f3d c814 01bd
000001a0: 0976 653d 0f1d 353e a3a8 31bc 712f 9f3d
000001b0: 0858 8b3d 164b 383c 1dfc eebc 0684 1a3e
000001c0: 2e3a ea3d a4a8 6d3e 718a 4ebd de31 383e
000001d0: 7115 643d ec44 863d 8486 16bd 78a6 a73d
000001e0: 41f9 ef3d 1f8c f43c f566 363d 9d87 2b3c
000001f0: 72c8 8cbb 75ae 593d edb1 d03d 56e3 7c3d
00000200: 9551 eb3c 5f19 eb3c 1c17 883d 2fc4 153a
00000210: 22ae 8fbd 73fb 2ebd af45 01be 0ba8 eb3c
00000220: af03 66bd e940 9e3c fc04 683d d44d 033d
00000230: 103a 103c be8d 2a3d 053c 94bd 3ce3 363d
00000240: 887b 0d3d fda9 05be 94a6 e43d 255a 8bbd
00000250: 519b 2b3d 126f 07be 1670 7fbc 980f 9dbd
00000260: ce38 0bbd ef4e 0ebe 3d24 003d bfb7 00bd
00000270: bae1 fd3d 812c 3bbd 017c 423d 621c 113e
00000280: a48c 2cbd 66bd dcbd 79fe cdbd 9c87 93bd
00000290: 2078 293c 57a4 ce3d 4d74 f6bc dc85 473d
000002a0: 3626 01bd ac33 ee3c d100 24bd ea68 ab3b
000002b0: 7a35 ed3d 652b 81bc ff29 a33d 2d05 1e3e
000002c0: 92f6 af3d c876 b83d 6994 9abc ea9b 4d3d
000002d0: 5f8f c93c 1f22 63bd 4ed1 84bc c096 493d
000002e0: aa4d 903d 3e2b 9f3d 46e4 603d d478 00bd
000002f0: 3205 763d bca2 9d3d 28ef 6cbb 728e c63d
0.025908092 0.1088548 0.043344587 0.09168834 0.087338075 -0.017318422 0.027942928 0.031121602
-0.055766035 -0.08571996 -0.17758094 -0.068880476 0.011486815 0.06947909 0.14491026 -0.11989057
0.090864 0.06257024 -0.023928748 0.08552449 0.10732056 0.0033441365 0.0016042741 -0.08916225
-0.030753622 0.030426549 -0.037794482 -0.046654604 0.0667307 -0.044808235 0.03768401 0.009247653
0.057190336 0.005992724 0.021846097 -0.048039414 -0.028732877 0.13641061 -0.07413583 0.100999296
0.10891415 0.064452864 -0.08661576 0.08446584 0.21138123 0.020464301 -0.121414594 -0.11011858
-0.041274894 -0.070912406 0.056488145 0.004263128 -0.15253748 -0.14211708 0.06996617 -0.051485267
0.06422447 -0.045841064 -0.06312556 -0.06670999 0.021977141 0.057233036 -0.009917336 -0.061405104
0.17335191 0.06856323 0.14702031 0.017927341 0.004753348 0.058218382 0.14013954 0.014053
0.07462226 -0.008051577 0.064484864 -0.10221647 0.043062244 0.09648052 0.06385843 -0.07778095
0.016691359 0.26994714 -0.08601007 -0.028003916 -0.009454951 0.056498986 0.097649634 -0.07279625
0.22028208 0.05714577 0.0951949 0.10918412 0.1244453 0.18546024 0.07733811 0.14086154
-0.00048720927 0.12900287 0.0033760332 0.08643674 -0.084330864 0.19342451 0.04670274 -0.03151396
0.05602077 0.17686866 -0.010843429 0.077727206 0.068039 0.011248371 -0.029172951 0.15089425
0.11436878 0.23208863 -0.050424997 0.17987773 0.05568451 0.065561146 -0.036749378 0.08186048
0.11717463 0.029851971 0.04453178 0.010469344 -0.004296356 0.05314489 0.10190187 0.061740242
0.028725425 0.028698621 0.06645033 0.00057131326 -0.07015635 -0.04272027 -0.12624238 0.028766653
-0.056155857 0.019318061 0.05664538 0.032056645 0.008802906 0.041639082 -0.0723801 0.0446503
0.034541637 -0.13053127 0.11164585 -0.06804303 0.04189617 -0.13225964 -0.015590688 -0.0766899
-0.03398972 -0.13897298 0.03128456 -0.031425234 0.123965696 -0.04569674 0.04748154 0.14170983
-0.042126313 -0.107783124 -0.100583024 -0.072036 0.010343581 0.10089939 -0.030084753 0.048711643
-0.03153058 0.029077373 -0.04003984 0.0052310126 0.115824655 -0.015767762 0.079669945 0.15431662
0.085919514 0.09007031 -0.018869596 0.05019752 0.024604497 -0.055452462 -0.016213086 0.049216032
0.07046063 0.0777192 0.0549052 -0.03136523 0.06006355 0.07697055 -0.003615329 0.09695138

gru.bias_hh_l0 f4 [192]
00000000: c441 963d 21e7 fa3d 7ce5 d1bd 6ea9 183d
00000010: ad0c b53c 13e3 053d 64b0 f9bc c8d4 a23b
00000020: 267e c63b 860c b03c b708 06bd 1329 64bd
00000030: 47dc b6bc 9894 b9bd df84 393e 83cd e7bc
00000040: b622 3a3e f694 5a3d 948f 3abe 07e7 c53d
00000050: a0b2 123d 2213 0ebb 7423 a1bd 86fb 47be
00000060: d65a 7c3d db23 c0bd 6866 dfbd 041a c3bd
00000070: 439e 26bc efef eabc 59ed 1dbe 704b 493e
00000080: a98b 3d3c 0a17 11bd 1075 d8bc 9fdf 8fbd
00000090: 8920 b63c 5cc7 eabb 9e36 4f3d a789 403d
000000a0: 9ad2 d33d 9c3a 833c 2393 e9bd b7e5 043d
000000b0: 6bb5 4a3e ad74 2fbe fc68 2ebd 8469 dbbd
000000c0: a605 993d e1b8 a1bd dd59 9dbd 9759 9b3c
000000d0: dc2f e9bd a678 19be 0a26 d0bb 2644 013d
000000e0: 4029 dfbd 1b87 f93c cfb0 cd3c 2bfb aa3d
000000f0: f990 1bbe ecc3 e3bd 3589 513d 3f92 39be
00000100: 1c6e 86bc 08a5 5abd 1c9b 2b3d 3f41 9c3d
00000110: df91 833d 22a6 b8bd 4e1c 9fbc 0155 ddbd
00000120: 1539 79bc 5eae b9bd f85d 85bd e2a9 4e3c
00000130: ee27 3c3d 28c9 743d c84f 073e 83c3 0bbe
00000140: 60e0 643e 11f6 c13d ae36 fbbc 4513 c13d
00000150: 919a 75bd 246f 86bc 5fd0 dd3d 2400 bb3a
00000160: 7c14 aa3c e5a9 af3d 028b 3d3c 13f0 363e
00000170: 3fb0 cb3d b618 a13d beae dc3b 4593 123d
00000180: d110 913d 0a87 e03c 7fbb ea3d 88a0 febd
00000190: 5bb8 c53c 0028 a53d 78af 063d f2d7 e4bd
000001a0: 93f1 d7bd 82f3 d03d 50d6 de3b 0ee4 523d
000001b0: 0806 a13d 1f0e 06be 6e26 f73d 9d8e 323e
000001c0: 4f33 d63c 544a 873e 59f1 7bbb 50d6 0b3d
000001d0: 9662 dfbc 5639 543d 2457 3f3d 053b 2fbd
000001e0: 608d fe3d 17c9 0c3e 52b4 993d a09a 623d
000001f0: 0327 5dbd 948c 5c3d 5461 aebd 0ae3 c03c
00000200: 3512 aabd 3067 ca3d 1e46 f03b 01b3 4b3d
00000210: 3fa5 e33d 2d03 e53c c416 143d 127e 42bd
00000220: 40e8 d9bd 8e14 f5bc 6d40 2cbd b3b6 1abd
00000230: 3cf6 e0bd 14df 25be ad6d a33d 3dd8 49bd
00000240: 0b1b 4fbc 620f 38bc 9e4a d03d 25b7 06be
00000250: ac70 da3d 3f0c 3c3d 5a3e b7bd 120f e83d
00000260: 23e2 7c3d 2c6d 013c 2ae1 ce3d acb7 083e
00000270: 30d8 f33d a6cf c33b 4207 41bd b7a8 f9bd
00000280: 9e52 0fbc 3859 6b3d adfc 42bc 1921 fd3b
00000290: 595f 24bd 2a6f 1bbd 4db6 7fbc 9dfa 0f3e
000002a0: 3309 0a3d fe8c c7bd 2743 893d d8af b0bd
000002b0: 7a30 483d 3c2d a4bd f5b5 8ebd e3f6 023c
000002c0: 2cf7 56bd f084 c23d 5f29 be3d 4a2c a4bd
000002d0: 3ada 883d a6b8 343d 51c4 b6bc 9e96 dfbd
000002e0: 8a6e e53d 182f b3bd 0be7 a93d 6313 163d
000002f0: 60d4 a8bd 6847 a23d e88c fbbb 9cc5 f9b9
0.073367625 0.122511156 -0.10248849 0.037270956 0.02210077 0.032687258 -0.030479617 0.004969213
0.0060575185 0.021490347 -0.032723155 -0.055703234 -0.022321833 -0.09061545 0.18117093 -0.028296238
0.18177304 0.053364716 -0.18218833 0.096632056 0.03581488 -0.0021678885 -0.0786809 -0.19529542
0.061610065 -0.09381839 -0.10908204 -0.095264465 -0.0101695685 -0.028678862 -0.15422572 0.19657683
0.011568942 -0.035422362 -0.026423007 -0.07025074 0.02223231 -0.007164879 0.050589196 0.047006276
0.103429034 0.016019158 -0.11405017 0.032445636 0.19795768 -0.17134352 -0.04258059 -0.10713485
0.074717805 -0.07896591 -0.07683156 0.018963618 -0.113860816 -0.1498743 -0.006352191 0.031559132
-0.1089654 0.030459931 0.025108723 0.08348688 -0.15192021 -0.111213535 0.05115624 -0.18122195
-0.016409926 -0.053380042 0.04189597 0.07629632 0.06424307 -0.09016062 -0.019422676 -0.10807229
-0.015211363 -0.09066461 -0.06512064 0.012613745 0.045936517 0.05976215 0.13214028 -0.136488
0.22351217 0.094707616 -0.030665722 0.094275035 -0.05996186 -0.016410418 0.10830759 0.001426701
0.02076172 0.08577327 0.011568787 0.17865019 0.09945726 0.07866041 0.006734698 0.03578498
0.070832856 0.027408142 0.11461543 -0.12432963 0.02413576 0.0806427 0.032882184 -0.11174001
-0.105441235 0.102026954 0.0068004504 0.05148702 0.078624785 -0.13091324 0.12067877 0.17437215
0.026147513 0.26423895 -0.0038443415 0.03413993 -0.02726869 0.051812492 0.046713963 -0.042780895
0.12429309 0.13748585 0.075050965 0.055323243 -0.053992283 0.053845003 -0.085146576 0.02354576
-0.08304254 0.09882963 0.0073325774 0.04973126 0.111155026 0.027955616 0.036154523 -0.04748351
-0.10640001 -0.029917028 -0.04205363 -0.03777189 -0.109844655 -0.16198379 0.07979903 -0.049278487
-0.012640725 -0.011234136 0.10170482 -0.13155802 0.10666022 0.045910116 -0.089474395 0.113309994
0.0617391 0.007899564 0.101015404 0.13351315 0.11906469 0.0059756814 -0.047126062 -0.12190383
-0.008747725 0.057458133 -0.011901063 0.007724893 -0.040129993 -0.03794781 -0.015607429 0.14060445
0.03370018 -0.09743689 0.067022614 -0.086272895 0.048874356 -0.0801644 -0.06968299 0.007993433
-0.052481815 0.09498012 0.09285235 -0.0801626 0.066822484 0.044121407 -0.022310408 -0.109174
0.11202724 -0.08749217 0.08296021 0.036639582 -0.08243632 0.07923776 -0.0076767094 -0.0004764021

head.0.weight f4 [64, 64]
00000000: 7f5c 1d3d 642a fabb c688 a9bd 4ae3 fdbd
00000010: 3353 013e d9d3 a4bd ccf2 89bd d72d d83b
00000020: 6bb0 b63d 54e5 b53d 858f 713c b95c ebbd
00000030: a224 083d b5d5 83bd 46be 973d a46c 8fbd
00000040: 82f0 bb3c 1cd4 d3bb 0062 de3c 2a96 a03d
00000050: 035d d23c 5a17 ad3d c117 cd3d b65e e83d
00000060: 1a54 ed3d 7937 c6bd e10d 65bd 2dd7 33bd
00000070: 991c ba3d db57 ef3d 79d7 b93c 35cf 523d
00000080: 6821 003e d239 a83d 92f0 103e 4340 8abb
00000090: dbaf 4c3d c419 0bbe 29a8 cfbd 0cf6 47bd
000000a0: f810 4bbd a46f a83c 4ebb a03c 24e1 1a3e
000000b0: 39d4 ee3c 3cda 283d 046f 3139 2cff 4dbd
000000c0: df00 9bbd bab9 48bd a5f4 ec3b d84e df3c
000000d0: 7145 123d 5a82 3c3d 4693 b13d 56a9 69bd
000000e0: d6ae d5bd 4d91 b8bd ed50 52bd 46f6 943d
000000f0: 9987 c9bd 22d0 76bd c9ea 6b3d 4b42 563d
00000100: 345a 813d 84c0 84bd 16bc 61bd cdd1 d33d
00000110: d856 c9bd 89b0 3ebd 0bc4 c03d fa26 9bbd
00000120: 0949 c53c 0c0c b0bd f4ee f43d 3483 75bb
00000130: 0e31 36bd 0916 83bd f894 33bd 4dd1 d8ba
00000140: 0172 873c 17cf 37bd b3c7 97bd 26ae 0f3d
00000150: 1c00 1b3d d3b6 43bd c8e5 153d 497f c8bc
00000160: ca20 43be a18d d93d 25c8 fabc 8bb5 793d
00000170: 1ba6 28bd ede3 be3d d523 843d be3e 483e
00000180: a14f fc3c 1ecd 42bd 6788 ebbd ae7e f8bd
00000190: 026b 61bd cef1 ec3d 0cf8 7ebd eeff a03d
000001a0: 1477 04be e8a7 e33c bc89 523d 85fa bcbc
000001b0: 5630 4b3e afe5 c8bd 8db9 edbd e9df 60bd
000001c0: ade9 c43d 56b3 a13c 4b19 3a3d 4e08 5abb
000001d0: cc01 afbd 6317 e9bc 9532 9b3d b82d 2bbd
000001e0: 9f03 d3bd badd 933d f320 92bd 15f1 01bd
000001f0: 7b10 9b3c 4140 473d 5edc 9ebc 60b0 9dbd
00000200: cfee 803d 900e 3cbd 0373 4ebc 6738 4dbd
00000210: 6719 9ebd 9f51 a2bc 942f 513d fbab 5dbd
00000220: dd3e 9fbb 1dac 3b3d ea53 8f3c 1578 29bd
00000230: ca98 4fbd 1387 0ebe 9758 06be f651 0c3d
00000240: 1212 0abd 4ed1 d6bd 0be1 913d 7b14 2dbc
00000250: 0391 c63c 97bb a8bd 7673 823d f3ae 163d
00000260: 7c96 fdba 11a5 febd b489 9dbc f1ec 7fbd
00000270: d6d2 edbc 7406 55bd acac 07bd d069 9b3d
00000280: 706d 86bd 3543 b73d 26ba 88bc 01ae 1d3d
00000290: e8fa d13d 1068 443e 0577 ab3d 235d c6bc
000002a0: 78d5 6cbc 9201 cabc 9ec7 ce3d 4771 9bbd
000002b0: 337c 66bc 41a2 d2bd c8cc 87bd a0bd b13d
000002c0: 098f 50bd bc6d 4fbd 5b97 8d3d 24f2 c23d
000002d0: b1b0 68bc c184 d33d f6de 583d 3e14 9cbd
000002e0: 2f7e 11bb e454 173d e3ae db3d 7d17 35bc
000002f0: 107a e93d dcff a93c a09a 8f3d e4f1 64bc
00000300: b1bb fdba 2186 6a3c 3963 963d 48cd ccbd
00000310: 1945 a2bd 29ba dcba 336e 8bbd c938 afbd
00000320: c58e 4cbd f298 02bd fb2b 94bd c283 b43c
00000330: 2c32 d6bd 1de8 a6bd 6e34 853c 3166 8ebd
00000340: 7b3f 8ebd 1315 d8bd 077f 063e 8be9 d5bd
00000350: e9e8 df3c b65e e1bd 574c 463d 1134 21bc
00000360: 5fd3 d2bd c63b 97bd 49a4 623d 79b7 543d
00000370: af6a 36bb a96d a6b8 99fb 063e 8a69 993d
00000380: 10b1 d83d d016 113c ed49 983c 11f2 08bd
00000390: 7f3c a3bd 7dcf 3c3d dda3 86bd 0c64 e9bd
000003a0: 24ee 0bbc 5b09 83bb b3ed c23b e52f 173d
000003b0: 2d53 cd3d 53d0 7dbd 30b8 88bd 5c26 05bd
000003c0: a5a8 183e 38aa 59bd 3cae 9c3d db38 bebd
000003d0: 57f3 313d 89a9 49bb 8aa3 cdbd 8d3a b53d
000003e0: 8a0a 60bd fe60 e13d d350 a83d 08dd 68bd
000003f0: 32ec f2bc 0f1d d33d 0ff6 50bd 8b2d 43bc
0.03841829 -0.007634448 -0.082780406 -0.123968676 0.12629394 -0.08048219 -0.06735763 0.0065972614
0.08920368 0.088816315 0.01474369 -0.11492295 0.03323806 -0.06437246 0.07409339 -0.070031434
0.022941831 -0.0064644944 0.02714634 0.078411415 0.025679117 0.084517196 0.10014296 0.1134619
0.11588307 -0.09678549 -0.05592144 -0.04390638 0.09087486 0.11686679 0.022685753 0.05146714
0.12512743 0.08214153 0.1415427 -0.0042190864 0.049972396 -0.13584048 -0.10139496 -0.048818633
-0.04957673 0.020561047 0.019620564 0.15124947 0.02915393 0.04122375 0.00016921392 -0.05029218
-0.075685255 -0.049005248 0.0072313123 0.027259275 0.035710756 0.04602275 0.08670668 -0.057046257
-0.10433738 -0.09012089 -0.051346708 0.072735354 -0.09840316 -0.060257085 0.057596955 0.052309316
0.06316033 -0.06482032 -0.055111013 0.10342751 -0.09831017 -0.046555076 0.09412392 -0.075757936
0.024082677 -0.08596048 0.11959639 -0.0037462236 -0.044480376 -0.06400687 -0.04384324 -0.0016541869
0.016533853 -0.04487523 -0.074111365 0.03507819 0.0378419 -0.047781777 0.03659609 -0.024474757
-0.19055477 0.10622717 -0.030613014 0.06096415 -0.041174036 0.09320817 0.06452147 0.19555184
0.030799689 -0.047558896 -0.11500626 -0.12133537 -0.05503369 0.11569558 -0.062248275 0.07861315
-0.1293605 0.027790025 0.051400885 -0.023068676 0.19842657 -0.09809434 -0.11607657 -0.054901037
0.096148826 0.019738834 0.045434278 -0.003326911 -0.085452646 -0.028453534 0.07578007 -0.041791648
-0.10303425 0.07220025 -0.07135191 -0.031724054 0.018928757 0.04864526 -0.019392189 -0.076996565
0.06295549 -0.045912325 -0.012600663 -0.050102618 -0.07719689 -0.01981431 0.051070765 -0.05411909
-0.004859789 0.045818437 0.017496068 -0.041374285 -0.05068282 -0.13918714 -0.13119732 0.03425785
-0.03370864 -0.104891405 0.07123002 -0.010563965 0.024239069 -0.08238905 0.06369679 0.03678794
-0.0019347216 -0.12433828 -0.019230701 -0.062481824 -0.029031198 -0.052008107 -0.033123657 0.075885415
-0.06563842 0.089483656 -0.016690325 0.03849602 0.10252935 0.19180322 0.083723105 -0.024214333
-0.014455192 -0.024658952 0.10096668 -0.07589965 -0.014067697 -0.10284854 -0.06630856 0.08678746
-0.05091766 -0.05064176 0.069136344 0.09518841 -0.014202283 0.10328055 0.052947007 -0.076210484
-0.0022200455 0.036946192 0.10726716 -0.011052963 0.11400235 0.020751886 0.07011914 -0.013973687
-0.0019358305 0.014314205 0.07343144 -0.10000092 -0.079233356 -0.0016840148 -0.06808128 -0.08555753
-0.049940843 -0.03188414 -0.07234951 0.022035483 -0.10458788 -0.08149741 0.016260352 -0.06953085
-0.06945702 -0.105508946 0.13134395 -0.104449354 0.02733274 -0.11004393 0.048412647 -0.009839074
-0.10294222 -0.07384448 0.055332456 0.051932786 -0.0027834584 -7.9359226e-05 0.13181914 0.07490833
0.10580647 0.008855537 0.018589938 -0.033433978 -0.07970523 0.046096314 -0.06574223 -0.113960356
-0.008540664 -0.003998918 0.005948746 0.03691091 0.1002563 -0.06196625 -0.06675756 -0.032507285
0.14908083 -0.05314085 0.0765042 -0.09288188 0.043444958 -0.0030771217 -0.10040958 0.08849058
-0.05469755 0.11004828 0.08218541 -0.056851417 -0.029653642 0.10308277 -0.05101591 -0.011912714

head.0.bias f4 [64]
00000000: def6 3d3c 9529 aa3d e419 76bd 21d3 bebd
00000010: d992 88bd d223 ca3d e357 de3d 5881 57bd
00000020: 0bc9 803d 0cfe 0b3e e226 f8bc 1fe0 95bc
00000030: cf28 0d3d 54de 62bd 1045 cabd a4ca 3cbc
00000040: b92f 5d3d d004 dbbd 07c3 14be 0105 643d
00000050: a4a3 81bd 0549 b23d 83c7 163e bdbe 8b3c
00000060: d9a2 b6bd 99fd 0c3e 7c3c c4bc f869 c6bd
00000070: f2d7 ba3c 5efa 92bd eecf aab8 dd41 0b3b
00000080: c645 dabd 760d 47bd 5b78 d3bc 07b5 34bd
00000090: 77bc 933c bafd 763d 11bb dc3d 3dea aebd
000000a0: 0333 b63b 036a 573d 855b 343e 5c9a 93bc
000000b0: 2a84 fa3d 8c28 0a3d 3688 6ebb 84dd d8bd
000000c0: 5940 8f3d 7e07 c7bd 43c3 7a3d 5b87 093e
000000d0: 85ff 1bbd 672d 12bc b69b a1bd 3ea9 d53d
000000e0: 3f1c a3bd 0264 89bd c5d9 84bd 0510 b03d
000000f0: 1d20 bd3c aa18 7bb9 e7f4 9b3c 119f 743d
0.011594502 0.083087124 -0.060083285 -0.093176134 -0.06668634 0.098701134 0.10856607 -0.052613586
0.06288346 0.1367113 -0.030291978 -0.018295346 0.034462746 -0.05538781 -0.09876454 -0.011522923
0.05400059 -0.10694277 -0.14527522 0.055668835 -0.0633004 0.087053336 0.14724545 0.017058725
-0.089177795 0.13768615 -0.023954622 -0.09688181 0.022808049 -0.0717666 -8.1449616e-05 0.0021248974
-0.106578395 -0.04859682 -0.025814226 -0.044117954 0.018034203 0.060300566 0.107778676 -0.08540771
0.0055602803 0.052591335 0.17613037 -0.01801794 0.122322395 0.033730075 -0.0036397106 -0.10589126
0.06994695 -0.09718226 0.061221372 0.1343054 -0.03808548 -0.008921958 -0.07891028 0.10432671
-0.07964372 -0.06708528 -0.06486849 0.085968055 0.023086602 -0.00023946413 0.019037677 0.05972201

head.2.weight f4 [1, 64]
00000000: b09e bd3b dabb 2e3d 720c 6d3d b4c8 553d
00000010: c053 26bc ee7f 573d 7627 d93d c75c b6bd
00000020: 6c43 e23d b490 b53d 1397 f3bc 2639 e43d
00000030: 9a79 e73d e146 d2bd b0d8 e83c 3fa9 483d
00000040: acb3 f1bd ff4d 823d 8b13 5cbd d7a5 bdbd
00000050: 1416 1c3e 1a5d f53d 58b1 9f3d 0e0e 7bbb
00000060: 4970 b23a bea5 dd3c 4220 dfbd b6df 90bd
00000070: 5dda 853c 4abf f2bc 3b6a b23d b87c 8d3d
00000080: 4bfc 75bd 7f66 9fbc 01b8 09be de87 1fbc
00000090: 1cdd 0fbc 5487 a83d e8b1 cf3d c761 5ebb
000000a0: 7f2e 1abd 2f9a 153d b12f 143e e1c2 c53d
000000b0: 92fa 053d be9e 66bc e0e4 823d 1a6f 62ba
000000c0: 7fa8 323c a00a 6dbd 42f9 adbd 5275 ca3d
000000d0: ab63 65bd 7e36 83bd d3ea a9bc 578a bf3d
000000e0: f8f3 e1bc e8b5 debd 0e11 89bc 48fd c83d
000000f0: f30c 3fbd e001 c1bd 8fe5 3039 50e4 63bd
0.0057867393 0.042659618 0.057873197 0.05219336 -0.0101518035 0.052612238 0.1060323 -0.089044146
0.11048016 0.088654906 -0.029735124 0.11143713 0.113024905 -0.10267425 0.028423637 0.04898953
-0.11801848 0.06362533 -0.053729575 -0.09260147 0.15242797 0.11980648 0.077974975 -0.0038307938
0.0013613786 0.027056571 -0.108948246 -0.070739195 0.016339475 -0.02963223 0.08711668 0.06908554
-0.06005506 -0.019458054 -0.13449098 -0.009736983 -0.008780744 0.08228937 0.10141355 -0.0033932792
-0.037642 0.036523994 0.14471318 0.09656311 0.032709666 -0.014075933 0.06391311 -0.0008637771
0.01090443 -0.05787146 -0.08494808 0.09885658 -0.056003254 -0.06406878 -0.020741856 0.09352558
-0.027582154 -0.108745396 -0.016731765 0.098139346 -0.04664321 -0.09424186 0.00016870185 -0.055637658
