outputs/exp_0003_20251213_123043/runs/seed4/h1/SlidingWindowSGD/model_final.pt (torch, 71493 bytes, 7 tensors)

gru.weight_ih_l0 f4 [192, 1]
0.009939025 0.10411544 -0.11196658 -0.22897916 -0.15347093 -0.2155396 0.10425796 0.099338785
0.08427854 0.20428893 -0.053309727 -0.0019351738 0.10483859 -0.12880914 0.10028874 0.064101875
-0.028733408 -0.12357409 0.07214416 -0.08562327 -0.008169589 -0.14240256 -0.006252017 0.053368162
0.1757432 -0.06805181 -0.013125479 0.026269007 0.00935745 -0.14435038 0.032115113 0.10654871
0.007336471 -0.03183823 -0.056628987 -0.021483848 -0.22056203 0.059982084 -0.0021267345 -0.10768654
0.005438975 0.021437125 0.15106848 -0.053976018 -0.1769756 0.13946779 0.036102094 -0.13391371
0.06748094 0.0921158 -0.017531665 0.18239436 0.08207275 -0.16119897 -0.12352854 0.047157336
0.18100838 -0.006309739 0.034366325 -0.019694127 -0.16251561 0.066792384 -0.21569923 0.017522989
0.0924192 0.10903257 0.022036212 -0.31770405 -0.038561266 -0.0022233354 -0.031103786 0.016018635
-0.13510796 -0.09818503 -0.084705174 0.033482827 0.037268836 -0.027743544 -0.14442621 -0.15023799
-0.109636776 0.13125055 0.08475965 -0.07286662 -0.029996995 0.027291954 0.030890103 -0.014608626
-0.11280197 -0.11067035 0.005217372 -0.091669 -0.0831391 0.06558486 0.13834369 -0.1542305
-0.15948525 -0.0326505 -0.029865494 -0.112075746 -0.15338328 0.12579821 0.038576137 -0.013620142
-0.13737184 0.03529169 -0.15802377 -0.19515209 0.0693701 0.04113826 0.049401507 -0.0037419903
-0.1266721 -0.05936772 -0.0035075103 0.047143903 0.13299379 -0.15356022 0.04741933 -0.029733391
0.012853116 -0.15963368 -0.06684947 -0.036649045 0.10379181 -0.08979771 -0.047908377 -0.08047876
-0.0032655664 0.23833483 -0.012402968 0.34406275 -0.023970403 -0.01224887 -0.0033714205 0.070000075
0.21764024 -0.08422206 0.07088196 -0.11536471 -0.0144650405 0.11717358 -0.18807617 0.0124387145
0.123705536 0.13577731 -0.026850397 0.004976305 0.053600438 0.078303345 -0.14609645 0.08192729
-0.09669922 -0.06507476 -0.084241346 -0.08041384 -0.150868 0.1411189 0.022549603 -0.02859253
-0.0035403373 -0.18820113 -0.13504712 0.07317435 -0.18193269 -0.061418775 0.10081305 0.23821196
-0.08608132 -0.17620385 0.12507693 0.063217044 0.08759887 -0.040384863 -0.08036187 -0.009273389
0.021937633 -0.0040148753 -0.06714978 0.14348668 0.1506478 -0.00039737741 -0.11526099 -0.06829583
-0.12160173 -0.07817408 0.06771694 -0.013950932 0.011184242 -0.13790461 -0.08261169 0.09547011
00000000: 4bd7 223c 7a3a d53d bc4e e5bd 8379 6abe
00000010: 7c27 1dbe 6ab6 5cbe 3385 d53d 2272 cb3d
00000020: 3a9a ac3d 1e31 513e 4d5b 5abd a8a5 fdba
00000030: 9db5 d63d 8be6 03be 2f64 cd3d d847 833d
00000040: 5362 ebbc 6a14 fdbd 51c0 933d 415b afbd
00000050: bdd9 05bc fad1 11be b8dd ccbb 9398 5a3d
00000060: 07f6 333e bf5e 8bbd 400c 57bc 1a32 d73c
00000070: fd4f 193c 96d0 13be 238b 033d 3636 da3d
00000080: c866 f03b ce68 02bd ccf3 67bd e5fe afbc
00000090: 03db 61be c6af 753d af60 0bbb c38a dcbd
000000a0: 6e39 b23b e99c af3c b2b1 1a3e f515 5dbd
000000b0: 1739 35be a5d0 0e3e cadf 133d ad20 09be
000000c0: 7233 8a3d 35a7 bc3d 919e 8fbc 96c5 3a3e
000000d0: c215 a83d 5811 25be 88fc fcbd 0d28 413d
000000e0: 435a 393e edc1 cebb b4c3 0c3d 9455 a1bc
000000f0: 7e6a 26be 72ca 883d 42e0 5cbe 5f8c 8f3c
00000100: 4746 bd3d 784c df3d 4985 b43c 1baa a2be
00000110: 6bf2 1dbd 61b5 11bb 5ecd febc 8339 833c
00000120: be59 0abe 3c15 c9bd e879 adbd 4a25 093d
00000130: 35a7 183d 6e46 e3bc 77e4 13be fdd7 19be
00000140: 3f89 e0bd 8b66 063e 7896 ad3d 183b 95bd
00000150: 42bc f5bc 6093 df3c 3e0d fd3c 0559 6fbc
00000160: b804 e7bd 23a7 e2bd 7df6 aa3b f5bc bbbd
00000170: d544 aabd 5b51 863d f8a9 0d3e 9aee 1dbe
00000180: 1a50 23be 88bc 05bd 7ba8 f4bc f887 e5bd
00000190: 8210 1dbe 3fd1 003e 0302 1e3d 0427 5fbc
000001a0: 34ab 0cbe 058e 103d fcd0 21be f3d5 47be
000001b0: e911 8e3d 9880 283d 3c59 4a3d 2e3c 75bb
000001c0: 55b6 01be 912b 73bd 42de 65bb f719 413d
000001d0: 862f 083e e43e 1dbe c53a 423d 7193 f3bc
000001e0: e095 523c 0377 23be 60e8 88bd 4f1d 16bd
000001f0: cd90 d43d dde7 b7bd 933b 44bd 0cd2 a4bd
00000200: 1d03 56bb 0c0e 743e d135 4bbc fe28 b03e
00000210: 945d c4bc 7caf 48bc 0df3 5cbb 335c 8f3d
00000220: 15dd 5e3e 9e7c acbd 902a 913d 5544 ecbd
00000230: c7fe 6cbc b4f8 ef3d 0a97 40be c0cb 4b3c
00000240: 5459 fd3d 3509 0b3e 5df5 dbbc 4610 a33b
00000250: 228c 5b3d 815d a03d 4f9a 15be 7fc9 a73d
00000260: 3e0a c6bd ea45 85bd ba86 acbd 03b0 a4bd
00000270: 247d 1abe 7981 103e f2b9 b83c e23a eabc
00000280: 0105 68bb ccb7 40be cb49 0abe 6fdc 953d
00000290: 904c 3abe 4192 7bbd 1377 ce3d d6ed 733e
000002a0: 674b b0bd c86e 34be 2b14 003e f077 813d
000002b0: 0967 b33d 996a 25bd c494 a4bd 6aef 17bc
000002c0: 8db6 b33c 378f 83bb d385 89bd 2cee 123e
000002d0: 6b43 1a3e 1857 d0b9 f40d ecbd afde 8bbd
000002e0: 540a f9bd bb19 a0bd 2eaf 8a3d 7392 64bc
000002f0: 1c3e 373c de36 0dbe 5130 a9bd d585 c33d

gru.weight_hh_l0 f4 [192, 64]
0.16286694 -0.19512907 0.097635634 -0.0011770915 -0.007617596 0.037392635 0.028942073 -0.11434917
0.071707234 -0.15288706 0.03789115 0.14387475 -0.019535696 -0.017259285 -0.12952471 -0.06353029
-0.016663602 0.0063913516 0.14038572 -0.022535967 -0.10207611 0.059092544 0.103485964 -0.009410621
0.13749447 -0.022563279 0.00531269 0.1528799 0.15802053 -0.1178319 -0.09934037 -0.10069675
0.0981661 -0.09437599 0.12132076 -0.09050436 -0.009972793 0.21075861 -0.01688109 -0.0919235
0.048506003 0.10864568 0.08928908 -0.03925439 -0.041253787 -0.14657024 -0.09073724 0.06276341
-0.14178796 0.10146101 0.056473352 0.017147146 -0.003958265 0.055178773 -0.0928617 0.056275994
-0.04149873 0.07112875 -0.13312548 -0.030106459 -0.15067686 0.0483973 -0.08942155 -0.14644106
0.07920655 0.14007738 -0.074540816 -0.08317644 0.061549686 -0.06385569 -0.045004264 0.23849532
0.07101039 -0.10821967 -0.03086705 -0.045456804 -0.05649898 0.00517295 -0.07668617 -0.011191657
0.009614156 0.07411153 -0.24245253 0.0002932218 0.04925074 -0.054118022 0.079437554 0.123171814
0.009474001 0.19894399 -0.016629407 0.0454196 0.06477362 -0.16849156 -0.096605584 -0.146721
0.045266826 0.10648634 -0.03354774 0.24132109 -0.037177064 -0.16890487 0.052304734 -0.037711192
-0.011358072 0.14392452 0.0858643 -0.122955374 0.14454122 0.13637613 -0.014284197 0.12259288
-0.055635877 0.024327714 0.026230419 0.0020372677 0.00039723952 -0.09799325 0.02748104 -0.07303523
0.064850435 0.03840238 -0.09141128 0.06741032 -0.10065608 0.08776091 0.018373212 -0.06739177
0.1463652 0.026031947 -0.1352763 -0.13902341 -0.17115746 -0.0067571662 -0.010902925 -0.045101166
-0.06652214 -0.001650066 -0.027943995 0.029594759 0.15127431 0.05032704 0.031747837 0.11352639
-0.08641803 -0.06916452 -0.08800356 0.05410868 -0.015276644 -0.012784324 -0.06490077 -0.15786998
0.04325602 0.1253064 -0.075866014 0.05682873 0.07060669 -0.09393397 0.07697551 -0.115952425
0.094952166 -0.003934332 -0.045698702 0.00069931435 0.064162366 -0.1339528 0.06427362 -0.09893739
0.011007393 -0.057907645 -0.054819003 -0.13846488 0.10010157 0.07486144 0.04710216 0.08619574
-0.12365905 -0.07307703 0.16252732 -0.033878256 0.07006789 0.081598975 0.07232395 0.009449398
0.17312396 0.022740094 -0.096936144 0.08008668 -0.054730732 0.07497978 0.05524906 -0.08025068
-0.16552143 0.019219209 -0.10075597 0.09966531 -0.11778611 0.037491355 0.08124121 0.07748338
0.050547794 0.019598896 0.07447878 -0.078129716 -0.20545486 0.30578944 -0.056082 0.1250156
0.10724129 -0.023304 0.04818504 -0.032596692 0.16477354 -0.058730707 -0.057746604 0.13086748
-0.12975594 0.14414068 -0.043973647 -0.055105004 -0.12650205 0.1076862 0.22250338 -0.15193298
-0.19420685 -0.062535 -0.2644825 0.0011626465 -0.041875098 0.051479805 0.268368 0.19728294
0.03648307 0.051568005 -0.16835721 0.05142266 -0.014296196 -0.009214034 -0.03736513 0.13943267
0.06685538 -0.089589894 -0.18923943 0.060805023 0.015367585 0.14010558 0.095353216 -0.05907968
-0.011889582 -0.07459789 0.17163295 -0.119493335 0.098446004 -0.025858363 -0.13502824 0.124636635
00000000: 97c6 263e eacf 47be 31f5 c73d a348 9aba
00000010: 079d f9bb 0529 193d ed17 ed3c e62f eabd
00000020: 3edb 923d 6d8e 1cbe c033 1b3d e753 133e
00000030: 5309 a0bc 5863 8dbc 20a2 04be 2b1c 82bd
00000040: 1b82 88bc 8b6e d13b 46c1 0f3e 599d b8bc
00000050: 480d d1bd 060b 723d 73f0 d33d 012f 1abc
00000060: 5acb 0c3e a0d6 b8bc 1316 ae3b 8c8c 1c3e
00000070: 22d0 213e da51 f1bd f772 cbbd 193a cebd
00000080: 4f0b c93d 3348 c1bd 0577 f83d 5a5a b9bd
00000090: ed64 23bc 1bd1 573e 364a 8abc 6342 bcbd
000000a0: 3bae 463d a081 de3d 31dd b63d 36c9 20bd
000000b0: bbf9 28bd 8216 16be 72d4 b9bd 1a8a 803d
000000c0: dd30 11be caca cf3d 9a50 673d 2c78 8c3c
000000d0: 55b4 81bb 2303 623d 462e bebd a881 663d
000000e0: 93fa 29bd f3ab 913d 0c52 08be d2a1 f6bc
000000f0: 094b 1abe 3f3c 463d a522 b7bd a5f4 15be
00000100: 0b37 a23d 7270 0f3e dba8 98bd 6958 aabd
00000110: 861b 7c3d c6c6 82bd 6456 38bd 1e38 743e
00000120: e56d 913d 46a2 ddbd e5dc fcbc ea30 3abd
00000130: 796b 67bd da81 a93b a40d 9dbd 365d 37bc
00000140: b184 1d3c c9c7 973d 7a45 78be 90bb 9939
00000150: 25bb 493d dcaa 5dbd 28b0 a23d 8141 fc3d
00000160: d738 1b3c f9b7 4b3e 653a 88bc e709 3a3d
00000170: 08a8 843d 0d89 2cbe 26d9 c5bd 083e 16be
00000180: b569 393d 8315 da3d 5b69 09bd e01c 773e
00000190: fa46 18bd 66f5 2cbe 7d3d 563d 0d77 1abd
000001a0: 3517 3abc f360 133e 9fd9 af3d 07d0 fbbd
000001b0: 9d02 143e 2fa6 0b3e 4408 6abc fa11 fb3d
000001c0: 72e2 63bd ea4a c73c 2de1 d63c ae83 053b
000001d0: 9644 d039 afb0 c8bd eb1f e13c 7f93 95bd
000001e0: 4ed0 843d d04b 1d3d d635 bbbd 6c0e 8a3d
000001f0: c624 cebd febb b33d 6b83 963c b204 8abd
00000200: c2e0 153e f340 d53c df85 0abe 275c 0ebe
00000210: e743 2fbe 386b ddbb 2fa2 32bc 00bc 38bd
00000220: c23c 88bd 0747 d8ba ceea e4bc b570 f23c
00000230: a7e7 1a3e ba23 4e3d 050a 023d 8680 e83d
00000240: f0fb b0bd 21a6 8dbd 363b b4bd 10a1 5d3d
00000250: e44a 7abc 5775 51bc b2ea 84bd aba8 21be
00000260: 392d 313d 5250 003e a45f 9bbd 3ec5 683d
00000270: 3e9a 903d 7460 c0bd 56a5 9d3d 7778 edbd
00000280: 4876 c23d 92eb 80bb 902e 3bbd 3152 373a
00000290: 8f67 833d ec2a 09be e3a1 833d b09f cabd
000002a0: 5a58 343c 9130 6dbd e489 60bd bdc9 0dbe
000002b0: 0d02 cd3d f450 993d 32ee 403d 6487 b03d
000002c0: f540 fdbd 69a9 95bd 906d 263e edc3 0abd
000002d0: c17f 8f3d 5d1d a73d 941e 943d a6d1 1a3c
000002e0: 6847 313e 6f49 ba3c 7586 c6bd 7c04 a43d
000002f0: 552d 60bd 008f 993d d74c 623d 785a a4bd
00000300: 737e 29be 9a71 9d3c 2559 cebd 531d cc3d
00000310: d839 f1bd 8990 193d cb61 a63d 9baf 9e3d
00000320: 340b 4f3d dd8d a03c 5588 983d 7902 a0bd
00000330: c262 52be 6f90 9c3e 3db6 65bd 1704 003e
00000340: 52a1 db3d 08e8 bebc ad5d 453d 1c84 05bd
00000350: 65ba 283e 9c8f 70bd b487 6cbd 2002 063e
00000360: bede 04be 9d99 133e b61d 34bd c9b5 61bd
00000370: c189 01be 958a dc3d edd7 633e 5294 1bbe
00000380: 29de 46be 5a12 80bd 406a 87be f163 983a
00000390: 3985 2bbd 7ddc 523d 8867 893e 8a04 4a3e
000003a0: 466f 153d f938 533d d565 2cbe 91a0 523d
000003b0: 983a 6abc 76f6 16bc 2e0c 19bd 70c7 0e3e
000003c0: 79eb 883d e87a b7bd fbc7 41be b00e 793d
000003d0: 53c8 7b3c d677 0f3e 8c48 c33d 89fd 71bd
000003e0: 85cc 42bc c7c6 98bd 8cc0 2f3e ecb8 f4bd
000003f0: 0f9e c93d ebd4 d3bc d844 0abe 7e41 ff3d

gru.bias_ih_l0 f4 [192]
0.1613515 0.15921138 0.100872554 0.04084476 -0.028714767 0.07378362 -0.071192406 0.14589547
0.07580686 0.1128404 -0.0107982755 0.078248404 0.0428377 0.03127413 -0.05635817 0.19170654
-0.10230789 -0.045502026 0.23738465 -0.055199306 -0.027168762 0.044498064 -0.053166315 -0.008498959
4.9964012e-05 0.049970474 0.1318616 0.19861463 -0.11136884 0.08040109 -0.08212459 -0.050267518
-0.01601102 0.122196704 0.13502899 0.1250088 0.051377792 0.17791085 0.04560771 0.17189911
0.018188007 0.077999964 0.11592935 -0.13047957 0.06584277 0.010540799 0.19270909 0.010199049
0.045756064 0.08062247 -0.03222006 0.13060147 0.106415 0.13195807 0.13598536 -0.053451966
0.08304165 0.012144153 -0.029196128 0.14123665 -0.022464627 0.009768333 0.1426574 0.028246524
-0.106332205 -0.23874411 -0.0017971226 -0.018856669 -0.0009335145 0.09715985 0.20696922 0.058673676
-0.04225715 0.03240633 -0.056367375 -0.2709233 0.045275528 0.011585428 0.068653576 0.09706359
0.07636928 0.057905488 -0.5314764 -0.040005606 -0.016784005 0.08265799 -0.14996247 -0.030289808
0.04848644 0.13571855 -0.06038356 0.13680376 -0.117792465 -0.012794248 0.030671714 0.0023030154
-0.0028853146 -0.05692731 0.01430786 0.015633447 -0.06503528 -0.23741403 -0.14633921 -0.28022796
0.1303828 -0.097559646 0.006603731 0.16690136 -0.026706744 -0.22838332 0.07009883 0.21225707
0.21446921 0.11244343 -0.03355197 -0.035051268 0.04037841 0.1053904 0.07754316 -0.0177173
0.09469052 0.07518201 0.136155 0.080344714 0.14826195 0.091973424 0.028973915 0.11895563
-0.0002800599 0.090405166 0.08648666 -0.084782295 -0.12971061 -0.0027317342 -0.16513081 -0.00032433838
-0.065531865 -0.12860152 0.013767067 -0.014529245 -0.03929387 0.106252424 -0.15602717 -0.07388397
0.037797082 -0.10230173 -0.05495165 0.061624568 -0.043411847 -0.14332072 0.12739924 -0.006480372
0.1291392 0.022095121 -0.025373574 0.10130977 0.019980678 0.105856836 0.10881544 -0.09542688
0.1457052 -0.1376477 -0.07856101 0.15136658 -0.13379918 0.05961473 0.1389451 -0.13164005
-0.027336238 0.09747551 0.12795861 -0.013498645 0.10349055 -0.13047396 -0.09177057 -0.104147084
-0.051817086 0.14683011 0.011145449 0.0065204366 -0.07920831 0.015263745 0.05289298 0.009907046
0.15057257 0.0017573925 -0.015388348 -0.09546253 -0.10589441 0.04686283 -0.107795715 -0.07236357
00000000: 5439 253e 4f08 233e 4596 ce3d d64c 273d
00000010: 3b3b ebbc de1b 973d 53cd 91bd 9f65 153e
00000020: a140 9b3d de18 e73d 40eb 30bc b340 a03d
00000030: 9676 2f3d 4d19 003d d3d7 66bd b84e 443e
00000040: cd86 d1bd 5560 3abd f614 733e ab18 62bd
00000050: 0691 debc 9a43 363d ecc4 59bd 383f 0bbc
00000060: 7390 5138 d7ad 4c3d ba06 073e a261 4b3e
00000070: 5915 e4bd 54a9 a43d f030 a8bd 50e5 4dbd
00000080: 8b29 83bc 4442 fa3d 0a45 0a3e 4f02 003e
00000090: 8571 523d 432e 363e 26cf 3a3d 5206 303e
000000a0: 04ff 943c 72be 9f3d 5e6c ed3d 709c 05be
000000b0: 93d8 863d 51b3 2c3c 8855 453e e919 273c
000000c0: b66a 3b3d 651d a53d 2ef9 03bd 64bc 053e
000000d0: 1cf0 d93d 0420 073e bf3f 0b3e 73f0 5abd
000000e0: be11 aa3d 45f8 463c b82c efbc 57a0 103e
000000f0: bd07 b8bc 5c0b 203c c814 123e 4165 e73c
00000100: b3c4 d9bd 5679 74be 6e8d ebba 4d79 9abc
00000110: 19b7 74ba befb c63d bdef 533e cf53 703d
00000120: d515 2dbd 80bc 043d 7ae1 66bd 75b6 8abe
00000130: d572 393d cfd0 3d3c 3f9a 8c3d 47c9 c63d
00000140: 7f67 9c3d 4e2e 6d3d d60e 08bf ebdc 23bd
00000150: 9c7e 89bc 9848 a93d c38f 19be 5522 f8bc
00000160: b899 463d cef9 0a3e c054 77bd 4916 0c3e
00000170: 2d3d f1bd f79e 51bc 3f43 fb3c 30ee 163b
00000180: 8c17 3dbb 9c2c 69bd 846b 6a3c b711 803c
00000190: 3831 85bd aa1c 73be f2d9 15be 0a7a 8fbe
000001a0: 1283 053e 5acd c7bd 1c64 d83b 31e8 2a3e
000001b0: 1ac8 dabc 51dd 69be fa8f 8f3d eb59 593e
000001c0: d19d 5b3e be48 e63d ca6d 09bd eb91 0fbd
000001d0: d563 253d ecd6 d73d f3ce 9e3d df23 91bc
000001e0: 1aed c13d 07f9 993d 376c 0b3e c58b a43d
000001f0: fbd1 173e 905c bc3d b45a ed3c 029f f33d
00000200: 01d5 92b9 5826 b93d eb1f b13d 57a2 adbd
00000210: dcd2 04be e506 33bb 0d18 29be f60b aab9
00000220: 9235 86bd 1eb0 03be 448f 613c 120c 6ebc
00000230: 9cf2 20bd df9a d93d 96c5 1fbe 7b50 97bd
00000240: 1dd1 1a3d 9283 d1bd fb14 61bd 0b6a 7c3d
00000250: 9fd0 31bd abc2 12be f274 023e 4d59 d4bb
00000260: 113d 043e d400 b53c 3edc cfbc 7f7b cf3d
00000270: 85ae a33c 78cb d83d a1da de3d 2b6f c3bd
00000280: be33 153e 85f3 0cbe 98e4 a0bd d7ff 1a3e
00000290: a702 09be 932e 743d a047 0e3e a6cc 06be
000002a0: 3ff0 dfbc 3da1 c73d 9507 033e 6c29 5dbc
000002b0: daf2 d33d f79a 05be 35f2 bbbd 114b d5bd
000002c0: 273e 54bd a25a 163e 679b 363c 63a9 d53b
000002d0: f737 a2bd c914 7a3c 4fa6 583d 2a51 223c
000002e0: b22f 1a3e 4f58 e63a 691f 7cbc dc81 c3bd
000002f0: 2bdf d8bd 3df3 3f3d 00c4 dcbd 5a33 94bd

gru.bias_hh_l0 f4 [192]
0.13952465 0.06760814 0.13811259 -0.016455427 0.011093302 0.10385986 -0.07606492 0.21113694
-0.0012977099 0.06734348 0.09175302 0.038680345 0.12547281 0.0833941 -0.069487795 -0.054785978
0.06194249 0.10334765 0.30975798 0.15233019 -0.087959476 0.006815491 0.0036980745 -0.07612768
0.0019768006 0.013375455 0.0611302 0.12189539 -0.047596313 0.107272394 0.1477108 -0.07079784
0.08782424 0.019853374 0.13587025 0.074955225 0.09103629 0.238284 0.08323246 -0.014285354
0.038784478 -0.02052268 0.13246426 0.07445496 0.06715203 0.019663826 0.055958323 -0.05054395
0.10192258 0.054886714 0.14291644 -0.068366386 -0.013775009 0.15676871 -0.08776225 -0.005254982
0.021488097 0.05098745 0.054999642 0.009797956 0.1527603 0.039289854 0.13964769 0.07666701
-0.076183036 -0.24456972 0.08339313 -0.094512925 0.066580966 0.07788492 0.0401971 -0.07275366
0.08129613 0.055989392 0.13763762 -0.19174974 -0.039952815 -0.08778382 -0.035477225 0.16332021
0.10089762 0.09949763 -0.57136494 0.1580359 -0.035335813 0.23711146 -0.2629745 0.03311422
0.0044687516 -0.041187588 -0.011098353 0.034705993 -0.13052373 -0.08313754 -0.026251435 -0.03272365
0.013806396 -0.17011172 0.018289141 0.007925828 -0.01127028 -0.35305735 -0.03854126 -0.35383478
0.073438935 0.026994651 0.032453224 0.0557599 0.01312298 -0.34116527 -0.12538384 0.18272072
0.033991408 0.08924703 0.18524425 0.082299314 0.05229298 0.08244159 0.10155582 0.058505584
-0.02039818 -0.111541376 0.09751577 0.06835537 0.007938702 0.029345043 0.09464272 0.070417926
0.08273073 -0.07606876 0.08575979 -0.10322787 -0.057689995 -0.12189313 -0.099294156 0.13987532
0.044595033 -0.15197197 -0.0027334953 -0.12747012 0.07735261 -0.08642822 -0.097813435 0.045341395
-0.049877435 0.034527432 0.015149573 -0.018258981 0.1182007 0.09302051 0.05757907 -0.033951048
-0.02513036 0.09731586 0.11019216 0.10444019 0.025428703 -0.03518158 -0.0467316 -0.1454543
0.15067391 0.06678078 0.028048534 0.16922826 0.028675547 -0.02511092 -0.0476586 -0.08787032
0.1166459 0.0096807415 0.11709328 0.01366736 -0.013830108 0.012563071 -0.06971321 -0.110489614
-0.12514412 -0.020369526 0.0051661674 0.06513471 -0.017214695 0.10833118 -0.08353376 0.12266452
0.11345813 0.078752674 0.065722145 -0.04073635 0.018944692 0.14112483 -0.009093534 -0.058807302
00000000: 8ddf 0e3e 2376 8a3d 636d 0d3e 88cd 86bc
00000010: aec0 353c 7ab4 d43d edc7 9bbd 4834 583e
00000020: eb17 aaba 61eb 893d 02e9 bb3d 486f 1e3d
00000030: f27b 003e 87ca aa3d 9e4f 8ebd 4367 60bd
00000040: 69b7 7d3d efa7 d33d 9998 9e3e 72fc 1b3e
00000050: 1924 b4bd 7b54 df3b 655b 723b d4e8 9bbd
00000060: 368d 013b b924 5b3c a963 7a3d 4aa4 f93d
00000070: 5af4 42bd a1b1 db3d 8041 173e 75fe 90bd
00000080: 32dd b33d 8ba3 a23c 9221 0b3e 2082 993d
00000090: 3c71 ba3d b900 743e c875 aa3d 1e0d 6abc
000000a0: 79dc 1e3d 2e1f a8bc b6a4 073e d87b 983d
000000b0: 0187 893d 0816 a13c 8e34 653d 2c07 4fbd
000000c0: c9bc d03d e4d0 603d b058 123e ad03 8cbd
000000d0: 93b0 61bc fa87 203e b2bc b3bd fc31 acbb
000000e0: ce07 b03c 37d8 503d 4e47 613d 9b87 203c
000000f0: 326d 1c3e 66ee 203d ceff 0e3e 9803 9d3d
00000100: da05 9cbd 7c70 7abe 04ca aa3d fe8f c1bd
00000110: 9a5b 883d 2182 9f3d b7a5 243d dfff 94bd
00000120: 967e a63d 2255 653d e0f0 0c3e 0b5a 44be
00000130: 90a5 23bd 01c8 b3bd 9150 11bd 6a3d 273e
00000140: 69a3 ce3d 6ac5 cb3d f944 12bf 2ad4 213e
00000150: 49bc 10bd 59cd 723e 98a4 86be c7a2 073d
00000160: 9b6e 923b 51b4 28bd ded5 35bc df27 0e3d
00000170: 03a8 05be 0444 aabd 400d d7bc 3c09 06bd
00000180: 3934 623c c431 2ebe 1cd3 953c 55db 013c
00000190: fba6 38bc efc3 b4be 71dd 1dbd d529 b5be
000001a0: 2767 963d e323 dd3c aced 043d 7e64 643d
000001b0: c401 573c 37ad aebe 9f64 00be 241b 3b3e
000001c0: 933a 0b3d 26c7 b63d abb0 3d3e 8b8c a83d
000001d0: 2a31 563d 23d7 a83d 7ffc cf3d 8da3 6f3d
000001e0: 151a a7bc ce6f e4bd 59b6 c73d e6fd 8b3d
000001f0: 5411 023c 0465 f03c 0bd4 c13d 4637 903d
00000200: bb6e a93d f0c9 9bbd d4a2 af3d 2269 d3bd
00000210: 584c 6cbd 1ba3 f9bd bc5a cbbd 7a3b 0f3e
00000220: 48a9 363d 8a9e 1bbe 7124 33bb 8787 02be
00000230: 0c6b 9e3d 4701 b1bd 6952 c8bd e6b7 393d
00000240: 484c 4cbd a36c 0d3d ea35 783c dc93 95bc
00000250: 3513 f23d 8a81 be3d 08d8 6b3d 4110 0bbd
00000260: 2fde cdbc 8a4d c73d 6dac e13d bde4 d53d
00000270: db4f d03c 8f1a 10bd a269 3fbd f9f1 14be
00000280: 434a 1a3e 5dc4 883d 0ac6 e53c 2c4a 2d3e
00000290: fbe8 ea3c 6bb5 cdbc aa35 43bd 5bf5 b3bd
000002a0: 0ce4 ee3d f99b 1e3c 9ace ef3d 10ed 5f3c
000002b0: ad97 62bc 57d5 4d3c cdc5 8ebd 6148 e2bd
000002c0: c825 00be fedd a6bc f448 a93b 5965 853d
000002d0: d505 8dbc bddc dd3d bf13 abbd 8937 fb3d
000002e0: bc5c e83d 1549 a13d 5599 863d 29db 26bd
000002f0: e631 9b3c 0783 103e 0cfd 14bc eddf 70bd

head.0.weight f4 [64, 64]
0.09264678 0.28868037 -0.12046927 0.12366174 0.03738511 -0.041263193 -0.08981337 0.10209829
0.08892928 -0.037473474 0.047540836 0.004991704 -0.027271185 0.042918142 -0.08235783 -0.13468201
-0.11124029 0.04420874 0.13106334 -0.08241843 -0.039627742 -0.005028677 -0.1031707 0.08780724
0.11526698 -0.036975823 -0.04235244 0.14384975 0.08475477 0.13014323 -0.14020567 -0.070701025
0.011908703 -0.04510583 0.095720656 0.05696587 -0.052287634 -0.10706458 0.053349774 0.24699323
0.12245271 -0.01183703 -0.015119737 0.025001576 0.0042457483 0.0049387254 0.051199436 0.10430037
-0.022406768 -0.060138322 -0.029359395 0.030382076 0.06192435 -0.05438769 -0.016437363 0.060415357
0.031486083 -0.074804805 -0.10067 0.044422235 0.060501546 0.057035867 0.06233583 0.01386317
0.0036490671 0.22922274 -0.08381619 -0.19316044 -0.058452915 -0.11229219 -0.12307169 -0.041771255
-0.012895412 0.086185075 -0.06782987 0.28973293 0.09761404 -0.09518924 0.023358822 0.06871313
-0.12852894 -0.036939368 -0.032056604 0.10485304 0.036714356 0.044002958 0.12528723 0.028812274
0.16529505 0.032679256 -0.055826973 0.14595541 0.024260648 0.09182822 -0.147448 0.093417145
-0.034995478 -0.014946978 0.19488163 0.037840206 0.15122905 -0.20773754 -0.011283234 -0.11328734
0.116012596 0.11740835 0.009148619 -0.118239075 0.0139539745 -0.05798719 -0.0074703423 -0.106798016
-0.012446912 0.051053934 0.12922524 -0.093166016 0.11072794 -0.11259855 0.0025422792 0.10107699
0.030428056 0.112353094 -0.059306636 0.13284218 -0.0044484977 0.04068722 -0.09580035 0.0033755896
-0.07965207 0.07133945 0.029977368 -0.114426024 0.03416927 0.051264506 -0.023242308 -0.06597086
-0.07910671 0.07860959 0.053397905 0.055720497 0.020074463 0.015555675 -0.11423362 0.010930546
-0.08401982 0.051711727 -0.015271 -0.08097214 0.07446463 0.07566144 -0.012932795 -0.033124886
-0.041433364 -0.04894458 -0.07474454 0.0302542 0.10799307 -0.05842663 -0.062999204 0.030104008
-0.106024995 0.06896588 0.098899715 0.08003763 0.09938163 -0.068631746 0.03125008 0.11441298
-0.10861088 0.10870138 -0.116816595 0.033749472 -0.11399165 0.05239737 0.011605076 0.05879774
-0.021338953 -0.05017222 0.057586707 0.09649233 0.027035747 -0.024621915 0.017078646 -0.11282422
-0.07869726 -0.1076515 -0.036493495 -0.061572533 0.011097733 0.02085818 -0.07623411 -0.029019015
0.11746395 0.019378092 0.10406309 0.06936935 0.06645842 -0.13247375 0.035309084 0.036158565
-0.07723082 -0.15786198 0.09414079 -0.17101671 0.14326404 0.055162255 -0.1255539 -0.13624017
-0.06936522 -0.003559004 -0.07513369 0.098043986 0.036724947 -0.017858947 0.01832344 -0.06992027
0.091904275 -0.0072135786 0.1399197 0.0644411 0.10566236 -0.024051039 0.12402536 -0.098039396
0.021025827 -0.13084434 -0.054510012 0.08091639 -0.095047124 0.16252407 -0.07661769 -0.122215115
0.034567844 0.02284385 -0.057230126 -0.0022110497 -0.045133766 0.038731314 -0.086958885 0.044590864
-0.08540544 0.12810507 0.113102295 -0.08353715 -0.1479451 -0.06288709 0.07697649 -0.027829848
0.01798643 0.10912059 0.04894693 -0.058706794 -0.07802373 0.03030683 0.05639035 0.04741616
00000000: 98bd bd3d eacd 933e 98b8 f6bd 5e42 fd3d
00000010: 2121 193d 9803 29bd 12f0 b7bd e918 d13d
00000020: 8e20 b63d c97d 19bd 2eba 423d 7391 a33b
00000030: d267 dfbc efca 2f3d 39ab a8bd 15ea 09be
00000040: f3d1 e3bd 3914 353d 7835 063e feca a8bd
00000050: b350 22bd 9ac7 a4bb 294b d3bd 48d4 b33d
00000060: 1811 ec3d f673 17bd c179 2dbd 594d 133e
00000070: e993 ad3d 4444 053e 1392 0fbe b3cb 90bd
00000080: b81c 433c e4c0 38bd 3109 c43d 0b55 693d
00000090: 8f2b 56bd ad44 dbbd 4b85 5a3d cbeb 7c3e
000000a0: 7dc8 fa3d 1af0 41bc c6b8 77bc 1bd0 cc3c
000000b0: eb1f 8b3b 08d5 a13b 80b6 513d 6f9b d53d
000000c0: 668e b7bc 9a53 76bd 1d83 f0bc d5e3 f83c
000000d0: 63a4 7d3d a0c5 5ebd a6a7 86bc 1876 773d
000000e0: 8df7 003d 4333 99bd 132c cebd 17f4 353d
000000f0: 78d0 773d 719e 693d db53 7f3d 5922 633c
00000100: 3025 6f3b 5eb9 6a3e d3a7 abbd dacb 45be
00000110: 536c 6fbd 73f9 e5bd 030d fcbd 5618 2bbd
00000120: 4747 53bc cd81 b03d 63ea 8abd e057 943e
00000130: dfe9 c73d 94f2 c2bd 005b bf3c 78b9 8c3d
00000140: 179d 03be bc4d 17bd c94d 03bd 31bd d63d
00000150: cb61 163d 723c 343d 4c4b 003e b807 ec3c
00000160: 1b43 293e afda 053d d3aa 64bd 5675 153e
00000170: 44be c63c 6f10 bc3d 9cfc 16be 7d51 bf3d
00000180: 6b57 0fbd 2be4 74bc 0d8f 473e 55fe 1a3d
00000190: cadb 1a3e 26b9 54be 50dd 38bc 3103 e8bd
000001a0: 0398 ed3d ca73 f03d 17e4 153c 5427 f2bd
000001b0: 369f 643c fa83 6dbd c6c9 f4bb ebb8 dabd
000001c0: 22ee 4bbc ee1d 513d 9f53 043e d3cd bebd
000001d0: 55c5 e23d 129a e6bd 5e9c 263b 7401 cf3d
000001e0: 4244 f93c 6119 e63d 84eb 72bd c807 083e
000001f0: b4c4 91bb a4a7 263d f932 c4bd ff38 5d3b
00000200: a020 a3bd 6b1a 923d 1993 f53c 3158 eabd
00000210: 14f5 0b3d bbfa 513d a766 bebc bb1b 87bd
00000220: b302 a2bd 11fe a03d c3b7 5a3d 2d3b 643d
00000230: 3373 a43c 3bdd 7e3c 51f3 e9bd 0816 333c
00000240: 9512 acbd adcf 533d 3733 7abc b9d4 a5bd
00000250: e980 983d 63f4 9a3d 13e4 53bc f6ad 07bd
00000260: 08b6 29bd 1d7a 48bd aa13 99bd a8d7 f73c
00000270: 782b dd3d c350 6fbd ba05 81bd ae9c f63c
00000280: a223 d9bd fc3d 8d3d ef8b ca3d c5ea a33d
00000290: 9988 cb3d cd8e 8cbd 1500 003d 5a51 ea3d
000002a0: 626f debd d49e de3d 8a3d efbd e33c 0a3d
000002b0: 7474 e9bd a09e 563d 3723 3e3c e6d5 703d
000002c0: 07cf aebc 6381 4dbd 0ae0 6b3d c59d c53d
000002d0: 127a dd3c e6b3 c9bc 84e8 8b3c 6210 e7bd
000002e0: 072c a1bd 6478 dcbd 347a 15bd 7b33 7cbd
000002f0: 44d3 353c c6de aa3c a120 9cbd 49b9 edbc
00000300: f090 f03d cebe 9e3c 081f d53d 8511 8e3d
00000310: 5a1b 883d 33a7 07be 42a0 103d 011b 143d
00000320: 312b 9ebd 92a6 21be e3cc c03d 011f 2fbe
00000330: cfb3 123e d1f1 613d 3491 00be 8b82 0bbe
00000340: 5a0f 8ebd 2e3e 69bb b1df 99bd 49cb c83d
00000350: e66c 163d ed4c 92bc 0a1b 963c 5c32 8fbd
00000360: 4f38 bc3d e25f ecbb 1c47 0f3e b2f9 833d
00000370: 8265 d83d af06 c5bc 0201 fe3d e1c8 c8bd
00000380: 5b3e ac3c 0ffc 05be e445 5fbd 7eb7 a53d
00000390: 11a8 c2bd b66c 263e bce9 9cbd eb4b fabd
000003a0: 0397 0d3d 0723 bb3c 236a 6abd 42e7 10bb
000003b0: 2fde 38bd baa4 1e3d 8017 b2bd e9a4 363d
000003c0: 0ce9 aebd fa2d 033e 2da2 e73d 8615 abbd
000003d0: ec7e 17be f2ca 80bd daa5 9d3d 6cfb e3bc
000003e0: 4758 933c 9e7a df3d 937c 483d 8976 70bd
000003f0: e8ca 9fbd 0746 f83c 91f9 663d 7337 423d

head.0.bias f4 [64]
-0.119495235 -0.051412266 -0.099852294 0.12444066 -0.114943855 -0.15227629 0.14378704 0.09743931
-0.085723795 -0.085136496 -0.015077674 0.086178966 0.06718256 -0.022490848 0.08132361 0.11392617
-0.0004039705 0.07090483 -0.11770801 -0.13546216 -0.044544645 0.15033984 -0.102659225 -0.07325834
0.021613693 -0.041710984 0.11400374 -0.07766724 0.0006010986 0.084588505 0.051444937 -0.07156474
-0.027667332 -0.03446343 -0.0679182 0.16538967 0.033475626 0.0011230257 0.029784055 -0.08637155
0.10889465 -0.01297625 0.051852807 -0.082437634 0.014094061 0.051106095 -0.03703931 0.08397587
-0.09929778 -0.04787724 0.13356727 0.11822768 -0.035672788 0.011932164 -0.085269675 -0.12769157
0.0016012136 0.07545501 -0.065677315 0.058281902 -0.08775034 0.047998525 -0.09893368 -0.0025143537
00000000: ebb9 f4bd ab95 52bd 5c7f ccbd bfda fe3d
00000010: af67 ebbd 51ee 1bbe e93c 133e 438e c73d
00000020: f58f afbd 0b5c aebd 5908 77bc 997e b03d
00000030: 0397 893d ba3e b8bc fe8c a63d 2052 e93d
00000040: 01cc d3b9 8d36 913d e610 f1bd 98b6 0abe
00000050: 7274 36bd b0f2 193e 003f d2bd 7808 96bd
00000060: 330f b13c 23d9 2abd cb7a e93d 0010 9fbd
00000070: 0b93 1d3a bd3c ad3d edb7 523d 8990 92bd
00000080: 9aa6 e2bc 8729 0dbd b218 8bbd e95b 293e
00000090: bd1d 093d 7d32 933a b1fd f33c 91e3 b0bd
000000a0: 2904 df3d 569a 54bc 9c63 543d 10d5 a8bd
000000b0: c7ea 663c a054 513d 88b6 17bd 8afb ab3d
000000c0: a25c cbbd ed1a 44bd dcc5 083e 5b21 f23d
000000d0: a11d 12bd 207f 433c dea1 aebd 94c1 02be
000000e0: d0df d13a 2888 9a3d d481 86bd 01b9 6e3d
000000f0: 73b6 b3bd 1a9a 443d be9d cabd dbc7 24bb

head.2.weight f4 [1, 64]
-0.13024111 -0.09041042 0.0015793467 0.1235192 -0.10886455 -0.26901916 0.089388706 -0.13901402
0.16860713 0.10912794 0.047751874 0.10805574 0.09427546 0.16431803 -0.107948035 0.043203454
0.11962703 0.12439412 0.093184054 -0.16096231 0.08015778 -0.11038093 0.10837682 0.097247936
0.12349864 0.11282543 -0.11659096 -0.18723497 -0.09856575 -0.112944454 -0.103543974 0.20556681
-0.17927942 0.102021195 -0.13165341 0.034764074 -0.20818752 -0.048967388 0.15328433 -0.11482418
-0.05778366 -0.1492945 0.13862567 -0.3310656 0.09411101 -0.07989188 -0.070701875 -0.14784676
0.12178516 0.033808965 -0.1143508 0.12328391 0.09305603 -0.17274022 0.05513525 -0.15270177
0.16426745 0.1261307 -0.10602336 0.060398594 0.002018674 0.071705475 0.13137354 0.09578252
00000000: ed5d 05be 1929 b9bd 1502 cf3a a2f7 fc3d
00000010: 61f4 debd e1bc 89be 6d11 b73d b159 0ebe
00000020: 59a7 2c3e 787e df3d 7897 433d 544c dd3d
00000030: 7e13 c13d fc42 283e dc13 ddbd 1bf6 303d
00000040: 04ff f43d 58c2 fe3d 48d7 be3d 4ed3 24be
00000050: c329 a43d 660f e2bd abf4 dd3d ed29 c73d
00000060: dbec fc3d 0511 e73d 3ec7 eebd 86ba 3fbe
00000070: d7dc c9bd 6c4f e7bd dd0e d4bd 1b80 523e
00000080: 0695 37be 7df0 d03d 27d0 06be c664 0e3d
00000090: 1c2f 55be 0792 48bd 91f6 1c3e f128 ebbd
000000a0: 8fae 6cbd a8e0 18be e3f3 0d3e 6e81 a9be
000000b0: 46bd c03d 5b9e a3bd 25cc 90bd 2465 17be
000000c0: 7f6a f93d 457b 0a3d c130 eabd 467c fc3d
000000d0: 2994 be3d d0e2 30be 80d5 613d da5d 1cbe
000000e0: ba35 283e 6828 013e c622 d9bd 8464 773d
000000f0: bb4b 043b 52da 923d c986 063e a029 c43d
