outputs/exp_0002_20251212_235529/runs/seed3/h1/OnlineSGD/model_final.pt (torch, 71493 bytes, 7 tensors)

gru.weight_ih_l0 f4 [192, 1]
-0.18578628 -0.121328294 -0.083506726 -0.1410716 -0.08757127 -0.094558 -0.015245595 0.01673535
0.026385933 0.032660376 0.087083004 -0.0028226401 -0.13067895 0.03781707 -0.10289134 -0.025555143
-0.16370094 0.11650205 0.03653776 0.13683581 0.004272835 -0.12599272 0.016711896 -0.13904822
-0.14848727 -0.11704405 -0.047953196 0.011762325 -0.15505418 -0.15204868 -0.085162565 0.07890579
-0.122670986 -0.15316887 -0.20389579 -0.06801668 -0.011672011 -0.15969223 -0.118849464 -0.02799244
0.06065927 -0.09725553 -0.034840744 -0.104196206 0.19112712 -0.0073161637 -0.22648294 0.004992519
-0.114255704 0.110725485 0.016548371 -0.18387172 -0.036724407 0.058325168 0.039939787 0.012356072
-0.087055415 0.113668524 0.040019754 -0.09595304 0.035758294 -0.06250743 -0.11895297 -0.089473635
-0.14518677 -0.124289334 -0.052049156 -0.12749457 0.013561525 0.04271754 0.007107135 0.09420657
-0.024094928 0.013355264 -0.029038297 0.0042740093 0.0562849 0.04961986 -0.11062392 0.1341362
-0.14232613 -0.13695684 -0.09564451 0.05771777 0.19480954 -0.1690406 0.04358442 -0.14080566
-0.12764005 -0.09751951 -0.05727893 0.13456085 -0.2007761 0.102597244 0.12705429 0.04260144
-0.0852634 0.02324333 -0.06441977 -0.0643114 -0.022391725 0.043650847 -0.013362469 -0.09103028
0.039476696 0.04982131 -0.10514714 -0.10516732 0.11683479 -0.092224285 0.065400355 0.007892383
-0.08688586 -0.08989014 -0.10021893 -0.18468584 0.052158806 0.07759335 0.082352445 0.029301059
0.088747196 -0.14205068 -0.15703571 -0.105713554 -0.11566363 -0.068867795 0.0034428285 0.034215383
-0.054885726 0.06248544 0.16731119 0.044144813 0.03745735 -0.068014994 -0.13418911 0.038848348
0.06555007 0.116335526 -0.22672835 -0.023283277 -0.22997236 0.0070504486 0.10892351 0.10092612
-0.0972924 -0.20852429 0.057822753 -0.22690508 0.12123057 0.18815407 -0.17188211 0.12976989
0.028192889 0.15739301 0.1243221 -0.21609941 0.1371752 0.061435375 0.12358552 0.06237361
-0.1469192 -0.020593524 0.0055983807 0.011745964 -0.14741445 -0.14923084 0.06254013 0.0002734139
0.0269009 -0.13924105 -0.010083092 -0.0030789154 -0.25905043 0.048480347 0.26687497 0.03231932
-0.13690256 0.121876426 0.076353975 -0.14279918 0.119038 0.0053644027 0.12609969 0.18338473
-0.069134384 0.013256394 0.12185296 0.08094668 -0.17988771 -0.0018127098 0.10472584 -0.12612872
00000000: c23e 3ebe f87a f8bd 9305 abbd 1375 10be
00000010: 9158 b3bd a0a7 c1bd a9c8 79bc 9318 893c
00000020: 5027 d83c e3c6 053d 9358 b23d 0bfc 38bb
00000030: b4d0 05be 12e6 1a3d b2b8 d2bd 0559 d1bc
00000040: 38a1 27be a098 ee3d 9ea8 153d b01e 0c3e
00000050: 2303 8c3b 3c04 01be 63e7 883c a862 0ebe
00000060: 0c0d 18be cab4 efbd 926a 44bd c4b6 403c
00000070: 86c6 1ebe a6b2 1bbe b669 aebd 5c99 a13d
00000080: ed3a fbbd 4dd8 1cbe 0fca 50be 544c 8bbd
00000090: f63b 3fbc 5c86 23be 5967 f3bd 6750 e5bc
000000a0: db75 783d e82d c7bd 2bb5 0ebd d264 d5bd
000000b0: d4b6 433e 6ebc efbb 25eb 67be 4998 a33b
000000c0: e5fe e9bd 0bc4 e23d 7390 873c de48 3cbe
000000d0: 556c 16bd 5fe6 6e3d e797 233d 1f71 4a3c
000000e0: 1c4a b2bd 0bcb e83d c1eb 233d 0783 c4bd
000000f0: 4a77 123d e503 80bd 9d9d f3bd f43d b7bd
00000100: d7ab 14be 688b febd 7f31 55bd f08d 02be
00000110: 2931 5e3c 96f8 2e3d f8e2 e83b 60ef c03d
00000120: ba62 c5bc 0ad0 5a3c b9e1 edbc fd0c 8c3b
00000130: ff8a 663d 323e 4b3d cb8e e2bd 005b 093e
00000140: f1bd 11be 6a3e 0cbe 45e1 c3bd 7869 6c3d
00000150: 277c 473e fb18 2dbe 9485 323d 5c2f 10be
00000160: 13b4 02be 4fb8 c7bd 509d 6abd 52ca 093e
00000170: 4098 4dbe 811e d23d 851a 023e d97e 2e3d
00000180: 949e aebd cc68 be3c 83ee 83bd b2b5 83bd
00000190: da6e b7bc 3bcb 323d 42ee 5abc 156e babd
000001a0: 51b2 213d 6e11 4c3d 6257 d7bd f761 d7bd
000001b0: 1447 ef3d 16e0 bcbd 9ff0 853d 0e4f 013c
000001c0: 37f1 b1bd 5218 b8bd 953f cdbd 491e 3dbe
000001d0: 79a4 553d 43e9 9e3d 66a8 a83d c608 f03c
000001e0: 17c1 b53d bc75 11be f8cd 20be 5980 d8bd
000001f0: 0ee1 ecbd 8f0a 8dbd 14a1 613b 6e25 0c3d
00000200: dbcf 60bd bcf0 7f3d a053 2b3e 31d1 343d
00000210: e16c 193d 724b 8bbd df68 09be 721f 1f3d
00000220: 1d3f 863d 5241 ee3d 7a2b 68be 92bc bebc
00000230: e07d 6bbe 7307 e73b 4a13 df3d 5bb2 ce3d
00000240: 3d41 c7bd 6487 55be 8dd7 6c3d ce59 68be
00000250: bc47 f83d 76ab 403e dd01 30be 66e2 043e
00000260: c6f4 e63c a22b 213e 969c fe3d 2a49 5dbe
00000270: a877 0c3e a9a3 7b3d 681a fd3d 787b 7f3d
00000280: fd71 16be c0b3 a8bc 9f72 b73b 2572 403c
00000290: d0f3 16be f8cf 18be 0a15 803d fe58 8f39
000002a0: 475f dc3c 3595 0ebe 8e33 25bc a1c7 49bb
000002b0: 42a2 84be 5493 463d d6a3 883e 4361 043d
000002c0: 2f30 0cbe 599a f93d 795f 9c3d f339 12be
000002d0: 32ca f33d dfc7 af3b 4720 013e 35c9 3b3e
000002e0: 5496 8dbd 5931 593c 0b8e f93d 5fc7 a53d
000002f0: 7c34 38be 7398 edba 807a d63d e327 01be

gru.weight_hh_l0 f4 [192, 64]
-0.10705413 0.03782068 0.020017358 0.027300293 0.04803315 0.00645242 -0.020465968 0.07074421
-0.07524963 0.06631148 0.07034932 0.13711412 0.12764214 -0.07414924 0.16182876 -0.12292378
0.1314257 -0.073705055 -0.07616882 -0.0639296 0.10182862 0.004215793 -0.034460437 -0.12210823
-0.033371184 -0.07414603 0.032192443 0.0686894 -0.11352368 -0.13521536 -0.020058446 0.13079272
0.104289755 0.0546869 -0.004940894 0.061416637 0.1129109 -0.0898849 0.032349348 0.057662103
0.14405924 0.14650652 0.066298924 0.15715292 -0.15098508 0.047927544 0.027647668 0.061638545
0.07304943 0.07194248 -0.14242133 0.035709485 0.009858632 0.10237552 0.015036491 0.07154797
-0.04286411 0.03557188 0.0627888 0.038806915 0.12055452 -0.15086555 0.019226752 -0.06017518
0.120305926 0.095095485 0.058019396 -0.081477694 -0.07691971 -0.06671186 0.05653437 0.08365652
-0.0063671917 -0.13420331 -0.026526194 0.009993105 0.012469547 0.06479782 0.05825611 -0.04470826
-0.056157302 0.026512047 -0.045246415 -0.07719629 -0.0895411 -0.12957253 0.042733658 -0.045948494
-0.09336944 0.002544454 -0.01763452 -0.10382462 0.035811484 -0.124899596 -0.016036876 0.106343254
0.11937307 0.08670278 -0.023829719 0.05227125 -0.0539205 0.002792831 0.11059166 -0.07174437
-0.085195154 0.14342254 0.040222254 0.07384021 -0.060545806 -0.04912875 0.04026879 -0.07664943
0.034572657 -0.04133599 -0.044569775 -0.051263835 -0.075295754 -0.08679448 0.013513225 0.062235657
0.046839807 0.03180707 -0.12792876 -0.049110685 -0.0018786474 0.08618412 -0.004683327 0.0889104
0.12523985 -0.020546287 -0.12401828 -0.09483925 0.06762381 0.024834769 0.013978897 0.036503147
-0.010754883 -0.15580165 0.059873812 -0.0257464 -0.041535817 -0.013518159 0.099614374 0.019269805
-0.039258827 0.06609131 0.09907622 0.115745574 -0.09035341 -0.09767813 0.06260299 -0.091718845
-0.02626237 -0.094234765 -0.093239546 0.0052311746 -0.13091496 0.0518877 -0.024858193 -0.037068356
-0.032924317 -0.051165383 0.08277943 0.0074080494 0.042892076 -0.002124145 -0.1049957 -0.08639143
-0.07902112 -0.045823466 -0.11870911 -0.031498108 0.097194776 -0.12944855 0.16317604 -0.0840423
-0.015559335 0.077716425 -0.1067301 0.083131775 -0.013425831 0.07433663 -0.07674421 0.068224646
-0.14126982 -0.034033816 0.11529889 -0.084334604 -0.029519126 -0.112249866 -0.21960706 -0.07797468
-0.12579933 -0.0061457073 -0.015499078 -0.09096484 0.01755372 -0.124854095 0.19865336 -0.09392157
-0.01709905 -0.0046210294 0.105303116 0.016705165 0.03737225 -0.12613618 -0.060899805 -0.10352271
0.095336415 0.09747494 -0.022437196 0.04876215 0.041222684 -0.06251483 0.029834488 -0.13918598
-0.19046369 -0.15051213 0.045275826 0.18346156 -0.09563014 0.04480598 -0.118150525 0.12074638
0.14965925 -0.022258665 0.064490065 -0.054233633 -0.03160404 0.18026567 0.025112605 0.06675233
0.090396985 -0.05986947 0.035019856 0.03917121 -0.10244527 0.14241743 -0.17415582 0.14912108
0.006542294 -0.04826565 -0.019873913 -0.026130531 -0.13706023 -0.020271773 0.013935699 -0.13423131
-0.023633046 0.17391272 -0.003827941 -0.042510327 0.19901542 -0.15141928 0.0905111 0.05516822
00000000: 323f dbbd dbe9 1a3d 71fb a33c dda4 df3c
00000010: 69be 443d d26e d33b 3fa8 a7bc 57e2 903d
00000020: 7a1c 9abd 50ce 873d 4e13 903d a567 0c3e
00000030: 9fb4 023e 8fdb 97bd 70b6 253e 76bf fbbd
00000040: 7594 063e adf2 96bd 66fe 9bbd 86ed 82bd
00000050: 868b d03d a324 8a3b 6326 0dbd e113 fabd
00000060: 39b0 08bd e0d9 97bd 39dc 033d 07ad 8c3d
00000070: 1a7f e8bd e575 0abe 9c51 a4bc 87ee 053e
00000080: de95 d53d 5fff 5f3d 39e7 a1bb 0390 7b3d
00000090: d43d e73d 9315 b8bd c080 043d 192f 6c3d
000000a0: 4484 133e ce05 163e bbc7 873d b2ec 203e
000000b0: d59b 1abe ac4f 443d 5d7d e23c b378 7c3d
000000c0: f19a 953d 9456 933d e6d6 11be 1c44 123d
000000d0: 1a86 213c 42aa d13d 9d5b 763c be87 923d
000000e0: 4792 2fbd d2b3 113d 6a97 803d 00f4 1e3d
000000f0: 4ae5 f63d 807c 1abe 6c81 9d3c 407a 76bd
00000100: f462 f63d 6cc1 c23d bfa5 6d3d c7dd a6bd
00000110: 1588 9dbd 3aa0 88bd 9590 673d 1c54 ab3d
00000120: e0a3 d0bb 986c 09be 764d d9bc 1fba 233c
00000130: 124d 4c3c b8b4 843d f59d 6e3d 0220 37bd
00000140: 3305 66bd cb2f d93c 4e54 39bd 1719 9ebd
00000150: 5361 b7bd a9ae 04be 7d09 2f3d 7d34 3cbd
00000160: 7a38 bfbd dbc0 263b 4576 90bc 01a2 d4bd
00000170: 10af 123d 5ccb ffbd c45f 83bc 7eca d93d
00000180: de79 f43d 3a91 b13d 8b36 c3bc 611a 563d
00000190: bedb 5cbd ee07 373b e17d e23d b6ee 92bd
000001a0: cc7a aebd 5cdd 123e 17c0 243d 8939 973d
000001b0: e1fe 77bd 3a3b 49bd e3f0 243d 60fa 9cbd
000001c0: 0f9c 0d3d ed4f 29bd cc8e 36bd 07fa 51bd
000001d0: a934 9abd 4ec1 b1bd 9366 5d3c d1ea 7e3d
000001e0: 19db 3f3d 2148 023d c2ff 02be 4928 49bd
000001f0: f23c f6ba 4d81 b03d 9876 99bb a816 b63d
00000200: e03e 003e b050 a8bc 4cfd fdbd 153b c2bd
00000210: 5a7e 8a3d 4972 cb3c be07 653c 5384 153d
00000220: 4035 30bc 788a 1fbe 3e3e 753d 1dea d2bc
00000230: 7621 2abd 457b 5dbc 9f02 cc3d b6db 9d3c
00000240: ddcd 20bd e15a 873d 79e8 ca3d 040c ed3d
00000250: 350b b9bd 790b c8bd ff35 803d 17d7 bbbd
00000260: 2f24 d7bc 28fe c0bd 60f4 bebd 466a ab3b
00000270: 920e 06be 3288 543d 69a3 cbbc fdd4 17bd
00000280: a6db 06bd cb92 51bd 4388 a93d 39bf f23b
00000290: 9aaf 2f3d 3d35 0bbb fc07 d7bd fded b0bd
000002a0: d3d5 a1bd 63b1 3bbd c31d f3bd 2904 01bd
000002b0: 0e0e c73d 298e 04be 9f17 273e 5f1e acbd
000002c0: 95ec 7ebc ca29 9f3d 5095 dabd fe40 aa3d
000002d0: 04f8 5bbc ce3d 983d 122c 9dbd 5db9 8b3d
000002e0: 09a9 10be 0b67 0bbd d321 ec3d 9fb7 acbd
000002f0: 18d2 f1bc 42e3 e5bd ace0 60be 30b1 9fbd
00000300: 8ad1 00be ee61 c9bb d8ef 7dbc c64b babd
00000310: d2cc 8f3c 81b3 ffbd c96b 4b3e f459 c0bd
00000320: 4f13 8cbc 016c 97bb 29a9 d73d 45d9 883c
00000330: a513 193d d829 01be 1372 79bd b703 d4bd
00000340: bd3f c33d f1a0 c73d 36ce b7bc d2ba 473d
00000350: 1ed9 283d c607 80bd 7567 f43c c586 0ebe
00000360: ea08 43be da1f 1abe 2573 393d 59dd 3b3e
00000370: bcd9 c3bd 7a86 373d e7f8 f1bd e149 f73d
00000380: 4640 193e ce57 b6bc 5e13 843d 1624 5ebd
00000390: 3d73 01bd 9097 383e f3b8 cd3c 72b5 883d
000003a0: 0e22 b93d b039 75bd fb70 0f3d fe71 203d
000003b0: d3ce d1bd e0d5 113e e755 32be 32b3 183e
000003c0: bd60 d63b 34b2 45bd 9ece a2bc b20f d6bc
000003d0: 8459 0cbe fd10 a6bc 8f52 643c ef73 09be
000003e0: 179a c1bc 2d16 323e 31de 7abb 4f1f 2ebd
000003f0: b3ca 4b3e a80d 1bbe e25d b93d 12f8 613d

gru.bias_ih_l0 f4 [192]
-0.036099758 0.021455709 0.030451069 0.024811942 -0.00092548295 -0.13361634 0.014062786 0.009278536
0.103108056 -0.06848876 -0.01797782 0.14489555 0.0008547587 0.008147533 0.0015459885 -0.04935591
-0.07966928 0.021924207 -0.054709725 0.045448896 0.056848887 -0.014435675 0.06712529 0.019645391
-0.13505141 0.12613374 -0.06376587 0.20030224 -0.043584906 0.005642236 -0.08386754 -0.08037591
0.12260645 -0.012080455 0.029006168 -0.05283628 0.08460029 0.07828647 -0.026711052 0.06542923
-0.1443726 0.018607737 0.06029843 0.057006128 -0.06492315 0.016649434 0.24095646 -0.06997378
-0.06330554 -0.11305622 0.07535831 -0.105061166 -0.004997872 -0.02003397 -0.047643483 -0.06271641
0.16074005 -0.056996707 0.031017601 0.13151892 -0.029838447 0.030593293 0.10044397 0.059160203
0.12010362 0.06825228 -0.15303443 -0.03746887 0.19250406 0.027829092 0.059965827 0.2031003
0.05370517 -0.09118134 -0.20063286 0.14079523 -0.31302568 0.14349718 -0.0027533027 -0.016186386
-0.12791534 -0.46570924 0.17914414 -0.20700309 -0.15857872 0.10431369 0.019835174 0.086797446
0.1432572 -0.06591028 -0.112016074 -0.50365305 0.10668929 0.086742155 -0.026581133 0.011311448
-0.039121296 -0.0470361 0.18633258 0.022843597 -0.022605805 0.05736907 0.17613819 0.15841787
-0.07043736 -0.13333338 0.044670526 0.016929004 -0.54778373 0.1975925 -0.58316654 -0.0948441
-0.10895431 -0.07291067 0.051263165 0.08864631 0.118137024 -0.019838287 -0.11418303 -0.0027562177
-0.27694494 0.05148474 0.086672716 0.09024183 0.004274787 0.015413926 0.08763385 -0.19549999
0.030330472 0.07503177 0.01912766 0.1474525 0.059455663 0.050165508 0.09183427 -0.03223651
-0.14731598 -0.02478237 -0.023122331 -0.12769882 0.06647499 -0.06445417 0.054603238 -0.027965913
-0.006354096 -0.024694955 -0.13039146 0.053081032 -0.12122067 -0.09664679 -0.044363655 -0.064922914
0.012785876 0.0062875273 -0.046381608 0.11479683 -0.007953918 0.12406119 -0.0587287 -0.009625331
0.060001392 0.0060564396 -0.1075742 -0.08085267 -0.09081295 0.11377282 0.10234801 0.091886856
-0.035976633 -0.036070827 -0.10659535 -0.08088056 0.03254591 -0.020239174 -0.019723566 0.15825427
-0.08580384 -0.015532542 -0.05904272 -0.17117755 -0.037199672 -0.04280993 -0.10192182 -0.04971305
0.07686809 0.11841258 0.069407016 0.18266842 0.009845352 0.017752556 -0.04338558 -0.050513405
00000000: 57dd 13bd e2c3 af3c 8574 f93c 6a42 cb3c
00000010: 1c9c 72ba b9d2 08be 9967 663c 0005 183c
00000020: 512a d33d d643 8cbd 3946 93bc 805f 143e
00000030: e311 603a 3b7d 053c c4a2 ca3a 6c29 4abd
00000040: a629 a3bd 659a b33c 4e17 60bd 9f28 3a3d
00000050: 61da 683d 9c83 6cbc fc78 893d 5fef a03c
00000060: eb4a 0abe 3429 013e ae97 82bd 081c 4d3e
00000070: 1686 32bd 82e2 b83b bfc2 abbd 209c a4bd
00000080: 1719 fb3d 1aed 45bc 589e ed3c db6a 58bd
00000090: eb42 ad3d a854 a03d 23d1 dabc c3ff 853d
000000a0: 69d6 13be 416f 983c 7dfb 763d 427f 693d
000000b0: 6ef6 84bd 6564 883c 4abd 763e 6a4e 8fbd
000000c0: 56a6 81bd 058a e7bd 7555 9a3d 4f2a d7bd
000000d0: 30c5 a3bb 481e a4bc d025 43bd 7671 80bd
000000e0: 0a99 243e 6175 69bd a018 fe3c e5ac 063e
000000f0: c26f f4bc c99e fa3c 91b5 cd3d f851 723d
00000100: e3f8 f53d dac7 8b3d 0fb5 1cbe f578 19bd
00000110: c91f 453e d6f9 e33c ba9e 753d 86f9 4f3e
00000120: f4f9 5b3d 48bd babd b372 4dbe a02c 103e
00000130: e744 a0be edf0 123e c170 34bb 5099 84bc
00000140: 3dfc 02be 7171 eebe 9071 373e 9ef8 53be
00000150: 7662 22be 6aa2 d53d 607d a23c dcc2 b13d
00000160: 04b2 123e f8fb 86bd af68 e5bd 68ef 00bf
00000170: ea7f da3d dfa5 b13d adc0 d9bc a753 393c
00000180: a73d 20bd eda8 40bd f8cd 3e3e 7f22 bb3c
00000190: cf2f b9bc d4fb 6a3d 925d 343e 4b38 223e
000001a0: 7641 90bd 8c88 08be 71f8 363d b2ae 8a3c
000001b0: 8e3b 0cbf b055 4a3e 674a 15bf a03d c2bd
000001c0: 7023 dfbd 3052 95bd 53f9 513d 328c b53d
000001d0: d3f1 f13d e783 a2bc cbd8 e9bd a9a1 34bb
000001e0: bacb 8dbe aae1 523d 7781 b13d b5d0 b83d
000001f0: 8313 8c3b b18a 7c3c 6079 b33d 2631 48be
00000200: 9c77 f83c 42aa 993d 9cb1 9c3c cafd 163e
00000210: c887 733d 597a 4d3d 9b13 bc3d 6e0a 04bd
00000220: 00da 16be 6604 cbbc 0b6b bdbc 7bc3 02be
00000230: 0a24 883d 8c00 84bd a5a7 5f3d c518 e5bc
00000240: 0536 d0bb 134d cabc 5785 05be 7f6b 593d
00000250: 8b42 f8bd c1ee c5bd aab6 35bd 4ef6 84bd
00000260: da7b 513c 9a07 ce3b a4fa 3dbd 9a1a eb3d
00000270: 2651 02bc cb13 fe3d 818d 70bd 90b3 1dbc
00000280: 05c4 753d 1975 c63b dd4f dcbd 1696 a5bd
00000290: 24fc b9bd b901 e93d d59b d13d 2d2f bc3d
000002a0: 3c5c 13bd 01bf 13bd aa4e dabd b5a4 a5bd
000002b0: dc4e 053d a0cc a5bc 5193 a1bc 680d 223e
000002c0: ecb9 afbd 347c 7ebc c7d6 71bd 2b49 2fbe
000002d0: af5e 18bd 7759 2fbd 63bc d0bd e99f 4bbd
000002e0: 046d 9d3d 4b82 f23d 4425 8e3d 6e0d 3b3e
000002f0: 664e 213c cf6d 913c 14b5 31bd 25e7 4ebd

gru.bias_hh_l0 f4 [192]
0.045655914 -0.12439087 -0.11411251 0.10099302 -0.068564855 0.02326862 0.11353429 -0.027804881
-0.1171042 0.1384455 0.10565339 0.16327049 -0.058342356 0.060743105 0.1333863 0.018220833
-0.1260148 0.19709894 -0.027238144 0.05742136 0.085452765 -0.1009739 -0.018061774 -0.07259698
0.03582645 0.15754841 0.104136206 0.19877437 -0.0034042497 0.093957625 -0.003654385 0.011200885
-0.043005463 -0.06322741 0.06594028 0.09212223 0.02566628 0.13413042 -0.015985927 -0.057413448
-0.13701092 -0.02721551 0.019345704 -0.037353124 0.010342592 0.0051695 0.14961068 -0.043930262
-0.1209529 -0.1216707 -0.022779781 -0.017317295 0.1390699 0.030693484 -0.01817503 0.05753812
0.061134744 0.03730534 0.09154598 -0.08460082 -0.07165082 -0.004815572 0.0461202 0.027512437
0.04639453 -0.16225815 -0.043326527 0.16956645 0.19255523 0.08904021 0.07992222 0.17735429
0.012100358 0.13964112 -0.07602136 0.18659104 -0.37400666 -0.058743287 -0.18687908 -0.029975079
0.08753856 -0.56996673 0.10382414 -0.29760197 -0.09887268 0.0035873116 -0.07023415 0.11486184
0.09871961 -0.06267759 0.008412736 -0.34700838 0.118452825 0.019487847 -0.22341281 -0.04656107
-0.026034113 0.06911212 0.18097116 0.05670509 0.07076232 0.15062572 -0.04251951 0.04193902
-0.07076127 -0.14399615 0.060522415 0.2200441 -0.5550242 0.16185059 -0.5205488 -0.027826156
0.019312877 0.019283058 0.047642905 -0.007297241 -0.054685503 0.06301966 -0.2066503 -0.14928877
-0.23980534 0.0031054143 -0.09604988 0.011675013 -0.12918556 -0.019757291 0.14168416 -0.19329777
-0.06822026 -0.020161763 -0.04947374 0.07896336 0.05488 -0.024359133 0.07826326 0.047828224
-0.09005501 -0.09551975 -0.112996176 -0.12095353 -0.021560684 0.06320606 -0.14516617 0.055153493
0.071440615 -0.06934227 -0.12787306 -0.10523255 -0.0246366 0.03009834 -0.104969725 -0.053487994
0.041693814 0.1513052 0.012845472 0.15587947 -0.0465657 0.01438559 0.055117473 0.038853046
-0.017417466 -0.12877856 0.102722615 0.020264886 -0.09097162 0.0944832 -0.11630667 -0.010736671
0.04025998 -0.02079673 0.07202426 0.0031552906 -0.05452888 0.035499908 -0.054295804 0.06835624
0.04793718 0.018024959 -0.12460979 -0.007951442 0.14099544 -0.043138646 -0.11139667 0.023934385
0.14924827 -0.0715265 0.1629778 0.06274641 -0.009337674 -0.0019224961 -0.005792477 -0.01424318
00000000: b201 3b3d a4c0 febd d2b3 e9bd 6ed5 ce3d
00000010: bb6b 8cbd d59d be3c aa84 e83d 10c7 e3bc
00000020: 54d4 efbd a8c4 0d3e ce60 d83d 6130 273e
00000030: 65f8 6ebd c3cd 783d 6b96 083e db43 953c
00000040: 060a 01be 4ed4 493e 8722 dfbc a932 6b3d
00000050: dc01 af3d 67cb cebd 49f6 93bc baad 94bd
00000060: c1be 123d 5f54 213e 5d45 d53d 828b 4b3e
00000070: d519 5fbb db6c c03d 687e 6fbb eb83 373c
00000080: 7f26 30bd 5f7d 81bd b30b 873d 94aa bc3d
00000090: 1742 d23c 7c59 093e ebf4 82bc 5d2a 6bbd
000000a0: 974c 0cbe 10f3 debc e27a 9e3c 97ff 18bd
000000b0: fa73 293c e964 a93b 8b33 193e 38f0 33bd
000000c0: 27b6 f7bd 7d2e f9bd aa9c babc 00dd 8dbc
000000d0: 5768 0e3e e770 fb3c cde3 94bc 17ad 6b3d
000000e0: 6d68 7a3d 7ccd 183d 757c bb3d 3243 adbd
000000f0: aabd 92bd f2cb 9dbb 89e8 3c3d c361 e13c
00000100: 3108 3e3d 0027 26be 2877 31bd d4a2 2d3e
00000110: 332d 453e b75a b63d 43ae a33d 5d9c 353e
00000120: 9440 463c 15fe 0e3e 16b1 9bbd b911 3f3e
00000130: cd7d bfbe cd9c 70bd 3b5d 3fbe 4c8e f5bc
00000140: 6b47 b33d 57e9 11bf c0a1 d43d 495f 98be
00000150: c27d cabd 1a19 6b3b ecd6 8fbd af3c eb3d
00000160: 822d ca3d 1c5d 80bd 92d5 093c 15ab b1be
00000170: 6597 f23d faa4 9f3c 54c6 64be d2b6 3ebd
00000180: 7e45 d5bc a88a 8d3d 8150 393e 9943 683d
00000190: d6eb 903d a13d 1a3e f028 2ebd 40c8 2b3d
000001a0: 49eb 90bd ba73 13be 5ae6 773d 3e53 613e
000001b0: 1116 0ebf 29bc 253e b042 05bf aef3 e3bc
000001c0: 0a36 9e3c 81f7 9d3c 3525 433d b21d efbb
000001d0: e8fd 5fbd 7410 813d 239c 53be 28df 18be
000001e0: 888f 75be 3584 4b3b cdb5 c4bd 8e48 3f3c
000001f0: 3849 04be 0bda a1bc a715 113e daef 45be
00000200: 10b7 8bbd 482a a5bc faa4 4abd 8bb7 a13d
00000210: dac9 603d ce8c c7bc 7d48 a03d 87e7 433d
00000220: c36e b8bd dc9f c3bd 8a6a e7bd 7cb6 f7bd
00000230: 08a0 b0bc 2e72 813d 71a6 14be a1e8 613d
00000240: 754f 923d 5203 8ebd 28f1 02be 2a84 d7bd
00000250: b2d2 c9bc cb90 f63c 5efa d6bd 3a16 5bbd
00000260: 22c7 2a3d c0ef 1a3e d175 523c de9e 1f3e
00000270: adbb 3ebd 8ab1 6b3c dcc2 613d 5f24 1f3d
00000280: 13af 8ebc 87de 03be 3c60 d23d 8c02 a63c
00000290: 544f babd 6880 c13d 3132 eebd dde8 2fbc
000002a0: a6e7 243d e75d aabc 7581 933d fec8 4e3b
000002b0: ad59 5fbd 5a68 113d 4765 5ebd 5bfe 8b3d
000002c0: c759 443d 14a9 933c 6b33 ffbd c446 02bc
000002d0: 1c61 103e 26b2 30bd f023 e4bd 0b12 c43c
000002e0: 8ad4 183e 7c7c 92bd a7e3 263e 3181 803d
000002f0: 0bfd 18bc 44fc fbba d2ce bdbb 3a5c 69bc

head.0.weight f4 [64, 64]
0.032050528 0.13820396 -0.042263865 -0.09342804 -0.005768607 0.1542877 0.15197515 0.05624527
0.046838444 -0.08151435 -0.07937858 -0.11935082 0.02712518 -0.123531036 -0.038876526 -0.09876835
0.08281636 0.098348446 0.049800485 0.1354068 -0.07712255 0.002795361 -0.043136735 0.00027734297
-0.12967242 -0.14267878 -0.10894315 0.016598286 -0.009413339 0.09022519 -0.0010812506 0.030838095
0.024704114 -0.0040703034 -0.12752068 -0.008127316 0.057311337 -0.049849574 0.08581699 0.029708931
-0.052010197 -0.040574994 -0.13902847 -0.11123852 0.061413743 -0.07274236 -0.26934636 0.049900874
-0.06333589 0.006217001 0.07351416 0.110702984 0.037207235 -0.027908606 0.019029757 -0.085974336
0.06776994 0.04487767 -0.049054023 -0.033698693 0.06700267 0.0029821112 -0.012510932 0.043967616
-0.023839775 0.052284036 0.19967726 0.11593591 -0.015894743 0.046629533 0.1060748 0.09714417
0.102459565 0.08227755 0.021955734 -0.017999569 -0.16498108 -0.07686561 0.11327404 0.047640804
-0.019638862 -0.16049552 -0.11910143 -0.15751578 -0.07594419 -0.043455593 -0.016393296 0.043518715
0.008651993 0.12101063 0.18744782 -0.1392997 -0.028741779 0.1488702 0.073068075 0.003767598
-0.008087184 0.06417587 0.11344689 -0.06792087 -0.07222633 -0.15584084 0.010167827 -0.06967146
0.05794218 -0.084447525 0.026403517 -0.091033146 -0.09880764 0.0958918 0.22516477 0.0146627305
-0.082319394 -0.0073414566 0.117308535 0.017460853 -0.055308472 -0.06406733 0.040481117 0.18390557
-0.05793929 -0.034886755 -0.05065177 0.14968596 -0.04711862 -0.1111832 0.09146778 -0.15563199
0.10315983 0.041187815 -0.043018833 0.106098406 0.068114646 0.11529089 -0.11184299 -0.078216806
0.059462864 0.06570863 0.09331521 -0.039585628 -0.047833495 -0.059659675 -0.11469433 0.09470538
0.046370413 0.12949857 -0.038031008 0.025984263 0.08335314 -0.09534867 -0.03698425 0.10926384
-0.06465974 -0.0373556 -0.121854976 -0.044614784 -0.08172409 0.09001356 -0.007889485 0.098931275
0.06392819 -0.0933212 0.06608054 -0.032792073 0.062282972 0.090768814 -0.006253855 0.065015525
-0.11531086 0.13503489 -0.0360304 0.07331403 0.056888364 -0.07447263 0.10997865 0.03660191
-0.070814766 0.10783042 0.09176404 0.090916365 -0.011064159 -0.092346534 0.0375263 -0.10594757
-0.046731375 0.088117875 -0.0856066 -0.059878908 -0.07977652 -0.057371993 -0.01877706 -0.08585654
-0.08040036 0.061270732 0.06528752 -0.030343087 -0.10603553 0.044360727 -0.04328846 0.053949233
-0.03725821 -0.004481368 -0.03310116 0.115517065 -0.16182268 -0.0869652 0.08364397 0.107890844
-0.019019714 -0.081260055 0.13964947 0.07197274 0.013633253 0.016247718 0.045650054 0.07989198
0.031126542 -0.048100024 0.09201337 -0.099931985 0.03638659 -0.07118052 0.034171943 0.01670081
-0.0068877423 0.042105794 -0.02690215 0.12787032 0.008353791 -0.04457983 -0.016252384 -0.13022304
0.06984912 -0.11977623 -0.053055614 0.06607831 -0.093023896 0.006033031 -0.037575446 -0.08248003
-0.0038309654 -0.005924314 0.037167612 0.12361449 -0.015430842 0.018848756 0.022560088 0.061235778
0.10427298 -0.0027207832 0.085106 -0.093606316 0.0625226 -0.08389381 -0.057015143 0.037992273
00000000: 6a47 033d 5785 0d3e e01c 2dbd 3357 bfbd
00000010: 9506 bdbb 98fd 1d3e 609f 1b3e 7161 663d
00000020: abd9 3f3d fff0 a6bd 3d91 a2bd 346e f4bd
00000030: a035 de3c d7fd fcbd fe3c 1fbd 1047 cabd
00000040: a09b a93d e96a c93d 98fb 4b3d 15a8 0a3e
00000050: 6df2 9dbd 6032 373b 25b0 30bd 5868 9139
00000060: d9c8 04be 631a 12be 961d dfbd 21f9 873c
00000070: 683a 1abc fcc7 b83d c0b8 8dba 2ca0 fc3c
00000080: 4860 ca3c 2e60 85bb c894 02be 6f28 05bc
00000090: 4bbf 6a3d 112f 4cbd d1c0 af3d 2560 f33c
000000a0: a508 55bd f731 26bd 7b5d 0ebe 05d1 e3bd
000000b0: fa8c 7b3d f2f9 94bd c4e7 89be dc64 4c3d
000000c0: 3fb6 81bd fcb7 cb3b 988e 963d 3fb8 e23d
000000d0: 9d66 183d 97a0 e4bc 4be4 9b3c 5013 b0bd
000000e0: f7ca 8a3d a6d1 373d dfec 48bd a407 0abd
000000f0: b238 893d 866f 433b a7fa 4cbc 6317 343d
00000100: a24b c3bc c927 563d 3278 4c3e ce6f ed3d
00000110: b135 82bc 9cfe 3e3d bf3d d93d 86f3 c63d
00000120: 52d6 d13d 2281 a83d 83dc b33c d573 93bc
00000130: cdf0 28be b86b 9dbd 38fc e73d 0123 433d
00000140: aee1 a0bc f058 24be 73eb f3bd d14b 21be
00000150: a188 9bbd 7efe 31bd 3c4b 86bc ae40 323d
00000160: 17c1 0d3c 6cd4 f73d 52f2 3f3e 95a4 0ebe
00000170: e173 ebbc 6e71 183e b7a4 953d cee9 763b
00000180: 1c80 04bc a36e 833d d856 e83d 191a 8bbd
00000190: 66eb 93bd be94 1fbe f596 263c e9af 8ebd
000001a0: c854 6d3d d3f2 acbd 304c d83c 966f babd
000001b0: a95b cabd ec62 c43d 9891 663e f33b 703c
000001c0: 1297 a8bd 9a90 f0bb 753f f03d 100a 8f3c
000001d0: 238b 62bd bb35 83bd 87cf 253d be51 3c3e
000001e0: c051 6dbd 6ae5 0ebd 3b78 4fbd 4747 193e
000001f0: 74ff 40bd 04b4 e3bd 7653 bb3d fe5d 1fbe
00000200: 7645 d33d 8eb4 283d 8434 30bd 1f4a d93d
00000210: b17f 8b3d a11d ec3d f00d e5bd 2230 a0bd
00000220: 558f 733d 3f92 863d 0b1c bf3d 8a24 22bd
00000230: 0eed 43bd b45d 74bd dce4 eabd e5f4 c13d
00000240: e7ee 3d3d 469b 043e 67c6 1bbd f3dc d43c
00000250: 0db5 aa3d 2a46 c3bd cc7c 17bd b8c5 df3d
00000260: 536c 84bd 3002 19bd 1a8f f9bd febd 36bd
00000270: f65e a7bd 0859 b83d e642 01bc 7b9c ca3d
00000280: c8ec 823d 2f1f bfbd 3c55 873d fb50 06bd
00000290: 6e1c 7f3d 00e5 b93d 23ed ccbb dc26 853d
000002a0: 1a28 ecbd 9646 0a3e 9d94 13bd ab25 963d
000002b0: c603 693d 1b85 98bd 7d3c e13d e2eb 153d
000002c0: 5507 91bd 32d6 dc3d c9ee bb3d 5c32 ba3d
000002d0: 7246 35bc 2e20 bdbd 2db5 193d 0afb d8bd
000002e0: 6669 3fbd 2577 b43d 8352 afbd 9643 75bd
000002f0: df61 a3bd e5fe 6abd 59d2 99bc 8ed5 afbd
00000300: f2a8 a4bd 05f7 7a3d 77b5 853d 1192 f8bc
00000310: 2829 d9bd 98b3 353d 3d4f 31bd dff9 5c3d
00000320: 119c 18bd 71d8 92bb 1595 07bd 3694 ec3d
00000330: d8b4 25be d01a b2bd 884d ab3d e0f5 dc3d
00000340: 3bcf 9bbc ac6b a6bd 4500 0f3e 7266 933d
00000350: 025e 5f3c ef19 853c 8dfb 3a3d 689e a33d
00000360: 17fd fe3c 8804 45bd 8171 bc3d 24a9 ccbd
00000370: 1b0a 153d 18c7 91bd e1f7 0b3d 23d0 883c
00000380: 92b2 e1bb 2077 2c3d e661 dcbc 70f0 023e
00000390: 57de 083c 5799 36bd b823 85bc 3059 05be
000003a0: 0e0d 8f3d 3d4d f5bd d850 59bd 1154 873d
000003b0: 5083 bebd bbb0 c53b b6e8 19bd 4aeb a8bd
000003c0: ef10 7bbb bf20 c2bb 113d 183d 9829 fd3d
000003d0: a4d1 7cbc b568 9a3c efcf b83c 5ed2 7a3d
000003e0: 128d d53d 2b4f 32bb 0e4c ae3d abb4 bfbd
000003f0: d90b 803d 85d0 abbd b688 69bd c99d 1b3d

head.0.bias f4 [64]
0.15251577 -0.040707644 -0.116540104 0.0011974787 -0.07568207 0.111729994 -0.033332303 0.08381826
-0.088151045 0.0789201 0.08931212 0.15061396 0.101381615 0.11116317 -0.11991926 -0.10774575
0.110531844 0.053276572 0.0483785 0.006965683 0.042417165 -0.08666672 0.09413757 -0.122466646
0.06645425 -0.057450272 -0.06839009 -0.00096493587 0.1353613 -0.07896777 0.026964014 0.058260605
0.094159275 0.14338458 -0.051986333 0.10653054 0.14559008 0.1400209 0.0967461 0.01537259
0.14693025 -0.12553513 -0.11616535 -0.019561501 -0.0895168 0.09834989 0.087110125 -0.13166942
0.074093744 0.17557016 0.049177557 -0.0397976 -0.0072115827 -0.022284042 -0.05790585 0.036361825
-0.14776039 -0.023369981 -0.0871708 0.09568154 0.018873284 -0.03114247 -0.12674429 -0.016189506
00000000: 182d 1c3e 0fbd 26bd 94ac eebd b8f4 9c3a
00000010: 33ff 9abd b2d2 e43d 7487 08bd e8a8 ab3d
00000020: 8988 b4bd dda0 a13d 46e9 b63d 8c3a 1a3e
00000030: 2aa1 cf3d 84a9 e33d 3b98 f5bd cea9 dcbd
00000040: 855e e23d 8938 5a3d 8928 463d 6240 e43b
00000050: 9fbd 2d3d 527e b1bd 33cb c03d cbcf fabd
00000060: 2a19 883d fa50 6bbd 1a10 8cbd c0f3 7cba
00000070: 279c 0a3e dbb9 a1bd a3e3 dc3c aca2 6e3d
00000080: 94d6 c03d 68d3 123e 9fef 54bd af2c da3d
00000090: 9115 153e a461 0f3e d222 c63d 51dd 7b3c
000000a0: e274 163e 488c 00be 19e8 edbd 713f a0bc
000000b0: 9654 b7bd ab6b c93d cb66 b23d 59d4 06be
000000c0: 76be 973d aac8 333e 686e 493d cf02 23bd
000000d0: 244f ecbb 068d b6bc af2e 6dbd 23f0 143d
000000e0: 804e 17be 6772 bfbc 9b86 b2bd aff4 c33d
000000f0: 259c 9a3c 7e1e ffbc 41c9 01be db9f 84bc

head.2.weight f4 [1, 64]
-0.0914469 0.07603733 0.011900065 0.03344028 -0.07468464 -0.10010239 0.052679792 0.062000964
0.07978736 -0.056596283 -0.105569385 -0.059348434 -0.15627533 0.11332006 0.092319325 0.12834267
0.1313424 0.03193261 0.0853466 0.10369593 -0.100293204 0.057113633 0.0707863 0.005286723
-0.03914755 0.14624678 -0.03293728 -0.020145515 -0.11258789 0.03305082 -0.0067139785 0.13773271
0.13815008 -0.07476406 0.001829661 -0.068612725 -0.094114825 0.060332566 0.060700215 0.06528184
-0.04740304 0.08304331 0.09901848 -0.14125462 -0.05222072 -0.1703587 0.1018284 0.04281109
0.08283491 -0.15366909 0.05503442 0.01113797 0.051691957 0.1252427 0.09483202 -0.15813068
0.137306 0.07444894 -0.029402645 0.10066036 -0.14727595 0.06181404 -0.021344556 -0.031993795
00000000: 8348 bbbd 76b9 9b3d 7df8 423c adf8 083d
00000010: 43f4 98bd 7b02 cdbd c4c6 573d b9f4 7d3d
00000020: 8e67 a33d 81d1 67bd c334 d8bd 5817 73bd
00000030: a406 20be 5914 e83d ea11 bd3d 436c 033e
00000040: 9f7e 063e c5cb 023d 33ca ae3d 885e d43d
00000050: 8666 cdbd fcef 693d 68f8 903d 3f3c ad3b
00000060: 2e59 20bd b7c1 153e 3ee9 06bd 3508 a5bc
00000070: 7b94 e6bd 4c60 073d ef00 dcbb ce09 0d3e
00000080: 3777 0d3e e61d 99bd 3cd1 ef3a d484 8cbd
00000090: 46bf c0bd 481f 773d caa0 783d 7cb2 853d
000000a0: b129 42bd 9c12 aa3d 33ca ca3d 0da5 10be
000000b0: 65e5 55bd 8372 2ebe 688b d03d ae5a 2f3d
000000c0: 59a5 a93d 6e5b 1dbe c66b 613d 087c 363c
000000d0: f2ba 533d 9f3f 003e 4a37 c23d 02ed 21be
000000e0: f299 0c3e b078 983d d1dd f0bc 0527 ce3d
000000f0: 82cf 16be b830 7d3d c7da aebc ed0b 03bd
