outputs/exp_0003_20251213_123043/runs/seed0/h1/Static/model_final.pt (torch, 71493 bytes, 7 tensors)

gru.weight_ih_l0 f4 [192, 1]
000000 00 54 75 ba 5e 54 89 3d 16 b3 d2 bd 80 66 bc bd
       -0.0009358525 0.06705545 -0.10288064 -0.09199238
000010 f4 32 45 bd ec 4b 09 3d 40 4f 22 bb ce fa ca 3d
       -0.048144296 0.03351967 -0.0024766475 0.099111184
000020 70 bf 35 bc 4c 7b 07 3d ac bb 1a bd 70 48 c9 bc
       -0.011093006 0.03307657 -0.037776634 -0.024570674
000030 b8 91 f4 bd 52 8b a9 bd e8 0e 53 bd 00 bb 97 3b
       -0.11941856 -0.08278526 -0.051527888 0.0046304464
000040 60 69 4a 3d 18 9b 99 3d 8c 8d ad bd fc f4 5e bd
       0.0494169 0.07500285 -0.084742635 -0.054432854
000050 98 f7 39 3d 4e 94 d4 3d 48 bd d2 bc 5c 91 bf 3d
       0.04540214 0.103798494 -0.025725022 0.09353897
000060 40 0d a5 bc 10 b5 58 3c 4a cd e7 3d ce 7b ed bd
       -0.02014792 0.013226762 0.11318453 -0.115958795
000070 66 29 a1 bd e0 9e 01 bd dc 93 47 bd 28 2f dd 3d
       -0.07869224 -0.031645656 -0.048724994 0.1080001
000080 1a ef a5 bd c0 b0 6b bd 1a da b2 bd 76 c2 ef bd
       -0.08102246 -0.05754161 -0.08733006 -0.11707012
000090 04 70 95 bd 9e 0e dc 3d bc 76 64 3d 00 27 78 3d
       -0.07296756 0.107449755 0.055777296 0.06058407
0000a0 40 6a d7 3b 3a 3f 83 bd c0 3e ad 3c 9e 06 ef bd
       0.0065739453 -0.06408544 0.021148086 -0.11671184
0000b0 1a fa b8 bd c6 f9 83 bd 26 85 a1 3d 26 19 96 3d
       -0.09032078 -0.06444125 0.07886724 0.073290154
0000c0 c8 11 63 bd 20 cb 93 bb 40 ba a3 3d 82 7f fe 3d
       -0.05543688 -0.0045102984 0.07994509 0.12426664
0000d0 24 34 4b 3d c8 55 8a 3c fe a4 ab 3d c0 bb 96 bd
       0.049610272 0.016886607 0.08381079 -0.07360029
0000e0 f8 d0 be 3c 6c 7a c6 bd 18 6e b1 bd d2 3e 84 bd
       0.023293003 -0.09691319 -0.08663577 -0.064572945
0000f0 8c aa 67 3d f8 e7 4d 3d 6a a4 97 bd c8 ad 1a 3d
       0.05655913 0.05027005 -0.07404406 0.037763387
000100 6e 89 8c 3d 20 3f 81 bc 40 64 9c 3b 00 44 ed 3c
       0.0686215 -0.01577717 0.004772693 0.028963089
000110 00 d1 9e 3d 48 cf f5 3d 96 47 c5 bd ec a1 3b bd
       0.07754707 0.120024264 -0.096327946 -0.045808718
000120 98 38 49 3d d0 1b d4 3d e8 c5 de 3d 22 e2 e1 3d
       0.049126238 0.10356867 0.10877591 0.110294595
000130 78 ca cb 3c f8 9c de bd 90 66 3c 3c ac 27 a0 bd
       0.024876818 -0.10869783 0.011499062 -0.07820067
000140 8c 94 ee bd 3e 74 e3 3d f0 a6 c2 3d fe 5d ff bd
       -0.11649427 0.11106156 0.09504497 -0.124690995
000150 08 aa bf 3c c8 80 ac bc b8 82 a8 bc 1c 5f 6a bd
       0.023396507 -0.021057501 -0.020570144 -0.05721961
000160 8c e4 44 3d 34 a1 97 bd dc b1 3b 3d 16 76 81 3d
       0.04806952 -0.07403794 0.045823917 0.06321351
000170 5c 43 b7 3d 48 71 3f 3d 4a 5f fd bd 00 11 a6 bd
       0.08948395 0.046738893 -0.123716906 -0.08108711
000180 38 a6 7f 3d 18 53 d6 3c 96 b3 c7 bd e8 68 93 bd
       0.062414378 0.026162669 -0.0975105 -0.07197744
000190 f2 d4 f0 3d 54 7f ac 3d b0 3e 5f bd d4 dc 00 bd
       0.11759366 0.084227234 -0.054503143 -0.031460598
0001a0 78 dd f3 bd 80 3e 13 bb 78 c8 c0 bd a2 77 c5 bd
       -0.11907476 -0.0022467673 -0.094132364 -0.09641959
0001b0 20 b0 e1 bb a0 bf 99 3c f4 ad 51 bd 98 e7 97 3d
       -0.006887451 0.018768132 -0.051191285 0.0741722
0001c0 38 c9 9b bd 68 49 e8 3d d0 6f af 3d 64 e1 d7 bd
       -0.07606739 0.11342126 0.085662484 -0.10541037
0001d0 88 db fe bc 80 d2 b8 3b 18 67 95 3c d0 dd f2 3c
       -0.03111054 0.005640328 0.018237635 0.029646784
0001e0 5c ec 48 3d e0 59 f5 3b cc d1 79 bd d4 45 72 3d
       0.049053535 0.0074875206 -0.060991094 0.059148625
0001f0 56 91 f5 bd a0 bb 97 bd 3c 2b 00 bd ec 66 79 bd
       -0.11990611 -0.074088335 -0.03129123 -0.06088917
000200 5c 1d 33 bd ba d2 d1 bd 00 d2 d9 bc f8 e2 da 3c
       -0.04372917 -0.10245271 -0.026589394 0.026719555
000210 76 c6 a6 bd 40 34 d2 bb 00 42 b7 3d f0 88 52 bc
       -0.08143322 -0.00641492 0.089481354 -0.012850031
000220 80 ac 63 3b c0 ad 30 bc 10 3d cf 3c 60 c6 a2 3d
       0.003474027 -0.010783613 0.025297672 0.07947993
000230 ba 7e f2 3d 06 93 a2 3d c4 0c f3 3d 60 1d 14 bc
       0.118405774 0.07938199 0.11867669 -0.009040207
000240 66 f8 e5 bd 40 ba 72 bd ce 4f ae 3d 00 6b 54 ba
       -0.11229019 -0.059259653 0.08511315 -0.00081031024
000250 dc 7c 7e bd 02 2d c4 bd 00 94 ef bd ec 10 d8 bd
       -0.062130794 -0.09578897 -0.11698151 -0.105501026
000260 70 b4 cf bc 56 64 8c 3d 74 67 8a 3d 02 e5 f6 bd
       -0.025354594 0.06855075 0.06758013 -0.120553985
000270 2e b0 9f 3d 8a 52 c8 bd f0 7b d8 bc 1c 9a 4f bd
       0.077972755 -0.09781368 -0.026426286 -0.05068408
000280 f0 3c c5 bc 10 0e c9 bc ba b8 e5 bd 44 0a dd bd
       -0.024076909 -0.024542838 -0.112168744 -0.10792974
000290 28 3c a0 bc 80 e1 d3 3a b8 96 68 bd b8 de 40 3d
       -0.019559935 0.0016165227 -0.05678436 0.0470874
0002a0 3a 6a e6 bd c0 36 0a bc a2 21 e1 3d 38 d7 50 bd
       -0.1125073 -0.008435905 0.10992743 -0.0509865
0002b0 36 2b e7 3d 38 6c 39 3d ae 07 e7 bd 74 f8 a1 3d
       0.11287539 0.04526922 -0.11280762 0.07908717
0002c0 f0 53 6c bc 70 8f 64 bd 14 b6 cc 3d 54 df ce bd
       -0.014424309 -0.055800855 0.09995666 -0.1010119
0002d0 b0 c2 5b 3c c0 64 d6 bc 16 d0 b6 3d 08 ec 0e 3d
       0.013413116 -0.026171088 0.08926408 0.034893066
0002e0 cc 04 76 3d 40 d1 34 3d 00 3f f6 bc 50 5a d7 bc
       0.06006317 0.04414487 -0.030059338 -0.026288182
0002f0 00 f7 d2 bd 4c b6 8a 3d 26 42 cb 3d 5c 29 af 3d
       -0.10301018 0.067730516 0.09924726 0.085528105

gru.weight_hh_l0 f4 [192, 64]
000000 ac 93 b4 bd 60 ae b6 3b 90 76 b4 bd 88 ec 8c bd
       -0.08817229 0.0055749863 -0.088116765 -0.06881052
000010 30 2c 95 bd 34 f9 2e 3d c4 8d 98 bd 00 ba 32 bb
       -0.07283819 0.042718127 -0.07448915 -0.002727151
000020 a0 4f ac 3b 04 06 a5 3d fa 83 c1 bd 44 bf af bd
       0.0052585155 0.08057788 -0.09449001 -0.08581403
000030 3c a6 94 bd d6 2e b3 3d cc 0b 38 bd e0 ee d7 3d
       -0.07258269 0.087491676 -0.044933125 0.10543609
000040 a0 24 39 3d 40 aa 81 3c 00 ed 73 ba 08 6d ca bc
       0.045200944 0.015828252 -0.000930503 -0.024710193
000050 40 7a 80 3c 30 d3 e9 bc 00 3e 66 ba c0 a7 82 3c
       0.015683293 -0.028543085 -0.00087830424 0.01594913
000060 98 3e c8 bd 7a 2d 86 bd d8 b7 ce 3d 86 c1 cf bd
       -0.09777564 -0.06551643 0.10093659 -0.101443335
000070 20 0f 13 bc c0 3e fd 3d 10 f4 38 3d c0 f0 67 3b
       -0.008975774 0.12365484 0.04515463 0.00353913
000080 26 da dd bd 2c a2 7d 3d 08 58 b6 bd a8 56 11 bd
       -0.10832624 0.061922237 -0.089035094 -0.035483032
000090 cc c8 2b bd 38 a4 97 bc 80 36 b3 3a 96 26 d3 3d
       -0.04193954 -0.018510923 0.0013672858 0.10310094
0000a0 80 ab 7f 3c 20 4c e5 3d 30 99 9c 3d c6 d8 a1 bd
       0.015604854 0.1119616 0.07646406 -0.079026744
0000b0 54 a2 65 3d 24 f7 b4 bd 9c ff 58 bd 40 97 16 3d
       0.05606301 -0.08836201 -0.052978143 0.036765337
0000c0 f0 0e 29 3d f2 0e c0 3d 28 d2 24 bd 00 d4 51 39
       0.04127401 0.093778506 -0.040239483 0.0002001077
0000d0 7a cb 83 3d 5a 93 f7 bd 42 15 b9 3d 30 b1 d3 bd
       0.064352944 -0.12088652 0.09037258 -0.1033653
0000e0 00 d0 e1 3a e0 18 ae bc 0a d4 86 bd d8 57 87 3c
       0.0017228127 -0.021252096 -0.06583412 0.01652138
0000f0 f2 b0 d3 3d e8 aa 15 bd 56 fc 97 bd 84 5b 3d bd
       0.10336484 -0.036539942 -0.07421176 -0.046229854
000100 e6 bb fd bd 1c 1d 67 3d 20 e5 75 bd d0 d6 aa bd
       -0.123893544 0.056424245 -0.060032964 -0.083417535
000110 62 7b 93 bd 52 30 93 3d 24 92 87 3d 50 7c c4 3d
       -0.07201268 0.07186951 0.06619671 0.09594023
000120 d8 b6 39 3d c4 fc 2a bd d4 13 0f bd 98 42 17 3d
       0.04534039 -0.041744962 -0.03493102 0.036928743
000130 de 70 d2 3d 74 35 0b 3d 1c 40 72 bd fc ad 70 bd
       0.10275434 0.033986524 -0.05914317 -0.058759674
000140 42 0a f2 bd b0 3b dd 3c a8 a9 8f bd 50 3e e4 bd
       -0.11818363 0.027006 -0.07014781 -0.11144698
000150 fa 7a e0 3d d0 3f a6 bd d0 fb 68 bc 48 af 12 3d
       0.10960956 -0.0811764 -0.014220193 0.035811692
000160 e0 7d 82 3b fa 41 ac bd 2c ee ce bd 98 0d cc 3d
       0.0039822906 -0.084110215 -0.101040214 0.0996353
000170 30 bf a6 3c 46 62 d4 3d a8 a4 2b bd f8 cf 16 3d
       0.020354837 0.10370307 -0.041905075 0.03681943
000180 18 2a ea bc 60 27 b6 bb 52 ea 9b bd ac 28 2d 3d
       -0.028584525 -0.005558893 -0.076130524 0.042275116
000190 80 e0 21 3d 40 fd 28 bb c0 4c e6 bc 58 ce 9d bd
       0.03952074 -0.0025785714 -0.02811277 -0.077053726
0001a0 14 09 b1 3d 94 92 be bd ac bf 51 3d 6c 29 2c bd
       0.0864431 -0.09305301 0.051208183 -0.04203169
0001b0 0c 06 77 bd e0 f4 b7 3c 22 fb 84 bd 40 ef eb 3c
       -0.0603085 0.022455633 -0.06493212 0.028800607
0001c0 10 18 c9 3c ca 13 be bd 98 7e aa 3c 64 13 5a 3d
       0.024547607 -0.09281118 0.020812318 0.05324115
0001d0 5c aa 4a 3d 58 e6 80 bc 9a dd d1 bd 90 da 9d bc
       0.049478874 -0.015734836 -0.10247345 -0.019269258
0001e0 50 d2 31 3d 2c d1 3a bd 74 58 42 3d 86 7c aa 3d
       0.04341346 -0.045609638 0.047447637 0.08324532
0001f0 ba ab 85 bd 80 93 a1 3a 24 b6 53 3d 90 84 20 3c
       -0.06526895 0.0012327284 0.051687375 0.00979723
000200 90 12 2b 3c 70 b9 7f 3c fa 40 c9 bd e0 f2 20 3c
       0.010441437 0.015608177 -0.098268464 0.009823531
000210 b4 45 b1 3d 64 af e6 3d d8 76 96 3d 18 38 89 3c
       0.08655873 0.11263922 0.073468864 0.01675038
000220 7c 1c 6f 3d dc 13 79 bd ec 24 d4 bd ca 23 dc bd
       0.058376774 -0.060809955 -0.10358605 -0.10749014
000230 5a 63 ff 3d 8e 81 a2 3d b2 f4 b0 bd f4 50 48 3d
       0.12470122 0.07934867 -0.08640422 0.048905328
000240 aa 52 c1 3d c2 e6 ff 3d 58 d8 df 3d 44 56 c6 3d
       0.09439595 0.124951854 0.10929936 0.096844226
000250 f0 c2 ea bc a0 ae 33 bd 42 30 d2 3d 0a 75 8f 3d
       -0.028657407 -0.043867707 0.10263111 0.07004745
000260 30 0e 9a bd fe 25 e6 3d 90 60 77 3d 00 8e 8b 3d
       -0.07522237 0.11237715 0.060394824 0.06814194
000270 6a 74 a0 bd 88 e4 12 3d ec 7c 33 bd fc 06 c8 3d
       -0.07834704 0.035862476 -0.043820307 0.09766957
000280 58 42 b8 bc f8 53 47 3d 80 e2 b5 3c f8 d6 59 3d
       -0.022492573 0.048664063 0.02220273 0.053183526
000290 e0 fd 2d bd f4 a2 79 3d fe ce b2 bd 88 46 e7 3c
       -0.042478442 0.06094642 -0.08730887 0.028231874
0002a0 20 35 ad bd ba 8d fc bd 10 95 cd bd b6 1a ca 3d
       -0.084573984 -0.1233172 -0.10038197 0.09868376
0002b0 50 81 8a 3d e8 2e f0 3d 48 16 cd 3d a0 9e e4 bd
       0.06762946 0.11727697 0.100140154 -0.11163068
0002c0 ce b3 ae bd e8 75 a5 bc 32 41 a6 bd f8 c3 b1 3d
       -0.08530389 -0.020197824 -0.08117904 0.08679956
0002d0 ba 89 c1 bd 38 ce 79 bd c4 51 f7 bd c6 57 91 bd
       -0.094500974 -0.06098768 -0.120761424 -0.070968196
0002e0 e2 8d d2 3d 42 9a d1 3d 24 41 b7 3d 22 aa c5 3d
       0.10280968 0.102345005 0.089479715 0.09651591
0002f0 ba a1 e3 3d b0 1a 03 bd f4 47 61 3d 04 14 e4 3d
       0.11114831 -0.032007873 0.05500026 0.1113663
000300 14 61 29 3d ca ea ff 3d 18 c7 84 3d 58 24 9f 3d
       0.041352347 0.12495954 0.064832866 0.07770604
000310 2c 32 33 bd f4 ab 75 3d 20 54 6b 3c 88 8c f4 bc
       -0.04374902 0.05997844 0.014363319 -0.029852167
000320 4a 4f 90 bd 56 a5 8f bd b2 fc c4 bd 4e dc ab 3d
       -0.07046373 -0.07013957 -0.0961851 0.08391629
000330 96 ff b5 3d a0 16 69 bc c4 24 94 bd 22 dd c5 3d
       0.0888664 -0.014226586 -0.07233575 0.09661318
000340 8c b5 a3 3d 70 3c 18 3c b8 bb 71 bd b8 46 eb 3d
       0.07993612 0.009291753 -0.059016913 0.11488098
000350 ac 60 51 3d 5a 57 c2 bd 62 03 f5 3d 52 66 c2 3d
       0.051117584 -0.09489317 0.11963536 0.09492172
000360 8c 9e 3a bd 5c e9 8f 3d d6 74 91 bd b8 79 a0 bc
       -0.04556136 0.07026932 -0.07102363 -0.01958929
000370 b2 5e d9 3d 40 3e a9 3b 40 0c b5 bd 94 20 2b bd
       0.10613765 0.0051648915 -0.08840227 -0.041779116
000380 dc fa 0a bd 20 8f c5 bc b0 fe 43 3c a2 c1 ec 3d
       -0.033930644 -0.024116099 0.011962578 0.1156037
000390 20 4d db 3b 8c 10 9e bd 00 f0 d1 3b 58 7f 75 3d
       0.0066925436 -0.07718 0.006406784 0.059935898
0003a0 fc f8 7d 3d e0 f7 e9 bd b0 3c b7 bc b8 3e be bd
       0.062005028 -0.114242315 -0.022367805 -0.092893064
0003b0 88 76 5a bd 60 78 38 3d 18 cb b5 bd fc 52 3e 3d
       -0.053335696 0.045036674 -0.08876628 0.04646586
0003c0 86 49 d9 3d 30 53 06 3c f0 9e aa bd 20 71 37 bd
       0.106097266 0.008198544 -0.08331096 -0.04478562
0003d0 d8 9a df 3c 46 27 c3 bd ec 5d 7e 3d 24 6a e8 bd
       0.027295515 -0.09528975 0.06210129 -0.1134837
0003e0 52 17 f6 bd c0 be f8 bd 68 bb cf bc 90 24 ac 3d
       -0.12016167 -0.12145758 -0.025357917 0.08405411
0003f0 72 4c f2 bd ae c8 d4 3d cc cf 4c bd e8 f4 15 3d
       -0.11830987 0.10389839 -0.050002858 0.036610514

gru.bias_ih_l0 f4 [192]
000000 e8 9c 07 3d fc 51 c3 3d 94 23 09 bd 90 7c d7 3c
       0.03310862 0.09537122 -0.033481196 0.026304513
000010 16 f7 9b bd 24 cb d5 bd 78 f2 dd bc 0c 19 ce bd
       -0.07615487 -0.104391366 -0.027093157 -0.10063371
000020 e4 0c 2a 3d b0 27 a8 3d 40 d1 cd 3c 9a 07 f5 bd
       0.0415162 0.08210695 0.025124192 -0.119643405
000030 58 76 59 3d e4 84 e4 3d e8 b8 a2 3c 96 cc e7 bd
       0.053091377 0.111581594 0.01986356 -0.113183185
000040 c0 4a d1 bc 5a 7e f8 3d 9c 8f 92 bd 96 80 c5 bd
       -0.025548339 0.12133475 -0.071562976 -0.096436664
000050 a0 34 bd 3d ce 61 c5 3d 80 05 c1 3a 40 96 ef 3d
       0.09238553 0.096377954 0.001472637 0.1169858
000060 30 db dc bd 72 a6 9d 3d 02 79 f1 bd 94 85 1c bd
       -0.10783994 0.076977625 -0.117906585 -0.038213328
000070 18 bf cb 3d c8 aa 7b bd 9c 4a bf bd e0 3d b3 3c
       0.099485576 -0.061442167 -0.093404025 0.02188009
000080 9a 76 fe 3d 08 31 3c bd 98 3c e3 bd 82 3b 91 3d
       0.12424965 -0.045945197 -0.11095542 0.07091428
000090 78 91 d1 3d c2 06 a4 bd 20 a7 81 bd c4 c4 76 3d
       0.10232824 -0.080091015 -0.06330705 0.060246244
0000a0 48 36 e6 3c 06 dc c4 bd b8 b8 c7 bc 70 5c bb 3c
       0.028102055 -0.09612279 -0.024380073 0.022871226
0000b0 f0 8c 4e 3c 16 44 bd 3d 88 4d 8a 3d 10 32 56 3c
       0.012606844 0.09241502 0.06753069 0.013073459
0000c0 da af b5 3d 90 ce f1 bd c0 97 af 3c c0 95 63 bb
       0.08871432 -0.11806977 0.021434665 -0.003472671
0000d0 ca fa a2 bd 70 72 b4 bc 84 96 1c bd de 1e f6 bd
       -0.079579905 -0.022027224 -0.03822948 -0.12017606
0000e0 f0 58 19 3c 4c 23 ff 3d fc 50 ac bd b0 0a 6b bc
       0.009359583 0.12457904 -0.08413884 -0.01434581
0000f0 e8 ca e9 bc de fb 8e bd 9c 96 66 3d 44 1a f5 bd
       -0.028539136 -0.069816336 0.056295976 -0.119679004
000100 7e d5 fa 3d 0e 0c d5 bd 80 f8 56 bc 9e fd b4 bd
       0.12247752 -0.1040269 -0.01312077 -0.08837436
000110 ee d6 a6 bd 32 30 c4 3d 18 cb c5 bc c0 73 63 3d
       -0.08146463 0.09579505 -0.024144694 0.05553031
000120 f8 58 32 bd 00 9c 33 3b 00 b4 81 bd 62 43 d8 3d
       -0.04354188 0.0027406216 -0.063331604 0.10559727
000130 4e 46 fb bd 20 62 c8 bb 0a ce da 3d 58 69 b6 bd
       -0.12269269 -0.006115213 0.1068383 -0.089068115
000140 98 eb 9f bc 28 59 b8 3c a8 30 f7 3d c0 9a 17 3b
       -0.01952152 0.02250345 0.12069827 0.002313301
000150 c4 31 cd bd 88 7c b3 bd c8 89 ac 3c f6 d3 d9 3d
       -0.10019258 -0.08763987 0.021061793 0.106361315
000160 fc 12 f6 bd b6 64 be bd 98 4c cf bd d4 d4 dc bd
       -0.1201534 -0.09296553 -0.10122031 -0.10782781
000170 d0 c5 24 3c a8 1e 8d 3d 7e 3f dd bd b8 de 9e bc
       0.010056928 0.06890613 -0.10803126 -0.01939331
000180 e0 05 02 3d 58 61 11 3d d8 ae 5b 3d c8 d1 ea bc
       0.031743884 0.035493225 0.05363354 -0.028664485
000190 68 7f 11 bd e0 dc 9c bd 98 d0 ec bd 00 d2 a2 ba
       -0.035521895 -0.07659316 -0.115632236 -0.0012422204
0001a0 cc 02 1e 3d d0 0e 61 3c ae d0 cf 3d 38 44 f5 3d
       0.038576886 0.013736442 0.10147224 0.11975902
0001b0 b8 32 0f 3d dc 9d 73 bd a4 76 7a 3d 6c 7a 5b 3d
       0.03496048 -0.05947672 0.0611483 0.053583547
0001c0 88 83 a8 bc cc 9d d4 bd 62 00 e2 bd e4 b7 d1 3d
       -0.020570531 -0.1038166 -0.11035229 0.102401525
0001d0 24 fc b3 bd f2 77 e9 3d e4 c2 d5 bd 68 60 66 bd
       -0.087883264 0.11399831 -0.10437563 -0.056244284
0001e0 00 97 32 bc 3a 05 eb 3d e8 cd ad 3c 5c 18 a5 bd
       -0.010900259 0.11475606 0.021216348 -0.08061287
0001f0 0c bc ba 3d c0 ef e6 3c 92 67 a9 bd 82 74 fe 3d
       0.09117898 0.028190494 -0.082717076 0.12424566
000200 a2 90 d3 3d 00 30 de bb 40 4c d1 bb 62 00 92 3d
       0.10330321 -0.0067806244 -0.0063872635 0.07128979
000210 40 7f 28 3c 10 f6 95 bc 04 70 2a 3d f8 03 f6 3d
       0.010284245 -0.018305808 0.041610733 0.12012476
000220 a8 c1 ae bc 3e 3d 92 3d 80 c7 4e bd 6c f5 e1 bd
       -0.021332577 0.07140587 -0.050483227 -0.11033139
000230 30 98 4f 3c a0 e7 a6 3b 60 9d 32 3d 0c 2f e7 bd
       0.012670562 0.00509353 0.043607116 -0.1128827
000240 e8 cc c2 bd 40 43 ad 3b 10 5c 15 3d ae 62 ea bd
       -0.09511739 0.005287558 0.03646475 -0.11444603
000250 9e fe c1 bd 64 40 a7 bd b0 c1 75 bd 76 45 c6 3d
       -0.094723925 -0.081665784 -0.059999168 0.09681217
000260 54 88 99 3d 1c 1d df 3d 6c 22 e6 3d 08 f3 8c 3d
       0.07496706 0.10894224 0.11237034 0.06882292
000270 8a df 8f bd 9c f5 f0 bd 52 6a ba bd 0a 5e e1 bd
       -0.070250586 -0.11765596 -0.0910231 -0.11004265
000280 e8 d2 cd 3d ec a3 8a bd e4 d2 a1 3d a8 f7 e5 bc
       0.10049993 -0.06769547 0.07901552 -0.028072193
000290 56 3d 99 bd c8 4d 91 3c f8 30 13 bd c0 60 1e bb
       -0.07482402 0.017737284 -0.035935372 -0.0024166554
0002a0 f8 38 0a 3d ea 42 f9 bd 02 c1 f4 bd 92 4a ec 3d
       0.033745736 -0.12170966 -0.11950876 0.11537661
0002b0 d8 62 17 3d 58 12 c9 bc 70 09 90 3d 20 e6 48 bc
       0.0369595 -0.02454488 0.0703305 -0.012261897
0002c0 ac f7 17 3d 8c 36 b6 bd b0 48 94 bd dc e6 2d 3d
       0.037101433 -0.08897123 -0.072404265 0.042456493
0002d0 c0 66 4a 3c 08 d9 9c bc 40 45 95 bc 20 dc 5a 3d
       0.012353599 -0.019146457 -0.018221498 0.053432584
0002e0 a0 2f ce 3d a2 61 b1 3d 46 d8 8b bd 8c cc 52 bd
       0.100676775 0.086612 -0.0682836 -0.051464602
0002f0 88 b7 de bc 1c a9 31 bd 38 64 9e bc 90 57 2e bc
       -0.027187124 -0.043374166 -0.019334897 -0.010640994

gru.bias_hh_l0 f4 [192]
000000 30 a8 ad 3d 6c ae a7 bd 6a 4a e5 3d 64 29 c5 3d
       0.08479345 -0.08187565 0.11195834 0.09627035
000010 90 9c ed 3d fc 0d ae 3d a0 d6 5c 3d 6c fb c7 bd
       0.116021276 0.08498761 0.05391562 -0.09764752
000020 4e a5 c2 3d 3a 32 fe bd b0 dc b7 3c fe 6b fc 3d
       0.095041856 -0.12411924 0.0224441 0.123252854
000030 60 a9 9c 3c 00 7b 2b 3c 96 62 a3 bd 00 f1 d9 bd
       0.019123733 0.010466337 -0.07977788 -0.1064167
000040 48 27 90 3c 44 bf 3d 3d 70 7c 8f bd 30 c7 5b 3c
       0.017596856 0.046324983 -0.070061564 0.013414189
000050 60 e1 1b 3c 6a 2b 94 bd e8 66 cb 3c 06 9c d4 bd
       0.009514183 -0.07234843 0.024829343 -0.103813216
000060 d2 58 90 3d 98 42 9d bd 40 01 bc 3d 5c 46 d2 3d
       0.07048191 -0.076787174 0.09179926 0.10267326
000070 26 6b 97 3d 1a 7e b3 bd ea 42 b2 3d 00 13 f7 3a
       0.07393484 -0.08764286 0.08704169 0.0018850267
000080 40 7f f6 bd ca 89 ca 3d 5e e8 eb 3d d0 27 63 3d
       -0.1203599 0.098895624 0.1151893 0.05545789
000090 a2 95 cd bd dc 24 05 bd 00 b5 3c bc 38 7b e6 3d
       -0.10038306 -0.032505855 -0.011517763 0.11253971
0000a0 5c 26 db bd 2c 0d b5 bd e8 39 84 3d 54 ca 2a 3d
       -0.10700676 -0.08840403 0.06456357 0.04169686
0000b0 88 b7 1b bd 3e 6b d6 bd 00 d6 58 bc 8e cd a0 3d
       -0.038016826 -0.104696736 -0.013234615 0.078517064
0000c0 cc 15 e4 3d 40 e7 51 bb d0 5c 96 bd 04 19 14 3d
       0.1113697 -0.0032028705 -0.07341921 0.03615667
0000d0 a4 9d c0 3d 94 59 9a bd e8 15 e9 3c 00 d9 8e 3d
       0.094050676 -0.07536617 0.028452829 0.06974983
0000e0 58 fe 90 bc 58 6b d1 bd 80 cc 85 bd 96 87 f9 bd
       -0.017699406 -0.10225552 -0.06533146 -0.12184064
0000f0 00 de 51 bb 9c 94 b9 3d a0 2d 1e bc a4 6f c3 3d
       -0.0032023191 0.09061548 -0.009654433 0.09542778
000100 fc 05 cd bd 06 c6 f4 3d 28 a9 0e bd dc 5a ad bd
       -0.10010907 0.119518325 -0.03482929 -0.08464596
000110 5c 66 cc 3d 70 c8 db bc 90 ef 4b bc e0 7b 6c 3d
       0.09980461 -0.026828974 -0.012447253 0.057735324
000120 60 20 71 bc 40 5f c6 bb 00 68 71 3d 90 7b f3 3d
       -0.014717191 -0.006053835 0.058937073 0.11888802
000130 90 2f 64 bd 00 82 97 3b 54 0f 11 bd e0 1b f1 3b
       -0.05570942 0.0046236515 -0.03541501 0.0073580593
000140 70 4e 9c 3d e0 6c b8 3d b8 70 ca bc 4a 49 8d bd
       0.07632148 0.09005141 -0.024711952 -0.068987444
000150 24 85 73 3d b8 73 b4 bd 32 7d fd bd 64 05 56 bd
       0.059453145 -0.08811134 -0.12377395 -0.052251235
000160 f2 e9 b9 bd c0 7a ae bd 38 0c 55 3d 70 2c e8 3c
       -0.09077825 -0.085195065 0.052013606 0.028341502
000170 fe 02 83 3d 18 3b e4 3c f8 52 da 3c f6 d6 bc 3d
       0.06397055 0.02786021 0.02665089 0.09220688
000180 18 ec 8d 3d 1c 8c b5 bd f6 24 ec 3d 28 e8 32 3d
       0.06929797 -0.08864614 0.11530487 0.043678433
000190 48 6b e4 3d 9c bf d4 3d ec 07 30 bd 10 77 05 bc
       0.11153275 0.10388109 -0.042976305 -0.0081460625
0001a0 d4 e1 15 3d 1c 5b e2 bd cc 42 4b bd 58 8f df bd
       0.03659232 -0.11052534 -0.04962425 -0.109160125
0001b0 40 b7 e2 3c 00 59 5f 3c a0 20 b3 3d 9e 72 ec bd
       0.027675271 0.013632059 0.08746457 -0.11545299
0001c0 b6 bb bc 3d d8 0e 85 3d 30 5f c5 bc d8 92 fe bd
       0.092154905 0.06496972 -0.02409324 -0.12430352
0001d0 e0 ca e1 bb 58 d1 2c bd a4 2a 87 bd 88 e7 48 bd
       -0.0068906397 -0.042191833 -0.0659993 -0.04904893
0001e0 f8 62 e2 bc 04 e4 12 bd 80 d1 64 bb 9a b0 b7 bd
       -0.027635083 -0.035861984 -0.003491491 -0.08969231
0001f0 20 bf 35 3d e0 89 5f bd ca af b7 bd c0 68 56 bb
       0.044371724 -0.054574847 -0.08969076 -0.0032716244
000200 d0 eb 4b bc b6 3b da bd 70 d6 ee 3d 68 15 ca bd
       -0.012446359 -0.1065592 0.116619945 -0.09867364
000210 04 40 d3 3d c0 7c 63 3c c8 41 c3 bd 1a d1 c4 bd
       0.103149444 0.013884723 -0.09534031 -0.096101955
000220 c4 fc 43 bd 10 b9 f4 3d 3c 01 e7 3d 68 59 7f 3d
       -0.047848478 0.1194936 0.11279532 0.062341124
000230 fa 69 ee 3d 3c 50 9a 3d c0 f4 13 3d ca 10 e5 3d
       0.11641307 0.07534835 0.036122084 0.11184843
000240 50 80 97 3d 00 c0 a9 3c ac cd 38 3d 00 39 0f 3c
       0.073975205 0.020721436 0.04511802 0.008741617
000250 c0 a3 5c bd 54 85 6c 3d 14 b7 73 3d d4 94 9b 3d
       -0.0538671 0.05774434 0.05950077 0.07596746
000260 1c a1 b5 3d 96 d9 e7 3d b0 b9 11 3d 1c 46 22 bd
       0.0886862 0.11320798 0.035577476 -0.039617643
000270 1c a0 28 3d 3a 9c 88 3d b2 16 b6 bd 70 fe 98 bd
       0.041168317 0.06670423 -0.088910475 -0.07470405
000280 a0 98 c4 bd b2 56 8b bd 1e ab ef 3d c4 50 85 3d
       -0.095994234 -0.06803645 0.1170256 0.065095454
000290 c0 dc 0f bc 5e d4 b8 bd 28 77 12 3d 30 4a b7 3c
       -0.008780658 -0.09024881 0.035758168 0.022374243
0002a0 80 33 d1 3a ae ca a6 bd 14 25 fb 3d 78 1a 89 3c
       0.0015960783 -0.08144127 0.122629315 0.016736254
0002b0 62 2b c4 bd e4 82 92 3d 98 b8 b2 bc 14 50 b0 bd
       -0.09578587 0.07153872 -0.021816537 -0.08609024
0002c0 da 96 b8 bd 60 1d 22 bc a6 88 87 bd 48 d9 ab bd
       -0.09013148 -0.009894699 -0.066178605 -0.083910525
0002d0 0c 85 68 3d e0 52 c0 bb a4 09 a2 bd c0 9a bb 3b
       0.05676751 -0.0058692545 -0.07911995 0.0057252347
0002e0 a6 14 fa bd 36 fc ca 3d a6 54 e9 bd 6e fb 93 bd
       -0.122109696 0.09911387 -0.113930985 -0.07225691
0002f0 38 f7 ce bc de 7e f3 bd 8c 21 dd bd b6 1d c5 bd
       -0.025264367 -0.11889432 -0.10797414 -0.096248075

head.0.weight f4 [64, 64]
000000 78 1f a2 bd 4c 74 18 3d 72 8d 8e 3d f8 fe af bd
       -0.079161584 0.037220284 0.06960572 -0.08593553
000010 f8 98 70 3d 3c aa 64 bd d2 84 bb 3d 80 3b fb bc
       0.058739632 -0.05582641 0.09156193 -0.03066802
000020 44 ad 62 3d 00 06 07 3d 40 99 2d bd f0 11 5b 3c
       0.05534102 0.032964706 -0.04238248 0.013370976
000030 d4 df 74 3d 52 8e a3 3d f8 fc e1 3c 10 dd 72 3d
       0.05978377 0.0798613 0.027586445 0.059292853
000040 94 19 1c 3d 38 d7 cb 3d dc ce af bd 84 d2 5c bd
       0.03811033 0.09953159 -0.08584377 -0.0539117
000050 00 02 8b b9 20 07 9e 3d 74 61 fb bd d0 71 63 3d
       -0.00026513636 0.07716203 -0.12274447 0.055528462
000060 dc de f4 3d a8 6d a5 3d 44 34 e2 3d 60 4d 37 bd
       0.119565696 0.08077556 0.11045125 -0.044751525
000070 e0 ec 59 3c b2 ec dc 3d 34 3b 9c bd 48 92 ce bc
       0.013301104 0.107873335 -0.076284796 -0.025216237
000080 a4 17 63 bd ac 9e c1 3d b0 0a d9 3c 82 6b e5 bd
       -0.055442467 0.094540924 0.026494354 -0.11202146
000090 5e d1 bc 3d 40 14 d3 3d 20 31 d9 bb 5a aa eb 3d
       0.09219621 0.10306597 -0.0066281706 0.11507101
0000a0 56 3f e7 bd b0 17 25 3c 60 0f 81 3c 50 0c fb 3c
       -0.11291377 0.010076448 0.015754402 0.03064552
0000b0 60 cb 76 3d 28 2d 2d 3d 56 b7 ef 3d 2e ac 8f bd
       0.060252547 0.042279392 0.117048904 -0.070152625
0000c0 f8 a5 c0 3c e4 06 57 3d 28 ab ca bd e0 92 44 bd
       0.02351664 0.052496806 -0.09895927 -0.047991633
0000d0 ca 98 ca bd 40 4b 3d bd 90 81 88 bd 4e 56 c3 3d
       -0.098924235 -0.046214342 -0.06665337 0.09537946
0000e0 58 28 7a bd 70 da 0a 3d c8 05 61 bd e8 20 a5 3d
       -0.06107363 0.033899724 -0.054937154 0.08062917
0000f0 00 f1 e3 ba c2 d4 ad bd 08 8a 29 bd 80 3f a1 bd
       -0.0017390549 -0.08487846 -0.041391402 -0.0787344
000100 00 fd 27 3d 16 b1 df 3d dc 0f 25 3d 94 a4 03 3d
       0.041012764 0.10922448 0.040298328 0.032139376
000110 00 13 c9 bd 70 e7 49 3c b0 ed 66 3d 40 24 b8 3b
       -0.09818077 0.012323245 0.05637902 0.0056195557
000120 0a a1 fa bd dc 37 a1 bd c0 e9 f5 bd 30 0d aa 3c
       -0.12237747 -0.078719825 -0.12007475 0.020758241
000130 7c 5e 23 3d 16 8b 82 3d fa b6 9e 3d 14 67 ab bd
       0.03988503 0.06374185 0.07749744 -0.0836927
000140 5c f3 1c 3d a4 a9 f8 3d 94 21 5a bd be 89 ff bd
       0.038318023 0.121417314 -0.05325468 -0.12477444
000150 dc 03 11 bd ec 21 5c bd 88 15 bf 3d fc db c2 3d
       -0.03540407 -0.053743288 0.09330279 0.09514615
000160 06 ed ee 3d da c8 ae 3d 60 b9 fa 3b e8 93 86 bd
       0.116663024 0.08534403 0.007651493 -0.0657118
000170 48 ba b5 3c a8 1b c1 bc cc c1 62 bd 12 e8 d7 bd
       0.022183552 -0.023572758 -0.0553606 -0.10542311
000180 fe 21 da 3d b6 f8 ea bd 6c f4 0b bd d0 49 0c 3d
       0.10651015 -0.11473219 -0.034168646 0.03425008
000190 d8 46 96 bd 34 7b 04 bd 6e 16 d6 bd 28 bd e8 3c
       -0.07337731 -0.03234406 -0.10453497 0.02841051
0001a0 ca 93 e9 3d e8 4b 27 3d 38 0f 84 bc 5a e4 b6 3d
       0.11405142 0.040843874 -0.016120538 0.08930273
0001b0 06 26 cf 3d 26 44 d7 3d c8 d1 39 bd cc 92 34 3d
       0.10114674 0.10511045 -0.04536608 0.04408531
0001c0 b0 2b fc 3c c8 7a e5 3c 04 bb bb 3d d8 be 52 bd
       0.03078255 0.028012648 0.0916653 -0.051451534
0001d0 94 13 b2 bd 1c 66 52 3d 20 16 e7 3c e8 1d 7e bd
       -0.086951405 0.05136691 0.028208792 -0.06204024
0001e0 88 58 a3 3d 80 5d 58 bc c0 70 e6 3d d0 76 cd bd
       0.0797587 -0.013205886 0.11251974 -0.10032427
0001f0 c4 61 5b bd e0 bf 6a 3d 9c f7 8c bd 80 1a 58 bb
       -0.053560033 0.057311893 -0.06883165 -0.003297478
000200 e8 24 e1 bc 9e b2 b0 3d 54 00 e8 bd 24 14 b4 bd
       -0.027483419 0.086278185 -0.113281876 -0.08792904
000210 6c ba d1 bd 90 65 8e 3c 80 eb ba bb b8 9d 64 bd
       -0.10240635 0.017382413 -0.0057043433 -0.055814475
000220 24 bb bc bd 6a cd 85 3d 00 fd aa bd 76 5d a5 bd
       -0.09215382 0.0653332 -0.08349037 -0.08074467
000230 18 24 94 bc 78 93 fd bd 60 dd 23 bd c0 4a 77 3c
       -0.018083617 -0.12381643 -0.04000604 0.015093505
000240 18 28 8d 3d 40 01 0a 3b 12 bc f2 3d 20 07 bc bc
       0.06892413 0.0021057874 0.11852278 -0.022952616
000250 04 bc 45 3d 0a e7 a3 bd 10 31 81 bc 2e ba cd 3d
       0.04827501 -0.080030516 -0.015770465 0.100452766
000260 a0 c9 ab 3d 10 1f 4c bc b4 0f 80 bd f8 f8 29 bd
       0.08388066 -0.012458578 -0.06252995 -0.0414972
000270 42 95 ce bd 6c 6f 7b 3d c4 2c ef 3d 50 4a 80 bc
       -0.100870624 0.061385557 0.1167846 -0.015660435
000280 84 97 95 bd c0 49 fe 3d b8 39 43 bd a0 45 ca bc
       -0.0730429 0.124164104 -0.047662467 -0.024691403
000290 ca 64 ac bd 5e fc cf 3d a8 0e ab 3c 4e 9b fe bd
       -0.084176615 0.10155557 0.020881012 -0.12431966
0002a0 54 bf f0 3d b6 e9 9b 3d c4 70 3b 3d fe 28 fd 3d
       0.11755243 0.07612936 0.04576184 0.12361334
0002b0 40 c5 d8 3c 40 80 77 bd 14 f3 46 bd 0c ac 83 3d
       0.026461244 -0.060425043 -0.04857166 0.064293
0002c0 ae 15 8e bd 0c 66 a7 3d 36 0e 8f bd 06 69 d1 3d
       -0.06937729 0.08173761 -0.069851324 0.1022511
0002d0 68 09 ca bc ac ee c1 3d fe 26 8f bd d0 ec 15 3d
       -0.024662688 0.09469351 -0.06989859 0.036602795
0002e0 ac 3c b6 3d 10 77 ee 3c 18 9e 84 bc 94 6e 9b bd
       0.08898291 0.029109508 -0.016188666 -0.075894505
0002f0 0c f9 6e bd 88 ea 45 3d a4 a7 d3 3d 7a 7a 8f bd
       -0.05834298 0.04831937 0.10334709 -0.070057824
000300 f8 9b 78 bd 2a ce 9d bd b0 26 0d 3c 7c 39 5d bd
       -0.06069562 -0.07705338 0.008615181 -0.0540099
000310 00 96 30 3d 24 e6 3f bd bc a0 08 bd c8 7d e4 3d
       0.0431118 -0.04685034 -0.033356413 0.11156803
000320 d2 d9 80 bd 0c 3a dd bd 08 3a 8d 3c 7e 5d c1 bd
       -0.06291546 -0.10802087 0.017239586 -0.0944166
000330 fc 3b 21 bd 12 1c cb bd d8 2b b7 bd c0 84 37 3c
       -0.039363846 -0.09917463 -0.089439094 0.011201084
000340 28 93 68 3d 84 e2 03 bd b4 57 f6 bd 76 34 d1 bd
       0.056780964 -0.032198444 -0.12028447 -0.10215084
000350 80 74 06 bc 2a 26 80 3d 30 25 fc bc f4 12 5b 3d
       -0.008206487 0.06257279 -0.030779451 0.053484872
000360 28 ab d1 3c 90 46 e0 3d 20 56 62 3d e0 93 a4 3c
       0.025594309 0.10950959 0.055257916 0.020090044
000370 c8 d0 85 bd 10 b0 3e bc ca 28 d5 3d 38 be 3c 3d
       -0.065339625 -0.011638656 0.104081705 0.046079844
000380 02 82 a9 bd a2 ec cb 3d 64 93 89 3d c0 5f 8d bd
       -0.0827675 0.099572435 0.06717566 -0.069030285
000390 80 8f 10 3c dc 18 2f 3d 60 db 53 3d d0 47 94 bc
       0.008823276 0.042748317 0.051722884 -0.01810065
0003a0 c0 02 7c bb fe 19 99 3d 80 07 e0 3a 5c 8c 72 bd
       -0.0038453788 0.07475661 0.0017092079 -0.05921589
0003b0 c8 0a be 3d 1e 76 b8 3d 90 06 53 bd 4e a2 e7 bd
       0.092794 0.09006904 -0.05151993 -0.11310254
0003c0 c8 c9 76 bd d4 e1 b8 bd f0 89 a4 bc 4c 50 e0 bd
       -0.060251027 -0.09027448 -0.020085305 -0.109528154
0003d0 de d3 be bd b0 37 1f 3d 10 7d 66 bc 70 2b 88 bc
       -0.09317754 0.038871467 -0.014067903 -0.016622275
0003e0 c0 82 9c 3c 20 2c 1f 3d e8 6e b8 3d 50 ab 84 bc
       0.019105315 0.03886044 0.09005529 -0.01619497
0003f0 e0 64 e4 bb 6e 85 ee bd e2 a1 f6 bd 42 b2 ad bd
       -0.006970033 -0.116465434 -0.120425954 -0.084812656

head.0.bias f4 [64]
000000 b0 f0 c0 3d 34 db cd 3d 10 f2 33 3d fc 5e 09 bd
       0.094209075 0.10051575 0.04393202 -0.03353785
000010 c8 28 d8 3c 60 a0 1e 3d 8a c4 fd bd 00 52 4a ba
       0.026386634 0.038727164 -0.123910025 -0.00077179074
000020 20 d5 ff 3c cc 3b cf 3d a4 16 9a 3d 58 7b 10 bd
       0.031229556 0.10118827 0.075238496 -0.03527388
000030 20 fe b9 bb 50 10 a3 3d ce 7e e8 3d 00 20 83 bd
       -0.005676046 0.07962096 0.11352311 -0.06402588
000040 18 c9 fd 3d f8 47 af bc 40 87 64 bd 00 44 37 ba
       0.12391871 -0.021396622 -0.055793047 -0.0006991029
000050 42 ab c8 3d 04 30 92 bd 60 19 8f 3b 06 57 93 bd
       0.0979829 -0.071380645 0.0043670386 -0.07194333
000060 40 16 4d bb 96 cc b2 3d 54 6c 7d bd f8 14 66 bd
       -0.003129378 0.08730428 -0.061870888 -0.05617234
000070 6c 06 0e 3d 50 0b 71 3d 00 e8 1c bc 38 cb eb bc
       0.034674093 0.05884868 -0.0095767975 -0.028783426
000080 c0 ad 01 bc 84 9f 1b 3d 00 ea e3 3d 88 c3 66 3d
       -0.00791496 0.037993923 0.11128616 0.056338817
000090 80 2a a6 3c 60 fd 29 3d e0 6a 19 3d 20 3d c1 bb
       0.020283937 0.041501403 0.03745544 -0.0058971792
0000a0 56 11 ac bd 9c 19 72 bd b4 72 33 3d 40 c2 33 3d
       -0.08401744 -0.059106454 0.04381056 0.043886423
0000b0 48 38 82 bd 8a 37 8d bd 26 47 90 3d d8 2d b9 bc
       -0.06358391 -0.06895359 0.070448205 -0.022604868
0000c0 18 ec 9b 3d 08 3c 08 3d 58 d5 c6 3c f0 1c 68 bc
       0.07613391 0.033260375 0.024271652 -0.0141670555
0000d0 78 c6 5e bd fc 80 01 3d 10 7e a0 bd a8 f0 61 bd
       -0.054388493 0.03161715 -0.078365445 -0.05516115
0000e0 bc 7a b8 bd 00 b0 27 b8 c2 8d 8a bd 24 d7 3c bd
       -0.09007785 -3.9979815e-05 -0.067653194 -0.04610361
0000f0 60 91 25 bd 4c 81 61 3d 4c d6 8d 3d f0 0b ad 3d
       -0.040421844 0.055054948 0.069256395 0.084495425

head.2.weight f4 [1, 64]
000000 60 14 63 bc 70 36 f3 3d b8 90 80 bd f8 51 87 3c
       -0.013859838 0.118756175 -0.06277603 0.016518578
000010 5c c1 07 3d 50 04 ea bd e8 97 9f 3d fc 0f b4 3d
       0.033143386 -0.11426604 0.07792646 0.08792111
000020 4e 87 bf 3d 92 14 b1 3d d8 a7 90 3d 84 5b 9b bd
       0.09351979 0.086465016 0.07063264 -0.075858146
000030 2c 59 b8 3d b8 82 40 bd bc 6c 0d 3d 9e e1 e8 bd
       0.09001383 -0.046999663 0.034527525 -0.11371158
000040 60 ac 6a bc 7c 22 6b bd 24 2e 78 bd 24 b2 be bd
       -0.014323324 -0.057405934 -0.060590878 -0.093113214
000050 f0 0a 34 bc 48 b5 9e bd 86 17 a0 bd e6 34 ed bd
       -0.010988936 -0.077494204 -0.07816987 -0.11582355
000060 9a d5 a8 3d 32 cd b9 3d f0 5e 9c bc 1a 5c 8e 3d
       0.08243866 0.09072341 -0.019088238 0.06951161
000070 d0 66 e8 3c be 23 9c bd 10 e4 96 bc 44 0d 5e 3d
       0.028369337 -0.07624005 -0.018419296 0.05421187
000080 00 b8 3a 3a 00 81 d2 bb 78 d8 99 bc b2 83 b4 3d
       0.0007122755 -0.0064240694 -0.018779978 0.088141814
000090 16 1d b8 bd b0 fe 23 3c 96 8e a3 bd e0 bd 95 3d
       -0.08989923 0.010009453 -0.079861805 0.073116064
0000a0 10 45 2b bc 26 00 97 bd 98 73 a9 bd 60 69 3c bc
       -0.0104534775 -0.07373075 -0.08274001 -0.011499733
0000b0 40 c6 13 3c ba c3 9a 3d d0 45 ce bc 30 74 85 bd
       0.009019434 0.07556863 -0.025179774 -0.06516302
0000c0 60 d2 f7 bd 60 6c ab bb 86 ab d5 3d e4 b2 ed bd
       -0.12100673 -0.005231425 0.10433106 -0.11606386
0000d0 68 f3 cd bc b8 ef c7 3d dc 0a e1 3d 02 99 a8 bd
       -0.02514048 0.097625196 0.109883994 -0.08232309
0000e0 ba 1d df bd 46 07 fe 3d 7c 8c 75 bd fc 46 0c 3d
       -0.10894342 0.12403731 -0.05994843 0.034247383
0000f0 06 00 fe bd 24 a0 6a 3d 00 5b 68 ba 18 1d c2 bc
       -0.12402348 0.05728163 -0.0008863658 -0.023695514
