outputs/exp_0002_20251212_235529/runs/seed4/h5/OnlineSGD/model_final.pt (torch, 71493 bytes, 7 tensors)

gru.weight_ih_l0 f4 [192, 1]
0	0xbb899bcd	-0.004199481
1	0x3d0058ef	0.031334814
2	0xbe361e7f	-0.17785071
3	0x3d3f1b4f	0.046656903
4	0xbdc25ae5	-0.09489993
5	0xbe05e097	-0.13073955
6	0x3d8070b5	0.06271497
7	0x3dec4cb0	0.115380645
8	0x3e01a6dc	0.12661308
9	0x3e3bcae2	0.18339112
10	0xbdd6f6c0	-0.104962826
11	0xbe04e3ea	-0.12977567
12	0x3d8ad24a	0.06778391
13	0xbd5384f5	-0.05164047
14	0xbd04e5d9	-0.032445762
15	0x3cd03e96	0.025420468
16	0xbc740153	-0.014892894
17	0x3cd1e47e	0.025621649
18	0x3d54017e	0.051759236
19	0xbe087e6a	-0.13329473
20	0x3db0441c	0.08606741
21	0xbd072625	-0.03299536
22	0x3dfa97a7	0.12235957
23	0x3d9d7bf6	0.07689659
24	0x3e3f30ba	0.18670931
25	0xbd2a3f4f	-0.041564282
26	0x3e0a5b93	0.13511495
27	0x3da8cf48	0.08242661
28	0x3d86c5e5	0.06580714
29	0xbdde2570	-0.108469844
30	0x3d8ddb6b	0.06926616
31	0x3ddd650c	0.10810289
32	0xbd35ec02	-0.044414528
33	0xbcca6667	-0.024707032
34	0x3d1dcacd	0.038523484
35	0xbd955487	-0.07291513
36	0xbde6e1ee	-0.112735614
37	0x3e1110db	0.14166586
38	0xbbcd74f8	-0.0062700473
39	0xbd15e24c	-0.036592767
40	0x3ca5cd82	0.020239595
41	0x3dcca477	0.09992307
42	0x3db0541a	0.08609791
43	0xbd90006a	-0.07031329
44	0xbde0ff28	-0.10986167
45	0x3e5e44bd	0.21705909
46	0x3d10b3e6	0.035327815
47	0xbdb3b856	-0.08775394
48	0xbd874574	-0.06605044
49	0x3d932e9f	0.07186627
50	0xbce975bb	-0.028498521
51	0x3e576281	0.2103367
52	0x3dd00964	0.10158041
53	0xbdff59b5	-0.12468282
54	0xbe3f5ed5	-0.1868852
55	0x3d0f27ef	0.034950193
56	0x3daf24b3	0.08551922
57	0x3d338781	0.0438304
58	0x3e02dafb	0.12778847
59	0x3cb413ca	0.021982092
60	0xbe11b88f	-0.1423056
61	0x3cd54a19	0.02603631
62	0xbdd09292	-0.10184206
63	0x3da9b04d	0.0828558
64	0xbcbf762a	-0.023371775
65	0x3d760b83	0.060069572
66	0x3ceb0dbf	0.028693078
67	0xbdc0c1fc	-0.094119996
68	0x3d2498df	0.04018485
69	0xbb0a8502	-0.0021136408
70	0x3d658b0f	0.05604082
71	0xbddeac7d	-0.10872743
72	0xbd4ddf88	-0.050262004
73	0x3ce8b6ad	0.02840742
74	0xbd98ff9e	-0.0747063
75	0x3ddf70b0	0.10910165
76	0x3db575b0	0.08860338
77	0x3d06aed1	0.03288156
78	0xbcd8062b	-0.026370129
79	0xbdc730d9	-0.09726114
80	0x3d004c16	0.03132256
81	0x3dc53937	0.096300535
82	0x3d4cdd0f	0.050015505
83	0xbd89f770	-0.06736648
84	0xbd0c8fd9	-0.03431687
85	0x3c024329	0.007950583
86	0x3e0b387c	0.13595766
87	0x3d2bb77a	0.041923024
88	0xbd7f630f	-0.06235033
89	0xbdb8c77d	-0.09022424
90	0x3b5c2eb8	0.0033597182
91	0x3dcfb48a	0.10141857
92	0x3ddb12e4	0.106969625
93	0x3d46dc16	0.048549734
94	0x3dc694fd	0.09696386
95	0xbca6ad78	-0.020346388
96	0xbe167bd6	-0.14695677
97	0x3db30904	0.08741954
98	0x3dd7c74b	0.10536059
99	0xbe21bb79	-0.15794171
100	0xbcd424bc	-0.025896423
101	0x3e1dd439	0.15412988
102	0x3e15c418	0.14625585
103	0xbd4e3e56	-0.050352417
104	0xbd7e4bfb	-0.06208418
105	0x3d4fa70c	0.050696418
106	0xbdf8f9f7	-0.12157052
107	0xbd4ce84f	-0.050026234
108	0xbca5df08	-0.020247951
109	0x3d7c3061	0.061569575
110	0x3d384766	0.044989966
111	0xbcf17e79	-0.029479252
112	0xbd995f0b	-0.07488831
113	0x3c84db9d	0.016218001
114	0x3be26451	0.0069089313
115	0x3de185da	0.11011858
116	0xbc4829fb	-0.01221704
117	0xbd5ac9eb	-0.05341522
118	0x3d0d5150	0.034501374
119	0x3dc67049	0.096893854
120	0x3cb9dbfe	0.022687908
121	0xba8b9a87	-0.0010650911
122	0xbc4dced1	-0.012561516
123	0x3cc446f9	0.023959624
124	0x3d801071	0.06253136
125	0x3ca13708	0.019679561
126	0xbbe10189	-0.006866638
127	0x3dc8e091	0.09808458
128	0xbc436b30	-0.011927411
129	0x3db86cb8	0.090051115
130	0xbd4c4dce	-0.049878888
131	0x3e2f9f27	0.17150556
132	0xbc1ec9c4	-0.009691659
133	0x3c8683f7	0.016420348
134	0x3e265477	0.16243158
135	0x3b747f99	0.00373075
136	0x3e4ca8f0	0.1998632
137	0xbe1f4233	-0.15552597
138	0x3e0668fa	0.13125983
139	0xbd0a257e	-0.03372716
140	0xbca1b530	-0.019739717
141	0x3dcd7fc9	0.10034139
142	0xbe1955e7	-0.14974175
143	0x3ccbcd4b	0.024878165
144	0x3e12ab7f	0.14323233
145	0x3e02cfa8	0.12774527
146	0x3e4511d6	0.19245085
147	0x3d216939	0.03940699
148	0x3e01ca3e	0.12674806
149	0x3da538ac	0.0806745
150	0xbdecb4d0	-0.11557925
151	0x3e30d199	0.17267455
152	0xbe178319	-0.14796104
153	0xbdb2a12a	-0.08722146
154	0xbe46dd69	-0.19420399
155	0xbe0c4e68	-0.13701785
156	0xbe5350f8	-0.20636356
157	0x3e5c9a13	0.2154315
158	0x3c25d0b3	0.010120559
159	0x3d16bf86	0.036803745
160	0xbd1904a2	-0.037357934
161	0xbe12a24d	-0.14319725
162	0xbe0c4fa8	-0.13702261
163	0x3d448ac3	0.047983896
164	0xbe4b079f	-0.19827126
165	0xbe23395b	-0.15939848
166	0x3e1a3942	0.15060905
167	0x3e76be94	0.24096137
168	0xbd8643a2	-0.06555869
169	0xbe447c0b	-0.19187944
170	0x3d99c26a	0.07507785
171	0x3de51e67	0.111874394
172	0x3dc2dd9b	0.09514924
173	0xbd966066	-0.07342605
174	0xbca0ab96	-0.019613069
175	0x3a235332	0.00062303536
176	0x3e8ca322	0.2746821
177	0xbd499ae8	-0.049219996
178	0xbdf85844	-0.1212621
179	0x3e46ddf4	0.19420606
180	0x3d7273c5	0.059192438
181	0x3ae7bf50	0.0017680917
182	0xbdf1fb8c	-0.11815557
183	0xbdfcee45	-0.12350134
184	0xbe3bc74d	-0.18337746
185	0xbd98a457	-0.0745322
186	0x3dcdddcb	0.10052069
187	0xbd4510a6	-0.04811158
188	0x3d0fe066	0.035126112
189	0xbe2db123	-0.16962104
190	0xbdad39a3	-0.08458259
191	0x3e3b6ad2	0.18302467

gru.weight_hh_l0 f4 [192, 64]
0	0x3e01f66a	0.12691656
1	0xbdaee350	-0.0853945
2	0xbc4fba0c	-0.012678634
3	0x3d2c2396	0.042026125
4	0xbcc583d1	-0.024110707
5	0xbc2614ff	-0.010136842
6	0x3da32a7c	0.079670876
7	0xbe20d55a	-0.15706387
8	0x3d259ae8	0.040430933
9	0xbd9e4d68	-0.07729608
10	0x3ba4e795	0.0050324895
11	0x3db42a58	0.08797139
12	0xbddf2913	-0.10896506
13	0xbc7810eb	-0.015140752
14	0xbda0d1da	-0.07852526
15	0x3c436673	0.011926281
16	0x3d9f30fc	0.07773015
17	0x3d6ddbc0	0.058070898
18	0x3d204029	0.039123688
19	0x3c9d03ed	0.019166911
20	0xbd895956	-0.067064926
21	0x3da1df6c	0.079039425
22	0x3c41adfe	0.011821268
23	0x3cb62908	0.022236362
24	0x3d942d0d	0.07235155
25	0xbdb12afc	-0.08650777
26	0x3d109526	0.03529849
27	0x3e004b1f	0.12528656
28	0x3dfaecd8	0.122522056
29	0xbe225bd1	-0.15855338
30	0xbe29b1eb	-0.16571777
31	0xbcbbadc0	-0.022909999
32	0x3c30b76c	0.010785919
33	0xbd1c9807	-0.038230922
34	0x3d6241aa	0.055238403
35	0xbdeffb15	-0.11717812
36	0x3cca860e	0.024722125
37	0x3cfdc0d7	0.030975742
38	0xbd4cb368	-0.049975783
39	0xbd7acda6	-0.061231278
40	0x3d044974	0.032296613
41	0x3e088a19	0.1333393
42	0x3c3efab6	0.011656454
43	0xbc6dff86	-0.014526254
44	0xbcb77e22	-0.022399012
45	0xbdf99aca	-0.12187727
46	0xbc2819cc	-0.010260057
47	0x3e2390e7	0.15973245
48	0xbd75f0c2	-0.060044058
49	0x3d9d27c0	0.07673597
50	0x3bcc4e13	0.006234893
51	0x3c8f765f	0.017512498
52	0x3d02e26e	0.03195422
53	0x3de3a94f	0.111162774
54	0xbd6f2e67	-0.058393862
55	0xbd06354a	-0.032765664
56	0xbdaeaf8a	-0.08529575
57	0x3d24d0be	0.040238135
58	0xbd79e7bb	-0.06101201
59	0x3d1dba95	0.038508017
60	0xbd91a0a3	-0.07110717
61	0xbcc8a05f	-0.024490533
62	0xbdf7074a	-0.12061937
63	0xbdc1cb4a	-0.094626024
64	0x3d8253ff	0.06363677
65	0x3c0e5c6b	0.008689026
66	0xbd587244	-0.052843347
67	0xbd998f2a	-0.074980095
68	0x3d948d8e	0.07253562
69	0xbc9d6373	-0.01921246
70	0xbcffb8f6	-0.031216126
71	0x3dc724bc	0.097238034
72	0x3ddbc9bd	0.10731838
73	0x3ccd9daa	0.025099594
74	0x3d52ac6f	0.051433977
75	0x3d7b9045	0.061416883
76	0xbde75201	-0.11294938
77	0x3d65009e	0.05590879
78	0x3cbc7b6a	0.023008067
79	0xbce36fef	-0.027763335
80	0x3c00304c	0.007824015
81	0x3d3e46b5	0.04645415
82	0xbdfe2908	-0.1241017
83	0x3a555c14	0.0008139026
84	0x3c8e2721	0.017352642
85	0xbd140338	-0.036135882
86	0x3e113a21	0.1418233
87	0x3db8280c	0.08992013
88	0x3c9392a1	0.018014254
89	0x3d1ecee2	0.038771518
90	0xbd86c912	-0.0658132
91	0x3d197cf4	0.03747268
92	0x3d91caa2	0.07118727
93	0xbde10894	-0.10987964
94	0xbe1421a7	-0.14465962
95	0xbd5b8efb	-0.053603154
96	0xbd57271a	-0.052527525
97	0x3dd15f3e	0.10223244
98	0xbd2b1e36	-0.04177686
99	0x3e1dda9f	0.15415429
100	0xbd05a6d9	-0.03262982
101	0x3d193144	0.0374005
102	0x3d91edfd	0.07125471
103	0x3d10e7db	0.035377365
104	0xbd1e02a7	-0.03857675
105	0x3d8f6e18	0.070034206
106	0x3be3ead0	0.006955482
107	0xbde282f3	-0.11060133
108	0x3d85a976	0.06526463
109	0x3e118749	0.14211763
110	0x3c8f3be4	0.017484613
111	0x3e196155	0.14978535
112	0xbdb72916	-0.089433834
113	0xbd4e3239	-0.050340865
114	0x3d27469e	0.04083883
115	0x3c27e287	0.010246879
116	0x3cc9eb40	0.024648309
117	0xbdbf944e	-0.09354459
118	0xbcec388a	-0.028835554
119	0xbd3f5c99	-0.046719167
120	0x3c26686d	0.010156733
121	0x3d7b1494	0.06129892
122	0xbdb2eb43	-0.08736279
123	0x3cc4b8f4	0.024013974
124	0xbdcdaa52	-0.10042252
125	0x3df6bcbf	0.12047719
126	0x3d31d3df	0.043414947
127	0xbd8b4afe	-0.06801413
128	0x3dc19038	0.09451336
129	0xbbeb07f1	-0.0071725775
130	0xbdbf4ef7	-0.09341233
131	0xbe20f131	-0.15717007
132	0xbdfd2d74	-0.12362185
133	0xbd497aa7	-0.049189236
134	0x3c8f9f19	0.017531918
135	0xbdef9e11	-0.11700071
136	0xbda17b5a	-0.078848556
137	0xbcf83a28	-0.030301169
138	0xbd4151c5	-0.047197122
139	0x3db928dd	0.09040997
140	0x3e04e5c8	0.1297828
141	0x3d40e1bc	0.047090277
142	0x3d6afa07	0.05736735
143	0x3dec791d	0.11546538
144	0xbdc53689	-0.096295424
145	0xbdaba9e1	-0.08382011
146	0xbd698d43	-0.057019483
147	0x3c7cfe73	0.015441525
148	0xbcf8fa2c	-0.030392729
149	0xbbbf04db	-0.0058294362
150	0xbdae58e5	-0.08513049
151	0xbe59e2f9	-0.2127799
152	0x3d056af5	0.032572705
153	0x3dc87c08	0.09789282
154	0xbc999d2d	-0.018751705
155	0x3dc6d09c	0.09707758
156	0x3e036c2b	0.12834232
157	0xbe00095d	-0.12503572
158	0x3d283c0a	0.041072883
159	0xbd99bcd3	-0.075067185
160	0x3dc7af66	0.097502515
161	0x3c5eb22c	0.013592284
162	0xbd4ff995	-0.05077513
163	0xbd38cbaa	-0.045116104
164	0x3dd42fcf	0.10360681
165	0xbd81e322	-0.0634215
166	0x3d3da996	0.046304308
167	0xbdf30ecb	-0.11868056
168	0xbbd90294	-0.006622622
169	0xbd086e0d	-0.033308078
170	0xbd5b2b73	-0.053508233
171	0xbe305b03	-0.17222218
172	0x3cfcbc6d	0.030851567
173	0x3c118d84	0.008883838
174	0x3d7dc672	0.06195683
175	0x3ddccc84	0.10781196
176	0xbe255900	-0.16147232
177	0xbc98cfe7	-0.018653823
178	0x3e0b58a5	0.13608034
179	0xbd02c2a1	-0.031923894
180	0x3d3670e6	0.044541262
181	0x3d53f7aa	0.051749863
182	0x3d85d701	0.06535149
183	0x3c0a2f13	0.008434075
184	0x3e57278b	0.21011178
185	0x3d058ff1	0.032607976
186	0xbe1ea460	-0.15492392
187	0x3dcb0323	0.09912708
188	0xbd70dd58	-0.05880484
189	0x3dbc4ca4	0.091943055
190	0x3defa1f5	0.11700813
191	0xbdbef98b	-0.0932494
192	0xbba10155	-0.004913489
193	0x3da329f0	0.07966983
194	0xbd16fc52	-0.036861725
195	0x3d17d112	0.03706462
196	0xbc9d5970	-0.019207686
197	0x3dd76725	0.1051772
198	0x3de42f46	0.11141829
199	0xbd1c25ce	-0.03812199
200	0xbc50fa5b	-0.012755002
201	0xbccf1828	-0.025280073
202	0x3d8c938e	0.06864081
203	0xbda008e6	-0.07814197
204	0xbd5ac315	-0.0534087
205	0x3e1d76fa	0.15377417
206	0xbd3d8938	-0.04627344
207	0x3e08477b	0.13308518
208	0xbd1143d4	-0.035465077
209	0xbc8dc633	-0.017306423
210	0x3ced5377	0.028970463
211	0xbd8de2b1	-0.069280036
212	0x3de49463	0.11161115
213	0xbd841186	-0.06448655
214	0x3cba508c	0.022743486
215	0x3d948e28	0.07253677
216	0xbcd0b52e	-0.025477018
217	0x3c2ca5ae	0.010537548
218	0xbdcf1764	-0.10111883
219	0xbcba1e1e	-0.02271944
220	0xbcfd4d59	-0.030920671
221	0x3c9e70df	0.01934093
222	0x3de84dc0	0.11342955
223	0xbdc6bf89	-0.09704501
224	0xbe0c79a8	-0.13718283
225	0xbd5052a7	-0.050860073
226	0xbe12ff36	-0.14355168
227	0xbd913121	-0.07089449
228	0x3d7b4abb	0.061350565
229	0xbddde8ce	-0.108354196
230	0x3e1d2dae	0.15349457
231	0x3e156c4a	0.1459209
232	0x3d9c1886	0.07621865
233	0x3daee4bd	0.08539722
234	0xbdd4cad0	-0.10390246
235	0xbd1d51d8	-0.03840813
236	0xbd1cf7ef	-0.038322385
237	0xbdcf2088	-0.10113627
238	0x3d28649b	0.04111157
239	0x3d82f01f	0.06393456
240	0x3d8dfd98	0.06933135
241	0xbdd2fc1c	-0.10301992
242	0xbd1f0ba3	-0.038829457
243	0xbd4a1fa9	-0.0493466
244	0xbda8e2c1	-0.08246375
245	0x3d1bcb27	0.038035538
246	0x3e011ae7	0.12607919
247	0x3d530ab0	0.051523864
248	0x3b01c7e2	0.0019802977
249	0x3cb023b5	0.021501401
250	0x3cb951d3	0.022622025
251	0xbd68d6bc	-0.05684541
252	0x3df7471c	0.1207411
253	0x3d7fb4a4	0.06242813
254	0xbcb4a99a	-0.022053529
255	0x3dc4e14e	0.09613286

gru.bias_ih_l0 f4 [192]
0	0x3d9bc549	0.076059885
1	0x3cfd925b	0.030953577
2	0x3dbc60e1	0.09198166
3	0x3c90c362	0.01767129
4	0xbcf9340c	-0.030420326
5	0x3dad8620	0.08472848
6	0xbda3d507	-0.07999616
7	0x3d8dbc8f	0.0692073
8	0x3ccf1f99	0.025283622
9	0xbaede726	-0.0018150553
10	0xbcc1ce20	-0.023657858
11	0xbd83d8dc	-0.06437847
12	0x3d9f3bee	0.077751026
13	0xbd1964da	-0.037449695
14	0xbd5f8dd5	-0.05457862
15	0x3e557937	0.20847021
16	0xbe07f7df	-0.13278149
17	0xbdbf7c21	-0.093498476
18	0xbd996ddf	-0.074916594
19	0xbc6a5b9e	-0.01430407
20	0xbdb4367d	-0.08799455
21	0x3da0e741	0.07856608
22	0xbddc6842	-0.10762073
23	0xbe0f6a20	-0.14005327
24	0xbdadb6f3	-0.084821604
25	0xbd1a3e95	-0.03765734
26	0x3d9821d4	0.07428327
27	0x3dd4b4f2	0.10386075
28	0xbe247da4	-0.16063553
29	0xbcdf777b	-0.027278652
30	0xbdf5bfe7	-0.11999493
31	0xbdc31413	-0.09525313
32	0xbcea456a	-0.028597552
33	0x3dc212b1	0.09476221
34	0x3df64dc1	0.12026549
35	0x3d9ebd5c	0.07750961
36	0xbd2b51a0	-0.04182589
37	0x3da74bc5	0.08168749
38	0xb9cadfcd	-0.00038695187
39	0x3dc89334	0.09793702
40	0x3d8ea71b	0.069654666
41	0x3d2d91ab	0.042375248
42	0x3e2bea48	0.1678859
43	0xbdf744eb	-0.12073692
44	0x3d49a2c4	0.04922749
45	0xbd052e0b	-0.032514613
46	0x3d9d6180	0.07684612
47	0x3d24b5bb	0.040212374
48	0x3dd63d17	0.10460871
49	0x3da219d1	0.0791508
50	0xbdea8933	-0.1145195
51	0x3d7a6aa3	0.061136853
52	0x3d8af31d	0.067846514
53	0x3e6ae3d9	0.2293848
54	0x3e3bcfb6	0.18340954
55	0xbd2e1a42	-0.04250551
56	0x3d00d8d2	0.031456776
57	0xbb7c18a4	-0.0038466835
58	0xbd54d2ef	-0.051958974
59	0x3dfad043	0.12246754
60	0xbdecd4ab	-0.11564001
61	0xbd5e3cac	-0.05425708
62	0x3e3a98b1	0.1822231
63	0x3d3db1a4	0.04631199
64	0x3d77cdef	0.060499128
65	0x3d0e69ad	0.03476875
66	0x3cbc6164	0.022995658
67	0x3e19f7d1	0.1503594
68	0x3db70dd7	0.089381866
69	0x3e011dab	0.12608974
70	0xbd0ba8fe	-0.03409671
71	0x3d470a7f	0.048593994
72	0xbd2bcf3b	-0.041945677
73	0xbddb8a0d	-0.107196905
74	0xbd1e32b0	-0.038622558
75	0x3da59b1a	0.08086224
76	0x3dff5c33	0.124687575
77	0x3e01114c	0.12604254
78	0x3debb2d0	0.11508715
79	0x3e48c96d	0.19608088
80	0x3d903c6d	0.07042775
81	0x3d47b8b1	0.04876012
82	0xbed46bcc	-0.41488492
83	0x3a80b7e1	0.0009820425
84	0x3d568174	0.05236955
85	0x3dc3bf6b	0.095579945
86	0x3c9bd738	0.019023523
87	0xbd615e29	-0.05502144
88	0x3d51c1ef	0.05121034
89	0xbd522218	-0.051302046
90	0xbe8398bb	-0.25702462
91	0x3e1d5651	0.15364958
92	0xbdc96c6b	-0.09835132
93	0x3cb1ff53	0.021728193
94	0x3d183aa5	0.037165303
95	0x3de03694	0.1094791
96	0xbd5b1e74	-0.05349584
97	0xbc6c4328	-0.014420308
98	0x3c9880b0	0.01861605
99	0x3dbc7d13	0.092035435
100	0xbd708e20	-0.05872929
101	0xbe797277	-0.24360071
102	0xbdec1079	-0.115265794
103	0xbeb7f008	-0.35925317
104	0x3e28dbc5	0.16490085
105	0xbda22714	-0.0791761
106	0x3e1e0f77	0.15435587
107	0x3e28cbee	0.16484043
108	0x3e373fa3	0.17895369
109	0xbd35b096	-0.04435786
110	0x3d7031f7	0.0586414
111	0x3e6272bc	0.2211408
112	0xbed76f57	-0.42077133
113	0x3e4531df	0.19257306
114	0xbdb6fd38	-0.089350164
115	0x3a91698d	0.0011094079
116	0x3d9ae13d	0.07562492
117	0x3e83844e	0.25686878
118	0x3e0b4283	0.13599591
119	0xbc224df9	-0.009906285
120	0xbe3aa8c0	-0.18228436
121	0x3d36528a	0.04451231
122	0x3e16d805	0.14730842
123	0x3d958bd7	0.07302063
124	0x3e2b39d0	0.16721272
125	0x3d96bd44	0.07360318
126	0x3cae75ca	0.0212964
127	0x3db42dec	0.087978214
128	0xbdb32f9d	-0.08749316
129	0x3d89221d	0.0669596
130	0x3dc69efc	0.096982926
131	0x3c95a822	0.018268649
132	0xbdd19559	-0.10233564
133	0xbcab1645	-0.020884642
134	0xbe09e195	-0.13464959
135	0x3cb8ad6d	0.022543633
136	0xbcbed30e	-0.023293998
137	0xbdc744af	-0.09729897
138	0x3d03abf9	0.032146428
139	0x3ae0c061	0.0017147177
140	0xbc387653	-0.011258679
141	0x3dcb1f22	0.099180475
142	0xbe147ab4	-0.14499933
143	0xbd97b790	-0.07408059
144	0x3cd8a3b6	0.026445251
145	0xbdc8e2a1	-0.09808851
146	0xbb1af9b6	-0.0023647374
147	0x3b8489dd	0.004044755
148	0xbd7007f4	-0.058601335
149	0xbde0c154	-0.109743744
150	0x3df4fee6	0.119626805
151	0x3c234ef2	0.0099675525
152	0x3dee4e5a	0.11636038
153	0xbbca1516	-0.0061670644
154	0xbd124ea5	-0.035719533
155	0x3d3d87eb	0.0462722
156	0xbca9bf4e	-0.020721104
157	0x3dea9afb	0.114553414
158	0x3ddf82e6	0.10913639
159	0xbcf9620d	-0.030442262
160	0x3e2493d2	0.16072014
161	0xbde23890	-0.11045945
162	0xbd5bc6ea	-0.053656496
163	0x3d9574fc	0.072977036
164	0xbe14ff46	-0.14550504
165	0x3cec7f8b	0.028869411
166	0x3dcda6ed	0.10041604
167	0xbdc43460	-0.09580302
168	0xbd698a11	-0.057016436
169	0x3d6e14e8	0.058125407
170	0x3e0eacea	0.13933149
171	0xbcc8d331	-0.024514766
172	0x3e014636	0.1262444
173	0xbe164125	-0.14673288
174	0xbd8fc6e3	-0.070203565
175	0xbdd0f18c	-0.102023214
176	0x3cc587a0	0.024112523
177	0x3e0be6af	0.13662218
178	0x3b25a43e	0.0025274898
179	0x3cda39e4	0.026638933
180	0xbcde6945	-0.027149806
181	0xbd1b194e	-0.03786593
182	0x3bb8ff4d	0.0056456686
183	0x3cb4c1eb	0.022065124
184	0x3dec2ee6	0.11532383
185	0x3c0e2035	0.008674671
186	0xbd354d11	-0.04426295
187	0xbdd64302	-0.104619995
188	0xbde64760	-0.112440825
189	0x3d354acd	0.04426079
190	0xbd8ff8f2	-0.070299044
191	0xbd683c95	-0.0566984

gru.bias_hh_l0 f4 [192]
0	0x3d5e22dc	0.054232463
1	0xbd786c20	-0.06064999
2	0x3e0452b1	0.1292217
3	0xbd22522c	-0.039629146
4	0x3c19cf4d	0.009387803
5	0x3deb1f38	0.11480564
6	0xbdadcfbf	-0.0848689
7	0x3e09accf	0.13444827
8	0xbd54424d	-0.05182104
9	0xbd41c9c9	-0.047311578
10	0x3da192fb	0.078893624
11	0xbdd4e212	-0.10394682
12	0x3e243c41	0.1603861
13	0x3c705e04	0.014670853
14	0xbd8aaac1	-0.0677085
15	0xbd1bbd9a	-0.038022615
16	0x3d00e592	0.031468935
17	0x3d62b81e	0.05535137
18	0xbb26b9e1	-0.0025440382
19	0x3e45dcd0	0.19322515
20	0xbe185b15	-0.14878495
21	0x3d277547	0.04088333
22	0xbd4fe59e	-0.05075609
23	0xbe54aab9	-0.2076825
24	0xbda9c4ba	-0.08289476
25	0xbd98118b	-0.07425221
26	0x3b68c662	0.0035518636
27	0x3cde5964	0.027142234
28	0xbdc6600c	-0.09686288
29	0xb9d59f45	-0.0004074519
30	0x3de0f383	0.10983946
31	0xbded1fc6	-0.11578326
32	0x3d9a169a	0.07523842
33	0xbbf86907	-0.0075808796
34	0x3df806cf	0.12110674
35	0x3ce0ecdf	0.027456699
36	0xbb0e0a82	-0.0021673744
37	0x3e11789e	0.14206168
38	0x3d188675	0.037237603
39	0xbdb4bb80	-0.08824825
40	0x3db8d5c7	0.0902515
41	0xbd65faa2	-0.056147225
42	0x3e3cd914	0.18442184
43	0x3dac7009	0.084198065
44	0x3d4effa3	0.050536763
45	0xbcbf9fe7	-0.023391677
46	0xbd755dfe	-0.05990409
47	0xbca82ff3	-0.020530676
48	0x3e24a253	0.16077547
49	0x3d5ac9a7	0.053414967
50	0x3d784a2d	0.060617615
51	0xbe0d238e	-0.13783094
52	0xbd566673	-0.052343797
53	0x3e8225f5	0.25419584
54	0xbd25377b	-0.040336113
55	0x3bba7e75	0.0056913444
56	0xbcf68db5	-0.030096868
57	0x3d0f5893	0.03499658
58	0x3d040aaa	0.032236733
59	0xbc12f98f	-0.008970632
60	0x3d740fc9	0.059585366
61	0xbccaa1da	-0.02473538
62	0x3e3783b6	0.17921337
63	0x3dc2038f	0.09473335
64	0x3db9a5db	0.090648375
65	0x3ced1a4b	0.028943202
66	0x3ddd908d	0.108185865
67	0x3d98fe18	0.074703395
68	0x3e20a98f	0.15689681
69	0x3ddac1ac	0.10681471
70	0xbe4db087	-0.20086871
71	0xbda9a456	-0.08283298
72	0x3da7222d	0.081608154
73	0xbdab3dc3	-0.083613895
74	0x3e1f1c85	0.15538223
75	0x3e23e0a9	0.1600367
76	0x3d21a036	0.03945943
77	0x3cda81e5	0.026673267
78	0x3c338089	0.010955938
79	0x3e865129	0.26233795
80	0x3dc27852	0.094956055
81	0x3db90a95	0.090352215
82	0xbee8d820	-0.4547739
83	0x3e4bccdf	0.19902371
84	0x3d0a849e	0.03381788
85	0x3e800462	0.25003344
86	0xbdc07e45	-0.09399084
87	0x3c095720	0.008382589
88	0x3bebb0b8	0.0071926974
89	0xbe69af5c	-0.228208
90	0xbe54b9b0	-0.20773959
91	0x3d532862	0.051552184
92	0xbde37ed4	-0.11108175
93	0xbd472146	-0.048615716
94	0xbca1da91	-0.01975754
95	0x3d987a5b	0.074452125
96	0xbd16bff9	-0.036804173
97	0xbe02aaf5	-0.12760527
98	0x3cb91e51	0.022597464
99	0x3dacb41c	0.08432791
100	0xbba2aacc	-0.004964208
101	0xbeb7eec0	-0.3592434
102	0xbbf4b122	-0.007467405
103	0xbedd9fe8	-0.4328606
104	0x3ddd184d	0.10795651
105	0x3d39dec0	0.045378447
106	0x3e3887e4	0.18020588
107	0x3d5bf2b6	0.053698264
108	0x3e6008fa	0.21878424
109	0xbe20e9c8	-0.1571418
110	0xbe0c1fe3	-0.13684039
111	0x3e4433f7	0.19160448
112	0xbf19eb52	-0.60124695
113	0x3e2d7111	0.16937663
114	0x3e048d59	0.12944545
115	0x3df29af3	0.118459605
116	0x3db347eb	0.08753952
117	0x3e6f8903	0.2339211
118	0x3e23d950	0.16000867
119	0x3d87d104	0.066316634
120	0xbe98413d	-0.29737273
121	0xbe119f9c	-0.14221042
122	0x3dde8e38	0.1086697
123	0x3d79fbc9	0.061031137
124	0x3cdc4a33	0.02689085
125	0x3c33cecf	0.0109746
126	0x3db21aa3	0.08696487
127	0x3d218c60	0.039440513
128	0xbbe0573f	-0.006846338
129	0xbde2c399	-0.110724635
130	0x3dce08c5	0.100602664
131	0xbbe3cecf	-0.0069521437
132	0xbd027fff	-0.031860348
133	0xbe1e456d	-0.15456171
134	0xbd65826a	-0.056032576
135	0x3e24a175	0.16077216
136	0x3daf1d7b	0.08550545
137	0xbdfc4c72	-0.12319268
138	0x3c61b201	0.01377535
139	0xbdd78e90	-0.105252385
140	0x3de88ae0	0.11354613
141	0xbdb415a1	-0.08793188
142	0xbdc7c40e	-0.09754191
143	0x3d49efb0	0.04930085
144	0xbd83d8a4	-0.06437805
145	0x3c9e7b37	0.019345863
146	0x3d7a6386	0.06113007
147	0xbd93714a	-0.071993425
148	0x3dd52e0e	0.10409175
149	0x3e0b35d4	0.13594753
150	0x3d89f5d1	0.06736339
151	0xbd1c13e5	-0.03810491
152	0xbd35dc0b	-0.044399302
153	0x3d7ad7a0	0.061240792
154	0x3db672ec	0.08908638
155	0x3d4c14c0	0.049824476
156	0xbb43f3cf	-0.002989996
157	0xbd0e32d2	-0.034716435
158	0xbd8c8f37	-0.068632536
159	0xbdafd4f1	-0.08585537
160	0x3e246c84	0.1605702
161	0x3dbad9cd	0.091235735
162	0x3d5d4c22	0.054027684
163	0x3dc072c7	0.09396892
164	0x3bd33c5b	0.006446404
165	0xbd970484	-0.07373908
166	0xbdab6377	-0.08368581
167	0xbd3f1538	-0.046651095
168	0x3db4a29f	0.0882008
169	0xbcaf0b29	-0.021367626
170	0x3e0dabaf	0.13835023
171	0xba3dc4c5	-0.0007239099
172	0x3a4cbd0a	0.00078101514
173	0xbaa3e8e8	-0.0012505325
174	0xbcfbe85e	-0.03075045
175	0xbdd6b7bf	-0.104842655
176	0xbd6952fd	-0.05696391
177	0xbccdcbaf	-0.025121538
178	0x3be9279d	0.007115318
179	0x3d98bff0	0.07458484
180	0x3cf7657f	0.030199764
181	0x3d4d18fa	0.050072648
182	0xbe077d3f	-0.13231371
183	0x3e0c0020	0.13671923
184	0x3dc6a405	0.09699253
185	0x3daf017d	0.08545206
186	0x3d02f33e	0.031970255
187	0xbd20b484	-0.039234653
188	0x3c9216a2	0.017833058
189	0x3e0d0313	0.13770704
190	0x3c4b1a57	0.012396417
191	0xbd7a21e5	-0.06106748

head.0.weight f4 [64, 64]
0	0x3dea73de	0.11447881
1	0x3e109bb5	0.14121898
2	0xbe17c068	-0.14819491
3	0x3de42d2d	0.11141429
4	0x3c01aa40	0.007914126
5	0xbde2fe24	-0.1108363
6	0xbd8193c3	-0.063270114
7	0x3d97ed3c	0.07418296
8	0x3dd6635a	0.104681686
9	0xbd9afef0	-0.07568157
10	0x3d091bf8	0.03347394
11	0xbbb291c2	-0.0054495046
12	0xbdc3545e	-0.09537576
13	0x3dae58d2	0.08513035
14	0xbd6c6205	-0.057710666
15	0xbddecd5e	-0.108790144
16	0xbd15d915	-0.03658398
17	0x3dbf3d13	0.09337821
18	0xbcfcf29a	-0.0308774
19	0xbd02842e	-0.031864338
20	0xbc866b30	-0.016408533
21	0x3bde79d6	0.0067894263
22	0xbd6bfbb2	-0.057613082
23	0x3e098d83	0.13432889
24	0x3daca107	0.08429151
25	0xbda115dc	-0.078654975
26	0xbd88fd52	-0.06688942
27	0x3d668f86	0.05628922
28	0x3cc6233d	0.024186725
29	0x3e0a0d5d	0.1348166
30	0xbd867557	-0.065653495
31	0xbd9d93cf	-0.07694208
32	0xbcb80e8d	-0.022467876
33	0xbca06540	-0.01957953
34	0x3c897e43	0.01678384
35	0x3dbb6643	0.09150364
36	0xbd95ae9d	-0.073086955
37	0xbd2e4b63	-0.042552363
38	0x3daa5af9	0.08318133
39	0x3e5fb8b8	0.21847808
40	0x3df148f5	0.117814936
41	0x3acde4eb	0.0015708482
42	0xbd802b90	-0.06258309
43	0x3d899bb0	0.06719148
44	0xbdb4d58e	-0.08829795
45	0x3daecbd9	0.085349746
46	0x3d2a5ea6	0.04159417
47	0x3e1e277b	0.15444748
48	0x3d703189	0.05864099
49	0xbdb97561	-0.090555914
50	0xbd9a5240	-0.07535219
51	0x3c64dd01	0.013968707
52	0xbc1a97a2	-0.009435566
53	0x3d1e2c0d	0.03861623
54	0x3b8e6611	0.0043456634
55	0x3c488f3f	0.012241184
56	0xbceda6b8	-0.029010162
57	0xbe179946	-0.14804563
58	0xbd7d6dfc	-0.061872467
59	0x3d1895d6	0.03725227
60	0x3d95a3b3	0.07306614
61	0xbc67a102	-0.014137508
62	0x3d43fb8f	0.047847327
63	0x3da8c2df	0.08240294
64	0x3d59c451	0.053165738
65	0x3e4b42e5	0.19849737
66	0xbe1d21b6	-0.15344891
67	0xbdd5a050	-0.10430968
68	0xbe01194d	-0.12607308
69	0xbdce4af4	-0.1007289
70	0xbdfcb81b	-0.12339803
71	0xbdf213a1	-0.1182015
72	0x3d8d914d	0.069124795
73	0xbc8e5f8f	-0.01737955
74	0xbdde85aa	-0.10865338
75	0x3e45851c	0.19289058
76	0x3d062980	0.03275442
77	0x393a83f0	0.00017787493
78	0x3c5b832f	0.013397976
79	0x3db988be	0.090592846
80	0xbdc35150	-0.095369935
81	0xbb71aeed	-0.0036877946
82	0xbdb0fd64	-0.086420804
83	0x3e15c1b6	0.14624676
84	0x3daf6ddc	0.08565876
85	0xbc95a8bc	-0.018268935
86	0x3da83b1b	0.082143985
87	0x3d09468a	0.033514537
88	0x3dc8e588	0.098094046
89	0x3bbe5b6a	0.0058092372
90	0xbd9ee925	-0.077593125
91	0x3e08abb4	0.1334675
92	0x3ab78693	0.0014001898
93	0x3daf6592	0.08564295
94	0xbdf97766	-0.121809766
95	0x3cf9e6ef	0.030505626
96	0xbdb88cf6	-0.09011261
97	0xbc3d20ac	-0.011543434
98	0x3e1e3268	0.15448916
99	0x3e01c124	0.12671334
100	0x3d796b3b	0.06089328
101	0xbe07e197	-0.1326965
102	0x3c85c082	0.016327146
103	0xbda94f57	-0.08267086
104	0x3e2882a6	0.16456088
105	0x3ddb0f9d	0.10696337
106	0xbbb8f7cf	-0.0056447755
107	0xbdb1f2a0	-0.08688855
108	0xbdab7a18	-0.08372897
109	0xbc53c569	-0.012925484
110	0xbd9ef71f	-0.07761978
111	0xbd45caba	-0.04828904
112	0x3dfcb2fc	0.12338826
113	0x3c839993	0.01606444
114	0x3d8d7ca5	0.0690854
115	0xbd83aecc	-0.06429824
116	0xbbafa9df	-0.0053608264
117	0xbd210258	-0.039308876
118	0x3d5a25c6	0.05325868
119	0x3d64a08c	0.055817172
120	0xbd91324a	-0.0708967
121	0x3d84c526	0.064829156
122	0x3c6965de	0.014245478
123	0x3e227e04	0.15868384
124	0x3d2a82a9	0.041628513
125	0xbcbd2549	-0.023089068
126	0xbe18b834	-0.14914018
127	0xbba44420	-0.005013004
128	0xbd8af1f1	-0.06784428
129	0x3da15212	0.07876982
130	0x3ceff171	0.029289933
131	0xbdcf8ecf	-0.101346605
132	0x3ca91172	0.020638201
133	0x3ce1cb66	0.027562808
134	0xbd7cd11d	-0.061722863
135	0xbd9a6a7a	-0.0753984
136	0xbd8702f6	-0.06592362
137	0x3d725edf	0.059172507
138	0x3d87fd7e	0.06640147
139	0x3d4cd44a	0.050007142
140	0x3b5d39bb	0.0033756334
141	0x3caae607	0.020861639
142	0xbe03c5cf	-0.12868427
143	0x3c9b626d	0.018967832
144	0xbd93ff61	-0.07226444
145	0x3d5f7296	0.054552637
146	0xbcbf3f03	-0.023345476
147	0xbd6b2e3f	-0.05741715
148	0x3d9dde1e	0.07708381
149	0x3d45ee5e	0.048323028
150	0xbb91728b	-0.0044387034
151	0xbcf48db2	-0.029852722
152	0xbd35bd87	-0.0443702
153	0xbcd5af4c	-0.026084565
154	0xbd9922f3	-0.07477369
155	0x3cbee4f0	0.023302525
156	0x3dd1bd66	0.10241203
157	0xbd311600	-0.04323387
158	0xbd599a09	-0.053125415
159	0x3a9f1671	0.0012137425
160	0xbdee2223	-0.11627605
161	0x3d1a0182	0.037599094
162	0x3db2e073	0.087342165
163	0x3de53e03	0.111934684
164	0x3db6b034	0.08920327
165	0xbd553040	-0.052047968
166	0x3d1c93e1	0.038226966
167	0x3de52019	0.11187763
168	0xbdc591ad	-0.09646926
169	0x3dca8bb0	0.098899245
170	0xbe0f7d6a	-0.14012685
171	0x3d1c81dc	0.03820978
172	0xbdb1cef5	-0.08682052
173	0x3d5a3972	0.05327744
174	0x3b032e5a	0.0020016641
175	0x3d72774e	0.05919581
176	0xbd2f6813	-0.042823862
177	0xbd9929e0	-0.0747869
178	0x3d72a701	0.0592413
179	0x3dcc47f8	0.099746644
180	0x3b3890b9	0.0028162433
181	0xbc7b611d	-0.015342978
182	0x3cad04e9	0.021120505
183	0xbe0d5503	-0.1380196
184	0xbd813bda	-0.06310244
185	0xbdeee42d	-0.11664615
186	0xbd012d3c	-0.03153728
187	0xbd9916fb	-0.07475086
188	0x3bccb7dd	0.006247504
189	0x3c5e74a2	0.013577612
190	0xbdae145c	-0.08499977
191	0xbcc3a8e4	-0.023884244
192	0x3d8d501a	0.06900044
193	0x3d9086ae	0.07056938
194	0x3df3977c	0.11894128
195	0x3d6571cc	0.05601673
196	0x3db8c29b	0.09021493
197	0xbd2711f0	-0.04078859
198	0xbccb5268	-0.024819568
199	0x3d9ee3c3	0.07758286
200	0xbd9149de	-0.07094167
201	0xbd1d4a58	-0.038400978
202	0x3ddb9510	0.10721791
203	0xbdffadfd	-0.124843575
204	0x3e087f20	0.13329744
205	0x3ddcf299	0.10788459
206	0xbddcedd9	-0.10787553
207	0xbdec9432	-0.115517035
208	0xbcbfa75e	-0.023395237
209	0x3da04e58	0.07827443
210	0xbd9636b9	-0.07334656
211	0x3dafc095	0.08581654
212	0x3dfc5528	0.1232093
213	0x3cfaa6c7	0.030597104
214	0xbdf10707	-0.117689185
215	0xbcad11ef	-0.021126715
216	0x3cbec3bb	0.023286691
217	0xbcb92bfc	-0.022603981
218	0x3e1a92a1	0.15094997
219	0x3c3ab3dd	0.011395422
220	0x3ce1e9b8	0.027577266
221	0x3d082dad	0.033246685
222	0x3e22bb20	0.15891695
223	0xbd034bb6	-0.032054625
224	0x3b459588	0.0030148942
225	0xbde73a0f	-0.11290371
226	0xbde3f597	-0.11130827
227	0x3d480f3b	0.04884265
228	0xbe06dbcb	-0.13169782
229	0x3dfb1ad4	0.122609764
230	0xbc41ea06	-0.011835581
231	0xbe22b50b	-0.15889375
232	0xbca145cb	-0.0196866
233	0xbc27a616	-0.010232469
234	0xbda0b65c	-0.07847282
235	0x3d9b808c	0.07592878
236	0xbd2bc22c	-0.041933224
237	0x3d8ef4b8	0.0698027
238	0xbdccb035	-0.09994546
239	0x3d33af11	0.04386813
240	0xbe69349c	-0.22773975
241	0x3dfbaa3c	0.12288329
242	0x3d769d4a	0.060208596
243	0x3c74c463	0.0149394
244	0xbd8ecd0b	-0.069727026
245	0xbd895a6d	-0.067067005
246	0x3d4a96a8	0.049460083
247	0xbd869abb	-0.06572481
248	0x3c92d1cc	0.017922305
249	0x3d23248f	0.039829787
250	0x3dc96295	0.09833256
251	0xbdb05907	-0.086107306
252	0xbd903f53	-0.07043328
253	0x3bee1124	0.007265227
254	0x3d788ebf	0.06068301
255	0x3e000e73	0.12505512

head.0.bias f4 [64]
0	0xbe32f963	-0.17477946
1	0xbd3b80cc	-0.045777127
2	0xbdc74871	-0.09730614
3	0x3da688e5	0.08131579
4	0xbe227e5e	-0.15868518
5	0xbdf40e39	-0.11916775
6	0x3db3e7ed	0.08784471
7	0x3bcf7015	0.0063305
8	0xbd8888ec	-0.06666741
9	0xbdc90185	-0.09814743
10	0xbd9cd175	-0.07657138
11	0x3d8ca5df	0.06867575
12	0xbbd0599f	-0.00635834
13	0x3c09214c	0.008369755
14	0x3dbfec56	0.093712494
15	0xb84a6143	-4.8251135e-05
16	0x3b5d9e02	0.0033816104
17	0x3de2a3a0	0.11066365
18	0xbe0428bc	-0.12906164
19	0xbe011830	-0.12606883
20	0xbd53a7c6	-0.051673673
21	0x3de8562e	0.113445625
22	0xbdff7fde	-0.124755606
23	0xbd9b2a01	-0.07576371
24	0x3cafe7a3	0.021472758
25	0xbdbae03a	-0.09124799
26	0x3d96c03d	0.07360885
27	0xbd63ddac	-0.055631325
28	0xbce97192	-0.028496537
29	0x3dd703b4	0.10498753
30	0x3d37d601	0.044881824
31	0xbde6a0f7	-0.1126117
32	0x3cf8178a	0.030284662
33	0xbdc37d8c	-0.095454305
34	0xbdd11b4c	-0.102102846
35	0x3d8ee303	0.06976893
36	0x3cb0e264	0.021592326
37	0xbd2f55eb	-0.042806547
38	0xbca4ba59	-0.020108389
39	0xbe124336	-0.14283451
40	0x3db7e247	0.08978706
41	0xbd10e03d	-0.0353701
42	0x3a5343c7	0.0008059111
43	0xbe0c4bd4	-0.13700801
44	0x3a0532e6	0.0005081132
45	0x3c922a7c	0.017842524
46	0xbd8211f1	-0.06351078
47	0x3d5060e5	0.050873656
48	0xbddd7432	-0.10813178
49	0xbdcb44d1	-0.09925235
50	0x3dcc3db2	0.09972705
51	0x3d961683	0.073285125
52	0xbc893e77	-0.016753418
53	0x3d415243	0.04719759
54	0xbdbbf2ea	-0.091771916
55	0xbdf4c3e9	-0.119514294
56	0xbd274aaa	-0.04084269
57	0x3dedc9ff	0.11610793
58	0xbd499c17	-0.049221125
59	0xbb8e383c	-0.0043401998
60	0xbdbe1c15	-0.092827
61	0x3c8cce36	0.017188173
62	0xbe11d24a	-0.14240375
63	0xbd4d8044	-0.05017115

head.2.weight f4 [1, 64]
0	0xbd0b5a78	-0.034021825
1	0xbd57c7cb	-0.05268077
2	0xbbbbc3bc	-0.0057301205
3	0x3dbad9e3	0.0912359
4	0xbd41be2f	-0.047300514
5	0xbdaf1806	-0.08549504
6	0x3dba7c52	0.091057435
7	0xbc232fef	-0.009960159
8	0x3dc86ba0	0.09786153
9	0x3dc4a565	0.09601859
10	0x3d374c10	0.044750273
11	0x3df02f03	0.11727717
12	0x3d8bb2a6	0.06821184
13	0x3e02c885	0.12771805
14	0xbd531c80	-0.05154085
15	0x3bdfa598	0.0068251602
16	0x3d1963e6	0.037448786
17	0x3d9413ec	0.07230362
18	0x3dac5397	0.08414381
19	0xbd3d9e4b	-0.046293538
20	0x3d96818a	0.07348926
21	0xbd9d63a9	-0.07685024
22	0x3da1bf33	0.078977965
23	0x3d64e646	0.05588367
24	0x3e1d4cf0	0.1536138
25	0x3c40e558	0.01177343
26	0xbd9da4d9	-0.07697458
27	0xbe22b995	-0.15891106
28	0xbdcb71e0	-0.09933829
29	0xbdb78b3c	-0.08962104
30	0xbdd620b1	-0.10455454
31	0x3d837f67	0.064207844
32	0xbe21e161	-0.15808631
33	0x3d8bad02	0.06820108
34	0xbc455418	-0.012043975
35	0x3c8bfa61	0.017087163
36	0xbd4fa0fb	-0.050690632
37	0xbcb479f5	-0.02203081
38	0x3df60e9d	0.12014506
39	0xbd66741c	-0.056263074
40	0xbd1cff79	-0.038329575
41	0xbd33071e	-0.04370796
42	0x3abac5b4	0.0014249594
43	0xbd2189e2	-0.039438136
44	0x3dc55696	0.096356556
45	0xbd6cd8e6	-0.057824038
46	0xbc78b2e0	-0.015179366
47	0xbdf7db5d	-0.12102387
48	0x3db40805	0.08790592
49	0x3b867ec1	0.0041044657
50	0xbdae93ad	-0.08524261
51	0x3dd54c73	0.10414972
52	0x3dc2c45e	0.0951011
53	0xbe2e2880	-0.17007637
54	0xbd46ca45	-0.048532743
55	0xbd6eab7c	-0.05826901
56	0x3db8794e	0.09007512
57	0x3daee247	0.08539253
58	0xbd50a858	-0.050941795
59	0x3ccab7e4	0.024745889
60	0xb9f1b201	-0.00046099725
61	0x3d4d9934	0.050194934
62	0x3d71c0ea	0.059021868
63	0xb9433948	-0.00018617988
