outputs/exp_0002_20251212_235529/runs/seed1/h10/OnlineSGD/model_final.pt (torch, 71493 bytes, 7 tensors)

gru.weight_ih_l0 f4 [192, 1]
00000000: 033f 093e 8654 51bb 9e7d 1fbe d66d 363d
00000010: 528a 3bbe d806 3a3d 28fc fd3b 73f2 873c
00000020: c39a 4c3c 358e 60bd 6b55 3e3c ee3b b93c
00000030: fde3 a93d 72cf 4cbe 1bb4 89bd d48a cabd
00000040: a195 a8bd 2bae d83d 83db 293e bb3e 8e3d
00000050: ac79 52bd f225 d6bc 335a 1fbd d6df 51bc
00000060: 275a f5bc 4604 51bc ecb6 45bd bc29 693e
00000070: c074 3abe bc78 f23d 8b66 7e3d 5e6a 643c
00000080: d1f8 ea3c 8f0b 52be 644c 21be 36cb e8bd
00000090: eed0 6f3e ee93 c0bd c737 4a3e f0aa 54be
000000a0: 404d 283e b04a 0ebe c48d 543e 5dd9 47bd
000000b0: cab8 05be a204 413b 5166 7b3d a8cb 6dbd
000000c0: 7348 11be 9b9b 893d c883 52be 1506 16be
000000d0: 379e 37bc b4b2 a4bd 9ab7 353e 1f3c eb3c
000000e0: ad42 473b c4f6 84bd 832f 933d d04b 8fbd
000000f0: 2a9b d5bd 2cec 5cbd 90a9 1cbc 69f2 093e
00000100: bfdd 0fbe e5b4 0abe 5abb 24bd f321 84bd
00000110: 3ce7 3ebe edaf 123e 8526 85ba 3fd3 36be
00000120: c96e 6d3d f97a 18bd 69eb 333e bd2d 263e
00000130: a543 3c3e 8c04 d43d 3d8b 79be 9012 cdbc
00000140: bea3 8fbd 1092 3fbe 6a85 a3bd 0782 28be
00000150: d869 37bc 4614 bcbd 3b5d 90be d651 433e
00000160: f873 d3bd aa47 913c 71e4 85bd 8b9e c4bd
00000170: a9f0 a1bd 56ca 393d 6e88 42be d76f 6b3b
00000180: f15b 94bd 2d43 da3c abaf 0ebe 36a3 d0bd
00000190: 2e9a a83c ca0f ffbd 3870 373e dc20 493d
000001a0: ad76 103c d4bc 58be acda b53d 4a29 bfbd
000001b0: a543 d4bc b953 b1bd 7fa5 0fbd 8fbe 083e
000001c0: 394d f4bc 4785 c23c 5936 febd d65c 163e
000001d0: 1b40 a4bc 92aa 2ebc efc9 47be 6bfe 82be
000001e0: f76e 4abe adf3 a8bd 6b2f c0bb 4d54 3cbe
000001f0: 189b 8fbd 15f5 1ebe 5320 1abe 544f 7dbd
00000200: a80f 433e 4fe4 623e 438a bbbd 8a4b 34bc
00000210: 786b 413e 0138 f43d c2f4 7b3e c44a 743e
00000220: 32d8 513e 0805 8c3d e732 cbbd 0d0f 17be
00000230: 74f9 83bd d99f e3bc 6761 e9bd 3de1 843d
00000240: b0b2 0f3e aa0b 04be 10e3 443e d776 063e
00000250: a064 ab3d b4f4 103e 273a d0bd 9218 1e3e
00000260: 45cf 443d 6062 f8bd 0fa6 32be 85fe 87bd
00000270: 2f41 05be 35e3 eb3c c5a4 943e 76ea 7b3d
00000280: 3494 18be 0edc f43c 117e 4d3d 63ec 4b3e
00000290: 78ba 7abe 962f 913d ee08 37bd 4e55 f8bc
000002a0: 0e01 f0bd 1e4f 26be 472b 0fbe 2cf4 b03d
000002b0: 04fb c73d 24c5 163d 154f 9e3e 813b 273e
000002c0: 2cb5 4a3e 7fa3 3cbd 4f11 34be 9f66 c23d
000002d0: b8cf 07be fb48 39bd b1b9 59be 9c5b 92bd
000002e0: eef1 60be 8dbf 683e 6934 42be 1b15 fabd
000002f0: 8ac1 c53d f9a4 4bbe 42c8 26bc c28a 8fbd
0.13402943 -0.003194125 -0.15575263 0.04453834 -0.18314484 0.045416683 0.0077510066 0.016595101
0.01248807 -0.05482312 0.011617045 0.022611585 0.082954384 -0.20001009 -0.067238055 -0.098897606
-0.082316644 0.10580095 0.16587643 0.06945559 -0.051385567 -0.02614114 -0.03890438 -0.012809714
-0.029950215 -0.0127573665 -0.04827015 0.22769827 -0.18208599 0.118394345 0.06210951 0.013941376
0.028683098 -0.20512222 -0.15751797 -0.113668844 0.23419544 -0.09403215 0.1974784 -0.20768332
0.16435719 -0.13895679 0.20757204 -0.04879128 -0.13058773 0.0029452224 0.061376873 -0.05805555
-0.14187793 0.067191325 -0.20558083 -0.14650758 -0.011207155 -0.080418974 0.1774582 0.028715191
0.0030404732 -0.06492379 0.071867965 -0.06996882 -0.10429986 -0.05393617 -0.009561911 0.13471378
-0.14049433 -0.13545568 -0.040217735 -0.06451788 -0.18642896 0.14324923 -0.0010158574 -0.17854021
0.05796698 -0.03722665 0.1757027 0.16228385 0.1838518 0.1035243 -0.24369521 -0.025033265
-0.07013653 -0.18708062 -0.07984431 -0.16455851 -0.011194669 -0.09183554 -0.2819613 0.19074187
-0.10324854 0.017734367 -0.06537712 -0.09600552 -0.079072304 0.04535898 -0.18997356 0.0035924816
-0.07244099 0.02664336 -0.139342 -0.1018738 0.020581331 -0.124541834 0.17913902 0.049103603
0.008817357 -0.21165782 0.08879599 -0.09334047 -0.025911162 -0.08658547 -0.03506994 0.13353942
-0.029821979 0.023745192 -0.1241271 0.14683852 -0.0200501 -0.010660784 -0.19510625 -0.2558473
-0.19768892 -0.082496025 -0.0058650277 -0.18391533 -0.07012004 -0.15523179 -0.15051393 -0.06184323
0.19048941 0.22157405 -0.09157231 -0.011004338 0.18888652 0.119247444 0.24605086 0.23856646
0.20492628 0.06836897 -0.09921818 -0.14751835 -0.06444064 -0.027786182 -0.11395531 0.06488273
0.14033008 -0.12895074 0.19227242 0.13131271 0.08368802 0.14155847 -0.10167342 0.1543906
0.04804923 -0.121281385 -0.17446159 -0.066403426 -0.13013147 0.028794864 0.2903196 0.061502896
-0.14900285 0.029890087 0.050169054 0.19914393 -0.24485195 0.070891544 -0.04468625 -0.030314114
-0.11718951 -0.16241118 -0.13981353 0.08640322 0.09764674 0.0368091 0.3091971 0.16331293
0.19795674 -0.04605436 -0.17584728 0.0949223 -0.13262832 -0.045235615 -0.21262242 -0.07146379
-0.21967289 0.22729321 -0.18965305 -0.12211057 0.09656055 -0.19887151 -0.010179581 -0.07008888

gru.weight_hh_l0 f4 [192, 64]
00000000: c9bf 123b 701d 873d 7ac0 2b3e 5f79 bbbd
00000010: 6603 ba3d 796a 033e 34aa 2e3e 98f6 afbd
00000020: 3b43 403d 701f b6bd 8815 e23d 8f29 6dbd
00000030: ec62 713d 04c7 803b b056 66bd aa2e e43c
00000040: c87c 353d 1e71 8b3a e30e 8d3d 55d7 d23d
00000050: e751 10be f425 da3d d06a 8b3d 7a4c 1a3d
00000060: 5e7c dd3d 8ba7 c9bd debf c8bd 59e3 063e
00000070: 6117 0cbe b9b6 073e 07ca 66bd 1d83 7abd
00000080: 9943 2a3c 0493 d7bd b534 0cbb ee57 003e
00000090: 9627 393d c566 1a3e a965 293c 6328 a8bd
000000a0: 5fdc 223e f58d 65bd dde8 a1bd 8acc 363d
000000b0: 13c3 3fbd 870b 0e3e 45b2 003e bfc4 cebd
000000c0: 366e 89bd d086 b9bc 87eb db3c f723 27bd
000000d0: 73fd adbd 0b33 40bc 6f46 2cbe fdc8 1fbe
000000e0: a52e d7bd a375 203e 8a87 623d f9c1 a5bd
000000f0: 9bd4 353d 10cf e23c d030 59ba 7e92 b1bd
00000100: 8fd9 d13d 55c0 843d b888 ad3d e5f0 e6bc
00000110: 991b 093e 49e0 bd3d 415b b9bc c6c9 f03d
00000120: 3729 7c3d e873 1abe 9b23 e23c 881b 0fbe
00000130: b516 853d 47d8 a73a f2b5 5c3d 01f2 bb3c
00000140: 2010 96bd 438c c73d ce37 5cbd 1a2d 31bd
00000150: 2590 56be 36c4 15bb c4b5 12bd 1760 5cbc
00000160: 5f4d a2bd 671a 913c dc66 8e3d ca0b 4a3a
00000170: c3ce 7bbd c17f bbbd 97a5 a9bd 2d40 6e3d
00000180: 374a 96bc 1ca0 8a3c b394 92ba a873 14bd
00000190: 1ead 443d 259f 443d 66cb e03c e005 0cbd
000001a0: d304 78bd 11a8 0abd 7fb5 8bbd 64a9 abbd
000001b0: d193 153b 2ec6 62bd c1cd 6b3d 57bc b7bd
000001c0: 5edc e139 de15 6fbd 54bd 14be 059d e83d
000001d0: cc31 bb3b 5c84 353e 1a79 eebc 59aa ebb7
000001e0: 178e f8bd f545 3ebd 9f9d b83d afb2 f2bd
000001f0: 559b 75bd bb60 2f3d b74f ca3d 66b9 3f3d
00000200: 5045 59bd 765a afbd dc4f 123e dc88 c5bd
00000210: 3f8b e2bc 376c 9dbd dbd5 6abd 75f5 93bc
00000220: e8f8 6dbd c1a0 47be 9631 b0bb 8bec 19bd
00000230: 904d 523d b5a8 0bbd 6d89 2f3e 86fb 0dbe
00000240: 982f 14be ead1 91bd e772 043c dcbf b1bc
00000250: 2e3d 5abe 0e01 97bd d649 7c3b daa9 f73d
00000260: b634 ddbd fc57 acbd ca5a 933c 68eb ee3b
00000270: c39f 1abd 3846 64be 0930 773d 793e 7bbb
00000280: 0f1e 963d da67 97bd 573a bc3c 59b2 e63d
00000290: 9775 113e 9144 20bd 8362 b13c a0cf 703d
000002a0: 640a b7bd 8052 e1bd e20b 8d3d 5c39 bcbd
000002b0: 1597 f9bb adea bfbd 94d6 00be 189e 173d
000002c0: f270 28bd 59c5 abbd 498a 57bd 0150 dc3d
000002d0: f381 6e3d b1cd 103e 61fb 8a3d 19b4 133e
000002e0: dae1 1cbd 1bcf 353d 57f9 1f3e 7257 f63d
000002f0: f9aa 8abd a4e3 5ebd 17f5 fa3d 7e07 5dbd
00000300: a0b5 18be 574f 4c3d 35a0 fc3d 885b 17be
00000310: e1f6 1abe 6562 18bd 17de ddbb ebd0 253d
00000320: 7cec ae39 3311 393b 16f1 e73d f390 f3bc
00000330: 96dd dc3d 76dd 8f3d 5430 fe3d 7a0e 11be
00000340: 8ba4 d1bd e67f 8f3d b27a 0dbe 5452 1ebe
00000350: 28c5 f63c 6771 32be aa21 02be 9fd4 0cbe
00000360: 5781 b1bd 238f 48bd bf43 243d 38c0 173c
00000370: a324 3b3e fcfb 06be 98c9 523c fd70 f63c
00000380: 5732 d03c 042f 8f3e bd9a 49be 7882 a9bd
00000390: 1d53 24bd 591a 92bd b22f 053d 3516 4cbd
000003a0: ac61 393d 35a2 573d 94d7 3e3d 5480 89be
000003b0: 2e7b d4bd 1ee8 dcbd 4840 9fbd 1a2b 183d
000003c0: 9c69 d1bc e8bf 863d 5265 c93d a561 debd
000003d0: 95d6 153e d59c a5bc 09e3 723e 5e26 1d3e
000003e0: dfe6 90bd ee49 11bc 3181 26bd c22a 043e
000003f0: 97aa cabd df26 d13d 5107 143e af3a 1b3e
0.0022392145 0.06597412 0.16772643 -0.09154009 0.090826795 0.12833585 0.17057115 -0.08591956
0.046939116 -0.08892715 0.11039263 -0.05790096 0.05893223 0.0039299745 -0.056235015 0.027854282
0.044308454 0.001063857 0.06887605 0.102949776 -0.14093743 0.1065177 0.06807482 0.03767059
0.10814737 -0.098464094 -0.09802221 0.13172664 -0.13680793 0.13253297 -0.056345012 -0.061160196
0.010392093 -0.10526088 -0.002139372 0.12533543 0.045203768 0.15078266 0.010339179 -0.08210828
0.15904377 -0.056043584 -0.07905743 0.044628657 -0.046816897 0.13871585 0.12568004 -0.1009612
-0.06710474 -0.022647291 0.026845707 -0.040805783 -0.08495607 -0.01173092 -0.16823743 -0.15604015
-0.105069436 0.15669875 0.05530504 -0.08093638 0.04439221 0.027686626 -0.00082851667 -0.08670519
0.10246574 0.06481997 0.08473343 -0.02819104 0.13389434 0.092712946 -0.022626521 0.11757235
0.061562743 -0.15083277 0.027604869 -0.13975346 0.06498472 0.0012805545 0.053884454 0.022942545
-0.07327294 0.0974355 -0.053764157 -0.043255903 -0.20953424 -0.0022852547 -0.035817876 -0.013450644
-0.079249136 0.017712785 0.069532126 0.0007707445 -0.06147648 -0.091552265 -0.08283537 0.05816667
-0.018345935 0.01692205 -0.0011183232 -0.03624311 0.04801666 0.048003335 0.027440738 -0.03418529
-0.060551476 -0.033851687 -0.06821727 -0.08381918 0.00228237 -0.05536478 0.05756927 -0.0897147
0.0004307953 -0.058370464 -0.14525348 0.11358074 0.0057127234 0.17726272 -0.02911048 -2.8093507e-05
-0.121364765 -0.046453435 0.09014439 -0.118504874 -0.05996259 0.04281686 0.09878486 0.04680767
-0.053044617 -0.08562176 0.14288276 -0.096452445 -0.027654288 -0.07686656 -0.057332855 -0.018061379
-0.058098704 -0.19494916 -0.005377005 -0.0375791 0.0513435 -0.03409644 0.17142268 -0.1386548
-0.1447128 -0.07120116 0.0080840355 -0.021697931 -0.213124 -0.07373248 0.0038496158 0.120929435
-0.108010694 -0.08415219 0.017987628 0.007291246 -0.037750017 -0.22292411 0.060348544 -0.0038336797
0.07329952 -0.07392855 0.022977037 0.11264486 0.14205013 -0.03912789 0.02165342 0.058791757
-0.08937529 -0.11002064 0.06887032 -0.09190628 -0.0076168873 -0.09370933 -0.12581855 0.037016004
-0.041123338 -0.083872505 -0.052622113 0.10757447 0.058229398 0.14140965 0.06786228 0.1442417
-0.038301326 0.044386964 0.1562246 0.120283976 -0.06770892 -0.054416314 0.122537784 -0.053962223
-0.14913034 0.049880352 0.123352446 -0.1478101 -0.1513324 -0.03720321 -0.00677086 0.040482443
0.0003336406 0.0028239011 0.1132528 -0.029732203 0.10784452 0.07024662 0.124115616 -0.14165679
-0.10236462 0.070068166 -0.13816336 -0.15461093 0.030123308 -0.17426072 -0.12708154 -0.13752984
-0.08667248 -0.04896463 0.04010367 0.009262137 0.18275695 -0.13182062 0.0128654465 0.030083174
0.025414629 0.27965558 -0.19687934 -0.08276838 -0.040118326 -0.07133932 0.03251619 -0.049825866
0.045259163 0.052644927 0.04659231 -0.2685572 -0.10375057 -0.1078646 -0.077759326 0.03715048
-0.025563054 0.06579572 0.098337784 -0.10858468 0.14632638 -0.020216385 0.2371942 0.15346667
-0.07075285 -0.008867724 -0.04065055 0.12906936 -0.09895819 0.10212492 0.14455916 0.15159105

gru.bias_ih_l0 f4 [192]
00000000: 2b10 b93b e2b1 22bd e0c7 b0bd f087 aabd
00000010: b85b 1d3d 8bcb c8bd d612 39bd 9dbc 3bbd
00000020: 22ee 853c ed6e ab3d 6a7d e3bc d2a7 3c3e
00000030: 6e61 633d 4f94 933d 433a 7dbd fdb6 41bd
00000040: 33e4 a23d ad7e cd3d 535b 99bd 8857 7f3c
00000050: d6f5 aebc c19a 4b3b dad7 d73d 4535 153e
00000060: f77d cebc 00f1 e23b 2ebd 52bd 4d48 6bbd
00000070: 2c1b c43b 5732 ed3d 6f58 2d3d 4c15 093e
00000080: 7648 cebd f04f 2b3d ee43 35ba ae15 3dbd
00000090: fa65 c73d eff5 29bc 9762 dc3d 7aa9 b03d
000000a0: c533 2c3e 9743 d53b f891 9d3d 0e9d af3b
000000b0: b0b4 353d 6d3f aa3c cbb7 fe3d 3ccb 8cbd
000000c0: 15e4 b83c 4b62 743d 2fb3 f1bc 321c 183e
000000d0: 8415 f03c d48a 9b3d a3ce 223e bc1d 08be
000000e0: aca7 b53d 81d7 703c f145 183c 2455 10be
000000f0: a7ba 26bd 50f8 943c 4e9e a43c 4c2c f2bc
00000100: 800a 1cbd 214c f2bc 0a17 623d 3c3e 4f3e
00000110: 25ef 043e 9df0 2a3e 22fe b53d 9600 63bd
00000120: 644f 453d 54fb dcbd 6c1b 763e 9c4c 583d
00000130: 4c8c 4a3e 1f48 2e3e 4a0b a1bd 9dfd 533d
00000140: eca1 343d 59e4 ec3d aab2 fa3d 2eca 883d
00000150: f5e2 1abd 216c cd3d 42a6 0d3d a4c3 e53d
00000160: 7960 56bc 49e4 b83c 8837 8b3d 78eb ff3d
00000170: 96a2 363d 5cec 203d 320d 223e ed0c 223e
00000180: a902 1ebb 2636 2c3e e788 d23d 2eb7 063e
00000190: d5ff 4e3d ea5d 833d 04f4 303d 9209 103e
000001a0: d96e 533e 60f1 1d3e a390 3e3d 3258 e73d
000001b0: e4a4 213e ed21 b93d 0842 c93d 7f34 663e
000001c0: d694 02bd fdc4 ef3d f978 503d 9cfc 5d3e
000001d0: e4ff c83c 8e7f d53d a823 0a3d ca9e 913d
000001e0: 8007 013e b14b 4a3c db8b 82bd e5c2 ab3c
000001f0: 0b07 263e 682e 393e c623 653e c16b e23d
00000200: f9e0 3b3d 9356 803d 4c94 b1bb d19b be3d
00000210: e6b8 4f3d 895f 123c 8793 a4bd 8364 10bd
00000220: ae89 8a3c 262c debc 9761 c03d 9f88 863d
00000230: 32a9 593d c74e e3bd 16c1 eabd 4bca aa3d
00000240: b7e5 6ebd 2fcb e23d acff dc3d 7ab0 e63c
00000250: e6f9 1bbd 689e cdbd d66a b0bc aa59 0bbe
00000260: 377d eb3c 16a6 713d 2711 11be c533 693b
00000270: cf4b b8bc e25c 213d 6475 dbbc 64cc 033e
00000280: 3cfd 2fbd 5fd7 26bd 4d81 2dbc 0ba3 1e3c
00000290: 8c1c d139 fdce e43d 7d81 e63c dc29 073e
000002a0: 9d7c f83d 0e06 e7bb af88 cb3d d424 043e
000002b0: 65bf 683d 0b06 e73d d193 24bd 50c0 0abe
000002c0: dc3f 2c3e fcf8 fc3d d9f0 d1bc a5f9 cf3c
000002d0: 5f7b 94bd 7e2b 813c cc40 13bd 3537 d4bd
000002e0: 6ce7 653d 1e71 ef3d 009a dcbd c095 dabd
000002f0: f00b c03d ff79 1cbd e69b ecbd 9134 56bc
0.0056476793 -0.039720424 -0.08631873 -0.08326709 0.038417548 -0.09804448 -0.04518398 -0.045834173
0.016348902 0.08370767 -0.027769763 0.18423393 0.055512838 0.07206022 -0.06182314 -0.04729365
0.07953682 0.10033927 -0.07488122 0.015584834 -0.021357458 0.0031067582 0.10539217 0.14571102
-0.02520655 0.006925702 -0.051449947 -0.057442 0.0059846845 0.11581867 0.042320665 0.1338703
-0.100724146 0.04182428 -0.00069147244 -0.046163253 0.09736247 -0.010373577 0.10760992 0.08626075
0.16816624 0.0065083015 0.07693857 0.0053592985 0.04436177 0.020782197 0.124373995 -0.068747014
0.022569695 0.059664052 -0.029504387 0.14854506 0.029307134 0.07594839 0.15899138 -0.13292593
0.088698715 0.014699818 0.009294019 -0.14094979 -0.04070535 0.01818481 0.020095017 -0.029562138
-0.03809595 -0.029577317 0.055197753 0.20238584 0.12981851 0.16693349 0.088863626 -0.05542048
0.048171416 -0.107901245 0.24033898 0.052807435 0.19780082 0.170197 -0.07863481 0.051755536
0.044099733 0.11566991 0.12241109 0.06679188 -0.0378141 0.100303896 0.034582384 0.11218956
-0.013084524 0.022569792 0.06797701 0.12496084 0.044588648 0.03928791 0.15825346 0.15825243
-0.0024110472 0.16817531 0.10280018 0.13155815 0.05053695 0.06414397 0.04320146 0.14066151
0.20647754 0.15424109 0.046524655 0.11296119 0.15785557 0.09039674 0.098270476 0.22480963
-0.031880222 0.117074944 0.05089662 0.21678394 0.02453608 0.1042472 0.03372541 0.07110365
0.12600517 0.012347148 -0.063743316 0.020966956 0.16213624 0.18084109 0.22376928 0.11055709
0.045868848 0.06266513 -0.0054192897 0.09307063 0.050713442 0.00893391 -0.08035951 -0.035252105
0.016911354 -0.027120661 0.09393614 0.06569027 0.053139873 -0.1109901 -0.114626095 0.083393656
-0.058324542 0.110739104 0.10790953 0.028160322 -0.03808012 -0.10039979 -0.021535318 -0.13608423
0.02874623 0.058996283 -0.141667 0.0035583836 -0.022497086 0.03939522 -0.026789375 0.12870938
-0.042966112 -0.040732738 -0.01058991 0.009682427 0.00039884856 0.111722924 0.028137917 0.13199562
0.12133143 -0.0070502823 0.0993818 0.12904674 0.056823153 0.112804495 -0.04018003 -0.13549924
0.16821235 0.123521775 -0.02562754 0.025387594 -0.07250094 0.015767809 -0.035950467 -0.103620924
0.056128904 0.11691497 -0.10771561 -0.10673094 0.09377277 -0.038202282 -0.11553173 -0.013074056

gru.bias_hh_l0 f4 [192]
00000000: 70de 273e 3414 af3d 41e3 2ebd de1a d1bd
00000010: e5c8 febc 3600 dabd 0a4d c53c 63cc 6cbd
00000020: b9d7 163d ce76 7a3d 8f0e 0a3e dd24 df3c
00000030: 6513 963d 2e92 693d d2c4 323d a8b1 853a
00000040: f973 a83d 3371 d7bd 8ea1 0a3e dd12 5a3d
00000050: c650 08be 1fc3 e43d 3f57 01be 597d 393d
00000060: c610 dbbc 3e93 bb3d c235 39be 9ab4 dabb
00000070: ab18 a03d 8a26 d03d 8b68 faba 5e44 cb3d
00000080: ac90 d0bd 3906 0f3e 7ff8 883d 49ae 1b3c
00000090: 7c90 393d 5ee6 663d 7b60 413e d504 05be
000000a0: a1bd 95bd 6c0f 853d 45dc 2bbd 633b b9bd
000000b0: 911c ad3d b701 b2bd 30d6 203e 5c30 7abd
000000c0: d7b2 cdbd 3606 04bd d310 ae3c 1e22 443e
000000d0: 991c 20be 1cdc d7bc 097c 053d 49cb c0bc
000000e0: 13f1 bcbd 1853 c63d c669 13bd c886 d3bd
000000f0: aaa7 ef3d eb3d 27bd e1c8 973c c2f2 133d
00000100: 1c10 0a3d 70f4 bb3c 049a d0bc 59e0 ac3c
00000110: f6aa 1b3d dca9 b43d 22a3 193d 24f7 8dbd
00000120: c01c c33d 0196 803d bdbe 4c3d 14ce 033e
00000130: af0f 1e3e 5f91 533c 876e 9e3d 0a8b 223e
00000140: ea17 8e3d 040e 3e3c bcf3 d13d d1aa ec3d
00000150: bc15 b7bc 5ae1 1a3c 7cd4 37bd b889 693d
00000160: d2b6 b23d 61ce 34bc 4c2f eb3d f52c d23d
00000170: d668 b83d 39b3 d7bb 33cc 9b3d 72d4 653e
00000180: 3999 6bbd c616 843e c790 1c3e cf69 6ebd
00000190: 6bcf 8e3d bc89 443e 4ead 0d3e 4c63 ea3d
000001a0: 5ef6 083e 8bbc 02bd 8c62 073d da9a 77ba
000001b0: fc31 0dbd beac 2a3e 43ce 23bd c7a7 583e
000001c0: 6fba 50bd 3b50 a53d f7c6 273e af3e a53d
000001d0: 43b4 103e 64e5 aabd 1088 a9bd cab1 64bd
000001e0: f843 a7bb 980a df3d fe0b d1bd 2d2e 93bd
000001f0: e2bd 653d a8e0 ce3d 0ead 313e 9114 f33c
00000200: 86ea 10bb 0db2 b83d 7e35 e53c ed8e eabd
00000210: c996 013d efd5 16bb fcff ddbd 7593 93bb
00000220: 07ff 15be 1649 823d 35ba 7c3d 6f78 b03d
00000230: b0b6 913d f7bf e43d 3c76 993d 0c08 9b3c
00000240: 86ee 7f3d 6fa2 eebd 400d aa3d b5da e83d
00000250: 75d0 073e 478a 183d eaa6 dcbd c740 ddbd
00000260: 833e 513d c7fb c8bd cf63 9e3d 4fd5 313d
00000270: f4d3 8e3c a3c0 113e 5b22 5fbb 9e51 dc3a
00000280: cda3 ca3d 66e0 723b ec82 7bbc 2b03 9abc
00000290: 8b0b 23be 1918 e43d 545a a73d d934 9fbd
000002a0: 5179 b03d 8d1a 6d3d 310a 3bbd c79e 56bd
000002b0: 81b0 eebd d48a 383d 16d1 343e 345e 48bd
000002c0: 05f0 2dbd ebdf b9bd a018 873d 93a3 46bd
000002d0: 058a d13d edc4 dd3d 40b9 d8bd 8bde 643d
000002e0: 8f45 3a3d 0a19 a43d aee8 683d a0ea 993d
000002f0: 81b4 863d 20d8 233d cd99 cebd 8b88 b3bc
0.16393447 0.08548775 -0.042697195 -0.10210203 -0.031101653 -0.106445715 0.024084587 -0.057812106
0.036826823 0.061148457 0.13482116 0.027239257 0.07327918 0.057024173 0.043644734 0.001020004
0.08225245 -0.10519638 0.1353819 0.053240646 -0.13312063 0.11170029 -0.12630938 0.045285556
-0.026741397 0.091589436 -0.18086913 -0.0066743614 0.07817205 0.10163601 -0.0019104643 0.099251494
-0.10183844 0.13967218 0.06688022 0.009502002 0.045303807 0.05637204 0.1888446 -0.12990125
-0.073115595 0.06497082 -0.041958112 -0.0904453 0.08452714 -0.08691733 0.15706706 -0.061081275
-0.100438766 -0.032232486 0.021248257 0.1915364 -0.15635909 -0.026350074 0.032588992 -0.023534434
-0.09225669 0.096838176 -0.035989545 -0.10328442 0.11701901 -0.040830534 0.018528404 0.036120184
0.03370677 0.022943705 -0.025464065 0.021103071 0.038004838 0.088214606 0.03750909 -0.06931904
0.09526968 0.06278611 0.04998659 0.12871581 0.1543567 0.012913077 0.07735925 0.15873352
0.06938155 0.011600021 0.10251567 0.11556018 -0.022349231 0.009453142 -0.044880375 0.057016104
0.087262765 -0.011035533 0.114836305 0.10262481 0.09004371 -0.0065826443 0.07607307 0.22444323
-0.05751917 0.25798625 0.15289603 -0.058206376 0.069731556 0.19193166 0.13835642 0.114447206
0.13375232 -0.03191809 0.033052966 -0.0009445377 -0.034471497 0.16667458 -0.03999163 0.21157752
-0.050959047 0.08071943 0.16384493 0.080685966 0.14131264 -0.08344534 -0.08277905 -0.055833615
-0.005104538 0.108906925 -0.102073655 -0.07186542 0.05608929 0.101014435 0.17351171 0.029672893
-0.0022112443 0.090183355 0.027979609 -0.11453042 0.03163794 -0.0023015698 -0.10839841 -0.004503662
-0.14648066 0.06361596 0.06170102 0.08616721 0.07114923 0.11169427 0.074932545 0.018924735
0.062483333 -0.116520755 0.083033085 0.1136984 0.13263114 0.037241247 -0.10774024 -0.10803371
0.051085006 -0.09813648 0.07733881 0.043416318 0.017435052 0.14233641 -0.0034047577 0.0016808992
0.09894524 0.0037060021 -0.015351038 -0.018800339 -0.15922372 0.11137409 0.081715256 -0.07773752
0.08616889 0.05788665 -0.045664016 -0.052397516 -0.11654759 0.04505427 0.17657885 -0.048917964
-0.04246523 -0.09075912 0.06596494 -0.04849584 0.10231403 0.10828576 -0.10582209 0.055876296
0.045476492 0.08012588 0.056862526 0.07515454 0.06577397 0.040001035 -0.10087929 -0.021915695

head.0.weight f4 [64, 64]
00000000: 5b39 393e 8091 013e 1090 93bd 0fca a2bc
00000010: d224 91bd cbba de3d d7ef 7c3c fd6a b33d
00000020: a060 ce3c 9af7 cc3d 22e9 74bd ed08 a23d
00000030: abde 933d cbe7 d93d cea3 0cbe d8de 6d3d
00000040: cc74 febd 1bf1 d4bd d9dd babc 49fc 393e
00000050: b29d ca3d 95f3 c83d 37f5 2c3d 4731 acbd
00000060: 5fba 03bc 4217 b73b 1c91 213c 39c1 333d
00000070: b848 0abe 1666 843d 7249 b93d 9684 ca3c
00000080: 9370 0f3c 06a6 123e 21cc 99ba b405 983d
00000090: 98df a3bd a942 f13d 5bc5 c9bd 5b50 393b
000000a0: 17c8 573b cfad 103c 417a 1ebe c9ba c13d
000000b0: 32fc 0dbd 66dd 203d bd38 0a3c a2ad 213d
000000c0: ed05 363e 13cc 09be 1d7a 2cbe 602d 15bd
000000d0: ec2e d1bd 53e5 04be eb8e 66bc 0d71 43bd
000000e0: d509 dcbd cffd b1bc 7a4d fabc df27 7b3d
000000f0: 682c fd3d 4076 09bc ab8f a43d 9461 ebbd
00000100: 9411 283d 8176 d93c bc5a f9bd 6f74 b93d
00000110: ae09 74bd 71a6 39be 5136 03be 7298 383b
00000120: c46b c2bb 4dbe b4bd dd7c 7ebd db60 933d
00000130: 5ade 4cbd df59 a63d d608 d93d 223c e9bb
00000140: bf07 523c ad9d 173e b3fc b939 bd1e 4ebd
00000150: 200c 833d 3390 bb3c ed56 a03d 06af 1cbd
00000160: f4bb dbbd 1ddf a8bd 606d 1e3e c936 81bd
00000170: 4f63 33bd 28cd d33d 0667 773d ec64 74bd
00000180: 47a1 863c f4d6 e53d 4401 03be c742 8c3d
00000190: 035f 35bd 7766 043d 67f4 e7bd ae7a 6a3d
000001a0: a1a6 48bd 23e3 8cbc 1232 b2bd 28de 3a3d
000001b0: 8433 e8bd 6aed d8bd a575 81bd 0907 2c3c
000001c0: 7740 1d3d bb2f 683d c588 19bd a018 753d
000001d0: 3900 8f3b e80c b2bc 1423 a5bd a9d8 a0bd
000001e0: 31d1 a13d cbc0 03be f8b0 c33d 8072 bebc
000001f0: a650 b43d d30f b9bd a8d9 bc3c 818f cebd
00000200: 3774 c2bd e337 a0bc d78c c1bd 0e6e 103e
00000210: 82e9 673c 09b1 bebd 37a8 423d 6d0c 23bd
00000220: b11b 77bd 8c2f 9eba 7321 c43c 24dd 83bd
00000230: 8ec8 a0bd 6865 773d 1858 253d ed97 a93d
00000240: 5919 1c3e a2e0 0c3d 275f dc3b 70e9 9cbc
00000250: 9657 10be cfbb 68bd 3b87 023e 2320 18be
00000260: f21a bc3d 0941 193e 550d 5fbb f065 a9bd
00000270: 80b6 b6bd 46c8 1c3e 1200 95bc df7e 1b3e
00000280: 2500 403d 05b5 0dbe 5db6 2a3d c8d7 79bc
00000290: c184 263e 5e25 be3d f264 1a3e e358 103e
000002a0: eeb4 8dba d7ab 043e 26f7 e13d ffcd 423e
000002b0: 543c 0abd 93da 313d 9510 29be 179f 7f3c
000002c0: 4ef7 a9bd 697e 933d c979 1c3c cafd f7bd
000002d0: 7549 9b3c e928 8e3d 36a9 89bd 79f9 c13d
000002e0: ec19 22bc b6ee 123d 7ce6 aebc e273 01bc
000002f0: 5b88 993d 8d2f c9bc f302 93bd 9811 0e3e
00000300: eec6 0ebe 5db7 b9bd c384 b8bc fbba 17bd
00000310: f73c 3cbd bca2 0cbe beb2 53be ef37 1fbd
00000320: 30d8 45bd c1d3 673d 92fa e23d 3675 cd3d
00000330: 4772 6b3c 1f33 2e3d 3e96 993d e9f6 f33d
00000340: 6d56 c2bd c53d 363e 807e 7e3d 1f7b a53d
00000350: f5b8 84bc e694 a2bd 97b7 74bc 362d aa3d
00000360: 263e f33d effe 5bbc bb4c 743d fe67 a1bd
00000370: c4b5 4dbd e3ef c1bd e60e 35be 1154 afbd
00000380: f4f4 adbc 226d b43b dbeb 8c3c ddd2 d5bd
00000390: 8c36 e13d e63c 2dbd 0bdc 9cbb a694 123e
000003a0: 6068 d7bd 8bf5 5a3d 1b71 bcbd 8b5c 633c
000003b0: bb8b 8a3d 411c d33d 88c2 93bc 11c8 bebd
000003c0: 1069 023d c748 0abe e759 353e ddf3 96bd
000003d0: 26e6 d43d 5fee 463d 1239 07be 5bae 7c3d
000003e0: 442c 2f3e d2fc f7bb 4d44 69bc 5876 063e
000003f0: 9d42 e43d d028 713d 93f7 34be e3dd f7bb
0.18088286 0.1265316 -0.07205212 -0.01987174 -0.07087101 0.10875472 0.015438042 0.08760641
0.025192559 0.10008164 -0.059792645 0.07911859 0.07220205 0.10639914 -0.13734362 0.05807385
-0.12424621 -0.1039755 -0.022810863 0.18162645 0.09893359 0.098120846 0.042226043 -0.084078364
-0.00804004 0.0055874893 0.009861257 0.043885443 -0.13504303 0.06464784 0.09047212 0.024721425
0.008754867 0.14321145 -0.0011733809 0.07422963 -0.080016315 0.117802925 -0.09852096 0.0028276655
0.003292566 0.008830502 -0.15476324 0.094594546 -0.03466434 0.039273642 0.008436379 0.03947223
0.17775698 -0.13456754 -0.16843458 -0.036420226 -0.10214028 -0.12978105 -0.01407216 -0.047715236
-0.10744063 -0.02172747 -0.030554522 0.06131732 0.123619854 -0.008390009 0.08035215 -0.11493221
0.04103239 0.026545765 -0.12175509 0.09055411 -0.059579544 -0.18129899 -0.12813689 0.0028167036
-0.005933257 -0.088253595 -0.062130798 0.07196208 -0.05001674 0.0812261 0.105973884 -0.007117764
0.01281923 0.14806242 0.00035474225 -0.050322283 0.06398797 0.022895908 0.0782908 -0.038252853
-0.107292086 -0.082456805 0.15471411 -0.063092776 -0.04379588 0.10341865 0.060400985 -0.05966656
0.016434325 0.1122264 -0.12793452 0.06848674 -0.044280063 0.03232428 -0.11325913 0.057245903
-0.048987035 -0.017198151 -0.087009564 0.04562202 -0.11337951 -0.10592158 -0.06321267 0.010499724
0.038391557 0.056686144 -0.03748395 0.059837937 0.00436404 -0.02173467 -0.08063331 -0.07853825
0.07901228 -0.12866513 0.095552385 -0.023247957 0.08804445 -0.09036221 0.023053005 -0.10085965
-0.094948225 -0.019557899 -0.09450691 0.14104483 0.014154794 -0.093111105 0.047523703 -0.039806772
-0.060329143 -0.0012068613 0.023941731 -0.064386636 -0.07850753 0.060399443 0.040367216 0.08280931
0.15244044 0.034393914 0.00672521 -0.01915428 -0.14095911 -0.056819733 0.12746899 -0.14856009
0.09184827 0.14966215 -0.0034035046 -0.08271396 -0.08921528 0.15310773 -0.01818851 0.15185116
0.046875138 -0.13838585 0.04167782 -0.0152492 0.16261579 0.09284471 0.1507757 0.14096408
-0.0010811368 0.12956177 0.11033468 0.19023894 -0.03374894 0.04342134 -0.16510232 0.015601895
-0.08299123 0.07201845 0.00955052 -0.12108953 0.018955925 0.06941397 -0.067217276 0.09471411
-0.009893876 0.035872184 -0.021350138 -0.007901164 0.07496711 -0.024558807 -0.07178297 0.13873899
-0.13943073 -0.09068177 -0.022524243 -0.037043553 -0.045956578 -0.13733953 -0.20673653 -0.0388717
-0.048301876 0.05659843 0.11082949 0.10032122 0.014370508 0.04252922 0.074993595 0.11912329
-0.09489141 0.17797 0.06213236 0.08080124 -0.016201476 -0.079385564 -0.014936349 0.083094046
0.11877088 -0.01342748 0.05964349 -0.07881163 -0.050222173 -0.09469583 -0.17681465 -0.08560956
-0.021234967 0.0055061737 0.017202308 -0.104406096 0.10996732 -0.042294405 -0.0047869734 0.14314517
-0.10517955 0.053456824 -0.09201261 0.013877044 0.06764933 0.103081234 -0.018037096 -0.093155034
0.031838477 -0.13504325 0.17710076 -0.07370732 0.1039546 0.048567172 -0.13205364 0.061689716
0.1710673 -0.0075679803 -0.014237476 0.13131082 0.11145518 0.058876812 -0.17672567 -0.0075642928

head.0.bias f4 [64]
00000000: 5e50 e43d 9df5 4d3c 2476 933c a1b3 413e
00000010: cbd1 c03b 34d1 31bd 8e9a ad3d 21b7 64bd
00000020: 7760 d9bd f4a2 98bd 9018 99bd 16a8 f63d
00000030: 0d7a 833c 2873 103e 0a40 b63d e9df 2a3e
00000040: 5f44 abbd 24e0 8e3d 4a2f 22be e832 28be
00000050: d243 db3c 8f84 22bd 13ee 34bd 9b91 e5bd
00000060: b250 80bd 4852 1ebe 3e1d 27be 85a3 77bd
00000070: 7a73 e33c deda 0dbe fd6c 2c3c eca8 8e3d
00000080: 905f 623d 2e0e 1f3e ccc2 233d e8ae a03d
00000090: 3802 bcbc 2413 06bd 5b02 a13c 3bc5 b7bd
000000a0: ac00 073e 463d e63d 648f 0ebe 6185 e0bb
000000b0: c1ca 02bd b457 2e3c d198 09bd a9d8 153c
000000c0: 6390 823c 2ed6 243d 95de 0d3e ac62 d9bc
000000d0: 5084 93bd e670 a63d 467a be3d 47fa a23d
000000e0: 14cc 633d b844 8a3c 641d 873d 73fb 3abc
000000f0: 0240 143e 3061 7e3d 144e 95bd 80ff 7abd
0.11148141 0.012570766 0.01800067 0.18916179 0.0058843843 -0.043412402 0.084767446 -0.055838708
-0.10614102 -0.07452956 -0.07475388 0.120437786 0.01604941 0.14106429 0.08898933 0.16686977
-0.0836265 0.06976345 -0.15838352 -0.16425669 0.026765738 -0.0396772 -0.044172358 -0.11209413
-0.062653914 -0.15461075 -0.16319749 -0.06045868 0.027765024 -0.13853022 0.010524032 0.06965813
0.055266917 0.15532753 0.039980695 0.07845861 -0.022950277 -0.032733098 0.019654443 -0.089731656
0.1318385 0.11242156 -0.13921887 -0.0068518375 -0.031931642 0.010641027 -0.033593003 0.009145894
0.01593799 0.04024332 0.1385444 -0.026536308 -0.07202971 0.081270024 0.093006656 0.07957893
0.055614546 0.01687847 0.06597403 -0.011412489 0.14477542 0.062104404 -0.07290283 -0.06127882

head.2.weight f4 [1, 64]
00000000: d996 bd3d d61d 4fbd 55d1 5bbd 233c 12be
00000010: d40a e4bd 6b03 343d d994 7bbd 8ab5 9e39
00000020: bc53 a73c b02a b03c bfd8 2f39 96ca a0bd
00000030: 7410 153d 661d 113e b249 8e3d 6837 9dbd
00000040: 800e 963d 4314 d8bd 96f6 2fbd 9786 89bc
00000050: 4874 063e dcc5 99bd 6c50 b8bc d532 bd3d
00000060: 9b58 cb3d a8d8 d53c d7f9 473c 3f28 d33c
00000070: 9fb8 0d3a 4aea 05bc 0b34 92bd 5a29 b6bd
00000080: 7d16 823b c6b9 e43d 1d78 b33b c4ec 98bd
00000090: e989 e7bd 33ab 11bc 1aba eebd e727 073d
000000a0: 488b c73d fcc7 c2bd 7bf2 62bd 3957 c0bd
000000b0: 9566 21be 6cee 013e a076 50bd 9ace 8c3d
000000c0: 6dd1 913d 1c34 cebc 299a 003e 9aad a03c
000000d0: 183e ab3d c188 6ebc 13d3 a53d 509e 153e
000000e0: ee76 11bd 77ad 8f3d b73e 583b 8d57 05be
000000f0: c0d1 bd3d 1563 05be c354 17bb 1061 a93d
0.092572875 -0.050565563 -0.05366643 -0.14280753 -0.11134878 0.043948572 -0.06142125 0.00030271366
0.02042567 0.02150473 0.00016770045 -0.0785114 0.036392644 0.14171371 0.0694765 -0.076765835
0.073269844 -0.105507396 -0.042959772 -0.01678781 0.13130295 -0.07508442 -0.022499286 0.09238211
0.099290095 0.026104286 0.012205563 0.025776027 0.0005406234 -0.008173535 -0.07138833 -0.08894606
0.003969966 0.11168246 0.005476965 -0.074670345 -0.11305601 -0.008890915 -0.1165659 0.03299704
0.09743363 -0.095108 -0.05540703 -0.093916364 -0.15761788 0.12688607 -0.05089438 0.068753436
0.07120023 -0.025171332 0.12558807 0.01961403 0.08361453 -0.014558972 0.080969 0.14611173
-0.03551381 0.07015508 0.0032996365 -0.13021679 0.09268522 -0.13026078 -0.0023091293 0.08270466
