outputs/exp_0003_20251213_123043/runs/seed4/h10/DriftRPL/model_final.pt (torch, 71493 bytes, 7 tensors)

gru.weight_ih_l0 f4 [192, 1]
00000000: 80b1 d9bc 3b94 9f3d 84d5 1ebe 1a1b 92bc
00000010: aafc b2bd 9bca 10be 6ac3 553e 8867 043d
00000020: 24b3 bfbc 3778 9b3d 66b3 aabd 02c8 e7bd
00000030: 79ce 803d a3f0 9ebc 2ccc 08bd ce87 d33d
00000040: 7f08 1c3d feaf 6cbd 96be e0bd d3ac 1cbe
00000050: f468 a4bc a775 4cbd 1bc3 23bc 4138 31bd
00000060: 33b6 d43d 83cd 27bb c018 dd3d 53ed 30bc
00000070: 898d e63d 522b 79bd 1141 b83d 0772 2f3d
00000080: 0dfa c0bd 3c3b ad3d 82fe 913d 3ff1 e7bd
00000090: c5c1 bcbd 9f74 e33d a57b ee3d 36b0 a43d
000000a0: 3df6 6cba 5718 f93d 54bd dd3d 5de9 cdbd
000000b0: 2fcb 91bd 08a3 a53d 7a61 053d 5284 e5bd
000000c0: 62e0 c0bd 1e33 233e fc7a f9bd 70ac 193d
000000d0: 87da ea3d 93f0 3bbe e8e4 15be 51a0 ffbb
000000e0: 7253 fb3c 52fc 913d 04bd 7a3c 5969 0a3d
000000f0: bbb9 cfbd 0b2c 033e 6e93 25be 763e 2f3d
00000100: 866b 033d 5866 8e3d af1f 7e3d 85a8 7fbd
00000110: e007 a73c 8761 e13c c401 ca3c b0cc dabd
00000120: d36b 9dbd 3035 43bd 8e8d 98bd 51c6 093e
00000130: 33c5 963d 6021 c63c bf01 3ebd 8031 c3bd
00000140: 6c49 443c 332d 923d 5afe 803d 589e afbd
00000150: 4d3b e439 b23f 143c 63e7 983d 58c6 813d
00000160: c22a 89bd dd9b 11be 4cdb 313c 18d7 b33d
00000170: 93cf 763d 2abe 873d 0be7 b63d 29f6 23bd
00000180: f253 ebbd b9a6 6a3d 4112 f23d 10b2 b3bd
00000190: 489c 91bd d56a 8d3d aea5 933d a75d 38bd
000001a0: ec27 6cbd 9cba c53c 2a3f 1abe 16fe 8fbd
000001b0: 683d aebc 640e 9dbc fb76 3e3c e5d7 d03c
000001c0: 80ba 9bbd b786 a1bc 43ac a13c 9467 993d
000001d0: d0a6 aabc edb9 babc 7dde 5a3d a579 973d
000001e0: ea4b dc3c eaef 70bd 0b4c 023d 214e ae3c
000001f0: 1581 a93d c1ec 2ebd 350a d8ba 0a5b 893d
00000200: b974 ff3c 5e1e 943d f79f 89bd e68e 4a3e
00000210: 439c 61bc 801c d8bd aab0 e73d f775 aabd
00000220: f4c7 483d a856 ae3c 76d7 0c3e 9f2a 113c
00000230: 5f0b 113d 1f09 80bc 2655 3fbd 6596 c53d
00000240: 6092 c63d f139 fe3d 30f6 51bd e92f fa3c
00000250: 6de8 c43d 8cff b63d 6911 72bc 051b d63d
00000260: 62b6 21be 6f61 1c3d 368b b3bd 4b16 dcbd
00000270: d09c 18be 1d7b 5e3d 7bc9 34bd a849 673d
00000280: eed7 86bd 0321 c73c ae6c 0dbe 8abf af3d
00000290: 1d14 17be a254 c8bd 2691 6ebc e9af 293e
000002a0: b541 013c 539f 2fbe 0f22 e93d 662f 6e3c
000002b0: 9f9c 6e3d 25a9 213d 6487 90bd 88e2 843d
000002c0: be1e 25bc f080 6abd c677 8dbb 802b 293e
000002d0: bb5c d53d 6f32 6a3d 43d5 9abd d6db e0bd
000002e0: 985a 97bd fd3f 91bd b2bd 983d 9ff6 91bd
000002f0: 1818 cd3d ec76 05be 459b 93bd 71ad b43d
-0.026573896 0.077919446 -0.15511137 -0.017835189 -0.08739598 -0.14139788 0.20875326 0.032325298
-0.02340085 0.075912885 -0.08334999 -0.11317445 0.062893815 -0.019401854 -0.03339784 0.10328637
0.03809404 -0.057785027 -0.109738514 -0.15300302 -0.020069577 -0.04991689 -0.009995247 -0.04326654
0.10386314 -0.0025604672 0.10795736 -0.01079877 0.112574644 -0.06083233 0.089967854 0.042833354
-0.094226934 0.08458564 0.07128622 -0.11325311 -0.09216646 0.11106228 0.11644677 0.08041422
-0.0009039378 0.121628456 0.10827127 -0.10054276 -0.07118832 0.08087736 0.032563664 -0.11206879
-0.094177976 0.15937468 -0.121816605 0.037517965 0.11467462 -0.1835349 -0.14638102 -0.0078010936
0.030679438 0.071282044 0.015303854 0.033791874 -0.10142847 0.1280977 -0.16169521 0.042784177
0.032084964 0.06953114 0.062041935 -0.062416572 0.020389497 0.027512325 0.024659045 -0.10683572
-0.076865815 -0.047658145 -0.074488744 0.13454558 0.073618315 0.024185836 -0.046388384 -0.09530926
0.011980396 0.07137527 0.06298514 -0.085751235 0.0004353173 0.009048389 0.074660085 0.06336659
-0.066976085 -0.14219613 0.010855507 0.0878126 0.060256552 0.06628068 0.08930787 -0.04002968
-0.11490621 0.057287905 0.11819888 -0.08774197 -0.071098864 0.06905142 0.07209335 -0.04501119
-0.05765526 0.024136834 -0.15063158 -0.07030885 -0.021269515 -0.019171901 0.011625047 0.025493572
-0.076039314 -0.019717557 0.019735461 0.07490459 -0.020831496 -0.022793734 0.053434838 0.07396249
0.026891667 -0.05882255 0.0318108 0.02127749 0.082765736 -0.042706255 -0.0016482534 0.067068174
0.031183587 0.072323546 -0.06719964 0.19781074 -0.013770166 -0.10552311 0.11312993 -0.08323281
0.049018815 0.021281555 0.13754067 0.008860259 0.035411235 -0.01562935 -0.046712063 0.09647826
0.096958876 0.12413395 -0.051260173 0.030540423 0.09614644 0.089354604 -0.014774659 0.10454372
-0.1579223 0.038178857 -0.08766787 -0.107464395 -0.14903569 0.05431663 -0.04413746 0.05646673
-0.06584154 0.024307733 -0.1381099 0.08581455 -0.14753766 -0.097817674 -0.014560973 0.1657101
0.007889201 -0.17150621 0.11383449 0.014537668 0.058254834 0.03946795 -0.07057074 0.0648852
-0.01007813 -0.05725187 -0.0043172566 0.165205 0.104180776 0.057177003 -0.07560208 -0.109794304
-0.07390326 -0.07092283 0.074580565 -0.07127117 0.10014361 -0.13033646 -0.0720735 0.08822144

gru.weight_hh_l0 f4 [192, 64]
00000000: 166f e43d 2669 0cbe a49a b23c daf4 2a3d
00000010: dc93 bc3c 0465 423d 155b 4b3d ce35 ecbd
00000020: 2567 8e3d 698b eabd 5b2b 56bc ce24 573d
00000030: da17 84bd c81f 2f3b ae32 f5bd e1e3 e8bc
00000040: 6888 3e3d 8b40 3e3d 45df 383d 53cb eabc
00000050: 030e 90bd ed71 b13d a063 133d cad9 e93c
00000060: 70b8 a63d 2fd6 11bd 8710 913c acc3 073e
00000070: c55a 133e 0b5d 22be 838e d6bd c160 3bbd
00000080: 81c5 1e3d 3b89 91bd 27c8 ad3d 1dce 08be
00000090: a663 9b3c f002 f03d 6e9a 0cbd 06ba 7ebd
000000a0: de8c a53c b220 023e fd53 5abc 9589 69bb
000000b0: 1616 27bd e965 e8bd 996e 4cbc aa2e e13d
000000c0: a25e 95bd ce7c 8e3d abbe 77bd d540 7b3c
000000d0: 2e09 ab3c faac ab3d 0bc2 3abd e6eb 2dbb
000000e0: 5e4f 97bd 1065 1c3d d11d b4bd 6597 ec3c
000000f0: dfb6 edbd 36a5 523b 3d96 abbd 4fa3 f5bd
00000100: 2c84 c13d ccb3 a93a 893c aebd 9c1c 38bc
00000110: abe3 183e bcb5 3ebd 1a0e a83d 3b68 ae3d
00000120: fb69 8c3d 1d06 0a3c 9450 df3d 86b4 eb3c
00000130: 69b7 3bbd 3f40 203d e533 a53c 3436 0c3d
00000140: 238e a63d 5d1a 103e 2cbc 94bd a762 1e3d
00000150: e01a b63d 4760 843d ca37 fc3d 6be5 253e
00000160: 0566 a2bd 3ee7 1f3e ce8b 16be 8b46 afbc
00000170: babe 30ba 0260 19be d407 22be 6200 173b
00000180: 1815 6cbd 9cfe e13d 6950 cebd e59b 203e
00000190: 4967 d3bd 8d42 993d 4354 423d 7db0 ec3d
000001a0: 1420 2e3b c943 2e3c af6a b13c 145e 1ebe
000001b0: c2b2 803d 6992 1d3e a4ba 4fbd 5be8 263e
000001c0: cce6 86bd 4a70 2bbd 5851 f13c d4b8 b23d
000001d0: 1290 da3d 6433 2abd 50c2 923c 2c95 02be
000001e0: 06cf 81bd 9010 98bc 4a6d 4bbd 4615 f8bc
000001f0: f6b5 a6bd 0dea fb3a c565 bc3c 7a99 2dbb
00000200: 6f49 863d 1acc 76bd 8286 d3bd 272e e3bd
00000210: 7bd4 8fbd fa7c 443d 166b a13c e8e0 e7bd
00000220: 70be 83bc 71a7 f73c 52f2 a8bb bb9b 9d3d
00000230: edc1 fe3d ff64 643d 6c03 a13d 3f0c b33d
00000240: 38d3 8bbd 614e 18bd 6094 53bd f5e7 833c
00000250: 1f1d 173d 479e 3c3d ec15 a1bd 1f0d d7bd
00000260: 2266 4fbd e0c3 6d3d 3f94 f9bd 115f 123d
00000270: d04b 753d eabc d2bd d8f9 8c3d 4c4b 55bd
00000280: 7a14 143d 5823 413c 21dd a6bd e702 5abd
00000290: 4e56 a83d 5585 98bd d354 a73d 4e21 4abd
000002a0: 28c2 5dbd 5523 c1bd 806c 0fbe cf72 08be
000002b0: c82c c5bb 0d4d f23d 8263 9b3d e2ee ee3d
000002c0: 4af5 afbd 23c7 f7bd 40c2 f53d deae 093b
000002d0: 654e 4d3d 2519 4d3d 4e46 423d bf0a 9ebd
000002e0: 942b bf3d 99e9 a7bc b024 d2bd bf2f 5d3d
000002f0: b378 86bd d5a0 183d 11b4 023e f3ac 10bd
00000300: c702 ddbc 67c8 53bd 1516 51bd 813f 563c
00000310: 0bd2 5e3d 3ee1 fa3d 9bf5 a53d 1fea 26bc
00000320: 8548 9fbc 3301 ea3c 79c7 e33d 66b1 d3bc
00000330: 0764 31bd e4c6 9d3d 0dc8 0dbd 129f 703d
00000340: e3dd a8bd 63df 3abd 6769 12bc 723b d4bd
00000350: 9713 fc3d b56d 42bd d1e8 e63d e22a e23b
00000360: d8c0 013d 5750 d83d 3455 abbd da0e 01bd
00000370: d0cc 3a3c 8519 6dbd 0daf e23d bf45 d2bd
00000380: fcff fcbd ca4f 82bc 9fab 07be 2d1b 3ebd
00000390: cbf1 c03d 45c3 2b3d 67ed cd3d 1304 eb3d
000003a0: 385b a83d 7fd2 ba3d 8687 f2bd e9b0 22be
000003b0: e447 dfbd f008 30bd 59d5 313d e2de 573d
000003c0: 7b6c b8bc 268d b1bd b5d8 953c 3cb1 debd
000003d0: 054c abbd 2390 3abd b56c 043e a839 d53d
000003e0: dae5 3c3d 5e81 8d3d b558 7d3c 88da c6bd
000003f0: 50b6 aa3d 9710 eb3d 08a2 d3bb 060d bf3d
0.111540005 -0.13711986 0.021802254 0.041737415 0.023019724 0.047459617 0.04964741 -0.115337
0.06953267 -0.114523716 -0.01307186 0.052525334 -0.06449862 0.0026721824 -0.11972557 -0.028428974
0.046516806 0.04644827 0.0451348 -0.028661406 -0.070339225 0.08664308 0.03598368 0.028546233
0.081406474 -0.035604652 0.017708076 0.13258237 0.14390095 -0.15855806 -0.10476401 -0.04574657
0.038762573 -0.07106253 0.08485442 -0.13359876 0.018968415 0.1171931 -0.034326963 -0.062189125
0.020208772 0.12707785 -0.013325688 -0.0035634984 -0.040792547 -0.11347563 -0.01247754 0.109952286
-0.072934404 0.06957398 -0.06048457 0.015335281 0.0208784 0.08382602 -0.04559521 -0.0026538312
-0.07388185 0.03818232 -0.087947495 0.028880784 -0.116071455 0.003214193 -0.08378265 -0.11994039
0.09449038 0.001294726 -0.0850764 -0.01123729 0.14930598 -0.046560034 0.08205815 0.08515974
0.06856152 0.008424309 0.10904041 0.028772604 -0.04582921 0.03912377 0.020166347 0.03423138
0.08132579 0.14072557 -0.072624534 0.0386683 0.08891845 0.06463676 0.123153284 0.16200797
-0.07929615 0.15615556 -0.14701769 -0.021395942 -0.00067422877 -0.1497803 -0.15823299 0.0023041
-0.057637304 0.11034891 -0.10073931 0.15684469 -0.103224345 0.07483397 0.04744364 0.115571
0.0026569413 0.010636278 0.021657316 -0.15465575 0.06284095 0.15387882 -0.050715104 0.16299574
-0.0658699 -0.041855134 0.029457733 0.087266594 0.106720105 -0.041552916 0.017914921 -0.12752217
-0.06338315 -0.018562585 -0.049664773 -0.030283581 -0.08140175 0.0019219533 0.022997746 -0.0026489184
0.06556975 -0.06025324 -0.1032839 -0.11092787 -0.07022949 0.04797075 0.019704383 -0.11322194
-0.016082019 0.03023121 -0.00515584 0.07695719 0.12439332 0.05576038 0.07861981 0.0874257
-0.06827396 -0.037184123 -0.051655173 0.016101817 0.036893006 0.046049383 -0.078655094 -0.105005495
-0.05063451 0.05804813 -0.12186479 0.035735194 0.059886754 -0.10289939 0.068835914 -0.05207376
0.03615234 0.011788212 -0.08147646 -0.053225424 0.08219586 -0.07447306 0.08170476 -0.049348168
-0.05414024 -0.09430567 -0.14006233 -0.13325046 -0.006017301 0.118311025 0.07587339 0.11666657
-0.08591707 -0.12098529 0.11999941 0.002100877 0.05012359 0.050072808 0.04743033 -0.077168934
0.09334484 -0.02049713 -0.10260904 0.054000612 -0.0656599 0.037262756 0.12764002 -0.035321187
-0.026978863 -0.05170479 -0.05104645 0.013076664 0.05439953 0.12249993 0.08103486 -0.010187655
-0.01944376 0.028565025 0.11122031 -0.025841426 -0.043308284 0.07703951 -0.03461461 0.05874545
-0.082454465 -0.045623194 -0.008936263 -0.10362901 0.12308424 -0.047467906 0.11274875 0.0069020847
0.03167805 0.105621986 -0.083658606 -0.031508304 0.01140137 -0.057885665 0.110685445 -0.10267209
-0.12353513 -0.015907187 -0.13249062 -0.046412636 0.09421118 0.04193427 0.100550465 0.114753865
0.082205236 0.0912218 -0.11842255 -0.15887798 -0.10902384 -0.042977273 0.043416355 0.052702792
-0.022512665 -0.086695 0.01829181 -0.108736485 -0.08364109 -0.045547616 0.12932093 0.10411388
0.04611764 0.069094405 0.015463044 -0.0970965 0.083355546 0.11477774 -0.0064585246 0.09328656

gru.bias_ih_l0 f4 [192]
00000000: 0008 e23d e9eb 93bc aa34 223d 1efe 343d
00000010: 50d6 6dbd 9c21 003a 0128 dbbd 2517 3e3d
00000020: 016a 823d 71e3 0d3d 90b8 f4bd 1e03 2ebd
00000030: d784 e93c 93a0 9f3c 7d3b 9bbd 37fd d43d
00000040: fad9 f2bd 3586 64bd bb6a 9fbd 1936 b7bd
00000050: dad4 86bd 621d 773d b669 eebc 6496 17bd
00000060: 050e 1ebd d1f2 f83c be9e 593c f68b c73d
00000070: 0048 18be cac2 bf3b 982c dabd a09e a9bd
00000080: 2984 e0bd 0cf1 253e 41f9 fe3d 343e e13c
00000090: 8bfa 383c c187 afbb c8d6 653d 1297 f73c
000000a0: 73c8 a0bc 1770 9f3c 40ea 7b3d 01c2 86bd
000000b0: e34b 243c 5005 07bd 11e4 c13d 2817 1dbd
000000c0: 043c e6bb e853 2f3b 8988 27bd 309b cb3d
000000d0: 371e bb3b 1f27 e53d 2e84 293e a4d6 dcbd
000000e0: ec9f bd3b 18f6 0ebc a5e6 c5bd d093 ec3d
000000f0: 2c48 09be f922 93bd befd fa3d e570 803b
00000100: 154e a73c 2a63 b03d 3b39 c1bd 6d6f 1e3e
00000110: 2c44 34bd 75eb 353d ddb2 373e 697f e03b
00000120: 2ba0 d4bd 8527 673c fb6c f8bd 3250 c5bb
00000130: 0982 7d3d cd4d f63d 9298 e0bc f504 ae3d
00000140: 0266 0f3d 071d a33d b49e 4ebd f4df 37bd
00000150: d471 8dbb 239b 54ba 6e6a 593d 94af acbc
00000160: fcba c33c 5fa1 203e f0d6 bebb f132 1f3e
00000170: abc1 49bd 939c 21bd f3a6 d33d 864d 9bbd
00000180: 84d9 95bd 0b5f 4bbc 5bda 74bd ed34 61bd
00000190: 52bc 8cbd 5019 f83d 6239 d0bd 10ba 153d
000001a0: 95a5 973d b889 3abd b047 903d 4e3f dc3d
000001b0: ad0a 063e 4acb 853d ec5d c83d 394e 0e3e
000001c0: a64c 043e dfee 9e3d a364 03be 3ca9 e53c
000001d0: 6fbd 313d 63ea 863d 6821 863d 0390 11bd
000001e0: 4f91 a03d de4a b43d aeff d43d 6524 d83c
000001f0: 4e87 fd3d 4318 ac3d e0e8 2fbd a4fa 533d
00000200: a748 2dbd 81de e93d 10bd 923d 5605 c9bc
00000210: 5bc2 ddbd 36ce b53c 2369 b3bd 7301 ffbc
00000220: 8ea1 5abd 3bbb 7fbd 1501 533c 0555 2b3d
00000230: ab86 e4bc 0eae dc3d fb65 cebd 6402 22bd
00000240: 3627 6d3d b0db 96bd e4d1 b9bc c9b0 203d
00000250: 0897 79bd 34bf d6bd beb8 923c 5678 933b
00000260: 6bae 713d d82d 28bd fdbd 61bd b887 113d
00000270: 7985 babc 6dad af3d deda 9d3d fa5c b2bc
00000280: 6d8b 993d 0d52 77bd 07ef 8dbd b4a8 493d
00000290: b322 c0bd 1fe7 383c dee0 de3d 41ae 67bd
000002a0: 4066 1ebd 05c6 423d a370 c93d a56d 4a3d
000002b0: fb9f de3d 99cf b4bd 2990 b6bd 6786 07bd
000002c0: e7c8 153c be38 863d ad76 3bbc 1a98 143c
000002d0: 11e3 d5bc 0020 2ebd e3e8 dab8 acae 5dbd
000002e0: 7594 863d 5351 b8bc 299d f2bc 9d28 19bd
000002f0: 40db d8bc 05cd f6bc 5c6d 86bd 16ef 98bd
0.11036682 -0.018056827 0.039601006 0.044187658 -0.058065712 0.00048878207 -0.107009895 0.04640879
0.06367875 0.034640733 -0.11949265 -0.04248344 0.028505726 0.019485747 -0.07579706 0.103998594
-0.11857982 -0.055792052 -0.07784029 -0.08945865 -0.06583567 0.060330756 -0.029103141 -0.037008658
-0.03858759 0.030389221 0.013282476 0.09743492 -0.14871216 0.005852078 -0.10653037 -0.082822084
-0.109627075 0.16205233 0.12449885 0.027495481 0.011290203 -0.0053567593 0.056113034 0.030223403
-0.019626832 0.019462628 0.061502695 -0.06579972 0.010027858 -0.03296405 0.09467328 -0.03835216
-0.0070261974 0.0026752893 -0.040901694 0.09941709 0.005710389 0.111891024 0.16554329 -0.10783127
0.0057868864 -0.0087256655 -0.096631326 0.115516305 -0.13406438 -0.07184405 0.12255429 0.003919708
0.020422975 0.08612664 -0.09434744 0.15472193 -0.044010326 0.044414002 0.17939325 0.006851126
-0.10382112 0.014108543 -0.121301614 -0.006021523 0.06189159 0.12026558 -0.027416501 0.08497039
0.03500939 0.07964521 -0.05044432 -0.044891313 -0.004316548 -0.00081102754 0.053080015 -0.021079816
0.023892872 0.15686558 -0.0058239624 0.15546776 -0.04925696 -0.03945596 0.103345774 -0.07583146
-0.073168784 -0.012412797 -0.059778553 -0.054982115 -0.06871857 0.12114203 -0.10167195 0.036554396
0.07404629 -0.045541495 0.07044923 0.10754262 0.1309001 0.06532915 0.09783539 0.13897027
0.12919864 0.07760405 -0.12831359 0.028034799 0.04339355 0.065876745 0.065493405 -0.03553773
0.078402154 0.08803342 0.104003295 0.026384542 0.12379323 0.08403065 -0.042946696 0.0517527
-0.042305615 0.114193924 0.07164967 -0.024538677 -0.10828086 0.022193056 -0.087602876 -0.03112862
-0.053376727 -0.062434416 0.012878676 0.041829128 -0.027896246 0.10775386 -0.10078045 -0.03955306
0.057898723 -0.07366121 -0.022683091 0.039231095 -0.06093505 -0.10485688 0.017910358 0.004500429
0.05900423 -0.041059345 -0.055112828 0.035529822 -0.022768723 0.08578 0.07707761 -0.02177285
0.074972965 -0.060380984 -0.069303565 0.049233153 -0.09381618 0.011285572 0.10882734 -0.056562666
-0.038671732 0.047552127 0.09835937 0.04942097 0.108703576 -0.088286586 -0.08914215 -0.03308716
0.009142137 0.065537915 -0.011441869 0.009069467 -0.02610925 -0.042510986 -0.000104384286 -0.05412166
0.06571285 -0.022499716 -0.029615955 -0.037392247 -0.026471734 -0.030127058 -0.065638274 -0.07467477

gru.bias_hh_l0 f4 [192]
00000000: 3d54 b53d 9295 e0bd 0b5f 9d3d 46d5 56bc
00000010: 2e91 95bc ec64 fa3c 0323 e5bd b8a8 e43d
00000020: 22f9 5bbc 12dd 31bc c0c7 8abc aa0a a8bd
00000030: 0c9e e33d 5ca6 923d 4f1f b6bd 22ea 11be
00000040: 4211 3b3d b394 be3d 692a b3bb 2fcf f13d
00000050: 52aa 01be 7388 b93c 2a6b e33c 384c d6bd
00000060: a129 16bd 195a cbbb b54f 6bbd b9b3 a93c
00000070: 91f4 adbd e008 063d f386 fc3d 6aaa d3bd
00000080: 72ca bdbb 1193 743d 2359 003e 0acb b8bc
00000090: d0af 503d f059 613d 71f9 bf3d 5ab4 1fbe
000000a0: 3f3d 7e3a 3fea a1bd 1bd2 9f3d 7979 0e3e
000000b0: 67bf 393c 034e c3bc 9c58 2cbd 79f2 cabd
000000c0: f947 493d 4ce9 bcbc e574 093e 28e1 cbbd
000000d0: 2474 eabd a3fb 0b3e b365 6ebd 3a43 74bd
000000e0: b66b 64bd 23b9 f63c 58bc 4bbc 456f 82bc
000000f0: 4898 283d 875a 2dbd d8d3 f43d e463 563d
00000100: e024 4f3d e774 a43d 8f06 16bc 94ed a13d
00000110: d28b c03c f2f0 cd3c 6ac8 4e3c bb21 ffbd
00000120: 98a5 a13c 6762 1a3d 66e5 943d 9bd0 953d
00000130: 8e2c bfbc 5c2e ab3c afb4 06be 61db 1a3e
00000140: bbdd 733d 2b4b f83d d600 b9bd 53d3 1c3e
00000150: 5256 bbbc 6954 1d3e dd7d 75bd 405c 2d3d
00000160: d8dc a4bc 8e2b a4bc f704 323d d39a 5a3d
00000170: d4e6 7dbd 77de e0bd 0126 3e3d 9409 e3bd
00000180: 6654 67bd ca9c 00be 9f8b 64bd 5b63 80bd
00000190: 1cff 74bc 3930 b43b 61bd c83b a4c4 17bd
000001a0: be1a 8c3c b7d1 a13d 3838 c53d 7ce2 6bbb
000001b0: c6d3 2e3e 5f5f 42bd e1fa c7bd 011f e03d
000001c0: 8a09 52bd 77da 5e3d a94e b93d bfdf 143e
000001d0: c68a 623d 23d5 2f3d 054f b73d 57a5 263d
000001e0: a244 16bd b41d cabd cbdd 853d ccd9 6b3c
000001f0: c568 87bc 9153 af3c f322 ba3c e2b7 523b
00000200: 6052 1d3d 3655 7abd 87e3 a33d ec93 acbc
00000210: da5b 1bbd decf c4bd 00e0 4dba adb3 dc3d
00000220: 25cf 7c3d d151 a5bd fbf5 f1bb ec10 72bd
00000230: f267 bc3d e0bc a3bd b9e6 59bd 8a25 b23d
00000240: f007 c0bc 748a 663d 1ea0 453d 7160 0dbd
00000250: 9c69 ea3d 2846 043e a9d7 38bd 3bc5 13bd
00000260: 377f ccbd 2780 183d 7b34 983d 5c1d 173d
00000270: ee04 2dbc 32de 57bd 0482 bbbd 2453 9cbd
00000280: 9f04 a13d 929c 143e 4bf9 0b3d ce32 8e3d
00000290: 76c1 523d e953 9cbd 46ac b7bd c696 3a3b
000002a0: 9ec7 cd3d fe54 2dbd fc91 c33d b2b7 873d
000002b0: 03af 96bc c33c 7f3d be22 8bbd 3eeb 32bd
000002c0: beb2 7fbd 11af d2bd ccb4 c8bc 143d 7b3d
000002d0: baf8 213d c206 373d 7a1e 0bbe 7629 6c3d
000002e0: b7cc 073d 2ff9 7d3d 8c6e 4e3d 04b2 c53c
000002f0: 437d c13d f296 853d 77c7 a53c 95a1 70bd
0.08853958 -0.10966028 0.07684144 -0.013112372 -0.018257704 0.030565701 -0.111883186 0.11164993
-0.013426097 -0.01085593 -0.016940951 -0.08205159 0.111141294 0.07160637 -0.088926904 -0.14249471
0.045670755 0.09305706 -0.005467702 0.11807095 -0.12662628 0.022648072 0.02776106 -0.10463756
-0.036660794 -0.006205809 -0.05744906 0.020715581 -0.08493913 0.032723308 0.12330427 -0.10335238
-0.0057919556 0.059710566 0.12534003 -0.022557754 0.050948918 0.05501741 0.09373749 -0.15596142
0.00096984574 -0.07906007 0.07803746 0.13913526 0.011337138 -0.02384091 -0.042076692 -0.09909529
0.049140904 -0.023060463 0.13423498 -0.099550545 -0.11447933 0.1367021 -0.058202457 -0.059634425
-0.055766784 0.030117577 -0.012435041 -0.015922198 0.04116085 -0.04232266 0.119544685 0.052341357
0.050572276 0.0803011 -0.009156837 0.079066426 0.023504172 0.025139306 0.012621025 -0.124576055
0.019732282 0.0376915 0.07270317 0.07315179 -0.023336675 0.02089613 -0.13154863 0.15122749
0.05953763 0.12123712 -0.090333626 0.15314989 -0.02286831 0.15364231 -0.059934486 0.042324305
-0.020124838 -0.0200403 0.043461766 0.053370308 -0.061987713 -0.10979932 0.046422962 -0.11085811
-0.056476973 -0.1255981 -0.055797216 -0.062689506 -0.014953401 0.0054989127 0.0061260913 -0.037052765
0.017102595 0.07901328 0.096298635 -0.003599315 0.17072973 -0.047454234 -0.09764648 0.109434135
-0.05127863 0.054407563 0.09048206 0.14538477 0.055308126 0.042927872 0.08950619 0.040685024
-0.036686547 -0.09868947 0.06536444 0.014395189 -0.01652945 0.021402152 0.022721743 0.003215306
0.038408637 -0.06111642 0.08002382 -0.021066628 -0.037929393 -0.0960996 -0.0007853508 0.10776458
0.061720986 -0.08072246 -0.0073840595 -0.05909817 0.091995135 -0.079950094 -0.05319855 0.08698566
-0.023441285 0.056284383 0.048248403 -0.0345158 0.11445925 0.12917387 -0.045127545 -0.036076766
-0.09985202 0.03723159 0.07431885 0.036893234 -0.010560257 -0.052702136 -0.09155658 -0.07633045
0.078622095 0.14512852 0.03417329 0.06943284 0.05145403 -0.07633192 -0.089684054 0.0028471216
0.100478396 -0.042317383 0.09549329 0.06626834 -0.018393999 0.062313806 -0.06793736 -0.043681376
-0.06242632 -0.102872975 -0.024500273 0.061337546 0.039543845 0.04468418 -0.13585845 0.057656728
0.033154216 0.062005218 0.050398394 0.024132736 0.0944772 0.06522931 0.020236714 -0.058747847

head.0.weight f4 [64, 64]
00000000: 4866 c43d 04fc de3d 5c89 efbd 2e24 ab3d
00000010: 508f b33c 58c2 34bd f800 cfbd 447d ba3d
00000020: fcfc b83d ec51 62bd e487 313d b0ff ddbc
00000030: 76b3 99bd e61b 913d 589f 92bd b6b7 ffbd
00000040: d666 95bd ac1c a03d d017 bcbd 0cbe 60bd
00000050: ecca 37bd 60de 5f3c 8488 08bd 5aa2 983d
00000060: 10de fe3d 1c5b 54bd 2c94 1cbd a6c2 a13d
00000070: a057 823d ae68 fa3d f053 09bd a05b 83bd
00000080: f097 5b3c d095 63bc e024 443d 248b 853d
00000090: 2ac3 90bd a006 d43b 3ea4 8a3d d610 f53d
000000a0: b42c da3d 7096 da3c bc8a 2ebd 0031 f63c
000000b0: e095 a5bd f8ed 723d 78b3 d33c 2203 ff3d
000000c0: 34a2 04bd 38f2 31bd e0d3 73bd f033 29bc
000000d0: 80ee e7bb 90d7 ea3c 301e 1ebc 9c7d 313d
000000e0: ccc3 203d 5cee d2bd 6c0a 9dbd 581d b53c
000000f0: 309a 313d f0c2 103d 98c2 923d 2c04 273d
00000100: e235 19bd ae2b fd3c 14f4 ccbd 747d 11be
00000110: c993 19bd 9da3 87bd adf8 ffbd e855 aebc
00000120: a375 013e 7743 3e3c 129e 9abd 4827 c63d
00000130: ac90 153c aa9a c5bb b1f8 ebbc 02e4 ca3c
00000140: fd6f c3bd e63a 30bd c139 babd 4e61 9e3d
00000150: 57b5 213d 2f2f a63c 0748 b33d 6e54 c5b9
00000160: d55b 1c3e dccb 633d 5db7 c9bc 6ceb 0e3e
00000170: 6568 ec3c 2dcd c03d 2f66 40bd be7a d03c
00000180: c9e9 d6bc 48b8 80bd 11d6 113e 1097 7f3c
00000190: 2920 c53d 6a61 20bc 3a77 6a3d e135 f7bd
000001a0: ccd5 9d3d 39c3 fb3d 013b 58bd efa0 9abd
000001b0: 1d60 aabd d275 e6bc b2d6 2ebd 063e ccbd
000001c0: 0cde 9c3c 4110 bd3d 56f0 623d 82bb c6bd
000001d0: 4e11 263c 31ea 8bbd 5ebf 523c a21e b23d
000001e0: 61de 9eba 7941 853d 1413 3dbc 9535 e83d
000001f0: 6205 35bd 211e 063d 31aa a6bd 1483 003a
00000200: 5e3f 90bd 08f9 b83d 3cfb 013d 44b6 f5bd
00000210: e448 243d 7085 113d 202a 6dbc 32c2 a7bd
00000220: f895 b1bd d085 643d e842 273d ac0c 663d
00000230: f8f8 f63c 6062 f03b 824b ffbd 30e2 213c
00000240: 2cd2 bfbd 886d 323d 70e0 8cbc f077 b4bd
00000250: 42f6 863d e821 853d c00f bebb 1c4c 31bd
00000260: 3050 02bd b875 07bd 5426 7abd 4c4c 2a3d
00000270: 9e3f f43d 7844 84bd 16ec 9abd 00e0 a43c
00000280: b6ac c9bd d8a5 643d 3c06 e03d ec74 ca3d
00000290: 626d de3d eab2 a1bd f84d ab3c d2e5 dd3d
000002a0: 5408 c2bd c2ae ef3d c24b d9bd 58ca be3c
000002b0: 3a8d c7bd c4db 233d 107c b83c b0ff 563d
000002c0: 4081 d6bc e8f5 3fbd 7061 863d 645c b53d
000002d0: e0d9 883c 909f 11bd c0a6 dd3c b4bc d3bd
000002e0: 50f0 8cbd 905e c6bd e0a9 3fbd f417 40bd
000002f0: c053 403c e019 f73c 9263 8dbd 107e 29bd
00000300: 823d cf3d b9f4 e73d a257 cb3d bcfd 493d
00000310: 1ba4 8f3d fde5 ffbd f220 553d b1e0 033d
00000320: 6cd9 c6bd a934 cabd 0a1d a13d 7e93 a7bd
00000330: 71e7 163e 1dad 4d3d 3047 cebd 066f bbbd
00000340: bac7 3dbd d7bd 313d e146 c03c a0af be3d
00000350: 8d14 c13d a9c4 0c3d 67f7 81bd b988 0bbb
00000360: 80b6 373d cf4c abbd 8751 ca3d cfc1 fa3c
00000370: 947a 503d 1116 533b eaad a23d f243 41bd
00000380: d140 c7bc 8572 d0bd 4a63 71bd 2bd1 993d
00000390: 3d44 c3bd 1f12 753d a56b 8bbd dd84 72bd
000003a0: 6b38 b23c 94a9 75bc 820e b2bd c53d 3d3d
000003b0: f314 f0bc 7fa9 5b3d eea9 b0bd 807a 773d
000003c0: f8ad 9bbd 8c13 9a3d b792 063e efc5 d6bc
000003d0: 9f74 41bd 02b3 f2bc fc94 783d f5a7 8bbd
000003e0: db39 2dbb 4604 943d 3c77 2d3d 39ab 57bd
000003f0: 358c 99bc 9f71 b2bb 960a 823d cbbe b23d
0.09589821 0.10887912 -0.11696121 0.0835651 0.021918923 -0.044130653 -0.10107607 0.09105924
0.09032628 -0.055253908 0.043342486 -0.02709946 -0.075049326 0.07085399 -0.07159299 -0.12486212
-0.07295005 0.07817969 -0.091842294 -0.054868743 -0.044871256 0.013663858 -0.033333316 0.07452841
0.12444699 -0.0518447 -0.038227245 0.07898454 0.063643694 0.12226997 -0.033527315 -0.064139605
0.013402924 -0.013890699 0.04788673 0.065206796 -0.070684746 0.0064705163 0.06769608 0.11966102
0.10653058 0.026683062 -0.042612776 0.030052662 -0.08085227 0.059308976 0.025842413 0.124517694
-0.03238125 -0.04344389 -0.05952823 -0.010327324 -0.007077992 0.028667241 -0.009650752 0.04333268
0.039249226 -0.1029937 -0.076680034 0.022108719 0.043359935 0.035342157 0.07166022 0.040775463
-0.037404902 0.030904617 -0.10007492 -0.14208013 -0.037494455 -0.06623004 -0.12498603 -0.021281198
0.12642531 0.011612765 -0.07549681 0.09675461 0.009128731 -0.0060304003 -0.028805109 0.024766926
-0.095428444 -0.04302492 -0.09093047 0.07733403 0.03947958 0.02028617 0.087539725 -0.00037637673
0.15269406 0.055614337 -0.024623567 0.13956994 0.028858373 0.09414134 -0.04697245 0.025449153
-0.026234524 -0.06285149 0.14241816 0.015599981 0.09625275 -0.00978885 0.05724261 -0.120708235
0.07706794 0.12293095 -0.052790646 -0.07550227 -0.083191134 -0.028132353 -0.04268522 -0.099727675
0.019148849 0.09231616 0.055404983 -0.09703733 0.010135962 -0.06831778 0.012863008 0.08697249
-0.0012120717 0.065066285 -0.011540193 0.11338345 -0.044194587 0.032743577 -0.0813793 0.00049023447
-0.07043336 0.09031874 0.031733736 -0.11997655 0.040108576 0.035527647 -0.014475375 -0.08191337
-0.086711824 0.055791676 0.04083529 0.05616443 0.030148014 0.007335946 -0.12465574 0.009880587
-0.09366259 0.04356149 -0.017196864 -0.08811939 0.06589939 0.06500608 -0.0058002174 -0.043285474
-0.031814754 -0.03307125 -0.06107171 0.04157667 0.119261965 -0.06458372 -0.07564561 0.020126343
-0.09847395 0.055822223 0.10938689 0.09885582 0.10860707 -0.07895453 0.020911202 0.1083485
-0.09474245 0.11703254 -0.10610153 0.023289844 -0.09743734 0.040004507 0.022520095 0.052489936
-0.026184678 -0.046865374 0.065615535 0.08855513 0.016705453 -0.03555256 0.027057052 -0.10338727
-0.068817735 -0.09686005 -0.046792865 -0.046897843 0.011738718 0.030163705 -0.06903757 -0.04137999
0.101191536 0.11325974 0.09928824 0.049314246 0.070137225 -0.12495039 0.052033372 0.032196704
-0.09709439 -0.098733254 0.07866867 -0.08182429 0.14736725 0.05021392 -0.10072172 -0.091520354
-0.046333052 0.043393936 0.023471298 0.093108416 0.09427748 0.034367237 -0.063460164 -0.002129121
0.04485178 -0.083642595 0.09878831 0.030609993 0.05089815 0.0032209198 0.07943328 -0.04718394
-0.024322899 -0.10178093 -0.05893258 0.07510599 -0.095345 0.059831735 -0.06807641 -0.05920874
0.021755418 -0.014994044 -0.086941734 0.046201486 -0.029306864 0.05362844 -0.086261615 0.06041956
-0.07601541 0.075232595 0.13141905 -0.026217429 -0.04723036 -0.029626373 0.060688958 -0.06819145
-0.002643219 0.072273776 0.04235004 -0.052653525 -0.018743614 -0.0054456736 0.06349675 0.08727797

head.0.bias f4 [64]
00000000: f47e f3bd 4655 61bd da97 b5bd 8a05 9f3d
00000010: 5e6f ddbd 30d5 e4bd 6a1d fb3d ad00 5e3d
00000020: 1840 90bd ac9d 90bd 3078 83bd c058 8b3d
00000030: ec59 d53c c8da 8f3c d326 e33d aa81 8d3d
00000040: b661 e73c 1907 073e 127b bfbd 7c6e c7bd
00000050: f049 20bc 85f7 e63d 8444 b7bd 9cc6 7bbd
00000060: f57d 0ebd 44a8 27bd 9f97 b93d 7dcc cbbd
00000070: 5f29 60bd 2acd 8d3d 3c23 ac3c 9a6e f7bd
00000080: 9a0b 043d 34e9 95bd cf4c dabd 2f4b aa3d
00000090: 9135 893b 4257 22bc d39b 59bc 4a18 8bbd
000000a0: 9953 c33d 15f9 213d 451f 4e3d 8a51 b3bd
000000b0: dd1e 98ba 1cfd 9dbc f6dc 71bd c380 0b3c
000000c0: 5052 d8bd 14f1 6fbd aecc ee3d 4268 5b3d
000000d0: e895 82bc 3f4b 223d 516e cbbd 112e 75bd
000000e0: c861 a0bc 8019 f43d 0448 83bd e053 1d3d
000000f0: 6098 54bd 87d5 873c 5c2c 09be c0c9 b7bc
-0.11889449 -0.055012964 -0.08866854 0.07764728 -0.10812257 -0.11173475 0.1226147 0.054199863
-0.07043475 -0.070613235 -0.06419408 0.06804037 0.026043855 0.017560378 0.110913895 0.06909497
0.028244834 0.13186301 -0.09349646 -0.0973787 -0.009783253 0.11277679 -0.08948615 -0.061468706
-0.03478809 -0.040931955 0.090621226 -0.099511124 -0.054726955 0.069238976 0.021012895 -0.120816424
0.032237627 -0.073198706 -0.10659181 0.083151214 0.004187294 -0.009908499 -0.01328178 -0.06791742
0.09537429 0.039544184 0.05032279 -0.08755787 -0.0011605878 -0.019285731 -0.059048615 0.008514586
-0.10562575 -0.05857952 0.11660133 0.053566225 -0.015940621 0.03962254 -0.099331506 -0.059858385
-0.019577876 0.11918926 -0.0641022 0.038410068 -0.05190313 0.01658131 -0.13395828 -0.02243507

head.2.weight f4 [1, 64]
00000000: e826 4cbd a37c 76bd 902e 773c 2767 b03d
00000010: 4875 f3bd d79c 10be ad72 3abd b6bb 70bd
00000020: aefc d23d 2a54 f63d 1cd8 413c 30c5 993d
00000030: de0d 063d c2a8 8b3d 9b7a 13be 87c6 d2b6
00000040: 81d8 7f3d cedd 963d 0c3a f73d 67db adbd
00000050: f0be dd3d a71d a5bd 073c e43d b607 9b3d
00000060: 0bb5 bf3d 0055 d93c 2e47 b3bd 3c51 2abe
00000070: ad14 abbd 1b32 2cbd 734d b8bd 52af 863d
00000080: acb5 34be c29e 973d ba76 8dbd 3f6c 013c
00000090: 0fe3 9cbd ad2b 5aba 48b9 bf3d 9cc1 d2bd
000000a0: ccb9 88bd 6b64 11be fb9c 58bd e4ed a1bd
000000b0: 5703 873d 65c3 55bd d4c0 44bd 8878 a8bd
000000c0: 227d c73d 899e cb3c 94c6 c2bd 8fe0 8a3d
000000d0: 6004 813d c08a dbbd e28c f2bc 7936 25be
000000e0: ccbf e63d 2406 833d 7fc7 a4bd 1a02 153c
000000f0: 701d 083d f3d8 8b3c 5049 883d 2560 bc3c
-0.04984179 -0.060177457 0.015086785 0.08613425 -0.11887604 -0.1412233 -0.04551952 -0.058772765
0.10302101 0.12027772 0.01183131 0.07508314 0.03272807 0.068192974 -0.14402239 -6.2815993e-06
0.062462334 0.07366525 0.120716184 -0.08489113 0.10827434 -0.08062296 0.11144262 0.0756983
0.09360703 0.026529789 -0.08753811 -0.16632551 -0.08353553 -0.04203997 -0.08999147 0.065764084
-0.17647427 0.074033275 -0.06907411 0.007899343 -0.076604955 -0.0008322548 0.093615115 -0.10290834
-0.06676063 -0.14198463 -0.052884083 -0.07906702 0.06592434 -0.052188296 -0.048035458 -0.082261145
0.09740664 0.024855869 -0.09510532 0.067811124 0.062996626 -0.10719824 -0.029608194 -0.16134061
0.11267051 0.063976556 -0.08045863 0.009094739 0.0332312 0.017071223 0.06654608 0.022995064
