outputs/exp_0002_20251212_235529/runs/seed1/h1/ReservoirReplay/model_final.pt (torch, 71493 bytes, 7 tensors)

gru.weight_ih_l0 f4 [192, 1]
0.2562642 -0.39534 -0.066819176 0.085740134 -0.2106751 0.0673361 -0.24309506 -0.20215541
-0.0030127096 0.0149547085 0.015025071 -0.04349742 0.046530686 0.017143713 0.18253337 -0.057042517
0.06402254 -0.0492678 0.17253828 0.1523737 0.014285289 -0.16077377 0.016680818 -0.0664564
0.009011633 -0.06231938 0.17790739 0.073907115 -0.07268018 -0.12065047 0.18197736 0.16638118
0.23723607 -0.15999864 -0.09912558 -0.08501578 0.17796418 0.019730922 0.11067017 -0.12344402
0.010526203 -0.054975916 0.13711874 -0.05786288 -0.010700383 0.02873573 0.047945186 -0.04825019
-0.12301829 -0.013233399 -0.29064825 -0.15273765 0.084103696 0.05643875 0.27409986 0.03275349
0.04361408 0.18894002 0.20852411 -0.13514824 -0.059080455 0.14693132 0.10580615 0.24130607
0.025475144 -0.09141339 0.084469415 0.07620404 -0.07037346 0.08377224 0.107211806 0.12765649
0.045258816 0.04214954 0.11365683 -0.07157882 0.35226235 0.05211939 -0.03757144 0.40284622
-0.22455831 -0.06462589 0.18835212 -0.070689894 0.051157452 0.13683806 0.09551483 0.06575137
-0.118587926 0.15351188 0.23872459 0.21741144 0.16349709 0.11363332 -0.16394354 0.33866885
0.17524035 0.13642892 0.05551572 0.09767383 0.2845826 0.2403487 0.10787116 0.13770844
0.029976817 -0.09494747 0.23311967 0.022635354 0.229773 -0.008735356 0.30384865 0.18858598
0.50361574 -0.039642286 0.14997056 0.09088011 0.21356489 0.15075012 0.1959127 0.37553748
0.21203233 0.18972835 0.45929423 0.09041844 0.09294121 0.070246056 -0.132496 0.10168343
0.20690031 0.37187707 -0.1871573 0.06757402 0.2722194 0.2105477 0.22082683 0.28381565
0.0766725 0.07328705 -0.11518382 -0.17621449 -0.07345154 -0.015055043 -0.27714553 0.28535372
0.19773799 0.08136238 0.0681691 0.06418017 0.057797838 0.25108752 -0.13131152 0.15501513
-0.017895564 0.08426674 -0.36087233 -0.29562396 -0.13722876 -0.06437942 0.13651878 -0.088263735
-0.17308997 0.039675467 0.20163287 0.11398381 -0.22325635 0.036169052 -0.09749429 -0.1265958
-0.041440625 -0.06823522 -0.09049237 0.05993205 0.10790327 0.059669565 0.24489321 0.111137256
0.12276587 0.017638993 -0.22415356 0.13517398 -0.0020501632 -0.105114475 -0.24375561 -0.17335327
-0.3303993 0.33953702 -0.31116283 -0.29060113 0.0049861255 -0.17230727 0.061924033 -0.16145504
00000000: 1035 833e 016a cabe 7ed8 88bd 8698 af3d
00000010: 37bb 57be 82e7 893d e9ed 78be d401 4fbe
00000020: e170 45bb 9804 753c b72b 763c 5a2a 32bd
00000030: f696 3e3d f970 8c3c 07ea 3a3e 6aa5 69bd
00000040: 401e 833d 08cd 49bd e0ad 303e da07 1c3e
00000050: d80c 6a3c e1a1 24be 36a6 883c 4b1a 88bd
00000060: 87a5 133c 9b42 7fbd 5b2d 363e 9d5c 973d
00000070: 59d9 94bd 9817 f7bd 4658 3a3e d45f 2a3e
00000080: 03ee 723e afd6 23be 5a02 cbbd c11c aebd
00000090: 3e3c 363e bea2 a13c 0ba7 e23d 38d0 fcbd
000000a0: 1876 2c3c 6d2e 61bd db68 0c3e a101 6dbd
000000b0: a950 2fbc 3267 eb3c 2c62 443d fea1 45bd
000000c0: 03f1 fbbd e6d0 58bc d9cf 94be 4267 1cbe
000000d0: 8f3e ac3d 522c 673d d156 8c3e 8628 063d
000000e0: ada4 323d 7e79 413e 5887 553e 4d64 0abe
000000f0: 59fe 71bd 2a75 163e e5b0 d83d f018 773e
00000100: 40b1 d03c f236 bbbd 4dfe ac3d dd10 9c3d
00000110: f61f 90bd c890 ab3d dd91 db3d 62b8 023e
00000120: 4f61 393d ffa4 2c3d e9c4 e83d eb97 92bd
00000130: bb5b b43e 247b 553d 83e4 19bd dc41 ce3e
00000140: 9df2 65be 945a 84bd 61df 403e ddc5 90bd
00000150: 7a8a 513d 471f 0c3e 479d c33d a7a8 863d
00000160: 3ade f2bd 3832 1d3e 3874 743e 1ba1 5e3e
00000170: c86b 273e 96b8 e83d d1e0 27be 0166 ad3e
00000180: 3572 333e 06b4 0b3e 7464 633d 3809 c83d
00000190: d0b4 913e f81d 763e 8eeb dc3d 7103 0d3e
000001a0: f191 f53c d273 c2bd ecb6 6e3e c76d b93c
000001b0: 9d49 6b3e bd1e 0fbc 0d92 9b3e af1c 413e
000001c0: f6ec 003f f35f 22bd e291 193e 5a1f ba3d
000001d0: c1b0 5a3e 3d5e 1a3e 579d 483e 7346 c03e
000001e0: 011f 593e 2648 423e 9d28 eb3e 4e2d b93d
000001f0: f657 be3d 2add 8f3d 08ad 07be 673f d03d
00000200: addd 533e ac66 be3e 2aa6 3fbe 3f64 8a3d
00000210: 5760 8b3e d199 573e 6e20 623e 4950 913e
00000220: 7906 9d3d 8517 963d 7fe5 ebbd 9271 34be
00000230: c36d 96bd 6da9 76bc 05e6 8dbe e219 923e
00000240: d47b 4a3e 52a1 a63d 3e9c 8b3d e570 833d
00000250: 6dbd 6c3d 8b8e 803e 8776 06be 49bc 1e3e
00000260: b899 92bc 0a94 ac3d 42c4 b8be 065c 97be
00000270: b285 0cbe 5bd9 83bd 94cb 0b3e 9ec3 b4bd
00000280: 7f3e 31be be82 223d d978 4e3e 5870 e93d
00000290: 509d 64be 0026 143d 16ab c7bd 54a2 01be
000002a0: a5bd 29bd e8be 8bbd 1054 b9bd 4f7b 753d
000002b0: 64fc dc3d 1368 743d 49c5 7a3e ee9b e33d
000002c0: ac6c fb3d a67f 903c 8388 65be 0c6b 0a3e
000002d0: 085c 06bb 4246 d7bd 129b 79be 8583 31be
000002e0: 192a a9be ccd7 ad3e bc50 9fbe acc9 94be
000002f0: a762 a33b 5171 30be 0ea4 7d3d 7854 25be

gru.weight_hh_l0 f4 [192, 64]
0.077455185 0.0044584814 0.09088408 -0.09619334 0.14567508 0.23261474 0.0818354 -0.15880512
0.097418174 0.002937655 0.17422636 0.039641652 0.20314902 0.05375347 -0.12948851 0.10001013
0.16189246 0.020065848 0.016378777 0.17388813 -0.04757081 0.1215144 0.054657537 -0.03628542
0.07358284 -0.08932805 -0.13613182 -0.018998334 -0.11920925 0.22890684 -0.16391277 0.009425321
-0.06787774 -0.19516025 -0.12325129 -0.038991526 -0.05272508 0.10999891 0.07411581 -0.010679424
0.3600619 -0.09060887 -0.08746234 0.11777928 0.008994939 0.19493751 0.120343976 -0.22472003
-0.08965125 -0.063062 0.059062745 -0.0769889 -0.015908055 -0.077036835 -0.33374104 -0.120040566
-0.13438329 0.34845096 -0.036303554 -0.11922217 0.16745341 -0.014065166 -0.05903158 -0.08676009
0.16015905 0.27389026 -0.24643666 0.16549517 0.23866294 0.030113673 -0.08750982 0.17169368
-0.0019067313 -0.08488964 -0.10416207 -0.20424232 0.033130452 -0.079808116 -0.07901641 0.042735238
-0.08718587 0.094529465 0.10126339 -0.016985048 -0.1328061 -0.020738995 -0.12445645 0.013981506
0.12996519 0.20514189 0.24388428 -0.09908032 -0.060186505 -0.061829563 0.052525915 0.12945771
-0.011560499 -0.14552745 0.09607818 0.091212876 0.080991775 0.2712491 -0.09138928 -0.08364584
-0.06370349 0.086148165 -0.12739776 -0.07036841 0.080308735 0.02907939 0.017146997 -0.0312503
0.21799068 0.20953797 -0.22977181 0.24177513 -0.12152193 0.12776144 -0.06830293 -0.24145487
-0.17784083 -0.0333814 0.09363131 -0.30889434 -0.010807877 -0.112822816 -0.014738592 -0.118165284
0.021189207 -0.026333394 -0.056167435 -0.1913667 -0.0092271045 -0.11962417 -0.20330438 0.0103222495
-0.09540224 -0.10916444 0.19068532 0.27816382 0.106996074 -0.0030139813 -0.025633892 -0.09490894
-0.05280417 -0.06539419 -0.0522347 0.028786894 -0.061320312 -0.17225352 -0.03791141 -0.032786466
0.029695606 -0.12909262 -0.09593524 -0.2046837 -0.08893715 -0.0828784 -0.10093635 0.026793437
-0.048336245 -0.15597482 -0.06378817 -0.009658798 0.15071784 -0.015273238 0.19415954 -0.020360785
-0.051894225 -0.17728172 0.0605425 -0.016321594 0.06214383 0.09875658 -0.17086117 -0.04300615
0.060123056 -0.1831455 -0.18813646 -0.026442507 0.07635715 -0.024804635 0.051370326 -0.017894117
-0.13451102 0.13520823 0.037535716 -0.05892469 -0.026252061 -0.18449679 0.09786936 -0.03928659
-0.004072096 0.054165613 0.14528635 -0.13045596 -0.03300357 0.00899517 -0.013952261 0.016932108
0.07026409 -0.04342414 0.3177274 0.19328249 0.2590972 -0.0010195257 0.0851577 0.07988574
-0.02316787 0.05203574 0.010669063 -0.0326351 0.023227157 -0.10245074 -0.05432267 -0.19452383
0.15247169 -0.14545965 -0.15262963 -0.01350755 0.030551497 -0.02984963 -0.03917563 0.11092452
-0.15063743 0.038145207 -0.12835106 -0.2789254 -0.13514479 0.10727976 0.14033113 0.16154024
0.14066088 -0.065866515 -0.08723992 -0.039020214 0.032467015 0.03814206 -0.023940593 -0.14361203
-0.034332763 -0.16509658 0.074813746 -0.23238173 0.059879992 -0.034156624 0.07529161 0.08574876
-0.121575296 0.20083554 -0.19481145 0.09932858 0.053136196 0.07952747 -0.11617081 0.04862544
00000000: d3a0 9e3d 7418 923b 6f21 ba3d 0401 c5bd
00000010: d92b 153e 8f32 6e3e 5199 a73d cf9d 22be
00000020: 2e83 c73d ac85 403b 6568 323e 495f 223d
00000030: 4c06 503e 992c 5c3d a398 04be 1cd2 cc3d
00000040: 23c7 253e 2261 a43c c92c 863c bb0f 323e
00000050: 9cd9 42bd 8bdc f83d 95e0 5f3d 05a0 14bd
00000060: 9ab2 963d a0f1 b6bd 2466 0bbe 65a2 9bbc
00000070: fb23 f4bd 8e66 6a3e c0d8 27be a96c 1a3c
00000080: 7c03 8bbd 17d8 47be 2c6b fcbd 94b5 1fbd
00000090: 41f6 57bd 1c47 e13d 08ca 973d c0f8 2ebc
000000a0: 095a b83e 2591 b9bd 751f b3bd 4336 f13d
000000b0: 825f 133c b39d 473e e776 f63d 021d 66be
000000c0: 139b b7bd a626 81bd c7eb 713d 5bac 9dbd
000000d0: 9c51 82bc 7dc5 9dbd 1be0 aabe d4d7 f5bd
000000e0: c69b 09be 2a68 b23e 09b3 14bd c12a f4bd
000000f0: e878 2b3e 9571 66bc 19cb 71bd 46af b1bd
00000100: bc00 243e 583b 8c3e e459 7cbe 9177 293e
00000110: 0f64 743e f3b0 f63c 5938 b3bd 78d0 2f3e
00000120: 49eb f9ba 9fda adbd ec52 d5bd e624 51be
00000130: ccb3 073d 7072 a3bd 5bd3 a1bd 250b 2f3d
00000140: 818e b2bd aa98 c13d 2e63 cf3d 3a24 8bbc
00000150: 53fe 07be d3e4 a9bc 06e3 febd b012 653c
00000160: 9815 053e b710 523e cdbc 793e 9fea cabd
00000170: 2086 76bd ff40 7dbd 6a25 573d 9090 043e
00000180: 3f68 3dbc 2605 15be a3c4 c43d d1cd ba3d
00000190: 04df a53d 29e1 8a3e 4e2a bbbd 834e abbd
000001a0: fa76 82bd 736e b03d 8f74 02be 501d 90bd
000001b0: e878 a43d e737 ee3c dc77 8c3c 5100 00bd
000001c0: f338 5f3e 1f91 563e 4d49 6bbe e693 773e
000001d0: 7de0 f8bd e5d3 023e 68e2 8bbd f23f 77be
000001e0: e81b 36be efba 08bd c6c1 bf3d 6627 9ebe
000001f0: 8613 31bc a60f e7bd 237a 71bc a400 f2bd
00000200: fd94 ad3c 21b9 d7bc d30f 66bd a2f5 43be
00000210: 482d 17bc 84fd f4bd 062f 50be a71e 293c
00000220: 4062 c3bd 9b91 dfbd 0343 433e 7d6b 8e3e
00000230: c220 db3d 3786 45bb 2bfe d1bc 9e5f c2bd
00000240: 2f49 58bd 64ed 85bd 0ef4 55bd 7ed2 eb3c
00000250: 022b 7bbd 3a63 30be ff48 1bbd 1a4b 06bd
00000260: 3344 f33c db30 04be b279 c4bd 9b98 51be
00000270: ae24 b6bd 27bc a9bd b8b7 cebd e97d db3c
00000280: 3afc 45bd ddb7 1fbe 5fa3 82bd ef3f 1ebc
00000290: c755 1a3e 9a3c 7abc c2d1 463e a9cb a6bc
000002a0: 0a8f 54bd 5789 35be 6afb 773d ddb4 85bc
000002b0: 878a 7e3d e440 ca3d 3bf6 2ebe 3727 30bd
000002c0: 9843 763d 7e8a 3bbe d8a6 40be f59d d8bc
000002d0: 2361 9c3d 1733 cbbc b169 523d af96 92bc
000002e0: 42bd 09be 0774 0a3e 0dbf 193d 045b 71bd
000002f0: 900e d7bc baec 3cbe bb6f c83d faea 20bd
00000300: 386f 85bb c3dc 5d3d f2c5 143e 3f96 05be
00000310: c02e 07bd 7a60 133c 0698 64bc 34b5 8a3c
00000320: 9fe6 8f3d 83dd 31bd 2aad a23e d8eb 453e
00000330: 63a8 843e 9ba1 85ba 2967 ae3d 239b a33d
00000340: 8bca bdbc 6e23 553d 4bcd 2e3c 62ac 05bd
00000350: e146 be3c b2d1 d1bd 7381 5ebd 4131 47be
00000360: 8a21 1c3e 60f3 14be f14a 1cbe c54e 5dbc
00000370: 2247 fa3c 3687 f4bc a076 20bd 652c e33d
00000380: b340 1abe 263e 1c3d 766e 03be 4fcf 8ebe
00000390: 6563 0abe 7eb5 db3d f7b2 0f3e ce6a 253e
000003a0: 6809 103e 06e5 86bd d8aa b2bd a9d3 1fbd
000003b0: 22fc 043d d93a 1c3d 101f c4bc 080f 13be
000003c0: 83a0 0cbd 140f 29be f337 993d 7af5 6dbe
000003d0: b944 753d d1e7 0bbd 7d32 9a3d 0c9d af3d
000003e0: 78fc f8bd d5a7 4d3e a77c 47be c86c cb3d
000003f0: 57a5 593d 4cdf a23d f6ea edbd 782b 473d

gru.bias_ih_l0 f4 [192]
0.0717028 0.0639421 -0.018998785 0.044977345 0.15317436 0.11929651 0.043073382 0.17268462
0.00046003627 0.16651092 0.009718295 0.21962002 0.18335554 0.23212732 -0.031070901 0.014545632
0.24510348 0.21643427 -0.06327124 0.033043712 0.04302743 0.018834472 0.19239768 0.14955615
0.07757825 0.10774341 0.078648835 0.18946266 0.09283582 0.20593178 0.12424013 0.3022188
-0.034922432 0.21721685 0.13311507 -0.036551893 0.16374697 0.09144334 0.1836042 0.2835041
0.42392737 0.023137562 0.0715028 0.13891518 0.17490302 0.23690388 0.14005366 0.0976182
0.27371472 0.08493052 0.048530895 0.1523181 0.18673822 0.13853745 0.11653666 0.015498721
0.138914 0.07818068 0.12988587 0.007956549 0.019867463 0.20330733 0.033984378 -0.029413586
-0.17824785 -0.30816075 -0.093823664 0.121682726 -0.29464805 -0.28693074 -0.20364313 -0.47666353
0.014863876 -0.094494015 0.13298257 -0.20249543 0.082732745 0.08317846 -0.27963707 -0.18372238
-0.1777287 0.08633811 0.082502455 0.074718155 0.023148296 -0.16142711 -0.15004207 -0.17542665
-0.0109032355 0.049791027 0.24370483 -0.48956493 -0.014120043 -0.039378513 0.04983316 -0.023985961
0.00349555 -0.2653198 -0.23717587 0.16138102 -0.041174512 -0.055271395 -0.2562346 -0.05305885
0.2562015 0.119546786 -0.056366857 0.0051818956 0.04369916 -0.017943712 0.14491066 0.044658843
-0.0589394 0.06720277 -0.18602543 0.18709582 -0.03187676 0.042271677 -0.12838516 -0.13884449
-0.01837418 -0.15357867 -0.14151318 -0.3556037 0.05570634 -0.15734674 0.08848154 -0.02325014
0.035236683 0.06712661 -0.14278553 0.16393454 0.057103172 0.010122456 -0.057054605 -0.005866919
-0.011320425 -0.03849782 0.021809079 0.04918925 0.08039443 -0.013904862 -0.1727843 0.116030656
0.030050315 0.1030919 0.13124767 -0.029290667 -0.09823277 -0.105021715 0.06111155 -0.10416928
0.05330829 0.14015685 -0.090848304 -0.057609335 0.013468205 0.008417266 -0.055387925 0.21660231
-0.023705214 -0.10488941 -0.053234734 -0.0056596277 0.023475884 0.21061204 0.06448425 0.13048698
0.15895514 0.10958822 0.14089063 0.08306195 0.07885283 0.26715693 -0.105875455 -0.04711426
0.17282225 0.19739725 -0.064955495 0.05878839 -0.07482822 0.045587 -0.05937974 -0.17604098
0.046160143 0.15805814 -0.12175606 -0.2053223 0.08379879 -0.12602912 -0.14440267 -0.016538745
00000000: ebd8 923d 13f4 823d 57a3 9bbc 2a3a 383d
00000010: bdd9 1c3e bb51 f43d b76d 303d 3dd4 303e
00000020: 0631 f139 d781 2a3e 7c39 1f3c 12e4 603e
00000030: 8ec1 3b3e c9b2 6d3e 6788 febc cd50 6e3c
00000040: 68fc 7a3e f2a0 5d3e 5a94 81bd d858 073d
00000050: 883d 303d c04a 9a3c e603 453e 3f25 193e
00000060: 58e1 9e3d 94a8 dc3d a412 a13d 8002 423e
00000070: b520 be3d c8df 523e 9c71 fe3d 6cbc 9a3e
00000080: d30a 0fbd 186e 5e3e 514f 083e 70b7 15bd
00000090: 49ad 273e a546 bb3d bd02 3c3e 7327 913e
000000a0: 020d d93e fc8a bd3c 0f70 923d c83f 0e3e
000000b0: c719 333e ee96 723e 3a6a 0f3e 0dec c73d
000000c0: 5624 8c3e 0df0 ad3d 55c8 463d 47f9 1b3e
000000d0: 4e38 3f3e c3dc 0d3e c6aa ee3d 59ee 7d3c
000000e0: 793f 0e3e 311d a03d cd00 053e 2f5c 023c
000000f0: 17c1 a23c cc2f 503e 3433 0b3d c3f4 f0bc
00000100: 9b86 36be 3fc7 9dbe 9f26 c0bd cb34 f93d
00000110: 1cdc 96be 96e8 92be d387 50be 3e0d f4be
00000120: 9d87 733c 1486 c1bd 952c 083e f65a 4fbe
00000130: c96f a93d 7859 aa3d 972c 8fbe b821 3cbe
00000140: 83fe 35be 09d2 b03d 0cf7 a83d d505 993d
00000150: 7fa1 bd3c 264d 25be a1a4 19be 0ba3 33be
00000160: 7ca3 32bc adf1 4b3d c28d 793e 41a8 fabe
00000170: c157 67bc 5d4b 21bd db1d 4c3d 357e c4bc
00000180: 9915 653b ffd7 87be 3bde 72be 1141 253e
00000190: 9ba6 28bd 4264 62bd 2e31 83be 3d54 59bd
000001a0: d82c 833e f2d4 f43d efe0 66bd e4cc a93b
000001b0: e4fd 323d b1fe 92bc 7663 143e 31ec 363d
000001c0: 716a 71bd 9ba1 893d 737d 3ebe 0c96 3f3e
000001d0: 3591 02bd 1125 2d3d 6677 03be 402d 0ebe
000001e0: 7385 96bc ba43 1dbe d5e8 10be b011 b6be
000001f0: 552c 643d 811f 21be cf35 b53d 1477 bebc
00000200: 5754 103d ad79 893d 5f36 12be 75de 273e
00000210: 04e5 693d a8d8 253c 17b2 69bd 493f c0bb
00000220: 4e79 39bc e4af 1dbd f4a8 b23c ab7a 493d
00000230: d6a5 a43d 38d1 63bc 5eee 30be 7ba1 ed3d
00000240: 142c f63c d921 d33d ca65 063e fbf2 efbc
00000250: 432e c9bd a015 d7bd 1b50 7a3d b456 d5bd
00000260: cb59 5a3d 4785 0f3e ad0e babd c4f7 6bbd
00000270: bfa9 5c3c 93e8 093c 73de 62bd ffcc 5d3e
00000280: 7031 c2bc 42d0 d6bd aa0c 5abd 6674 b9bb
00000290: 7f50 c03c afaa 573e 5210 843d 619e 053e
000002a0: 23c5 223e ca6f e03d a245 103e 621c aa3d
000002b0: 987d a13d cbc8 883e 3bd5 d8bd e2fa 40bd
000002c0: 51f8 303e 8122 4a3e 6307 85bd 18cc 703d
000002d0: 8a3f 99bd 6fb9 3a3d 2c38 73bd 1644 34be
000002e0: 6b12 3d3d fed9 213e 3e5b f9bd 0240 52be
000002f0: b39e ab3d c70d 01be 4bde 13be 437c 87bc

gru.bias_hh_l0 f4 [192]
0.2299896 0.1891501 0.024622206 0.026142247 0.08365505 0.110895246 0.11234151 0.16070662
0.020938065 0.14395107 0.17230873 0.06262499 0.20112191 0.21709114 0.0743975 0.06285925
0.2478191 0.010898399 0.14699169 0.0706995 -0.06873641 0.12742785 -0.039302796 0.049130164
0.07604328 0.19240706 -0.050769888 0.24023072 0.1650226 0.19174911 0.0800097 0.26759937
-0.03603696 0.3150646 0.20068686 0.019113569 0.111688696 0.1581883 0.26483727 0.06734306
0.18264455 0.081600375 -0.047393236 0.04311056 0.21506816 0.12920368 0.17274748 0.10528388
0.1507063 -0.006965737 0.09928368 0.19530928 0.0010710618 0.036239296 -0.0098660225 0.12488994
-0.042041123 0.16031872 0.084602244 0.045622256 0.17759128 0.14429201 0.032417808 0.03626887
-0.10644512 -0.2556399 -0.1744844 -0.05960107 -0.38646236 -0.36564967 -0.2549965 -0.4905627
0.061962157 0.07619353 -0.057370838 -0.12658529 0.039288625 -0.074105404 -0.12364306 -0.07674385
-0.15244703 -0.01773166 0.062607154 0.123486824 0.038613345 -0.25227842 -0.22950496 -0.23059998
0.08944384 0.016185759 0.29056433 -0.51189953 0.031335056 -0.08524905 -0.03234734 0.042204518
-0.051612202 -0.1755109 -0.1870797 -0.028383102 -0.021979524 0.072516605 -0.16107981 -0.07927336
0.18347612 -0.06661289 -0.06983808 -0.108723775 -0.14862837 0.0583335 0.0066484837 0.031426944
-0.07801858 0.030847229 -0.073076166 0.050998956 0.08490009 -0.1454191 -0.24488898 -0.2657804
-0.14948386 -0.05701861 -0.17984256 -0.448436 -0.050340082 -0.23717374 0.038223688 -0.10413453
-0.022099996 0.07418917 -0.10473894 -0.069217384 0.04569142 -0.010086087 -0.11464022 -0.020525213
-0.18943694 0.04296215 -0.010379486 0.07939001 0.10245697 0.2098873 0.01196348 0.058414683
0.14810294 -0.1429002 0.1042211 0.057777774 0.0563791 0.02408312 -0.05601069 -0.07176837
0.091215245 -0.027266119 0.10961171 -0.04390847 0.03682814 0.12698694 -0.0068027047 0.087721
0.10225074 -0.050516706 -0.03615744 -0.018010832 -0.14724186 0.21397866 0.09955716 -0.056650065
0.11733952 0.13781363 0.0002641189 -0.07665377 -0.077173926 0.21172073 0.10946706 -0.0052039423
-0.007833353 -0.027715819 0.027931897 -0.024726463 0.09266305 0.13571604 -0.14424014 -0.03995866
0.04116867 0.13839832 0.008672015 -0.04836186 0.09674909 -0.05209217 -0.12983708 -0.027037978
00000000: 6582 6b3e 90b0 413e 82b4 c93c 4428 d63c
00000010: 5753 ab3d 0c1d e33d 4e13 e63d 4790 243e
00000020: 4e86 ab3c e967 133e b371 303e 8841 803d
00000030: e7f2 4d3e 244d 5e3e b75d 983d 5abc 803d
00000040: 4ac4 7d3e 338f 323c fd84 163e e6ca 903d
00000050: adc5 8cbd 727c 023e f8fb 20bd b63c 493d
00000060: 94bc 9b3d 5b06 453e 16f4 4fbd 0bff 753e
00000070: affb 283e e159 443e 20dc a33d c902 893e
00000080: 7e9b 13bd 2650 a13e db80 4d3e 0f94 9c3c
00000090: 0bbd e43d 1dfc 213e c098 873e 29eb 893d
000000a0: 2c07 3b3e 191e a73d 691f 42bd b394 303d
000000b0: d43a 5c3e f84d 043e b7e4 303e 139f d73d
000000c0: c152 1a3e d640 e4bb 3e55 cb3d 28ff 473e
000000d0: df62 8c3a a86f 143d 19a5 21bc 4cc6 ff3d
000000e0: 5033 2cbd 972a 243e f143 ad3d 67de 3a3d
000000f0: 7dda 353e 49c1 133e 89c8 043d ab8e 143d
00000100: e6ff d9bd 3ce3 82be 0aac 32be 4020 74bd
00000110: 65de c5be 6f36 bbbe e78e 82be 092b fbbe
00000120: 08cc 7d3d 5a0b 9c3d affd 6abd 939f 01be
00000130: 1ced 203d 93c4 97bd 9338 fdbd e12b 9dbd
00000140: 131b 1cbe fc41 91bc 2e38 803d a9e6 fc3d
00000150: 0729 1e3d a32a 81be 5903 6bbe 6722 6cbe
00000160: 552e b73d ff97 843c d9c4 943e d90b 03bf
00000170: 3059 003d 0e97 aebd a57e 04bd a5de 2c3d
00000180: 5167 53bd 21b9 33be d291 3fbe ae83 e8bc
00000190: 670e b4bc 9683 943d 1bf2 24be 125a a2bd
000001a0: 2ae1 3b3e 576c 88bd 4407 8fbd 92aa debd
000001b0: 0932 18be 1cef 6e3d 86db d93b 8ab9 003d
000001c0: 35c8 9fbd 54b3 fc3c f5a8 95bd 48e4 503d
000001d0: 19e0 ad3d bfe8 14be 2dc4 7abe 5e14 88be
000001e0: 4c12 19be 598c 69bd a628 38be 6799 e5be
000001f0: 6731 4ebd acdd 72be 7190 1c3d 7c44 d5bd
00000200: 0d0b b5bc 7ef0 973d 5f81 d6bd d8c1 8dbd
00000210: ed26 3b3d 1d40 25bc 7ec8 eabd 7e24 a8bc
00000220: c2fb 41be 14f9 2f3d b80e 2abc 3b97 a23d
00000230: f6d4 d13d b2ec 563e 7902 443c 3c44 6f3d
00000240: 4ca8 173e 6e54 12be df71 d53d 63a8 6c3d
00000250: c5ed 663d f749 c53c 776b 65bd 4cfb 92bd
00000260: 0fcf ba3d 325d dfbc 1b7c e03d 5ed9 33bd
00000270: 1bd9 163d dd08 023e 39e9 debb 11a7 b33d
00000280: d668 d13d 9bea 4ebd d319 14bd 748b 93bc
00000290: 92c6 16be 391d 5b3e a0e4 cb3d e609 68bd
000002a0: b44f f03d 041f 0d3e 7079 8a39 a7fc 9cbd
000002b0: 5d0d 9ebd 52cd 583e 4430 e03d d585 aabb
000002c0: 7757 00bc 490c e3bc 6fd1 e43c 278f cabc
000002d0: 20c6 bd3d 25f9 0a3e b0b3 13be b1ab 23bd
000002e0: 7ba0 283d 4ab8 0d3e 1115 0e3c 1617 46bd
000002f0: 6324 c63d 995e 55bd 03f4 04be c07e ddbc

head.0.weight f4 [64, 64]
0.10682083 0.07987035 0.11898981 -0.07216396 -0.11772707 0.1555416 -0.13381441 -0.02336259
-0.054479178 0.08945381 -0.04361912 0.0946233 0.06973838 0.115903996 -0.12599891 0.10781626
-0.078675285 -0.09004707 -0.057138793 0.13829547 0.05979538 0.088348396 0.08877459 -0.078997605
0.03308273 0.008358327 -0.11009692 0.15932433 -0.16086486 0.09209249 0.07562903 0.164117
0.0024847323 0.17311484 -0.064736806 0.011670662 -0.035376262 0.08179421 -0.07603657 0.11476482
0.053999737 0.033148836 -0.15451844 0.15496102 -0.0005793199 0.014114108 -0.032625783 0.114648975
0.12217713 -0.16559002 -0.06985941 -0.066543646 -0.05096659 -0.13473284 -0.018701805 0.0592017
-0.033196367 -0.007042167 0.022157332 0.21424252 0.13478114 0.18710381 0.03698696 -0.11079975
0.0063125147 -0.20922394 -0.06025673 0.14168556 -0.24512324 -0.30444938 -0.19901218 -0.24741383
-0.03273095 -0.08308663 -0.01954253 0.10538236 -0.04985045 0.09538582 0.12838836 -0.010342106
-0.10854525 0.038698636 0.03975335 -0.02929649 0.07197216 -0.036825817 0.15501674 -0.060904577
-0.14814945 -0.070851386 0.28592843 -0.110061646 -0.13614032 0.14480288 0.097315304 -0.095886625
-0.038117472 0.1906088 -0.1315783 0.09711908 0.014157961 0.07658199 -0.23076944 0.08946065
-0.00017024278 -0.05983 -0.104992405 0.07874492 -0.03049451 -0.09485854 -0.109956376 0.03824761
0.04894931 0.13256876 0.1780861 0.07126589 -0.07284548 0.012777166 -0.08572714 -0.008666463
0.049756225 -0.19227806 0.15640172 0.083497025 0.100908644 0.056829873 0.012072499 -0.0679138
-0.27337337 -0.20635198 -0.2575772 0.32383075 -0.1450044 -0.23679367 0.07319674 -0.16054074
-0.19588406 -0.18550372 -0.12140718 -0.08208122 -0.3322522 0.198437 0.16342032 0.0243726
-0.0798638 0.0077113113 0.03364231 -0.2111021 -0.28321257 -0.063943736 0.19963744 -0.115105644
-0.013026566 0.29297373 0.1595438 -0.16455707 0.037865944 -0.08204312 0.042174436 0.20027365
0.25323972 -0.04884006 0.014922571 0.2332192 0.23002252 0.14968035 0.18957382 -0.19228701
-0.07835106 0.29068226 0.12937553 -0.1169749 -0.15742894 0.09971733 -0.11456321 0.2473068
-0.0780794 0.18386994 0.0463364 0.100116976 -0.033103764 0.27026805 0.098324046 0.042299576
-0.034340903 -0.026684627 0.07462291 -0.008714053 -0.23763537 -0.049892392 0.018670846 0.11267876
-0.061912518 -0.10491286 -0.07001619 -0.044579364 -0.012684786 -0.15860584 -0.08393052 -0.03745673
0.03579487 0.044677876 0.10104405 0.12311767 0.04879839 -0.047731817 0.034018904 0.04787825
0.00215476 0.12625456 0.061417986 0.08704822 0.0514412 -0.108621456 -0.07661434 0.10785538
0.12578833 -0.041168854 0.16926463 -0.2576459 -0.0836485 -0.09591749 -0.115045995 -0.13034435
-0.051318444 -0.0075285523 0.1406109 -0.08251243 0.06591146 -0.04615305 -0.031030437 0.07718713
-0.1261129 -0.012241546 -0.10235144 -0.0017789192 0.09083173 0.12881547 0.022686694 -0.124058865
0.10792424 -0.11182683 0.11977005 -0.09778191 0.046817407 -0.022303866 -0.10229248 0.010038968
0.10282908 -0.053742964 -0.07664873 0.04383975 0.12363531 -0.08944991 -0.085878745 0.015626451
00000000: e1c4 da3d 1193 a33d eeb0 f33d b3ca 93bd
00000010: e41a f1bd 4c46 1f3e a506 09be e762 bfbc
00000020: 8f25 5fbd 8f33 b73d f6a9 32bd dcc9 c13d
00000030: ffd2 8e3d 135f ed3d dc05 01be c5ce dc3d
00000040: 8220 a1bd 996a b8bd 5e0a 6abd 549d 0d3e
00000050: 00ec 743d 01f0 b43d 74cf b53d 7fc9 a1bd
00000060: c281 073d 5df1 083c 7e7a e1bd eb25 233e
00000070: c2b9 24be fd9a bc3d 65e3 9a3d 490e 283e
00000080: e4d6 223b 0445 313e bb94 84bd 4e36 3f3c
00000090: b3e6 10bd b983 a73d 10b9 9bbd d109 eb3d
000000a0: d42e 5d3d 13c7 073d 153a 1ebe 1aae 1e3e
000000b0: 80dd 17ba dc3e 673c 9da2 05bd 15cd ea3d
000000c0: 0138 fa3d 6e90 29be 7312 8fbd 0948 88bd
000000d0: 58c2 50bd 68f7 09be 8734 99bc 7b7d 723d
000000e0: eaf8 07bd fac1 e6bb 4b83 b53c 6462 5b3e
000000f0: 1104 0a3e 2498 3f3e a37f 173d fbea e2bd
00000100: 36d9 ce3b cd3e 56be c3cf 76bd 0516 113e
00000110: 9601 7bbe cae0 9bbe d9c9 4bbe 0d5a 7dbe
00000120: e310 06bd 5329 aabd a817 a0bc b5d2 d73d
00000130: fc2f 4cbd a459 c33d 3d78 033e f071 29bc
00000140: f94c debd 7682 1e3d 69d4 223d 31ff efbc
00000150: 2466 933d abd6 16bd b5bc 1e3e 1477 79bd
00000160: 7db4 17be 881a 91bd 3665 923e 0068 e1bd
00000170: 5e68 0bbe 3547 143e 3f4d c73d 3560 c4bd
00000180: 1121 1cbd f42e 433e 76bc 06be 5ee6 c63d
00000190: cbf6 673c 05d7 9c3d d34e 6cbe 2537 b73d
000001a0: 3383 32b9 4d10 75bd 4206 d7bd 0445 a13d
000001b0: 9fcf f9bc 3245 c2bd cf30 e1bd 87a9 1c3d
000001c0: 127f 483d 1bc0 073e 345c 363e daf3 913d
000001d0: 0330 95bd 5257 513c b691 afbd c8fd 0dbc
000001e0: 2fcd 4b3d 8ae4 44be c627 203e 7d00 ab3d
000001f0: 31a9 ce3d 71c6 683d bbcb 453c 6416 8bbd
00000200: 98f7 8bbe ef4d 53be 29e1 83be 25cd a53e
00000210: 097c 14be 0a7a 72be 2ce8 953d cb64 24be
00000220: d595 48be b0f4 3dbe 54a4 f8bd 331a a8bd
00000230: f61c aabe 1233 4b3e a857 273e 0ca9 c73c
00000240: a28f a3bd 2baf fc3b 85cc 093d 262b 58be
00000250: 3d01 91be eff4 82bd c26d 4c3e 82bc ebbd
00000260: 616d 55bc a700 963e 735f 233e a681 28be
00000270: 5219 1b3d 3906 a8bd 1abf 2c3d 8914 4d3e
00000280: a3a8 813e 840c 48bd cd7d 743c 04d1 6e3e
00000290: 068b 6b3e ce45 193e a41f 423e e3e6 44be
000002a0: 8576 a0bd 4ed4 943e 057b 043e 8990 efbd
000002b0: 0d35 21be 9938 cc3d 1ea0 eabd fe3d 7d3e
000002c0: 18e8 9fbd 6748 3c3e 3dcb 3d3d 210a cd3d
000002d0: d097 07bd 9360 8a3e 1e5e c93d 5242 2d3d
000002e0: 0ca9 0cbd b899 dabc e5d3 983d 63c5 0ebc
000002f0: b056 73be f75b 4cbd 9af3 983c 1fc4 e63d
00000300: fb97 7dbd 8edc d6bd a664 8fbd da98 36bd
00000310: d9d3 4fbc 9269 22be c4e3 abbd 3a6c 19bd
00000320: a49d 123d 2600 373d 2ff0 ce3d 1e25 fc3d
00000330: d2e0 473d 7082 43bd 6857 0b3d fc1b 443d
00000340: e036 0d3b e048 013e 6d91 7b3d 5646 b23d
00000350: 02b4 523d ed74 debd fbe7 9cbd 48e3 dc3d
00000360: a8ce 003e aca0 28bd b553 2d3e 2aea 83be
00000370: e84f abbd 6470 c4bd 3c9d ebbd fd78 05be
00000380: 4a33 52bd 13b2 f6bb 4efc 0f3e 47fc a8bd
00000390: 96fc 863d fb0a 3dbd 8b33 febc 4914 9e3d
000003a0: bd23 01be c490 48bc a29d d1bd a02a e9ba
000003b0: fc05 ba3d 34e8 033e 72d9 b93c 9312 febd
000003c0: 6207 dd3d 7705 e5bd 004a f53d e241 c8bd
000003d0: 9cc3 3f3d 99b6 b6bc b87e d1bd 7c7a 243c
000003e0: 0d98 d23d 9521 5cbd 02fa 9cbd 4f91 333d
000003f0: 8234 fd3d 8431 b7bd 32e1 afbd 0b03 803c

head.0.bias f4 [64]
0.11460067 -0.017734107 0.054908257 0.100984015 0.011886556 -0.015733382 -0.13109724 0.11335955
-0.107171826 0.020370143 -0.0086426195 0.110257976 0.015157509 0.15292187 0.03629445 0.16407588
-0.06460022 0.027879164 -0.12119597 -0.09040176 -0.020005934 -0.03585068 0.039656267 -0.11559777
-0.051643666 -0.11616484 -0.019307273 -0.12716575 0.059270024 -0.025542853 -0.00697057 0.058638368
0.13387935 0.1669634 0.05126959 0.09337646 -0.102847196 -0.105777785 0.04685106 -0.03294808
0.14259274 0.06608546 -0.17516938 -0.12325506 -0.16758688 0.020842442 -0.13297874 0.003313083
-0.09130585 0.064200565 0.14644414 -0.033886686 0.00333337 0.10575065 0.029888628 0.07009367
0.042909365 0.018189551 0.11655848 0.05189173 0.15136863 0.09071381 0.02318296 -0.061143436
00000000: c2b3 ea3d 1e47 91bc 7be7 603d b5d0 ce3d
00000010: d4bf 423c 4be3 80bc 5b3e 06be 0d29 e83d
00000020: e77c dbbd 49df a63c c699 0dbc efce e13d
00000030: 3357 783c 8d97 1c3e 7da9 143d 8203 283e
00000040: 1f4d 84bd d862 e43c 9835 f8bd 8f24 b9bd
00000050: 7ce3 a3bc 2ad8 12bd 9c6e 223d 86be ecbd
00000060: 4f88 53bd d5e7 edbd 492a 9ebc bd37 02be
00000070: 20c5 723d 3f3f d1bc 6169 e4bb c92e 703d
00000080: ab17 093e 74f8 2a3e 1000 523d 283c bf3d
00000090: 8da1 d2bd 06a2 d8bd e6e6 3f3d 91f4 06bd
000000a0: d503 123e d057 873d 9a5f 33be 266d fcbd
000000b0: e59b 2bbe c5bd aa3c 942b 08be 4f20 593b
000000c0: 90fe babd 967b 833d 74f5 153e c4cc 0abd
000000d0: ab74 5a3b cc93 d83d ffd8 f43c 458d 8f3d
000000e0: bbc1 2f3d 4102 953c 36b6 ee3d 6c8c 543d
000000f0: 6100 1b3e 29c8 b93d 31ea bd3c 8a71 7abd

head.2.weight f4 [1, 64]
0.12572972 -0.2446364 -0.20554411 -0.14625187 -0.2075602 0.34969136 0.41704765 0.37362668
0.15610798 0.21418479 -0.10072574 -0.20792411 0.09040334 0.16212623 0.16815728 -0.17752287
0.11882281 -0.26692903 -0.54913855 -0.13618742 0.25626802 -0.13506806 -0.26733392 0.20364618
0.34986866 0.1720297 0.1079324 -0.30659106 0.13183936 0.32062918 -0.13872086 -0.17496796
0.14759845 0.13458565 -0.18985336 -0.17014733 -0.057077702 0.43005976 -0.26763687 0.5643221
0.13051678 -0.49430344 -0.58817035 -0.17225577 -0.49994126 0.13922107 0.4362234 0.13315025
0.46943235 -0.12533474 0.15505211 0.13054734 0.37365595 0.26345116 0.13738377 0.14853343
-0.15757614 0.10527991 0.07940478 -0.30463895 0.101875976 -0.27433017 -0.23833938 0.24204391
00000000: 4bbf 003e f781 7abe 287a 52be 0dc3 15be
00000010: a98a 54be bf0a b33e 4587 d53e ff4b bf3e
00000020: c5da 1f3e 4253 5b3e 4c49 cebd 0fea 54be
00000030: 6325 b93d 6b04 263e 6c31 2c3e 8ec8 35be
00000040: 6059 f33d ecaa 88be 5894 0cbf b774 0bbe
00000050: 9035 833e 484f 0abe fedf 88be a088 503e
00000060: fc21 b33e 8e28 303e aa0b dd3d 81f9 9cbe
00000070: e600 073e 8229 a43e d70c 0ebe cd2a 33be
00000080: 0c24 173e d2d0 093e eb68 42be 1a3b 2ebe
00000090: 4fca 69bd cb30 dc3e b307 89be 6a77 103f
000000a0: 31a6 053e 5715 fdbe 5592 16bf d163 30be
000000b0: 4df8 ffbe f88f 0e3e ac58 df3e 8a58 083e
000000c0: 7059 f03e c057 00be fbc5 1e3e 34ae 053e
000000d0: d54f bf3e 12e3 863e 55ae 0c3e 2619 183e
000000e0: a45b 21be fe9c d73d f99e a23d a3f9 9bbe
000000f0: 5aa4 d03d 0175 8cbe 3d0f 74be 5cda 773e
