outputs/exp_0003_20251213_123043/runs/seed2/h5/SlidingWindowSGD/model_final.pt (torch, 71493 bytes, 7 tensors)

gru.weight_ih_l0 f4 [192, 1]
0	0x3cbbbad8	0.022916242
1	0xbce9460d	-0.028475786
2	0xbc8cc826	-0.017185282
3	0x3d0f79aa	0.035028137
4	0x3d038fa3	0.032119405
5	0x3c167d30	0.00918512
6	0xbbc76e23	-0.0060861274
7	0xbdae14ad	-0.08500037
8	0x3d802686	0.06257348
9	0xbddf6029	-0.10907013
10	0xbdbafe61	-0.0913055
11	0x3c802e1c	0.015646987
12	0x3d821dcf	0.06353342
13	0x3e7ab4c5	0.2448302
14	0xbcc1ceae	-0.023658123
15	0xbd39cba9	-0.04536024
16	0x3de3f2c7	0.111302905
17	0xbc856adb	-0.016286304
18	0xbc9fa666	-0.019488525
19	0x3e2087f7	0.15676866
20	0xbc336bb9	-0.010950976
21	0x3dca25d8	0.09870499
22	0xbd0f7bfc	-0.03503035
23	0x3e2859d1	0.16440512
24	0x3d315409	0.043293033
25	0x3daa9b44	0.08330396
26	0x3c6bea12	0.014399068
27	0xbc5bbb33	-0.013411331
28	0x3b8ab716	0.0042332513
29	0x3b05e031	0.0020427818
30	0xbdf7cd02	-0.12099649
31	0xbcc663e9	-0.024217563
32	0x3d6b8a20	0.057504773
33	0x3da5c9cc	0.0809513
34	0xbc0306e2	-0.007997246
35	0xbd809285	-0.062779464
36	0x3e07b031	0.13250805
37	0xbcf3c0e5	-0.029755065
38	0xbd1e4eb4	-0.038649276
39	0xbcfd1182	-0.030892137
40	0x3c280bb4	0.0102566965
41	0xbdeba1b7	-0.11505454
42	0x3e1564bd	0.1458921
43	0x3d82961e	0.06376289
44	0x3d97cedf	0.074125044
45	0x3d857d74	0.06518069
46	0x3d54437d	0.051822174
47	0x3cb6cfc1	0.022315862
48	0x3d36c48d	0.04462104
49	0x3def9d46	0.116999194
50	0x3e1662f9	0.14686193
51	0x3e555f19	0.20837058
52	0x3df7cd4e	0.12099706
53	0x3e107fc7	0.14111243
54	0xbb70fbe3	-0.003677123
55	0xbd445a72	-0.047937818
56	0xbaa1bcad	-0.0012339555
57	0x3d183b58	0.03716597
58	0x3e07e986	0.13272676
59	0x3e4028fe	0.18765637
60	0x3d53167c	0.051535115
61	0xbddf6ddd	-0.10909627
62	0x3d52b9b7	0.051446643
63	0x3dcba022	0.09942652
64	0x3dc17d26	0.09447698
65	0xbcf8b0a3	-0.030357664
66	0xbb7d0b98	-0.0038611647
67	0xbde2f749	-0.11082322
68	0xbb1ccc64	-0.0023925537
69	0x3cf9c67d	0.030490154
70	0xbdfd84a2	-0.12378813
71	0xbd849fe8	-0.06475812
72	0xbd2f0c10	-0.042736113
73	0x3bd7c514	0.006584773
74	0xbd499cc1	-0.049221758
75	0x3d8a7fb1	0.067626365
76	0x3d7f366e	0.062307768
77	0xbe826d4c	-0.25474012
78	0xbce9ff89	-0.028564231
79	0xbc82e79c	-0.01597958
80	0x3de57552	0.11204018
81	0xbccdfd51	-0.025145205
82	0xbe0675aa	-0.13130823
83	0x3cfd47e5	0.030918071
84	0xbd11fe06	-0.035642646
85	0xbe23aac5	-0.15983112
86	0x3d75289a	0.059853174
87	0x3d9c2461	0.07624126
88	0xbd187044	-0.03721644
89	0xbd15be1a	-0.036558248
90	0x3dc925cd	0.09821663
91	0xbdd03ccf	-0.10167848
92	0x3d88f745	0.06687788
93	0xbd0e2d54	-0.034711197
94	0xbd98f6ff	-0.07468986
95	0x3da54d43	0.08071377
96	0xbe33df18	-0.17565572
97	0xbdfdf8ae	-0.124009475
98	0xbd6b0952	-0.057381935
99	0xbdeae2b9	-0.11469025
100	0xbd5969f1	-0.05307955
101	0x3dc364bc	0.09540698
102	0xbe0916e7	-0.13387643
103	0x3dcb9c3a	0.09941907
104	0x3ccaafc2	0.024742011
105	0xbd040596	-0.03223189
106	0x3d4b47cb	0.049629014
107	0x3d2a56df	0.041586753
108	0xbe6a7f4e	-0.22900125
109	0xbd8db45d	-0.06919167
110	0x3dbd762c	0.09251055
111	0xbe9ade62	-0.3024779
112	0xbc9d7049	-0.01921858
113	0x3ca42ccd	0.020040894
114	0xbdb381b4	-0.08764973
115	0x3c0103d0	0.007874444
116	0xbddd099e	-0.1079285
117	0x3e332d9b	0.17497866
118	0x3c1fc388	0.009751208
119	0xbd53f0e5	-0.051743407
120	0x3db7d528	0.08976203
121	0x3d8c1df9	0.06841654
122	0xbd69f559	-0.057118747
123	0x3dedabc8	0.1160503
124	0x3ceb98bd	0.028759355
125	0xbdf501a7	-0.11963206
126	0xbd2d0759	-0.042243335
127	0x3d9017b5	0.07035772
128	0xbe305d7e	-0.17223164
129	0xbe0ba3a2	-0.1363664
130	0xbe013350	-0.1261723
131	0x3d9f9d44	0.07793668
132	0xbd8fdc71	-0.07024468
133	0xbe1d67fb	-0.15371697
134	0x3d6d680e	0.057960562
135	0x3dd576a3	0.10423019
136	0xbb59a99e	-0.0033212672
137	0xbe109eb0	-0.14123034
138	0x3e3a2a24	0.18180138
139	0xbcbba7d0	-0.022907168
140	0xbde73e02	-0.11291124
141	0xbda4ed3f	-0.080530636
142	0x3de18023	0.11010768
143	0x3da265bd	0.07929561
144	0xbc6801dc	-0.0141606
145	0x3e1c3f28	0.15258467
146	0xbe26a009	-0.16271986
147	0x3db49f1a	0.08819409
148	0x3e1b1718	0.15145528
149	0xbe1f268b	-0.15542047
150	0x3d6b9f70	0.0575251
151	0xbd67682d	-0.056495834
152	0xbdd017d8	-0.10160798
153	0x3c240aa4	0.010012303
154	0xbb40127f	-0.00293079
155	0xbe12d2e1	-0.14338256
156	0xbded7d6c	-0.11596188
157	0xbd3b1828	-0.045677334
158	0x3e381517	0.17976795
159	0x3d0d1568	0.034444243
160	0xbe05ee7f	-0.1307926
161	0x3dc90b06	0.09816556
162	0x3d7e6efb	0.062117558
163	0xbe0760ef	-0.13220571
164	0x3d3f679e	0.046729676
165	0x3dce2476	0.10065548
166	0xbde76414	-0.11298385
167	0x3d3d0cd1	0.0461548
168	0xbdde7c8c	-0.10863599
169	0xbe103fd2	-0.14086846
170	0xbdbbb450	-0.09165251
171	0x3d53d6d5	0.05171855
172	0x3d12552b	0.035725754
173	0xbdbd4c02	-0.09243013
174	0xbe38c748	-0.1804477
175	0x3cc286f4	0.023745991
176	0xbdf0fdb4	-0.1176714
177	0xbc6883b9	-0.014191561
178	0x3e0dccd8	0.13847673
179	0x3d2d4ec2	0.042311437
180	0xbdfadda0	-0.12249303
181	0xbb777ba1	-0.0037762898
182	0x3d9470e6	0.07248096
183	0x3dc61f10	0.096738935
184	0xbe1e7bc4	-0.154769
185	0xbd1042b7	-0.035219874
186	0xbd22fbca	-0.039790906
187	0x3ccd5aba	0.025067676
188	0x3e33b98d	0.17551251
189	0x3e0785d3	0.13234644
190	0x3d920505	0.07129864
191	0xbe0ca889	-0.13736166

gru.weight_hh_l0 f4 [192, 64]
0	0x3da4922f	0.08035695
1	0x3a702d9e	0.0009162071
2	0xbd325a76	-0.0435433
3	0xbd6d18a5	-0.05788483
4	0x3ce34c33	0.027746296
5	0xbd88ce0c	-0.06679925
6	0x3d104c32	0.035228916
7	0x3dc91361	0.09818149
8	0xbda7625d	-0.08173058
9	0xbdec1b49	-0.11528642
10	0xbd755bd2	-0.05990202
11	0xbe174a72	-0.14774492
12	0xbde8fe16	-0.11376588
13	0x3d941344	0.07230237
14	0x3d917745	0.07102827
15	0xbcc32a0e	-0.023823764
16	0xbc3f9e5d	-0.011695472
17	0xbb7c28d2	-0.003847648
18	0xbdc5f3e2	-0.096656576
19	0x3abd4f4f	0.0014443191
20	0x3d508399	0.05090675
21	0xbd77a706	-0.06046202
22	0xbdbe4321	-0.092901476
23	0x3bfc08c8	0.0076914765
24	0xbd7c8773	-0.061652612
25	0xbd1ff49a	-0.03905163
26	0x3cfd1945	0.030895839
27	0x3df436c2	0.11924507
28	0x3c48d6b7	0.012258223
29	0xbd5c460e	-0.053777747
30	0x3e219e74	0.15783101
31	0x3e5f8c5e	0.2183089
32	0x3b26c971	0.0025449658
33	0xbd80622d	-0.062687255
34	0xbd90a07a	-0.070618585
35	0x3dc4a156	0.09601085
36	0x3d913160	0.07089496
37	0xbd678aa3	-0.0565287
38	0x3b8265c2	0.0039794156
39	0x3ca08565	0.019594857
40	0x3d2010bb	0.039078455
41	0x3a829919	0.000996384
42	0xbd871b00	-0.06596947
43	0xbcc31576	-0.023813944
44	0x3c24cff4	0.0100593455
45	0xbc5722e0	-0.013130873
46	0xbd89e3ae	-0.067328796
47	0xbd0e6b38	-0.03477022
48	0xbddb6eb8	-0.10714477
49	0x3dd5b10e	0.10434161
50	0xbde89caa	-0.11358006
51	0xbd03a1a0	-0.03213656
52	0x3de39649	0.11112649
53	0x3caa0f2d	0.02075919
54	0x3dd4ab52	0.10384239
55	0x3d43319b	0.04765473
56	0xbd2a61e2	-0.041597255
57	0xbdab450b	-0.08362778
58	0xbd87fe49	-0.06640298
59	0x3b87970d	0.0041378797
60	0x3d559f1c	0.05215369
61	0xbe07bf19	-0.13256492
62	0xbdb5e6dc	-0.088819236
63	0x3d909b72	0.07060899
64	0x3cb80858	0.022464916
65	0x3db69c4a	0.089165285
66	0x3e121db8	0.1426915
67	0x3d9aeb9d	0.07564471
68	0xbc236a5e	-0.00997409
69	0xbd67222b	-0.05642907
70	0x3d362f2f	0.04447859
71	0x3dbeeab8	0.09322113
72	0xbe0a93c1	-0.13532926
73	0x3d2a152d	0.0415241
74	0xbe025f86	-0.12731752
75	0xbdcfb5a5	-0.10142068
76	0x3d349e4d	0.04409628
77	0x3c405f93	0.011741537
78	0x3ced7443	0.028986102
79	0x3c7e2418	0.015511535
80	0xbd84b169	-0.06479151
81	0x3d532df3	0.051557492
82	0xbdc68d73	-0.09694948
83	0xbdc4978c	-0.09599218
84	0xbcb2dda4	-0.021834202
85	0xbd352d79	-0.04423282
86	0xbd0f5faf	-0.03500336
87	0x3d569ca2	0.05239547
88	0xbd0e9a82	-0.03481532
89	0x3c642806	0.013925558
90	0xbcad6012	-0.021163974
91	0xbdc8e752	-0.09809746
92	0x3d3a8efc	0.045546517
93	0xbe35edd4	-0.17766505
94	0x3cc2ad70	0.023764342
95	0xbc87842e	-0.01654252
96	0x3daac5fd	0.083385445
97	0xbdc41c18	-0.09575671
98	0xbdb1a528	-0.08674079
99	0xbbc8e81f	-0.0061311866
100	0x3ca035d4	0.019556917
101	0x3cd14ff6	0.025550824
102	0x3e0d36ea	0.1379048
103	0xbd98fc2e	-0.074699745
104	0x3d6e3b52	0.05816204
105	0x3d77841b	0.06042872
106	0xbd2b27d8	-0.041786045
107	0x3d958a67	0.07301789
108	0xbcedca5d	-0.029027158
109	0xbddbb673	-0.10728159
110	0x3dd2f13b	0.10299917
111	0xbc3fc9e5	-0.01170585
112	0x3be4c24d	0.0069811703
113	0x3e0888b8	0.13333404
114	0x3e0cc08b	0.13745324
115	0xbd9ad04f	-0.07559263
116	0xbcf6461f	-0.030062733
117	0x3db16060	0.0866096
118	0x3d570911	0.05249888
119	0xbdac4301	-0.084112175
120	0xbe006013	-0.1253665
121	0x3dc3c091	0.095582135
122	0xbda77539	-0.08176655
123	0x3d99aa82	0.07503225
124	0xbd63556c	-0.055501387
125	0xbd29a4e1	-0.041417006
126	0x3d0c8125	0.03430285
127	0x3daa208e	0.083069906
128	0xbcb1b999	-0.021694945
129	0xbda5c59a	-0.0809433
130	0x3dc6c287	0.09705072
131	0xbc60a40d	-0.013710988
132	0x3d88f16e	0.06686674
133	0xbd794902	-0.06086064
134	0xbda0cabe	-0.0785117
135	0xbd7dc082	-0.061951168
136	0x3d1273db	0.03575502
137	0x3dbca6c9	0.09211499
138	0xbe2745f2	-0.16335276
139	0xbc9aee9e	-0.01891261
140	0xb9064998	-0.00012806652
141	0x3d4d79b2	0.050164886
142	0xbe1538fc	-0.14572519
143	0xbb599612	-0.003320102
144	0x3dfc6ad0	0.1232506
145	0xbd816510	-0.06318104
146	0x3df51f1f	0.119688265
147	0xbd435e7d	-0.047697533
148	0x3e189431	0.1490028
149	0xbda5cfbb	-0.08096262
150	0xbd58f71b	-0.052970033
151	0x3de3dab9	0.111257024
152	0xbc085ac2	-0.00832242
153	0xbde09532	-0.10965957
154	0xbe16c2ee	-0.14722797
155	0x3cae452a	0.021273214
156	0x3c15118c	0.009098422
157	0x3df02584	0.117259055
158	0xbd06d62d	-0.032919098
159	0x3e1669e9	0.14688839
160	0xbd90120a	-0.07034691
161	0xbd506788	-0.050879985
162	0x3e0abf98	0.1354965
163	0x3d8474e8	0.064676106
164	0x3d035fa6	0.03207364
165	0xbce568c2	-0.028004054
166	0x3e1430b3	0.14471702
167	0xbdb6595d	-0.089037634
168	0x3e257aca	0.16160122
169	0xbd9333fe	-0.07187651
170	0xbd01ce66	-0.031690978
171	0xbde0660b	-0.10956963
172	0x3d04f996	0.032464586
173	0x3dbc0b82	0.091818824
174	0x3dbd46c2	0.092420116
175	0x3c127b41	0.008940519
176	0xbdd2385c	-0.10264656
177	0x3bd59ed2	0.006519177
178	0xbdd8ca17	-0.105854206
179	0xbcb80ec1	-0.022467973
180	0x3e34b7bf	0.17648219
181	0xbd04dc01	-0.032436375
182	0xbd96029b	-0.07324716
183	0x3c34a82a	0.011026422
184	0xbc954845	-0.018222937
185	0xbe003b2a	-0.1252257
186	0x3ca68f77	0.020332081
187	0x3df3a7b9	0.11897225
188	0x3dc630ee	0.09677301
189	0xbe075d13	-0.13219099
190	0xbdf2473a	-0.11829992
191	0x3d9da28a	0.076970175
192	0xbd1f80bd	-0.038941134
193	0xbc504d03	-0.0127136735
194	0xbc89a2c4	-0.016801246
195	0xbd6dc4a0	-0.058048844
196	0xbd464876	-0.048408948
197	0xbd97b48c	-0.074074835
198	0xbcb92a50	-0.022603184
199	0x3dc189ff	0.09450149
200	0xbe1f78ff	-0.155735
201	0xbcd8cbae	-0.02646431
202	0x3e163242	0.1466761
203	0xbe197adf	-0.14988278
204	0xbd36a4eb	-0.04459087
205	0x3e21aae2	0.15787843
206	0x3dca9cf9	0.098932214
207	0x3dd4dbc9	0.10393483
208	0xbd72a977	-0.059243646
209	0x3da423d2	0.08014645
210	0x3c40f8df	0.0117780855
211	0x3e1f380c	0.15548724
212	0xbdacd0f3	-0.084382914
213	0x3c9a8357	0.018861456
214	0xbd67148e	-0.056416087
215	0xbe1a6820	-0.15078783
216	0x3cedd6d0	0.029033095
217	0x3d665638	0.05623457
218	0xbd0b4499	-0.034000967
219	0xbe11002e	-0.14160225
220	0xbd158b75	-0.03650995
221	0xbd96d8cb	-0.07365569
222	0x3b9a4448	0.004707847
223	0x3d9a68e2	0.07539536
224	0x3bf54a39	0.0074856547
225	0x3dc8b972	0.09800996
226	0xbe048fbc	-0.12945455
227	0xbd86f6e2	-0.06590058
228	0x3e0b2f91	0.13592364
229	0xbd4a1940	-0.049340487
230	0x3d9acccb	0.075585924
231	0x3caba0dc	0.020950727
232	0x39fd9367	0.00048365744
233	0xbdbb01ca	-0.091312006
234	0x3cc55dc8	0.02409257
235	0x3d107539	0.035268042
236	0x3cc6aa2b	0.024251064
237	0x3dbb6646	0.091503665
238	0xbdfb1016	-0.122589275
239	0x3e24fba1	0.16111614
240	0x3d836cca	0.06417234
241	0x3d148705	0.036261577
242	0xbbaf14b3	-0.0053430437
243	0x3e3e8d6c	0.18608636
244	0x3d23f938	0.040032595
245	0xbddbc142	-0.107302204
246	0xbd8e3314	-0.06943336
247	0xbdbcd415	-0.09220139
248	0xbdb46a04	-0.088092834
249	0x3cada76c	0.021197997
250	0x3d8fb46e	0.07016836
251	0x3d625dd9	0.05526528
252	0xbdc123ab	-0.09430631
253	0x3de5c496	0.112191364
254	0x3d86daaa	0.065846756
255	0x3c9b3ce0	0.018949926

gru.bias_ih_l0 f4 [192]
0	0x3d79a34b	0.060946744
1	0x3dc955af	0.09830796
2	0x3dc5f5e4	0.096660405
3	0x3db76237	0.0895428
4	0x3d6e9cb7	0.058254924
5	0x3cce432f	0.02517852
6	0xbd7fe189	-0.062470946
7	0x3dc1183c	0.094284505
8	0xbd730309	-0.059329066
9	0x3cb83dc1	0.022490384
10	0xbe118818	-0.14212072
11	0xbd7c9af0	-0.061671197
12	0xbd398dd6	-0.04530128
13	0x3dbb704c	0.09152278
14	0x3df5c385	0.12000183
15	0xbd974d47	-0.07387786
16	0x3ce3426c	0.027741633
17	0x3dbc3653	0.09190049
18	0xbc797876	-0.015226474
19	0x3e047d22	0.1293836
20	0x3e616bbf	0.22013758
21	0x3d91e8a7	0.07124453
22	0x3cff330a	0.031152267
23	0xbd016038	-0.031585902
24	0xbe0d2f34	-0.13787538
25	0x3c9b0f22	0.018928114
26	0x3a968b0a	0.0011485529
27	0x3b4d9fe9	0.0031375831
28	0x3dccaccc	0.09993896
29	0x3d8ff668	0.0702942
30	0x3e11713f	0.14203356
31	0xbdf5dafe	-0.1200466
32	0x3d8409c6	0.06447177
33	0xb9841325	-0.00025191266
34	0xbd884211	-0.06653226
35	0xbcad421b	-0.021149686
36	0xbd7d5b9a	-0.061854936
37	0x3cbfd29e	0.02341586
38	0xbd30eee9	-0.043196592
39	0x3df6484b	0.120255075
40	0x3e0d13db	0.13777106
41	0x3db4d682	0.088299766
42	0xbcea68f4	-0.028614499
43	0x3e25766a	0.16158453
44	0x3dba2e62	0.09090878
45	0x3d840733	0.06446686
46	0xbdc66834	-0.09687844
47	0xbdb9774f	-0.090559594
48	0x3db25959	0.08708448
49	0xbe138e21	-0.14409687
50	0x3da1d286	0.07901482
51	0xbc481b39	-0.012213522
52	0x3c236aad	0.009974164
53	0xbdbdd740	-0.09269571
54	0x3dc8a665	0.09797362
55	0xbd22410b	-0.03961281
56	0x3e08e3bf	0.13368128
57	0x3d2fb1a7	0.04289403
58	0xbe087726	-0.13326702
59	0xbdcd1a84	-0.10014823
60	0x3e121bb0	0.14268374
61	0x3e2278c8	0.15866387
62	0xbcb02fc8	-0.021507159
63	0x3d6f02d8	0.05835232
64	0x3de8a234	0.11359063
65	0x3d24ffc1	0.04028297
66	0x3dbbdb29	0.09172661
67	0x3ce76e6f	0.028250901
68	0x3d87d6b8	0.06632751
69	0x3d9070c3	0.070527576
70	0x3e013141	0.12616445
71	0xbd87d564	-0.06632498
72	0x3dc83fc5	0.09777788
73	0x3d6145d9	0.054998253
74	0xbdc2982f	-0.09501683
75	0xbc20307f	-0.009777187
76	0x3d49a60f	0.04923063
77	0x3db5a282	0.088688865
78	0x3d959697	0.07304113
79	0x3bf9ec96	0.00762708
80	0x3cd2f109	0.0257497
81	0x3e6b3b16	0.22971758
82	0xbebb3258	-0.36561847
83	0x3c294665	0.010331725
84	0xbe56fe73	-0.20995502
85	0x3c9053f4	0.017618157
86	0x3dfae20d	0.12250147
87	0xbdbd79ef	-0.092517726
88	0x3e871578	0.26383567
89	0x3d72485c	0.05915104
90	0x3e6b7821	0.22995044
91	0xbb451eb5	-0.0030078117
92	0x3e1a7406	0.15083322
93	0x3e0f2100	0.13977432
94	0xbe31b211	-0.17353083
95	0x3e03dd93	0.12877493
96	0xbcd59e0a	-0.026076335
97	0xbb26a49b	-0.0025427702
98	0xbd815bd1	-0.06316341
99	0xbe20dad1	-0.15708472
100	0xbdf9f180	-0.122042656
101	0x3e8736fa	0.2640913
102	0x3d1515c9	0.03639773
103	0x3e4e470a	0.20144287
104	0x3d2e2fd6	0.04252609
105	0x3d7ea3df	0.062168
106	0xbbd54a83	-0.0065091266
107	0x3e0ada83	0.13559918
108	0x3d6158e4	0.055016413
109	0xbe04b85b	-0.12960951
110	0xbea22ac0	-0.3167324
111	0xbd89a901	-0.06721688
112	0x3e109cad	0.14122267
113	0x3e5a195f	0.21298741
114	0xbd298051	-0.041382138
115	0x3e1aae81	0.1510563
116	0x3c9be8ed	0.019031966
117	0x3e0b1101	0.13580705
118	0x3c91e81d	0.017810876
119	0xbd897e49	-0.0671354
120	0x3e203985	0.15646942
121	0x3e13a470	0.14418197
122	0x3dc454b8	0.09586471
123	0x3cb3fff7	0.02197264
124	0xbe8f3066	-0.27966613
125	0x3e309ed0	0.17248082
126	0x3e045417	0.12922703
127	0xbe86e51b	-0.2634667
128	0xbc7c96c2	-0.015416803
129	0xbc58dda6	-0.013236439
130	0x3c1e649d	0.009667543
131	0x3c8f65c9	0.01750459
132	0xbdca7b4b	-0.098867975
133	0xbd9ea91c	-0.07747099
134	0xbdab79c5	-0.08372835
135	0x3d3db622	0.046316274
136	0xbd9aed8b	-0.07564839
137	0xbcc5b8d1	-0.024135979
138	0x3ddfa7c9	0.10920674
139	0xbb6638ab	-0.0035128992
140	0xbc4a44a4	-0.012345467
141	0x3c496c09	0.012293824
142	0xbcd4b8de	-0.025967058
143	0x3dd132e1	0.102147825
144	0x3d310a21	0.04322255
145	0xbe34206e	-0.17590496
146	0x3dbec4e3	0.09314897
147	0xbcbf7133	-0.023369407
148	0x3d9763ca	0.0739208
149	0xbe2a32e7	-0.1662098
150	0x3c4aa7e1	0.012369127
151	0xbd1be06d	-0.038055826
152	0xbd8b33a6	-0.067969605
153	0xbe2943f8	-0.16529834
154	0x3d28b3fa	0.041187264
155	0xbd7e790c	-0.062127158
156	0x3e0865c5	0.13320072
157	0x3c003be9	0.007826784
158	0x3d524bf2	0.05134196
159	0x3e323048	0.1740123
160	0xbd094519	-0.033513162
161	0xbd83b140	-0.06430292
162	0xbd8a7cec	-0.06762108
163	0xbe12cd95	-0.14336236
164	0x3d114b5d	0.035472263
165	0x3da1ccdf	0.07900404
166	0xbdae7825	-0.085190095
167	0x3d39fa1b	0.045404535
168	0xbd5e9898	-0.054344743
169	0xbcc3e474	-0.023912646
170	0xbddd5312	-0.1080686
171	0x3c487f9d	0.012237457
172	0x3deda217	0.11603182
173	0xbd536a6c	-0.051615164
174	0x3db73c15	0.089470066
175	0x3e03fc51	0.1288922
176	0x3d531f8e	0.051543765
177	0x3e24dd33	0.16100006
178	0xbbed9d82	-0.0072514424
179	0x3db85765	0.09001044
180	0x3d866268	0.06561738
181	0xbd8b1f6e	-0.06793104
182	0x3c9f8880	0.019474268
183	0x3db6f650	0.08933699
184	0x3d8b6058	0.068054855
185	0x3d82807d	0.063721634
186	0x3d93e5a1	0.072215326
187	0xbc5b1e44	-0.013373915
188	0x3de0c852	0.10975708
189	0x3e02333f	0.12714861
190	0x3c48d218	0.0122571215
191	0x3d495d57	0.04916128

gru.bias_hh_l0 f4 [192]
0	0x3dde03b4	0.1084055
1	0x3de54d53	0.11196389
2	0xbd4968c4	-0.049172178
3	0x3d0fdfac	0.03512542
4	0xbbe4cd3f	-0.006982475
5	0x3d99fa49	0.07518441
6	0xbdf796c5	-0.12089304
7	0x3d8b88d7	0.068132095
8	0x3b237c82	0.0024946039
9	0x3e04d03b	0.12970059
10	0x3b3364a9	0.002737323
11	0xbd46a152	-0.04849369
12	0xbda2044e	-0.07910977
13	0xbd8c6f44	-0.0685716
14	0x3e200395	0.15626366
15	0x3c912206	0.017716419
16	0x3df2feb5	0.11864988
17	0x3da95bef	0.08269488
18	0xbe31a658	-0.17348611
19	0x3e0fdce0	0.14049101
20	0x3e1832fa	0.14863196
21	0x3d869ec5	0.06573252
22	0xbd493f94	-0.0491329
23	0xbe0d0644	-0.13771921
24	0xbd3a6ab1	-0.045511905
25	0xbdd7b0a1	-0.10531736
26	0xbd8fa48e	-0.07013808
27	0xbd3a4117	-0.04547223
28	0x3cbcbc90	0.023039132
29	0x3db0fed8	0.086423576
30	0xbd4c4ab3	-0.049875926
31	0x3d89cb89	0.067282744
32	0x3c9a6afd	0.018849844
33	0xbd2aaac4	-0.04166676
34	0xbdeb1cf5	-0.114801325
35	0xbd319bcd	-0.043361474
36	0xbc326b3b	-0.010889824
37	0xbdf615ca	-0.12015875
38	0x3da6f83e	0.08152817
39	0x3d87b409	0.06626136
40	0x3e0775eb	0.13228576
41	0x3d234ab0	0.03986615
42	0xbd659382	-0.056048878
43	0x3de06324	0.109564096
44	0x3d9eb04c	0.0774847
45	0xbe026597	-0.12734066
46	0xbc93d163	-0.01804418
47	0xbdb35af9	-0.08757586
48	0x3e4ff36e	0.20307705
49	0xbe1bcd52	-0.15215042
50	0xbd5e6e4f	-0.054304417
51	0x3b22fa27	0.002486834
52	0x3d4745c8	0.048650533
53	0xbdcdba40	-0.1004529
54	0x3cb1672c	0.021655641
55	0x3d31e55c	0.043431625
56	0xbd21d57a	-0.039510228
57	0x3df41cc3	0.11919548
58	0xbd3873fa	-0.04503248
59	0x3d4cffbf	0.050048586
60	0xbcffb1b8	-0.031212673
61	0xbc20490a	-0.009783039
62	0x3d221064	0.039566413
63	0xbd7bc131	-0.06146354
64	0xbd9bfff9	-0.07617182
65	0xbda73d7c	-0.08166024
66	0xbc5b7ff6	-0.0133972075
67	0x3db165b1	0.08661974
68	0x3e00d65b	0.1258177
69	0xbd9f706f	-0.07785117
70	0xbd08ccd5	-0.033398468
71	0xbe40f932	-0.1884506
72	0x3c022753	0.007943946
73	0xbce2389f	-0.02761489
74	0xbe660358	-0.22462213
75	0x3dd725da	0.105052665
76	0x3d556bda	0.05210481
77	0x3d54def3	0.051970433
78	0x3e10b731	0.14132382
79	0xbd513913	-0.05107982
80	0x3e6e26d7	0.23257004
81	0x3d5f23e6	0.054477595
82	0xbe9edc3a	-0.31027395
83	0x3e07cafb	0.13261025
84	0xbe855b48	-0.26046205
85	0xbd62792f	-0.05529135
86	0x3e085ad2	0.13315895
87	0xbc95de32	-0.018294428
88	0x3d83b786	0.06431489
89	0x3db3c4f6	0.08777802
90	0x3e15d604	0.14632422
91	0x3d881b07	0.0664578
92	0x3e00dd89	0.12584509
93	0x3d071081	0.032974724
94	0xbe79fea8	-0.2441355
95	0x3cc223ed	0.023698771
96	0x3d3951de	0.04524409
97	0xbdd54664	-0.104138166
98	0x3d44eb83	0.048076164
99	0xbebc5727	-0.36785242
100	0xbc5e6d1e	-0.01357582
101	0x3e1af112	0.15131024
102	0x3cb8f348	0.022576943
103	0x3df840f4	0.12121764
104	0xbdf3951d	-0.118936755
105	0xbc4fa52e	-0.012673659
106	0x3c366f38	0.011134915
107	0x3ddff77d	0.109358765
108	0x3d865a89	0.06560237
109	0xbe8b25bf	-0.27177235
110	0xbe2ae291	-0.1668799
111	0xbd3326aa	-0.043738045
112	0x3d591849	0.053001676
113	0x3e7b04f2	0.24513605
114	0x3baa56f7	0.0051983553
115	0x3bae4a3e	0.005318909
116	0xbd82e93e	-0.06392144
117	0x3df9f993	0.12205806
118	0x3dcf68f4	0.1012744
119	0xbe44615a	-0.19177762
120	0x3e278392	0.16358784
121	0x3e80ee14	0.2518164
122	0x3e016acb	0.12638395
123	0x3d88dc73	0.06682672
124	0xbea8a210	-0.32936144
125	0x3e315657	0.17318092
126	0xbd6cd6be	-0.05782198
127	0xbe9a733f	-0.3016605
128	0xbe06119f	-0.1309266
129	0x3d80ef46	0.06295638
130	0xbd59f667	-0.053213503
131	0x3d6fdbb3	0.05855913
132	0x3dbf2ffe	0.09335326
133	0xbb1dd53e	-0.00240834
134	0x3d7edbdd	0.062221397
135	0xbd05cf73	-0.032668542
136	0xbdf65813	-0.120285176
137	0xbd8b176e	-0.06791578
138	0x3c0a440a	0.008439073
139	0xbd7c326a	-0.061571516
140	0xbe113e16	-0.1418384
141	0xbe3fda58	-0.18735635
142	0x3df3b065	0.11898879
143	0x3ca7b3d4	0.02047149
144	0xba487ab6	-0.000764768
145	0xbd8cabbc	-0.06868693
146	0x3da101ff	0.07861709
147	0xbdba0c02	-0.090843216
148	0x3e0ca1b7	0.13733564
149	0x3aedfd85	0.001815722
150	0xbd6e6a6b	-0.058206957
151	0x3e17c5a4	0.14821488
152	0x3ceda709	0.029010313
153	0xbb660a2c	-0.0035101278
154	0x3ded60f4	0.11590758
155	0x3dd28338	0.10278934
156	0x3e003648	0.12520707
157	0x3d146c54	0.036236122
158	0xbd7fce5b	-0.062452655
159	0xbd9f655f	-0.07783007
160	0xbab7332a	-0.001397704
161	0x3dd060bf	0.10174703
162	0x3d076c2e	0.033062153
163	0xbd8375fa	-0.064189866
164	0xbc9ba0b3	-0.018997526
165	0xbd1e8ae7	-0.038706686
166	0xbd7964e1	-0.06088722
167	0x3e12e76a	0.1434609
168	0x3c4ffea5	0.012694989
169	0xbe194844	-0.14968973
170	0x3bc2f79b	0.005949927
171	0xbdae58d6	-0.08513038
172	0x3d407a5d	0.046991695
173	0xbded0ac4	-0.11574319
174	0xbd785aa3	-0.060633313
175	0xbce0ef8c	-0.027457975
176	0xbd9d5802	-0.07682802
177	0x3e185bdd	0.14878793
178	0x3ddb2075	0.1069955
179	0xbd203909	-0.039116893
180	0x3de2140d	0.11038981
181	0x3cfbb5ec	0.030726396
182	0x3c65e66a	0.014031986
183	0xbd8c1b42	-0.068411365
184	0x3ddb1c79	0.1069879
185	0xbdbaae3e	-0.09115265
186	0x3dc4fef7	0.09618943
187	0x3d5a7907	0.053338077
188	0xbd4ff085	-0.050766487
189	0x3e05c3d1	0.1306298
190	0x3b3f68af	0.0029206683
191	0xbd052750	-0.032508194

head.0.weight f4 [64, 64]
0	0x3d345743	0.04402853
1	0xbca5d378	-0.020242438
2	0xbde18018	-0.1101076
3	0xbe2cbf83	-0.16869931
4	0x3e0d80b4	0.13818628
5	0xbc2a2efb	-0.010387178
6	0xbde2cae8	-0.110738575
7	0xbc16c9cd	-0.0092033865
8	0x3dec2dea	0.11532195
9	0x3da04eaa	0.07827504
10	0xbd84a444	-0.06476644
11	0xbe32d35c	-0.1746344
12	0x3d023a59	0.031793926
13	0xbceb5c08	-0.028730407
14	0x3d9ef7b3	0.077620886
15	0xbd7b31e5	-0.06132688
16	0x3cfeb857	0.03109376
17	0xbd5b958a	-0.05360941
18	0x3df0556e	0.117350444
19	0x3d86fb8e	0.06590949
20	0xbc8fb96c	-0.01754447
21	0x3e016d80	0.12639427
22	0x3d6fd841	0.058555845
23	0x3e0fb1ed	0.14032717
24	0x3dcee6ec	0.101026386
25	0xbe3ae97c	-0.1825313
26	0xbdcfbd06	-0.10143475
27	0xbcc3dbf8	-0.0239086
28	0x3e03cfe0	0.12872267
29	0x3e5c9d42	0.21544364
30	0x3c09ce4a	0.008411
31	0x3d9e4002	0.07727052
32	0x3e52e7fc	0.20596308
33	0x3dac0e8c	0.08401212
34	0x3e0c25cc	0.13686293
35	0x3c99c388	0.018769994
36	0x3c948175	0.018128136
37	0xbe433960	-0.19064856
38	0xbdc8f703	-0.09812739
39	0xbd89feca	-0.0673805
40	0x3c112bba	0.008860523
41	0x3cd711fa	0.02625369
42	0x3da8db97	0.082450084
43	0x3d636e30	0.055525005
44	0x3d594a8d	0.053049613
45	0x3d45d6c0	0.048300505
46	0x3dcc52c1	0.099767216
47	0xbcff9ee4	-0.031203695
48	0xbdc4c503	-0.096078895
49	0xbd2b2441	-0.04178262
50	0xbda49ed4	-0.080381066
51	0x3d2866e7	0.04111376
52	0x3d869ba0	0.06572652
53	0xb9998d9b	-0.00029287938
54	0x3db853fa	0.09000392
55	0xbdf0adba	-0.11751886
56	0xbd6b01e9	-0.05737487
57	0xbe1f5648	-0.15560257
58	0xbc72ee33	-0.014827299
59	0x3e075967	0.13217698
60	0xbe389ae1	-0.18027832
61	0xbe0f05e1	-0.13967086
62	0x3d2e3b5a	0.04253707
63	0x3e1e928b	0.15485589
64	0x3d17e5bd	0.03708433
65	0xbd947067	-0.072480015
66	0xbdc92f67	-0.098234944
67	0x3ded78bb	0.11595293
68	0xbdf2c3a6	-0.11853723
69	0xbd86a5a0	-0.06574559
70	0x3ded0265	0.11572722
71	0xbd5fc263	-0.05462874
72	0x3baa206b	0.005191853
73	0xbdcb5ec0	-0.099301815
74	0x3e060e59	0.1309141
75	0xbba1c549	-0.0049368483
76	0xbd50694d	-0.050881673
77	0xbd992b0b	-0.07478913
78	0xbca964b1	-0.020677896
79	0x3d421afa	0.047389008
80	0xba03428a	-0.00050071685
81	0x3cd3c239	0.025849449
82	0xbdaa0f65	-0.083037175
83	0x3d74627b	0.05966423
84	0x3d60491b	0.05475722
85	0xbd903208	-0.07040793
86	0x3d63f6a0	0.05565512
87	0xbccfbe7b	-0.025359383
88	0xbe18d600	-0.14925385
89	0x3df8b646	0.12144141
90	0xbb834863	-0.004006432
91	0x3cd3818a	0.025818605
92	0xbd7daaee	-0.06193059
93	0x3db4606a	0.08807452
94	0x3d99974b	0.0749956
95	0x3e132d1b	0.14372675
96	0x3c2650d6	0.010151109
97	0xbcc666de	-0.024218973
98	0xbe07ddc5	-0.13268192
99	0xbe0fc0b6	-0.14038357
100	0xbd218ede	-0.03944289
101	0x3d83a5d4	0.064281136
102	0xbda124d8	-0.078683555
103	0x3de1a415	0.11017624
104	0xbe1b24c4	-0.15150744
105	0xbaa702d3	-0.001274193
106	0x3c5bc6e5	0.013414119
107	0xbc106d2d	-0.008815092
108	0x3e1b96cb	0.15194242
109	0xbe1d0805	-0.1533509
110	0xbde64e0d	-0.11245356
111	0x3bf9bd9b	0.0076214797
112	0x3da2233c	0.07916877
113	0x3de0e1d7	0.109805755
114	0x3d945f22	0.07244708
115	0x3d03d585	0.03218605
116	0xbdbb5863	-0.09147718
117	0x3ba787f6	0.0051126434
118	0x3dcb8f49	0.09939439
119	0xbc1e7f06	-0.009673839
120	0xbdf6e69f	-0.12055706
121	0x3d99d635	0.0751156
122	0xbd9da01d	-0.07696555
123	0xbd12815d	-0.0357679
124	0x3d604a10	0.05475813
125	0x3d79977d	0.060935486
126	0x3b610ec3	0.0034341074
127	0xbdc20a61	-0.09474636
128	0x3d1210dd	0.035660613
129	0xbde7d561	-0.11319996
130	0xbda1f213	-0.079075
131	0xbd505674	-0.050863698
132	0xbddeea03	-0.10884478
133	0xbcaab12e	-0.020836439
134	0x3da88220	0.082279444
135	0xbd38f765	-0.04515781
136	0x3aea0642	0.0017854648
137	0xbc88905c	-0.016670398
138	0x3c9894e2	0.01862568
139	0xbdb6c321	-0.08923937
140	0xbe02d5df	-0.12776898
141	0xbe0a050e	-0.1347849
142	0xbd8c648a	-0.06855114
143	0x3da1b2b2	0.078954116
144	0xbd34070f	-0.043952044
145	0xbca688c8	-0.020328894
146	0x3d0cf7c7	0.034415986
147	0x3d964111	0.07336629
148	0x3da6b529	0.08140022
149	0xbd9f16ca	-0.077680185
150	0x3db90a45	0.09035162
151	0x3ca37395	0.019952575
152	0xbc9cf3cf	-0.019159226
153	0xbe0058b1	-0.12533833
154	0xbcd73d14	-0.026274242
155	0xbdd08a27	-0.101826005
156	0xbd51e920	-0.051247716
157	0xbc8fb001	-0.01753998
158	0x3ce370c2	0.027763728
159	0x3dbe3d12	0.09288992
160	0xbd846f7a	-0.06466575
161	0x3e025fcd	0.12731858
162	0xbcd137b9	-0.025539266
163	0x3ce51708	0.027965084
164	0x3deac6fd	0.11463735
165	0x3e0fa96a	0.1402947
166	0x3d846b0d	0.06465731
167	0xbcf57a56	-0.02996556
168	0xbc69ece5	-0.014277671
169	0xbd654857	-0.05597719
170	0x3da8d8f6	0.08244507
171	0xbdb3b88a	-0.087754324
172	0xbcc95e95	-0.024581233
173	0xbe0227f2	-0.1271055
174	0xbd51ed06	-0.051251434
175	0x3e35ba78	0.17746913
176	0xbe08013a	-0.13281718
177	0x3d7cc58f	0.061711844
178	0x3d914aa9	0.070943184
179	0x3e3344b9	0.17506684
180	0xbb7fceae	-0.0039033103
181	0x3ded0c19	0.11574573
182	0x3de18e45	0.11013464
183	0xbd85c44d	-0.06531582
184	0xba1ea983	-0.0006052481
185	0xbb364947	-0.0027814673
186	0x3deec1c0	0.11658049
187	0x3c057a24	0.008146796
188	0x3e1cf980	0.15329552
189	0xbb0aa46e	-0.0021155137
190	0x3de4423c	0.11145446
191	0xbd462565	-0.048375506
192	0xbce75d59	-0.028242754
193	0x3cdd33c9	0.027002232
194	0x3d0c8adf	0.034312125
195	0xbda39276	-0.079869196
196	0xbdce69f2	-0.10078801
197	0xbd08754e	-0.033314995
198	0xbd384ae4	-0.044993296
199	0xbdaff30b	-0.08591279
200	0xbd9ca5f1	-0.07648838
201	0xbcfdca0f	-0.030980138
202	0xbd3c9378	-0.046039075
203	0x3d1affe9	0.03784171
204	0xbe0f5db3	-0.14000587
205	0xbd99aba0	-0.07503438
206	0x3cef90ce	0.029243853
207	0xbca5804f	-0.020202784
208	0xbdba965d	-0.09110711
209	0xbd356a49	-0.044290815
210	0x3df4e292	0.11957277
211	0xbdaf2869	-0.085526295
212	0x3ceaf87d	0.028682942
213	0xbe0901de	-0.13379619
214	0x3db64967	0.08900719
215	0xbb6d6d2f	-0.0036228409
216	0xbd8a2b6a	-0.06746562
217	0xbd4af884	-0.04955341
218	0x3da2a0d6	0.07940833
219	0x3c4d38dd	0.012525764
220	0xbcfbc350	-0.03073278
221	0xbc93ec5d	-0.018057043
222	0x3e2283dc	0.15870613
223	0x3d3b5e5f	0.045744296
224	0x3d9506cc	0.07276687
225	0x3ccda4cf	0.025103
226	0xbc63edbd	-0.013911662
227	0xbd08575c	-0.033286437
228	0xbd906f9a	-0.07052536
229	0x3d5ebfd7	0.05438217
230	0xbd9e6ff8	-0.077362
231	0xbda082c4	-0.078374416
232	0xbd06d82c	-0.032921
233	0xbd035b1a	-0.032069303
234	0xbd32ef99	-0.04368553
235	0x3d807867	0.06272965
236	0x3dcf33d5	0.10117308
237	0xbdc885ed	-0.09791169
238	0xbd6de251	-0.05807716
239	0x3d76aeda	0.060225345
240	0x3de8855a	0.1135356
241	0x3cb758ce	0.022381213
242	0x3de5c9a3	0.112201
243	0xbd685713	-0.056723665
244	0x3c2aa5b2	0.010415481
245	0x3d4320d2	0.04763872
246	0xbdc8dd10	-0.09807789
247	0x3e06271d	0.13100858
248	0xbdade15c	-0.084902495
249	0x3dfe230c	0.124090284
250	0x3d9538ba	0.0728621
251	0xbd90ca02	-0.0706978
252	0x3c996adb	0.01872771
253	0x3e04b436	0.1295937
254	0xbce1e054	-0.027572788
255	0xbcd0567d	-0.025431866

head.0.bias f4 [64]
0	0x3cf8b88c	0.030361436
1	0x3dd9921c	0.10623571
2	0xbd8c0e59	-0.06838674
3	0xbd60c055	-0.054870922
4	0xbd706415	-0.058689196
5	0x3d7eebe7	0.062236693
6	0x3df9ca04	0.121967345
7	0xbd229ade	-0.039698474
8	0x3d4ebb00	0.050471306
9	0x3e133de7	0.14379083
10	0xbcb1069c	-0.021609597
11	0xba5680f1	-0.0008182666
12	0x3d5d8d65	0.054089922
13	0xbd60bc13	-0.05486686
14	0xba090b4d	-0.0005227819
15	0xbba317f1	-0.0049772193
16	0x3c244822	0.010026963
17	0xbd802408	-0.062568724
18	0xbdddc004	-0.1082764
19	0x3d1703eb	0.03686897
20	0xbde92e0e	-0.11385737
21	0x3db6813f	0.089113705
22	0x3e2cf84e	0.16891596
23	0x3d8d1dec	0.06890473
24	0xbd8377fa	-0.06419368
25	0x3e27ab10	0.16373849
26	0xbcff1d9d	-0.03114205
27	0xbd901e49	-0.070370264
28	0x3cf3db5b	0.029767683
29	0xbc3c20de	-0.0114824455
30	0x3af97a0d	0.0019033566
31	0x3a3965f1	0.00070723804
32	0xbe011150	-0.1260426
33	0xbbb733f6	-0.005590911
34	0xbcc72cc5	-0.02431334
35	0xbd37faa8	-0.04491678
36	0x3d1f29c6	0.038858198
37	0x3d1c0ce6	0.03809824
38	0x3e0d554e	0.13802072
39	0xbcd8b566	-0.026453685
40	0x3af46cd2	0.0018648154
41	0x3c929cfc	0.017897122
42	0x3e598b84	0.21244627
43	0xbd4e2700	-0.050330162
44	0x3d8e97bc	0.06962535
45	0x3d8a407f	0.06750583
46	0xbc6484f5	-0.013947715
47	0xbd90191f	-0.070360415
48	0x3d68b623	0.056814324
49	0xbde5a1c7	-0.11212497
50	0x3e104683	0.14089398
51	0x3e0b74c2	0.13618758
52	0xbd529ecd	-0.051420975
53	0xbb87cca7	-0.0041442695
54	0xbca6f7ba	-0.020381797
55	0x3e051708	0.12997067
56	0xbd5414ea	-0.051777758
57	0xbd80d6e7	-0.06290989
58	0xbcd29571	-0.025706025
59	0x3dc6226c	0.09674534
60	0x3cc94e64	0.024573512
61	0x3bb57722	0.0055378834
62	0x3db56672	0.088574305
63	0x3d92bdc6	0.07165103

head.2.weight f4 [1, 64]
0	0xbe2ea481	-0.17054941
1	0x3d5aec84	0.053448215
2	0x3decb351	0.115576394
3	0x3de76ae6	0.11299686
4	0xbdd89b12	-0.10576452
5	0xbdc27984	-0.094958335
6	0x3dff45fa	0.12464519
7	0xbe16d6e4	-0.14730412
8	0x3e017c4c	0.12645072
9	0x3dd57c6d	0.10424123
10	0xbdc52ba8	-0.096274674
11	0x3e093fbd	0.1340322
12	0x3dfd3005	0.123626746
13	0xbea73ec6	-0.3266508
14	0x3d92452c	0.071421
15	0xbd048df9	-0.03236196
16	0xbe1f495a	-0.15555325
17	0x3e378cc8	0.17924798
18	0xbe132cb0	-0.14372516
19	0xbdcb6ca7	-0.09932833
20	0x3e9c90c5	0.305792
21	0x3e18a964	0.14908367
22	0x3dc7d768	0.09757882
23	0x3e23d47a	0.15999022
24	0xbda27142	-0.079317585
25	0x3d5a9fd4	0.05337508
26	0xbe56a55d	-0.20961519
27	0xbe1eb892	-0.15500095
28	0xbd2c2755	-0.042029697
29	0xbe09138e	-0.13386366
30	0x3dd91599	0.105998226
31	0x3da72c92	0.08162798
32	0xbd2782b1	-0.04089612
33	0xbd41ac2a	-0.04728333
34	0xbe443873	-0.19162159
35	0xbdbcd9db	-0.0922124
36	0xbe04dfd7	-0.12976013
37	0x3dda83ca	0.10669668
38	0x3ded453f	0.11585473
39	0x3c8ded75	0.017325142
40	0xbdb68b74	-0.08913317
41	0x3da93f25	0.08263997
42	0x3e65b14d	0.22430916
43	0x3e08efd7	0.13372742
44	0xbb39a071	-0.002832439
45	0xbd8069c2	-0.06270172
46	0x3d93e982	0.072222725
47	0xbdb70b79	-0.08937735
48	0xbdada14f	-0.08478033
49	0xbd4cc5ed	-0.049993444
50	0xbe40c953	-0.18826799
51	0x3d7d479f	0.06183588
52	0xbdf282f0	-0.118413806
53	0xbe010981	-0.12601282
54	0xbe071d39	-0.13194741
55	0x3deeedf5	0.116664805
56	0xbdd1dce2	-0.10247208
57	0xbe268dfd	-0.16265102
58	0xbdae1a80	-0.08501148
59	0x3e1cbef2	0.15307215
60	0xbe4a9c59	-0.19786204
61	0xbe27a4c0	-0.16371441
62	0x3d939036	0.072052404
63	0xbddeac4c	-0.10872707
