outputs/exp_0003_20251213_123043/runs/seed0/h10/OnlineSGD/model_final.pt (torch, 71493 bytes, 7 tensors)

gru.weight_ih_l0 f4 [192, 1]
0	0x3dde82bc	0.10864779
1	0x3e0b3fb7	0.13598524
2	0xbdf1722d	-0.117893554
3	0xbe5beda1	-0.21477367
4	0xbd36bb3a	-0.044612147
5	0x3deb2e72	0.11483468
6	0xbc07132f	-0.00824432
7	0x3e6fef39	0.234311
8	0x3b1a5a9d	0.0023552545
9	0x3e123e3e	0.14281556
10	0xbd9f8e46	-0.077908084
11	0x3d9d726a	0.076878384
12	0xbdc2e364	-0.095160276
13	0xbdb211db	-0.08694812
14	0xbcdeaa13	-0.027180707
15	0xbddbbd96	-0.1072952
16	0x3e1ca6e2	0.15298036
17	0x3dda8e4a	0.10671671
18	0xbdcb47dc	-0.099258155
19	0xbe3107a9	-0.17288078
20	0xbd4f5670	-0.050619543
21	0x3e1dbba7	0.15403615
22	0x3d01fb99	0.031734083
23	0x3e468ba3	0.19389205
24	0xbcbe11ba	-0.023201812
25	0x3d2e4d38	0.04255411
26	0x3d8830c3	0.066499256
27	0xbdab72db	-0.08371516
28	0xbe053f7c	-0.13012499
29	0x3c56e13a	0.013115222
30	0xbd3128a8	-0.043251663
31	0x3e6a74d4	0.22896129
32	0xbdc0985f	-0.094040625
33	0x3db61f2d	0.08892665
34	0xbd7c6879	-0.06162307
35	0xbd84fe97	-0.06493872
36	0xbe1a2967	-0.15054856
37	0x3d5cf304	0.053942695
38	0x3e4263ad	0.18983336
39	0x3e4f81fe	0.20264432
40	0x3dbd5b8e	0.09245978
41	0x3d811f1d	0.063047625
42	0x3ceb9ec4	0.028762229
43	0xbe48d604	-0.1961289
44	0xbd868316	-0.065679714
45	0xbc4cf3c5	-0.012509291
46	0x3dc61271	0.09671486
47	0x3dfb5e12	0.12273802
48	0xbd203b2d	-0.039118934
49	0x3da81d28	0.08208686
50	0x3dc6bf61	0.097044714
51	0x3e564502	0.20924762
52	0x3da9cca2	0.08290984
53	0x3cd5533d	0.026040668
54	0x3de08512	0.10962881
55	0xbdce1b68	-0.10063821
56	0x3d819413	0.06327071
57	0xbdaf906e	-0.0857247
58	0xbc3d4904	-0.011553053
59	0xbdf525d1	-0.119701035
60	0x3df1488c	0.11781415
61	0x3aee20e4	0.0018167761
62	0xbd9fa029	-0.0779422
63	0x3d9df074	0.077118784
64	0x3c370bd5	0.011172255
65	0x3d85abc3	0.065269016
66	0xbb97ab24	-0.004628556
67	0x3d3e06c0	0.046393156
68	0x3cc96e7b	0.024588814
69	0x3dba866b	0.091076694
70	0xbdc07070	-0.09396446
71	0xbd95acfc	-0.07308385
72	0xbbc7cf98	-0.006097745
73	0x3e150aac	0.14554852
74	0x3e47906f	0.19488691
75	0x3e283edf	0.16430233
76	0xbd238175	-0.03991838
77	0xbdadd771	-0.08488358
78	0xbd0099ba	-0.031396605
79	0xbdca63ef	-0.09882342
80	0xbddd8262	-0.10815884
81	0x3df9938d	0.12186346
82	0x3d80dd79	0.062922426
83	0xbdee2f3a	-0.116301015
84	0x3b3d3524	0.0028870786
85	0xbcf63c19	-0.030057954
86	0xbc7e1c84	-0.015509728
87	0xbb9beb2d	-0.0047582597
88	0x3e06fb32	0.13181761
89	0xbd9789b0	-0.07399309
90	0x3d29930f	0.04140001
91	0x3dd007f7	0.10157769
92	0x3e1174eb	0.14204757
93	0x3cbc2a15	0.022969285
94	0xbddff5d0	-0.10935557
95	0xbdc83807	-0.09776311
96	0x3df11ec9	0.1177345
97	0x3d5e49ea	0.05426971
98	0xbd4404a1	-0.047855977
99	0xbd110fe2	-0.035415538
100	0x3d953a42	0.072865024
101	0x3db033a9	0.086036034
102	0xbdaa037b	-0.08301445
103	0xbd17bb47	-0.037043836
104	0xbe0c43f2	-0.13697794
105	0x3d81f053	0.06344666
106	0xbd232b0a	-0.039835967
107	0xbd7f0d9f	-0.06226885
108	0x3bf8a7d6	0.007588367
109	0xbcfb54b1	-0.030680032
110	0xbd684256	-0.056703888
111	0x3d9bf95c	0.07615921
112	0xbda20ede	-0.07912992
113	0x3e398ba6	0.18119678
114	0x3d4f0919	0.050545786
115	0xbda1319b	-0.078707896
116	0xbdb6026b	-0.0888718
117	0xbd3d7837	-0.046257224
118	0x3d65a284	0.05606319
119	0xbd317b36	-0.043330394
120	0x3dc42eb4	0.095792204
121	0xbd20075e	-0.039069526
122	0xbd50535a	-0.05086074
123	0x3d07701d	0.033065904
124	0xbe0d47ec	-0.13796967
125	0xbdc840ec	-0.09778008
126	0x3cca59ea	0.024701077
127	0xbd02dcf2	-0.03194899
128	0xbdc8958f	-0.09794151
129	0xbe5bde5a	-0.21471539
130	0x3d4cb088	0.04997304
131	0x3de84d9f	0.1134293
132	0xbe3eede8	-0.18645442
133	0xbe081383	-0.13288693
134	0x3e568be5	0.20951803
135	0xbdcce924	-0.100054055
136	0x3c91404b	0.017730853
137	0x3d3e3cea	0.04644481
138	0xbd9c3238	-0.07626766
139	0x3d7d4dee	0.061841898
140	0x3e365982	0.17807582
141	0x3e4c8936	0.19974217
142	0x3e73fb11	0.23826243
143	0xbd2867f9	-0.04111478
144	0xbdde1853	-0.10844483
145	0xbe1dd77c	-0.15414232
146	0x3da5ebf0	0.08101642
147	0xbe059132	-0.13043669
148	0xbe1e0ba5	-0.1543413
149	0xbdde1481	-0.108437546
150	0xbdf9dd38	-0.12200397
151	0xbe00f132	-0.12592009
152	0xbd9fce32	-0.078030005
153	0x3e0e04d0	0.13869023
154	0xbcbe02e5	-0.02319474
155	0xbe264f35	-0.16241153
156	0x3d5991a6	0.053117417
157	0xbe2ea78c	-0.17056102
158	0xbe2abeb3	-0.16674308
159	0xbe0b445b	-0.13600294
160	0x3d0cbc4f	0.034359273
161	0xbdc8bd71	-0.09801758
162	0xbe14f5a8	-0.14546835
163	0xbe191d09	-0.14952482
164	0xbd6c747e	-0.057728283
165	0x3de9895c	0.11403152
166	0xbde61a9e	-0.112355456
167	0x3e0f5b47	0.13999663
168	0xbe4dce00	-0.20098114
169	0xbd21f895	-0.039543707
170	0x3e0154db	0.12630026
171	0x3d8d4d8d	0.06899557
172	0x3e3ad968	0.18246996
173	0x3e310b42	0.17289451
174	0xbe823a1b	-0.25434956
175	0x3e0ceef8	0.13763034
176	0xbdd018c7	-0.10160976
177	0xbdd2f350	-0.103003144
178	0x3e41355a	0.18868008
179	0xbe1f8a8f	-0.155802
180	0x3c153057	0.009105763
181	0xbe0b3558	-0.13594568
182	0x3e645a5d	0.22300096
183	0x3d28b856	0.04119142
184	0x3e1e043d	0.15431304
185	0x3dccad25	0.09993962
186	0xbddb350f	-0.107034795
187	0xbddb3ee2	-0.10705353
188	0xbe457b4f	-0.1928532
189	0xbd071c24	-0.03298582
190	0x3d3ef978	0.04662463
191	0x3d5c4e2a	0.05378548

gru.weight_hh_l0 f4 [192, 64]
0	0xbe47441e	-0.19459578
1	0x3bd33646	0.006445679
2	0xbe24f111	-0.16107585
3	0xbe0a84ff	-0.13527296
4	0xbe2cc916	-0.16873583
5	0x3ddef39b	0.10886308
6	0xbdc5260c	-0.096263975
7	0xbde951ca	-0.11392553
8	0xbcc3e9dc	-0.023915224
9	0xbcef6965	-0.02922506
10	0x3cef98d1	0.029247673
11	0x3da38cf1	0.07985867
12	0x3c83f549	0.016108172
13	0x3e07283d	0.13198943
14	0x3d248be7	0.040172484
15	0x3e01c965	0.12674482
16	0x3dd33cbb	0.10314318
17	0xbd19ad12	-0.03751857
18	0x3e249c68	0.16075289
19	0xbd0fbf84	-0.035094753
20	0x3d2d40d5	0.042298157
21	0xbe510c22	-0.20414785
22	0xbe441320	-0.1914792
23	0xbe1a2606	-0.15053567
24	0xbdab2853	-0.083573006
25	0x3b98becf	0.004661418
26	0x3d8cd214	0.06876007
27	0xbe96d6bd	-0.29460707
28	0x3e1e1198	0.15436399
29	0x3d572c24	0.05253233
30	0x3b322e27	0.0027188153
31	0xbbf9b1ee	-0.007620088
32	0xbe76de0f	-0.24108146
33	0x3e36ab5b	0.17838804
34	0xbe381186	-0.17975435
35	0xbe6d0ce5	-0.2314945
36	0x3c8bf332	0.017083738
37	0x3bdb4015	0.006690989
38	0xbe01c08f	-0.12671112
39	0x3e20387e	0.1564655
40	0xbdc66ccd	-0.09688721
41	0x3e6218ae	0.22079727
42	0x3e87a0dd	0.26489916
43	0xbdc18dcc	-0.09450874
44	0x3e6a365f	0.22872303
45	0xbd88f533	-0.06687393
46	0xbdee8ecc	-0.1164833
47	0x3e421204	0.18952185
48	0x3e12cf47	0.14336883
49	0x3e025411	0.12727381
50	0x3da86599	0.08222503
51	0xbd014fa7	-0.031570103
52	0xbd202c46	-0.039104722
53	0xbe4da595	-0.20082696
54	0x3dfbb972	0.1229123
55	0xbc20ec32	-0.009821938
56	0xbd09cde0	-0.033643603
57	0x3d895471	0.06705559
58	0xbdf2fa48	-0.118641436
59	0xbd040ff8	-0.03224179
60	0x3c293811	0.010328309
61	0x3ae4749a	0.001742977
62	0x3d99741b	0.074928485
63	0x3d8917af	0.066939704
64	0xbdef3968	-0.11680871
65	0xbd8bad43	-0.068201564
66	0xbc61ed17	-0.013789437
67	0xbb26f0c0	-0.0025473088
68	0xbd3ea368	-0.046542555
69	0x3d102242	0.03518892
70	0x3e277395	0.16352685
71	0x3dc6e260	0.09711146
72	0x3dc412a7	0.0957387
73	0xbc38364e	-0.011243416
74	0xbdcebf36	-0.10095064
75	0xbc100fbb	-0.008792813
76	0x3d22cf5d	0.03974854
77	0x3e207ff7	0.15673815
78	0xbd5b2b43	-0.053508054
79	0xbda5e813	-0.08100905
80	0xbe534329	-0.20631088
81	0xbd948b52	-0.07253136
82	0xbdb0348e	-0.08603774
83	0xbe382b04	-0.17985159
84	0x3b923346	0.0044616787
85	0xbd554363	-0.052066218
86	0x39dd45c4	0.00042204384
87	0x3d6ad33e	0.057330362
88	0xbc79c04c	-0.015243601
89	0xbd97dcc0	-0.074151516
90	0xbde56ca7	-0.112023644
91	0x3decb6a6	0.11558275
92	0xbc0ae2bf	-0.008476912
93	0x3dcfe176	0.10150425
94	0xbe3e69ca	-0.18595043
95	0x3c22e872	0.009943115
96	0xbc78c11d	-0.015182761
97	0xbd6732b3	-0.056444835
98	0xbd929f78	-0.071593225
99	0x3d7b4113	0.061341356
100	0xbbd2b75e	-0.0064305505
101	0x3e1d8d22	0.15385869
102	0xbbfd357e	-0.007727324
103	0x3d469cdc	0.048489437
104	0x3d7e0bd7	0.06202301
105	0xbdfbe92a	-0.12300332
106	0x3cb2167f	0.021739243
107	0x3c986ac9	0.018605607
108	0xbd53e522	-0.05173219
109	0x3dbbee8a	0.09176357
110	0xbd6c9c20	-0.05776608
111	0xbb963a74	-0.004584605
112	0xbbbc7d40	-0.0057522357
113	0xbe2ec9ec	-0.17069215
114	0x3c8e102e	0.0173417
115	0xbd29765f	-0.041372653
116	0x3d6ef458	0.058338493
117	0xbc25d776	-0.010122171
118	0xbc22941c	-0.009923007
119	0xbe040009	-0.12890638
120	0x3de571c6	0.11203341
121	0xbe11346b	-0.14180152
122	0xbda21c02	-0.07915498
123	0xbcd5d636	-0.02610312
124	0xbc8cdca1	-0.017195048
125	0xbd1649d6	-0.03669151
126	0x3cd944dd	0.026522094
127	0xbc59ad21	-0.013285906
128	0x3ddb38c2	0.10704185
129	0x3823060e	3.8867867e-05
130	0xbd7d4ff3	-0.061843824
131	0x3d3fe8f6	0.04685303
132	0x3e46ee0e	0.19426748
133	0x3d8cd211	0.068760045
134	0x3dc48a7b	0.095967256
135	0x3dc7c601	0.09754563
136	0x3cf621d5	0.03004543
137	0x3b8af019	0.0042400477
138	0xbe0d9fad	-0.13830443
139	0xbe73514c	-0.23761481
140	0x3e06a70b	0.1314966
141	0x3da649b4	0.081195265
142	0xbdd0814d	-0.10180912
143	0x3ca9388d	0.020656848
144	0x3d5ba719	0.053626154
145	0x3e04af55	0.12957509
146	0x3d674fc7	0.056472566
147	0x3dbcae65	0.092129506
148	0xbd6b3080	-0.0574193
149	0x3d67995f	0.05654275
150	0x3e3c82e6	0.18409309
151	0x3e36a313	0.17835645
152	0xbda6bcc6	-0.081414744
153	0x3ddc2df5	0.10750953
154	0x3d93bf82	0.072142616
155	0x3e400d60	0.18755102
156	0xbe339ca8	-0.17540228
157	0x3d680056	0.056640945
158	0xbd68acf6	-0.056805573
159	0x3d86dac2	0.065846935
160	0x3d6fabaa	0.05851332
161	0xbc16fc2e	-0.009215398
162	0x3dd85cd9	0.10564584
163	0x3e39118b	0.18073098
164	0xbd9975e0	-0.07493186
165	0x3d251e61	0.040312175
166	0xbc7bcaaa	-0.015368143
167	0x3c318870	0.010835752
168	0x3b955d21	0.004558221
169	0xbe4af452	-0.19819763
170	0xbe62bb6f	-0.22141813
171	0x3e1246f7	0.14284883
172	0xbd26a2fd	-0.04068278
173	0x3e3f3ae0	0.18674803
174	0x3dfac342	0.12244274
175	0xbe875d0c	-0.26438177
176	0xbe07893c	-0.13235945
177	0xbce21efb	-0.027602663
178	0xbe4e3ae0	-0.20139647
179	0x3e065c00	0.13121033
180	0xbce2ce5d	-0.027686292
181	0x3ade51bc	0.0016961615
182	0xbe00c1c7	-0.1257392
183	0xbdc18c7e	-0.09450625
184	0x3dc6e661	0.0971191
185	0x3dc24339	0.09485478
186	0x3d731a8a	0.05935148
187	0x3dfb4b5e	0.122702345
188	0x3de965c1	0.11396361
189	0xbd72082b	-0.05908982
190	0xbc4973ac	-0.012295645
191	0x3d4d0667	0.050054934
192	0x3d6bd34a	0.057574548
193	0x3e66929b	0.22516863
194	0x3d99c2ec	0.075078815
195	0x3d40a3f2	0.04703135
196	0x3db297e5	0.08720378
197	0x3da7b66c	0.08189091
198	0x3ba049b1	0.004891597
199	0x3be42799	0.006962728
200	0x3d76af96	0.060226046
201	0xbd31995f	-0.043359157
202	0xbc6dde12	-0.014518278
203	0x3d1c9bd9	0.038234565
204	0xbdaa6c0a	-0.08321388
205	0xbe1137a8	-0.14181387
206	0xbe699b8e	-0.22813246
207	0x3db417cd	0.08793602
208	0x3dfb63e1	0.1227491
209	0x3e1a4bd7	0.15067993
210	0xbe08d6e7	-0.13363229
211	0x3e34fbbd	0.17674156
212	0x3d783990	0.06060177
213	0xbd0e7dbe	-0.034787886
214	0x3e49c483	0.1970387
215	0x3e2067d1	0.15664603
216	0x3d10dcaa	0.03536669
217	0xbde28253	-0.110600136
218	0xbe3c8a60	-0.18412161
219	0x3d566c24	0.052349225
220	0x3d966492	0.07343401
221	0x3e223af9	0.15842809
222	0xbc91c2a5	-0.017793009
223	0xbdc16e2e	-0.09444843
224	0xbd30acbc	-0.043133482
225	0xbcb1a732	-0.02168617
226	0x3dedd541	0.116129406
227	0x3e659b94	0.2242263
228	0x3bb094ff	0.0053888555
229	0xbe1c3e79	-0.15258206
230	0x3dcb0190	0.099124074
231	0xbd4e70ec	-0.05040066
232	0x3e034364	0.12818676
233	0xbe091c43	-0.13389687
234	0xbd50aa96	-0.050943933
235	0xbde0f8e8	-0.10984975
236	0xbe058145	-0.13037594
237	0x3d111ff9	0.035430882
238	0x3d859ceb	0.0652407
239	0xbbb0a1a9	-0.005390365
240	0x3e0ba2cd	0.13636322
241	0x3e081cdc	0.13292259
242	0xbe05e555	-0.13075764
243	0x3d8b0e22	0.06789805
244	0x3dbd3817	0.09239214
245	0x3d7bf658	0.06151423
246	0xbd896489	-0.06708629
247	0xbe8ab6a8	-0.2709248
248	0xbe3227bb	-0.17397968
249	0xbe8311d6	-0.25599545
250	0x3d27a994	0.040933207
251	0x3e4a0984	0.19730192
252	0x3d1e3bae	0.038631134
253	0x3e0236fd	0.12716289
254	0xbd9547cb	-0.07289084
255	0xbb99d0f9	-0.004694101

gru.bias_ih_l0 f4 [192]
0	0x3de0a4f0	0.10968959
1	0x3dd10836	0.10206644
2	0xbb19bb26	-0.0023457496
3	0x3d140083	0.0361333
4	0xbe010cf5	-0.12602599
5	0xbd1ea642	-0.038732775
6	0x3c135547	0.0089925
7	0xbd499771	-0.04921669
8	0xbc76e129	-0.015068331
9	0x3e2e765c	0.17037338
10	0x3d8c3e67	0.0684784
11	0xbd14be6a	-0.036314406
12	0x3d43eb63	0.047831904
13	0x3de7fa1f	0.11327004
14	0xbdb869f3	-0.09004583
15	0xbdc40bb1	-0.095725425
16	0x3d04c372	0.032412954
17	0x3daf9ef4	0.0857524
18	0xbc9fa1a8	-0.019486263
19	0xbe5aed94	-0.21379691
20	0x3e01b57c	0.12666887
21	0x3e20078a	0.15627876
22	0x3d5ea485	0.054356117
23	0x3e3b67e4	0.1830135
24	0xbe0db722	-0.13839391
25	0xbd1cb9c0	-0.038263083
26	0xbd7c1610	-0.061544478
27	0x3cc88e3e	0.024481889
28	0x3e32caa0	0.17460108
29	0xbe33bf23	-0.17553382
30	0xbd9bcde1	-0.07607628
31	0x3bd97d76	0.0066372706
32	0x3e4a8ff6	0.19781479
33	0x3da287fa	0.07936092
34	0xbe190a26	-0.14945278
35	0x3e003e3d	0.12523742
36	0x3df2fdda	0.118648246
37	0xbdb571af	-0.08859574
38	0x3d6fab84	0.05851318
39	0xbd83c568	-0.06434137
40	0x3d6b8a7b	0.057505112
41	0xb9e34c68	-0.0004335374
42	0x3d846285	0.064641036
43	0x3d6ee826	0.058326863
44	0x3ce98a39	0.028508293
45	0x3e1d6fa1	0.15374614
46	0xbc876948	-0.016529694
47	0x3da25a4e	0.079273805
48	0x3e164334	0.14674073
49	0xbe707a7c	-0.23484224
50	0x3cf2e9fe	0.029652592
51	0xbda6144f	-0.08109342
52	0xbd3762de	-0.04477202
53	0xbe672a4f	-0.22574733
54	0xbcf7fc12	-0.030271564
55	0xbdfbefbb	-0.12301584
56	0xbd06df3c	-0.032927737
57	0xbd79f294	-0.061022356
58	0xbe2c5468	-0.16829073
59	0xbe10d813	-0.14144926
60	0xbe29fefa	-0.16601172
61	0xbcc1550d	-0.023600126
62	0x3de4069b	0.111340724
63	0xbd97c831	-0.0741123
64	0x3df162fa	0.117864564
65	0xbe2e000c	-0.16992205
66	0x3dfb9fef	0.12286364
67	0xbdf2de0f	-0.118587606
68	0xbdd8a7ff	-0.10578918
69	0x3dfd5d3b	0.12371298
70	0xbd620b0f	-0.055186328
71	0x3d929c2a	0.07158692
72	0xbaefdde2	-0.0018300379
73	0x3e1814c4	0.14851671
74	0x3dff945f	0.124794714
75	0x3e7ecd0b	0.24882905
76	0xbe69e8b6	-0.22842678
77	0xbcecc4a7	-0.028902365
78	0x3cf1a21c	0.029496245
79	0xbcb5c265	-0.022187421
80	0xbdef37cf	-0.116805665
81	0x3d33782e	0.043815784
82	0x3e6b6409	0.22987379
83	0x3c88c30e	0.016694572
84	0xbd7c0746	-0.061530374
85	0x3d929511	0.071573384
86	0x3e24d2c2	0.16096023
87	0x3e830e2a	0.25596744
88	0x3dafa9ee	0.085773334
89	0xbe8280e1	-0.25488952
90	0x3d682e90	0.05668503
91	0x3cb58aa7	0.022160841
92	0x3e0c78c9	0.13717951
93	0x3db96141	0.09051753
94	0xbdd16da4	-0.102259904
95	0xbd9cf309	-0.07663543
96	0x3e3b30e3	0.18280368
97	0x3e2733e7	0.16328393
98	0x3e5b16ee	0.21395466
99	0x3e0e245f	0.13881062
100	0x3d59ea4f	0.05320197
101	0xbdc86037	-0.097839765
102	0xbcedfaf3	-0.029050326
103	0xbda823d5	-0.082099594
104	0x3d0aabbc	0.033855185
105	0x3e2badd8	0.16765535
106	0x3e6fa13b	0.23401348
107	0x3e93649b	0.28787693
108	0x3e3a47e1	0.18191482
109	0xbd0fe03e	-0.035125963
110	0xbd6346b8	-0.055487365
111	0x3e35d625	0.17757471
112	0x3d3bb9da	0.04583154
113	0xbd9305c7	-0.07178836
114	0xbdbaa66a	-0.09113772
115	0xbc7dd0f7	-0.015491716
116	0xbaee05db	-0.0018159704
117	0x3d03098a	0.03199152
118	0xbdf55637	-0.11979335
119	0xbe37edd7	-0.17961822
120	0xbe8bc11f	-0.27295777
121	0x3ddcef35	0.107878126
122	0xbc6082a5	-0.013703023
123	0xbe5d87b6	-0.21633801
124	0x3d68441a	0.05670557
125	0x3e5041a4	0.2033754
126	0x3dc59c86	0.09648995
127	0x3e88a6a4	0.26689637
128	0x3d9970b8	0.074922025
129	0xbcd02fbf	-0.025413392
130	0x3c8d1105	0.01722003
131	0x3da66865	0.081253804
132	0xbc9b9a38	-0.018994436
133	0xbc00dc11	-0.007864968
134	0x3d845403	0.064613365
135	0x3ddc1f35	0.1074814
136	0xbcbb8f57	-0.022895498
137	0x3db37172	0.08761872
138	0xbd894002	-0.06701662
139	0xbe06a867	-0.13150178
140	0x3d2304e9	0.039799605
141	0x3d794048	0.06085232
142	0x3dab86d1	0.083753236
143	0xbdf5eeee	-0.12008463
144	0xbda06f3b	-0.078337155
145	0xbd0bfa4e	-0.034174256
146	0x3d537a71	0.05163044
147	0xbe00093d	-0.12503524
148	0xbdab3b57	-0.083609276
149	0xbda6386d	-0.08116231
150	0xbd5dc88c	-0.054146335
151	0x3dde494b	0.10853823
152	0x3d32b117	0.043625917
153	0x3dce89d1	0.1008488
154	0x3dca1fb4	0.09869328
155	0x3d9d74e9	0.076883145
156	0xbda69ee8	-0.08135778
157	0xbe01b6e6	-0.12667426
158	0xbde9deb9	-0.11419434
159	0xbe07088a	-0.13186851
160	0x3df14dac	0.11782393
161	0xbda29dbb	-0.07940241
162	0x3dafff25	0.08593587
163	0xbc6e10a2	-0.014530333
164	0xbdba173b	-0.09086462
165	0x3cc91e76	0.024550658
166	0xbcfa1dab	-0.030531725
167	0x3d0047ba	0.031318404
168	0x3ce4a9b6	0.027912956
169	0xbde7be52	-0.113155976
170	0xbe092d9d	-0.13396306
171	0x3e021864	0.12704617
172	0x3d0b8f4a	0.034072198
173	0xbd07ff73	-0.0332026
174	0x3c8df323	0.01732785
175	0xb9d6c707	-0.00040965548
176	0x3ca559bb	0.020184388
177	0xbdabf06d	-0.08395467
178	0xbd84a672	-0.064770594
179	0x3cba923d	0.02277481
180	0x3ce0b812	0.027431522
181	0xbd6e3324	-0.05815424
182	0x3ccf6115	0.025314847
183	0x3d8717a3	0.06596305
184	0x3dc30ee4	0.095243245
185	0x3dc5b327	0.09653311
186	0xbe0ac27e	-0.13550755
187	0xbd4fa92f	-0.050698455
188	0xbd5578f8	-0.052117318
189	0xbd83e294	-0.06439701
190	0xbcc724b6	-0.024309497
191	0xbc93d0d2	-0.01804391

gru.bias_hh_l0 f4 [192]
0	0x3e253f42	0.16137412
1	0xbd99f7e4	-0.075179845
2	0x3e128743	0.14309411
3	0x3dd94a8f	0.10609924
4	0x3d87798d	0.06614981
5	0x3e1a42ed	0.15064593
6	0x3db85264	0.0900009
7	0xbd3d5c3c	-0.04623054
8	0x3d1d8593	0.038457464
9	0xbd12da08	-0.035852462
10	0x3d86c134	0.06579819
11	0x3e538a32	0.20658186
12	0x3c63275c	0.0138643645
13	0x3c4724c6	0.012154764
14	0xbe423d5a	-0.18968716
15	0xbdb63016	-0.088958904
16	0x3d9abe4e	0.07555829
17	0x3c3001b5	0.0107425945
18	0xbc9354ec	-0.01798483
19	0xbdd4e1af	-0.10394608
20	0x3d3364c3	0.043797266
21	0xbc4bf2f2	-0.012448059
22	0x3d9f27e8	0.077712834
23	0xbd1ac4b8	-0.037785262
24	0x3d238aff	0.03992748
25	0xbe44a31b	-0.19202845
26	0x3e17b78e	0.14816114
27	0x3e295672	0.16536883
28	0x3e18a09f	0.14905022
29	0xbe4e9372	-0.20173433
30	0x3dd5bf99	0.10436935
31	0xbc5ada43	-0.013357702
32	0xbd3fabc4	-0.046794668
33	0x3e6594f0	0.22420096
34	0x3d9d10c5	0.07669214
35	0x3de0d4ea	0.1097811
36	0xbdac28e4	-0.08406237
37	0xbd27fb01	-0.04101086
38	0x3de1e660	0.11030269
39	0xbc4564b5	-0.012047936
40	0xbd9eeec8	-0.07760388
41	0x3beeb86b	0.007285168
42	0x3e1d456a	0.1535851
43	0x3d9e0230	0.07715261
44	0xbcb52b80	-0.022115469
45	0xbd31a0bd	-0.043366183
46	0xbdc742a8	-0.097295105
47	0x3e1430ba	0.14471713
48	0x3e2d7653	0.16939668
49	0xbdf5b5cd	-0.11997566
50	0xbd85883a	-0.06520124
51	0xbd29d618	-0.04146394
52	0x3e03f39f	0.12885903
53	0xbe8ee479	-0.27908686
54	0x3d152361	0.036410693
55	0x3d890812	0.066909924
56	0xbd75b49b	-0.059986692
57	0xbe9361e8	-0.28785634
58	0xbe191224	-0.14948326
59	0xbe7eeb4c	-0.24894446
60	0xbe100d1a	-0.14067498
61	0x3e0c1daa	0.13683191
62	0x3d39eae2	0.045390017
63	0x3e1060fb	0.14099495
64	0xbdd6790a	-0.10472305
65	0x3d5ba3ae	0.053622894
66	0x3dcf2a5e	0.10115503
67	0xbdeb3b56	-0.11485927
68	0x3d9a9568	0.07548028
69	0x3a8ebdd1	0.001089031
70	0xbd322192	-0.043489046
71	0x3d972042	0.073791996
72	0x3cdd23fa	0.026994694
73	0x3e0f1347	0.13972197
74	0x3e7cfe71	0.24706437
75	0x3e86349b	0.2621201
76	0xbe255160	-0.16144323
77	0xbc94cbaa	-0.01816352
78	0xbde6ed3b	-0.11275717
79	0x3d980a30	0.07423818
80	0xbcabb9c7	-0.020962609
81	0x3de412ee	0.11136423
82	0x3dacfaae	0.08446251
83	0xbd5faa94	-0.054606035
84	0x3dc8f0e4	0.09811571
85	0x3d919ddc	0.071101874
86	0x3c84172a	0.016124327
87	0x3dc76182	0.09735395
88	0x3debd2ea	0.11514838
89	0xbe7d0cca	-0.2471191
90	0x3e56f4f9	0.20991887
91	0x3e222159	0.15833034
92	0x3e43adf2	0.19109324
93	0x3d4aa26f	0.049471315
94	0x3d04cd36	0.032422267
95	0x3d0f36bc	0.03496431
96	0x3e61a55e	0.22035739
97	0x3d2056d5	0.03914531
98	0x3e8d1ecb	0.27562556
99	0x3e583896	0.21115336
100	0x3e4d0fd9	0.20025577
101	0x3da93c42	0.082634464
102	0x3d329c3e	0.043606035
103	0xbdb64761	-0.08900333
104	0x3d028aaa	0.03187052
105	0x3d31bd90	0.04339367
106	0x3da9d04b	0.08291682
107	0x3d717f6e	0.058959417
108	0x3e32d207	0.17462932
109	0x3d1b93a6	0.037982605
110	0xbceef857	-0.029171152
111	0x3c0be09a	0.008537436
112	0x3e225cb9	0.15855683
113	0x3dc6a6ca	0.09699781
114	0xbb9fe043	-0.004879029
115	0xbe7802a3	-0.24219756
116	0x3da22777	0.079176836
117	0xbdfe5c14	-0.12419906
118	0xbda6bdf4	-0.081416994
119	0xbe308f9b	-0.17242281
120	0xbe94528f	-0.28969237
121	0xbd2f0fe9	-0.042739782
122	0xbd1d5485	-0.038410682
123	0xbe66d3d6	-0.22541746
124	0x3c222c35	0.009898235
125	0x3df7021e	0.12060951
126	0x3db75455	0.08951632
127	0x3e0eb989	0.13937964
128	0xbd670884	-0.056404606
129	0xbdf7a849	-0.12092645
130	0x3e0deb65	0.13859327
131	0xbdbcd764	-0.0922077
132	0x3d9e4ff9	0.07730097
133	0x3c86593b	0.01639997
134	0xbd90bf78	-0.0706777
135	0xbdf89915	-0.12138573
136	0xbd4c7fa8	-0.04992643
137	0x3e1a1dad	0.15050383
138	0x3de8880f	0.11354076
139	0x3d2c8a58	0.042124122
140	0x3e0b0ec9	0.13579859
141	0x3e05afcb	0.13055341
142	0x3d900723	0.07032611
143	0x3ddc2c56	0.10750644
144	0x3dc89a26	0.097950265
145	0xbc856fbb	-0.016288629
146	0x3d7e3fe9	0.06207267
147	0x3cff8aec	0.031194173
148	0xbd382a5d	-0.044962276
149	0x3d726580	0.05917883
150	0x3d977ff7	0.07397454
151	0x3db8479a	0.08998032
152	0x3d671a84	0.05642177
153	0x3de3ed15	0.11129204
154	0x3ccc2540	0.024920106
155	0xbca7e331	-0.020494075
156	0x3d0183ac	0.031619713
157	0x3d6c0a79	0.057627175
158	0xbdd751b4	-0.105136305
159	0xbdcde811	-0.10054029
160	0xbd9dd36f	-0.077063434
161	0xbdc1424e	-0.09436475
162	0x3e00a115	0.12561448
163	0x3db82d95	0.08993069
164	0xbcc08ebc	-0.023505561
165	0xbdaa7e2a	-0.08324845
166	0x3d16e263	0.036836993
167	0x3d527ef3	0.0513906
168	0xbc57e04a	-0.013176033
169	0xbdafd6ca	-0.0858589
170	0x3df13119	0.11776943
171	0x3cd9ccb7	0.026586873
172	0xbdddfb4e	-0.10838948
173	0x3d85451f	0.065073244
174	0xbd8a78fa	-0.06761356
175	0xbd8f338f	-0.06992256
176	0xbdd9c51f	-0.10633301
177	0x3c293b01	0.010329009
178	0xbd2b1607	-0.041769054
179	0xbdc5e24b	-0.096623026
180	0x3da3a30a	0.079900816
181	0xbd4aa509	-0.049473796
182	0xbd063611	-0.032766405
183	0x3cd50c9b	0.026006987
184	0xbe168fc8	-0.14703286
185	0x3dfbf1a0	0.12301946
186	0xbe11bfd7	-0.14233337
187	0xbd8059a9	-0.06267101
188	0xbd43fa77	-0.047846284
189	0xbe07df00	-0.13268661
190	0xbde539b3	-0.11192646
191	0xbdeb7c7e	-0.114983544

head.0.weight f4 [64, 64]
0	0xbd44c278	-0.048037022
1	0x3de3b1b2	0.11117877
2	0x3dacc07e	0.084351525
3	0xbe0ee7ee	-0.13955662
4	0x3ddc8a17	0.10768526
5	0xbe2dc7c1	-0.16970731
6	0x3d0c6967	0.034280207
7	0x3c1b94ff	0.009495973
8	0x3d97d6e0	0.07414031
9	0x3d86514a	0.065584734
10	0xbcb6e6c0	-0.022326827
11	0xbd83bd6c	-0.06432614
12	0xbca1f36b	-0.019769391
13	0x3bba6eed	0.005689493
14	0xbd5866a2	-0.052832253
15	0x3d92bc46	0.071648166
16	0x3d9f92d1	0.07791675
17	0x3e2a14e5	0.16609533
18	0xbdfe4398	-0.12415236
19	0xbd2253ac	-0.039630577
20	0x3d04bf41	0.032408956
21	0x3dfc51be	0.123202786
22	0xbda300e2	-0.07959153
23	0x3dd7b7b3	0.10533085
24	0x3de38751	0.11109794
25	0x3c45be20	0.012069255
26	0xbc32c38b	-0.010910879
27	0x3b32fc99	0.0027311204
28	0xbca987db	-0.020694664
29	0x3e387b67	0.18015824
30	0xbc31c99c	-0.01085129
31	0xbd56b5c1	-0.052419428
32	0xbccaa978	-0.024739012
33	0x3d900a86	0.07033257
34	0x3d6eb908	0.05828193
35	0xbd904477	-0.07044309
36	0x3e106462	0.14100793
37	0x3d10bad4	0.035334423
38	0x3d4309ea	0.047616877
39	0x3d18b4b9	0.037281726
40	0xbd721430	-0.059101284
41	0xbceed8df	-0.029156147
42	0xbd0223a0	-0.031772256
43	0x3e6250f7	0.22101198
44	0x3cb5de85	0.022200832
45	0x3e3dcc07	0.18534862
46	0x3e3aa76d	0.1822793
47	0xbdd85e4d	-0.105648614
48	0x3d23e087	0.040009048
49	0x3e111d8d	0.14171429
50	0xbe0768a0	-0.13223505
51	0x3cd8cca9	0.026464777
52	0xbdb12cc5	-0.08651117
53	0x3cc31c9e	0.023817357
54	0xbe115081	-0.14190866
55	0x3d6ab37e	0.057300083
56	0xbdef7b94	-0.116934925
57	0xbda8df04	-0.08245662
58	0xbaa9378f	-0.0012910235
59	0x3e15bf95	0.14623864
60	0x3daca935	0.08430711
61	0xbe149506	-0.14509973
62	0xbda07557	-0.07834881
63	0xbddc3d7c	-0.10753915
64	0x3d33c07d	0.043884743
65	0x3dc5d2db	0.09659358
66	0x3d0221f5	0.031770665
67	0x3cb9994b	0.022656104
68	0xbe1fbd62	-0.15599588
69	0x3b4c96ff	0.003121793
70	0x3d85939d	0.065222956
71	0x3b4d78e1	0.0031352567
72	0xbdf6d03a	-0.12051435
73	0xbda79b5b	-0.081839286
74	0xbdebaab3	-0.11507168
75	0x3c355720	0.0110681355
76	0x3d9fb8f8	0.07798952
77	0x3d69a56e	0.05704253
78	0x3ddcee11	0.10787595
79	0xbd82e2f0	-0.06390941
80	0x3c577d12	0.013152378
81	0x3ddba3e9	0.10724623
82	0xbd039e03	-0.032133114
83	0xbd875622	-0.066082254
84	0xbd30c59c	-0.043157205
85	0xbda58e8f	-0.080838315
86	0x3d770dea	0.060316004
87	0x3d8abda7	0.067744546
88	0x3dc9cdff	0.09853744
89	0x3def770b	0.116926275
90	0x3cf5ee84	0.03002096
91	0xbdc2f7f2	-0.09519948
92	0x3c9e605b	0.019333055
93	0xbd8d0bab	-0.06886991
94	0xbd3bb6db	-0.04582868
95	0xbdb41f47	-0.08795028
96	0x3df544ff	0.119760506
97	0xbe0033ca	-0.12519756
98	0xbda33b71	-0.07970322
99	0xbc459c59	-0.012061202
100	0xbd43e5ab	-0.04782645
101	0xbc10bb84	-0.00883377
102	0xbe080f9c	-0.13287205
103	0x3d37ec1e	0.044902913
104	0x3db53ce8	0.088495076
105	0x3d0fcb6d	0.03510611
106	0xbc507fae	-0.012725754
107	0x3da1b398	0.07895583
108	0x3e1da109	0.15393461
109	0x3e0e296c	0.13882989
110	0xbd9de337	-0.077093534
111	0x3d87fb57	0.06639736
112	0x3c9dfde1	0.019286098
113	0x3bdbac1e	0.0067038676
114	0x3df54ea1	0.11977888
115	0xbdb4670b	-0.088087164
116	0xbdc67567	-0.096903615
117	0x3c8edf82	0.017440561
118	0x3d2cd2d0	0.042193234
119	0xbd091aed	-0.033472944
120	0x3e16e559	0.14735927
121	0xbc844a8a	-0.016148824
122	0x3e19ac72	0.15007189
123	0xbdce6951	-0.10078681
124	0xbdaf1d95	-0.08550564
125	0x3d98937d	0.07450006
126	0xbd4872fa	-0.048937775
127	0x3c379ce3	0.011206838
128	0xbdf708e8	-0.120622456
129	0x3e0be91a	0.1366314
130	0xbdf1876e	-0.11793409
131	0xbe039093	-0.1284812
132	0xbdef9ab4	-0.11699429
133	0x3dc9e638	0.09858364
134	0xbd544677	-0.051825013
135	0xbe0d3a27	-0.13791715
136	0xbdc7f9be	-0.097644314
137	0x3b04889a	0.0020223022
138	0x3b961054	0.004579583
139	0x3ca6d426	0.020364832
140	0xbd850868	-0.06495744
141	0xbe006534	-0.12538606
142	0xbd1fcf43	-0.03901602
143	0xbc91f2e9	-0.017816024
144	0x3e0fba48	0.14035904
145	0x3c48194f	0.012213065
146	0x3e3d7e4f	0.18505214
147	0xbd9a0fb8	-0.07522529
148	0x3d7d1f05	0.06179716
149	0xbe1840d1	-0.14868475
150	0xbd89007f	-0.06689548
151	0x3d9560d4	0.07293859
152	0x3e14d272	0.14533404
153	0xbc63c973	-0.01390301
154	0xbd8e88df	-0.069597
155	0xbdc0763b	-0.09397551
156	0xbcec80ca	-0.028870005
157	0x3d9cb67f	0.07651996
158	0x3db2ef0c	0.08737001
159	0xbc6ad09a	-0.014331961
160	0xbe3bd8f6	-0.18344483
161	0x3e54f95e	0.20798251
162	0xbb21883c	-0.0024647852
163	0xbd889ea3	-0.066708826
164	0xbd9c3530	-0.07627332
165	0x3e08c8c8	0.13357842
166	0xbd704bbe	-0.058665983
167	0xbde3df6f	-0.11126601
168	0x3d53f1e4	0.051744357
169	0x3e1c941d	0.15290876
170	0x3e0061df	0.12537335
171	0x3e0537ca	0.13009563
172	0x3d88e741	0.06684733
173	0xbdf6ede6	-0.12057094
174	0xbbee75b9	-0.007277217
175	0x3e05b8c7	0.13058768
176	0x3cd02a3f	0.02541077
177	0x3db01d6d	0.085993625
178	0xbc4edfec	-0.012626629
179	0x3dc7daac	0.09758505
180	0xbda29a52	-0.079395905
181	0x3db9a8c5	0.09065393
182	0xbdcb34f3	-0.09922209
183	0x3ca83e24	0.020537443
184	0x3d2e58cc	0.042565152
185	0x3c578bd8	0.0131559
186	0xbd551e39	-0.052030776
187	0xbdd3959c	-0.1033127
188	0xbc90ac7c	-0.017660372
189	0x3c513f10	0.012771383
190	0x3e1e364d	0.15450402
191	0xbcd9bc16	-0.026578944
192	0xbd847936	-0.06468432
193	0xbd551c83	-0.052029144
194	0x3b9dc9ff	0.0048153396
195	0xbdc48254	-0.095951706
196	0x3beff149	0.0073224646
197	0xbe0e4578	-0.13893688
198	0xbd6e0e68	-0.058119208
199	0x3de22321	0.110418566
200	0xbd958347	-0.0730043
201	0xbde9b1b5	-0.11410848
202	0x3d43c4fa	0.047795273
203	0xbdc99bc7	-0.09844165
204	0xbd318c5f	-0.04334676
205	0xbe036935	-0.12833102
206	0xbdbb4585	-0.09144119
207	0x3d33f4a3	0.043934476
208	0x3da26a59	0.079304405
209	0xbc76f8c4	-0.015073959
210	0xbde318a6	-0.11088686
211	0xbe069b32	-0.1314514
212	0x3c925732	0.017863844
213	0x3d640fe7	0.05567923
214	0xbd04db7f	-0.03243589
215	0x3d2bb4e5	0.04192056
216	0x3cbf54bc	0.023355834
217	0x3de9e491	0.11420549
218	0xbc8dc7d4	-0.0173072
219	0x3c433d66	0.011916494
220	0xbd822e7b	-0.06356522
221	0xbb8ae9de	-0.004239305
222	0x3e027585	0.12740143
223	0x3d3e57e5	0.04647054
224	0xbdacc00c	-0.084350675
225	0x3dc791bb	0.09744593
226	0x3d718016	0.058960043
227	0xbd9ee65c	-0.07758781
228	0x3da4e741	0.08051921
229	0x3c1b849f	0.009492069
230	0x3d217e83	0.03942729
231	0xbd31ed78	-0.04343936
232	0xbc2e3c95	-0.010634561
233	0x3d9a3279	0.07529158
234	0x3c1d8144	0.009613339
235	0x3de1801c	0.11010763
236	0x3de85b58	0.113455474
237	0x3e5a6869	0.21328892
238	0xbd457768	-0.048209578
239	0xbdc40ea2	-0.095731035
240	0xbd16808e	-0.036743693
241	0xbcd08de6	-0.025458287
242	0x3b746faa	0.0037298002
243	0xbdc4e356	-0.096136734
244	0xbddacf18	-0.10684031
245	0x3d212d0c	0.0393496
246	0xbd3507e3	-0.044196974
247	0x3c6a78ac	0.014310997
248	0x3d19b0e0	0.037522197
249	0xbcb0d761	-0.021587076
250	0x3df05da3	0.1173661
251	0xbc30f2d8	-0.010800086
252	0x3a70e44f	0.0009189294
253	0xbe155c44	-0.14585978
254	0xbde9a5f2	-0.11408605
255	0xbdb31f4a	-0.08746202

head.0.bias f4 [64]
0	0x3dd9a2d7	0.10626762
1	0x3d8108b4	0.06300488
2	0x3dc48212	0.095951214
3	0xbd28a59d	-0.041173566
4	0x3cdebf01	0.027190687
5	0x3db45c14	0.08806625
6	0xbe2364c8	-0.15956414
7	0xbcf6cce9	-0.030127006
8	0xbb930f28	-0.0044878908
9	0x3d8129bc	0.06306788
10	0x3d0b4882	0.034004696
11	0xbaae9d72	-0.0013322069
12	0xbcb7c947	-0.022434844
13	0x3e13d458	0.14436471
14	0x3db0246a	0.086006954
15	0x36ed95cc	7.080589e-06
16	0x3db53e52	0.08849777
17	0x3d171424	0.036884442
18	0xbd345f60	-0.04403627
19	0x3d37e0f0	0.04489225
20	0x3d38b5c1	0.04509521
21	0xbd5ad6aa	-0.053427376
22	0x3d027dc8	0.031858236
23	0x3bc1002a	0.005889912
24	0xbda5d764	-0.08097723
25	0x3d4e5337	0.05037233
26	0xbdc558f2	-0.096361056
27	0xbda8659e	-0.08222507
28	0x3c71a66e	0.014749153
29	0x3de6605e	0.11248849
30	0xbd5aa00b	-0.053375285
31	0xbd6e97c0	-0.05825019
32	0x3d9d1146	0.0766931
33	0xbc262f0b	-0.010143052
34	0x3d99ebe4	0.07515696
35	0x3c4c428f	0.012467041
36	0x3d7c2c41	0.06156564
37	0xbbf84a61	-0.007577226
38	0x3d9bc80c	0.07606515
39	0xbd6b0199	-0.05737457
40	0xbe1303de	-0.14356944
41	0xbdb69be3	-0.08916452
42	0x3d510e68	0.05103913
43	0x3daabb56	0.08336513
44	0xbdac7c56	-0.08422153
45	0xbdcf083b	-0.10108992
46	0x3df2d3c4	0.11856797
47	0xbcf9240b	-0.030412694
48	0x3e0a7576	0.1352137
49	0x3dd4b886	0.103867576
50	0xbcc071f4	-0.023491837
51	0xbb02a4a2	-0.0019934555
52	0xbd854484	-0.06507209
53	0xbc8b34f2	-0.01699302
54	0xbdddb371	-0.10825241
55	0x3bafe47f	0.005367815
56	0xbd598d1b	-0.053113084
57	0x3c795289	0.015217432
58	0xbcb8ac0f	-0.022542981
59	0xbd9128d6	-0.07087867
60	0x3aa5bf4b	0.0012645511
61	0x3d2eea35	0.042703826
62	0x3cf1cf84	0.029517896
63	0x3c7f6947	0.015589065

head.2.weight f4 [1, 64]
0	0xbd55f27b	-0.0522332
1	0x3da98e39	0.0827908
2	0xbdd3c32b	-0.1033996
3	0xbc96a776	-0.018390398
4	0xbb458607	-0.00301397
5	0xbe095f74	-0.13415319
6	0x3d3eb93a	0.046563365
7	0x3d0bfb0e	0.03417497
8	0x3d524555	0.05133565
9	0x3cc4e29a	0.024033833
10	0x3d0458bf	0.032311197
11	0xbdd7ee15	-0.105434574
12	0x3dac9039	0.08425946
13	0xbdd2b309	-0.102880545
14	0x3bd4225e	0.0064738235
15	0xbe25c2c9	-0.16187586
16	0xbcea590a	-0.02860691
17	0xbe074446	-0.13209638
18	0xbd9a2bb5	-0.07527868
19	0xbdd1b695	-0.10239903
20	0xbc3c7c08	-0.011504181
21	0xbd684027	-0.056701805
22	0xbdb3fcd9	-0.08788461
23	0xbe25583c	-0.1614694
24	0x3768e324	1.3881163e-05
25	0x3d469d91	0.04849011
26	0xbc9e9cff	-0.019361971
27	0x3d083799	0.033256147
28	0x3caf78a8	0.021419838
29	0xbdf5926b	-0.11990818
30	0xbd0eeee6	-0.0348958
31	0x3c867ac8	0.016415969
32	0xbddc3798	-0.10752791
33	0x394f0c2c	0.00019745593
34	0xbc5ceb62	-0.013483854
35	0x3d2bc594	0.041936472
36	0xbdcc1978	-0.09965795
37	0xb941e832	-0.00018492414
38	0xbdd27e61	-0.10278011
39	0x3d485806	0.04891207
40	0x3c54bac3	0.012983981
41	0xbd64dafc	-0.055872902
42	0xbdb888ba	-0.090104535
43	0xbdaa5264	-0.08316496
44	0x3ccdf7d6	0.025142591
45	0x3d4fca55	0.05073007
46	0xbdc2b5a2	-0.095073
47	0xbd3f59a7	-0.04671636
48	0xbe10401b	-0.14086954
49	0xbd4d610d	-0.050141383
50	0x3d7d14f5	0.061787564
51	0xbd9b9e41	-0.07598544
52	0xbd41ecdd	-0.04734503
53	0x3d3b8e0c	0.045789763
54	0x3d89b8b9	0.06724686
55	0xbe028743	-0.12746911
56	0xbe103691	-0.14083315
57	0x3de8ad56	0.11361186
58	0xbdc8ef0c	-0.098112196
59	0x3bc7c430	0.0060963854
60	0xbe114ea4	-0.14190155
61	0xbd6c7733	-0.057730865
62	0xbc0a4136	-0.008438399
63	0x3d13ae5e	0.03605496
