outputs/exp_0003_20251213_123043/runs/seed4/h1/PHResetSGD/model_final.pt (torch, 71493 bytes, 7 tensors)

gru.weight_ih_l0 f4 [192, 1]
-0.00946624 0.009543427 -0.12962699 -0.039784968 -0.12999636 -0.15935445 0.096527606 0.13148928
0.10712507 0.18667358 -0.04941394 -0.019979928 0.031425867 -0.13062018 0.053830415 0.032613687
-0.035954412 -0.050034635 -0.0512097 -0.12880544 0.028534021 -0.01221338 0.044697136 -0.01904132
0.17487182 0.073134355 0.0012141049 0.060104385 0.007452976 -0.07894566 0.11074736 0.12384794
-0.034160435 -0.016840434 0.008680955 -0.021257106 -0.069722846 0.12463311 0.017634545 -0.04891342
0.042523354 0.08808365 0.08018895 -0.13405223 -0.059307996 0.17724992 0.12153285 -0.05335338
-0.038226888 0.14476663 -0.101285055 0.06508277 0.057142742 -0.12793411 -0.11064173 -0.013837091
-0.011348923 0.03808914 0.03394695 0.0437955 -0.11877948 0.030971907 -0.16294318 0.08302034
-0.026432784 0.13205282 0.037071027 -0.10985055 -0.019398438 -0.0010752211 -0.033703037 -0.1375889
-0.09963581 0.040430997 -0.111689456 0.104690224 0.04197562 0.006408601 -0.06021317 -0.15385562
-0.041738402 0.089351036 0.05941013 -0.049456242 -0.04826055 -0.009037852 0.045513485 0.019290658
-0.037560355 -0.08836397 0.021935089 0.013436648 0.016482089 0.03012889 0.040819425 0.029617403
-0.15309468 0.02897387 0.06062227 -0.1319225 -0.107631095 0.051569436 0.056241874 -0.018071285
-0.102860674 -0.026954893 -0.055426963 -0.09233454 -0.022340925 0.03171179 -0.008270798 -0.021871265
-0.13410215 -0.032309443 0.013250954 0.031434074 -0.00037333686 -0.060940184 0.0038213227 0.041202947
0.002890087 -0.07650689 -0.0072657615 -0.034555297 0.056616884 -0.010124492 -0.03920316 0.008789089
-0.050612986 0.11644312 -0.048324645 0.21335846 -0.042122636 0.010082461 -0.0073139765 0.056040306
0.22621533 0.0012655227 0.096212775 -0.078609616 -0.065016 0.15672772 -0.17832759 0.019214517
0.15701461 0.12227073 0.032715466 0.03258046 0.13484962 0.09344594 -0.11431915 0.16051471
-0.10247089 -0.055572998 -0.07223176 -0.109955125 -0.21211304 0.20920548 0.0752793 5.320511e-05
-0.0013439701 -0.15820748 -0.17383102 0.01053314 -0.1955394 -0.009894938 0.15116863 0.17844236
-0.09061748 -0.19941099 0.07540793 0.15587153 0.12377963 0.017466946 -0.079087876 -0.033524804
0.012954969 0.033664823 -0.10277627 0.20209184 0.0474865 0.04886625 -0.11067323 -0.10519029
-0.122283645 -0.05547103 0.12445697 -0.028628772 0.016588155 -0.11902048 -0.10634642 0.16474321
00000000: 4a18 1bbc 095c 1c3c f0bc 04be 90f5 22bd
00000010: c41d 05be d02d 23be 44b0 c53d 20a5 063e
00000020: 6464 db3d 5c27 3f3e 4666 4abd f2ac a3bc
00000030: 69b8 003d 4cc1 05be 487d 5c3d ee95 053d
00000040: ef44 13bd 1ef1 4cbd 43c1 51bd 93e5 03be
00000050: 2ec0 e93c a11a 48bc 5814 373d 8bfc 9bbc
00000060: 9911 333e 77c7 953d 9a22 9f3a 0430 763d
00000070: 1838 f43b 43ae a1bd 83cf e23d fda3 fd3d
00000080: d0eb 0bbd f3f4 89bc 903a 0e3c 6223 aebc
00000090: daca 8ebd a53f ff3d 5276 903c 7059 48bd
000000a0: f82c 2e3d 3365 b43d 1b3a a43d fd44 09be
000000b0: f1ec 72bd 0181 353e 37e6 f83d 1389 5abd
000000c0: cc93 1cbd b43d 143e 8a6e cfbd 1e4a 853d
000000d0: 820e 6a3d 2901 03be 2298 e2bd f7b4 62bc
000000e0: d5f0 39bc 5c03 1c3d f50b 0b3d e962 333d
000000f0: a842 f3bd ccb8 fd3c 94da 26be 9106 aa3d
00000100: 9189 d8bc db38 073e cad7 173d 53f9 e0bd
00000110: 79e9 9ebc 6fee 8cba 320c 0abd 1be4 0cbe
00000120: dc0d ccbd f99a 253d 71bd e4bd d467 d63d
00000130: a1ee 2b3d 3eff d13b 16a2 76bd 548c 1dbe
00000140: e3f5 2abd adfd b63d 0958 733d a192 4abd
00000150: dbac 45bd 8013 14bc 596c 3a3d 7107 9e3c
00000160: e3d8 19bd 2bf8 b4bd 37b1 b33c 6325 5c3c
00000170: 7205 873c ddd0 f63c 4532 273d 32a0 f23c
00000180: dac4 1cbe 9c5a ed3c 0f4f 783d b116 07be
00000190: b16d dcbd 793a 533d e15d 663d 3b0a 94bc
000001a0: 9ea8 d2bd 82d0 dcbc 6207 63bd e419 bdbd
000001b0: 5104 b7bc 39e4 013d 3e82 07bc 5e2b b3bc
000001c0: 1352 09be e856 04bd 881a 593c 04c1 003d
000001d0: 6dbc c3b9 6a9c 79bd 286f 7a3b 6cc4 283d
000001e0: 9d67 3d3b a5af 9cbd a015 eebb db89 0dbd
000001f0: 1be7 673d 33e1 25bc 7e93 20bd 1c00 103c
00000200: 904f 4fbd bb79 ee3d 10f0 45bd a47a 5a3e
00000210: c988 2cbd e830 253c 15aa efbb 858a 653d
00000220: fea4 673e e5df a53a 340b c53d 14fe a0bd
00000230: 1c27 85bd 3b7d 203e 829b 36be c367 9d3c
00000240: 70c8 203e 1469 fa3d a700 063d 1773 053d
00000250: 0516 0a3e 9660 bf3d 2920 eabd f85d 243e
00000260: 42dc d1bd 83a0 63bd 3fee 93bd 2730 e1bd
00000270: 2934 59be f639 563e 092c 9a3d 8d28 5f38
00000280: 2728 b0ba 2401 22be c200 32be 3193 2c3c
00000290: 7b3b 48be 611e 22bc f3cb 1a3e 98b9 363e
000002a0: a895 b9bd 6532 4cbe 796f 9a3d c99c 1f3e
000002b0: 2d80 fd3d d716 8f3c d3f8 a1bd 4e51 09bd
000002c0: 1441 543c 20e4 093d 5d7c d2bd 2af1 4e3e
000002d0: 3481 423d fa27 483d a5a8 e2bd 026e d7bd
000002e0: d96f fabd 9735 63bd 4ce3 fe3d e386 eabc
000002f0: e2e3 873c 02c1 f3bd 27cc d9bd 72b2 283e

gru.weight_hh_l0 f4 [192, 64]
0.09565895 -0.19371371 0.036001746 0.028651373 -0.010410366 0.04473184 0.049841072 -0.11637481
0.06252679 -0.05117419 0.026704557 0.098967664 -0.06681961 -0.04324184 -0.077181034 -0.026610505
0.023137288 0.023198606 0.013153785 -0.025173321 -0.06930656 0.08800811 0.07278013 0.014991395
0.09646858 -0.06370089 -0.010149599 0.10338509 0.11656078 -0.13508561 -0.10284968 -0.030046059
0.029027285 -0.048996635 0.074729376 -0.12761101 0.017834827 0.1093898 -0.032563444 -0.06753143
0.013483259 0.08788826 -0.018207584 -0.0048929905 -0.056522746 -0.05121871 -0.04285269 0.11837879
-0.09871174 0.023464378 0.012267233 0.015643714 0.038115673 0.07583441 -0.075265154 -0.00061515
-0.08359363 0.050198056 -0.10685789 0.009457691 -0.12419347 0.013055404 -0.0770016 -0.09605514
-0.008658463 -0.0767355 -0.04405589 -0.033462472 0.098704696 0.035286114 -0.0067019085 0.17221104
0.17506295 -0.015345879 0.10373613 -0.03198353 -0.087727495 0.0799087 -0.058768664 -0.04203556
-0.013577436 0.07616708 0.021675693 -0.04758011 0.05055829 0.05434112 0.089058094 0.12394695
0.021073148 0.06297094 -0.14425646 -0.06257534 -0.0053338036 -0.07184591 -0.07857036 -0.12517151
-0.009937708 0.04089556 -0.05791621 0.21942295 -0.11202005 0.05263546 0.13718927 0.026318893
-0.10331463 -0.0022770078 0.06663795 -0.048686054 0.20845589 0.21431877 -0.0909378 0.12073709
-0.017998496 0.06911118 0.036561575 0.077509314 0.0485791 -0.1413439 -0.06476781 -0.06408516
6.470669e-05 0.08111704 -0.09469092 -0.011412523 -0.1303583 0.09485969 0.08009145 0.023269426
0.1450931 0.012079699 -0.14254129 -0.17647815 -0.16500275 -0.017945422 0.035348937 -0.1309086
-0.0800107 -0.02552456 -0.052492976 0.11022364 0.1681666 0.02647883 0.03430622 0.1526607
-0.090144776 -0.07257278 -0.07785908 0.03693534 -0.04459455 -0.014593978 -0.04278732 -0.16276145
0.02040986 0.09195832 -0.06372247 0.09618939 0.110989645 -0.121861584 0.02213932 -0.08873265
0.07852681 0.03723603 -0.02819421 0.020189194 0.08808259 -0.13386041 0.028216058 -0.09645884
0.023421276 -0.04000824 -0.048418377 -0.17216425 0.12088876 0.09495254 0.06124109 0.07789751
-0.051782817 -0.06898534 0.09993149 -0.036588788 0.020641368 0.026761567 0.07969416 0.0057098176
0.15309365 0.03632161 -0.1252952 0.11286287 -0.0075324625 0.06686516 0.10089403 -0.11454088
-0.060034536 0.03069722 -0.014488164 0.008074731 -0.012443059 0.12185828 0.05895593 0.015428164
-0.00412202 0.0014442619 0.11961716 -0.093103 -0.05736052 0.08854228 -0.086923376 0.06673753
-0.034225293 -0.06605384 -0.036081176 -0.0836647 0.03365708 -0.05348036 0.07637437 0.018488979
-0.029448383 0.05612661 -0.08400174 -0.039188568 -0.011684207 0.027999774 0.14682038 -0.09046594
-0.12344958 -0.07778107 -0.13077177 -0.054749433 0.07310515 0.015455408 0.13457397 0.08853807
0.031943053 0.06225025 -0.0781022 -0.060573716 -0.03704716 -0.048676282 0.025296995 0.028933072
-0.009497859 -0.08490111 -0.07720602 -0.09183431 -0.073099114 0.0032732692 0.050653312 0.04840429
0.03698158 0.008416234 -0.014970265 -0.116356984 0.053322133 0.06828847 -0.005923105 0.08381205
00000000: d7e8 c33d e35c 46be 9176 133d 49b6 ea3c
00000010: 3d90 2abc bc38 373d 2726 4c3d eb55 eebd
00000020: 0c0e 803d 079c 51bd 84c3 da3c 8faf ca3d
00000030: b8d8 88bd 5b1e 31bd 1711 9ebd 46fe d9bc
00000040: 698a bd3c 010b be3c f982 573c 4838 cebc
00000050: 99f0 8dbd 993d b43d c00d 953d 789e 753c
00000060: 5291 c53d 9d75 82bd 814a 26bc 90bb d33d
00000070: 6bb7 ee3d e253 0abe daa2 d2bd 2723 f6bc
00000080: a1ca ed3c b2b0 48bd b70b 993d 76ac 02be
00000090: 581a 923c c207 e03d 3f61 05bd eb4d 8abd
000000a0: e3e8 5c3c c3fe b33d 1228 95bc 6155 a0bb
000000b0: 6584 67bd b6ca 51bd 4d86 2fbd 9470 f23d
000000c0: 6129 cabd 5e38 c03c 81fc 483c 3f27 803c
000000d0: 2e1f 1c3d 124f 9b3d 9e24 9abd 0542 21ba
000000e0: 2333 abbd 7a9c 4d3d 4fd8 dabd 6ef4 1a3c
000000f0: 2559 febd 55e6 553c 04b3 9dbd 8fb8 c4bd
00000100: 3adc 0dbc 8027 9dbd f373 34bd f20f 09bd
00000110: b025 ca3d 2c88 103d af9b dbbb 1758 303e
00000120: b443 333e 486d 7bbc 9c73 d43d 2901 03bd
00000130: 79aa b3bd 2ca7 a33d 69b7 70bd 7b2d 2cbd
00000140: e573 5ebc 7cfd 9b3d 3991 b13c 5de3 42bd
00000150: 3616 4f3d cb94 5e3d 1764 b63d e6d7 fd3d
00000160: 98a1 ac3c e8f6 803d f7b7 13be 8027 80bd
00000170: 30c7 aebb f323 93bd 7fe9 a0bd f62c 00be
00000180: c5d1 22bc 1a82 273d 8c39 6dbd 69b0 603e
00000190: c56a e5bd 4898 573d 587b 0c3e b89a d73c
000001a0: 9f96 d3bd da39 15bb 7a79 883d 076b 47bd
000001b0: 7675 553e 6176 5b3e 993d babd 0245 f73d
000001c0: 9571 93bc 2a8a 8d3d 97c1 153d 34bd 9e3d
000001d0: e1fa 463d 75bc 10be fca4 84bd 153f 83bd
000001e0: 24b3 8738 b120 a63d 50ed c1bd 97fb 3abc
000001f0: a57c 05be cc45 c23d fc06 a43d 869f be3c
00000200: 4993 143e eee9 453c 58f6 11be b0b6 34be
00000210: 7bf6 28be 4702 93bc 0cca 103d e70c 06be
00000220: a6dc a3bd e218 d1bc e002 57bd efbc e13d
00000230: dd33 2c3e 22ea d83c ae84 0c3d 1653 1c3e
00000240: d39d b8bd 0aa1 94bd 9574 9fbd 8349 173d
00000250: c6a8 36bd 951b 6fbc c241 2fbd f0aa 26be
00000260: 9432 a73c a554 bc3d ed80 82bd f1fe c43d
00000270: 8a4e e33d 9192 f9bd 855d b53c 77b9 b5bd
00000280: aad2 a03d cf84 183d 8bf7 e6bc cf63 a53c
00000290: a564 b43d b412 09be 5d25 e73c 368c c5bd
000002a0: fadd bf3c aedf 23bd 5952 46bd d34b 30be
000002b0: 8794 f73d 7a76 c23d f0d7 7a3d bb88 9f3d
000002c0: 381a 54bd 3048 8dbd e2a8 cc3d 20de 15bd
000002d0: 1618 a93c 133b db3c b136 a33d 6c19 bb3b
000002e0: 95c4 1c3e f8c5 143d 634d 00be a624 e73d
000002f0: e0d2 f6bb 9af0 883d 87a1 ce3d 6994 eabd
00000300: c6e6 75bd bc78 fb3c c45f 6dbc e04b 043c
00000310: f9dd 4bbc d590 f93d c67b 713d 69c6 7c3c
00000320: 0312 87bb 634d bd3a d7f9 f43d c9ac bebd
00000330: ddf2 6abd a855 b53d e204 b2bd b0ad 883d
00000340: d22f 0cbd 3c47 87bd dbc9 13bd 6658 abbd
00000350: 02dc 093d 390e 5bbd 2a6a 9c3d 3376 973c
00000360: bc3d f1bc 04e5 653d 1b09 acbd 3184 20bd
00000370: 1e6f 3fbc c85f e53c 1558 163e 3546 b9bd
00000380: 22d3 fcbd ae4b 9fbd 09e9 05be f140 60bd
00000390: 27b8 953d ae38 7d3c c2cd 093e 7353 b53d
000003a0: b8d6 023d 1efa 7e3d 0cf4 9fbd 251c 78bd
000003b0: c3be 17bd c860 47bd a53b cf3c 0d05 ed3c
000003c0: e89c 1bbc a2e0 adbd 311e 9ebd a013 bcbd
000003d0: fdb4 95bd 5884 563b d979 4f3d 9443 463d
000003e0: ff79 173d 3ee4 093c d845 75bc 924c eebd
000003f0: 4f68 5a3d d3da 8b3d 9b16 c2bb a7a5 ab3d

gru.bias_ih_l0 f4 [192]
0.09115312 0.12882853 0.12163166 0.039503656 0.00060687284 0.046587758 -0.020801228 0.07006608
0.035226703 0.044192433 -0.0145685645 -0.070525296 0.0255313 -0.026653802 -0.06793231 0.22705449
-0.09745616 -0.06497391 -0.13220635 -0.028251458 -0.060355693 0.057022896 -0.09752641 -0.08275427
-0.013513707 0.030056633 0.08629848 0.12195165 -0.1315311 -0.0076482194 -0.09716217 -0.086167954
-0.014633326 0.09136316 0.12099585 0.11505151 0.017257066 0.07980513 0.0038822275 0.048648883
0.025366515 0.04427254 0.11507585 -0.13937221 -0.00032976316 -0.0037809648 0.12712862 -0.0006804038
0.06066489 0.03180609 -0.029496506 0.09865514 0.005939704 0.12719887 0.18855555 -0.05898673
0.04180952 -0.022284571 -0.032994423 0.14887163 -0.011691965 0.02201527 0.1257999 0.01673575
-0.058238506 -6.7249566e-05 0.03848855 0.08786793 0.03707495 0.061984714 0.14428604 0.018251892
-0.0677746 0.24004918 -0.036539964 0.031029768 6.143073e-05 0.08833083 0.062405176 0.1262127
0.033926185 -0.0015740525 -0.0019560913 -0.07878764 0.042801946 0.02159856 -0.07972067 -0.06795
0.06849981 0.14813851 -0.015106889 0.1580049 -0.1362342 0.005118435 0.06975764 -0.028635947
-0.042073548 0.028832018 -0.04761145 -0.0638516 -0.07323709 -0.058648866 -0.11551167 -0.22162978
0.11381628 -0.09488242 0.14075764 0.1291971 -0.02329988 0.09613432 0.10593616 0.1959511
0.18964139 0.06303761 -0.048580684 -0.04524085 -0.00811353 0.075981185 0.10078593 -0.07562654
0.062618025 0.112174556 0.1224543 0.08871841 0.108805284 0.14068636 -0.026691003 0.09723728
-0.0404247 0.08979776 0.087759204 -0.020708486 -0.12006418 0.010742118 -0.11914108 0.0002921684
-0.039640777 -0.08406763 0.0273289 0.0014519364 -0.040594906 0.113176525 -0.1422462 -0.07554197
0.04024354 -0.08830036 -0.033941496 0.014449937 -0.065646216 -0.1283433 0.10375088 -0.015272889
0.115811124 0.00076765515 -0.016286595 0.053543672 0.014061361 0.1026396 0.09654941 -0.041861594
0.1259164 -0.11001293 -0.07067329 0.0850571 -0.11326522 0.050719477 0.10189606 -0.117956676
-0.03930157 0.06684002 0.1023314 -0.011036793 0.120514765 -0.12399414 -0.0922021 -0.08537769
-0.027245242 0.13418429 0.006679484 -0.015902283 -0.05614894 -0.011878997 0.017792583 -0.002582639
0.13089772 -0.021829348 -0.02532892 -0.088206574 -0.119535886 0.023893496 -0.09424754 -0.061029308
00000000: 7dae ba3d a0eb 033e 051a f93d 96ce 213d
00000010: 8c16 1f3a ced2 3e3d 5667 aabc ce7e 8f3d
00000020: e049 103d 2003 353d fdb0 6ebc 916f 90bd
00000030: 0427 d13c 1359 dabc 1820 8bbd f980 683e
00000040: 1897 c7bd 0b11 85bd 1a61 07be 9a6f e7bc
00000050: 8837 77bd d790 693d edbb c7bd 127b a9bd
00000060: 9868 5dbc 5439 f63c 42bd b03d c9c1 f93d
00000070: 17b0 06be ea9d fabb f6fc c6bd d378 b0bd
00000080: 9ec0 6fbc 9c1c bb3d accc f73d 20a0 eb3d
00000090: b15e 8d3c df70 a33d f86c 7e3b 0d44 473d
000000a0: 70cd cf3c 1f57 353d e3ac eb3d 97b7 0ebe
000000b0: 10e4 acb9 10ca 77bb 012e 023e 205d 32ba
000000c0: bf7b 783d 1a47 023d a8a2 f1bc b50b ca3d
000000d0: d9a1 c23b 6c40 023e b514 413e 129c 71bd
000000e0: 7640 2b3d 228e b6bc 2925 07bd ce71 183e
000000f0: a88f 3fbc 5e59 b43c b0d1 003e 6919 893c
00000100: 808b 6ebd 5608 8db8 2ba6 1d3d 1af4 b33d
00000110: e7db 173d afe3 7d3d b8bf 133e fe84 953c
00000120: 69cd 8abd 74cf 753e eeaa 15bd 2432 fe3c
00000130: 5fd4 8038 cbe6 b43d 929c 7f3d e73d 013e
00000140: 2ff6 0a3d 7050 ceba c431 00bb 6a5b a1bd
00000150: 1851 2f3d 77ef b03c 9744 a3bd 5f29 8bbd
00000160: a149 8c3d 9fb1 173e e382 77bc 09cc 213e
00000170: fa80 0bbe 8bb8 a73b 18dd 8e3d ef95 eabc
00000180: 5055 2cbd 2031 ec3c 3904 43bd a1c4 82bd
00000190: 54fd 95bd cb39 70bd 6291 ecbd ebf2 62be
000001a0: 8318 e93d b751 c2bd c522 103e 3f4c 043e
000001b0: 64df bebc 12e2 c43d 0ff5 d83d 68a7 483e
000001c0: 5a31 423e dd19 813d 8afc 46bd 784e 39bd
000001d0: 9dee 04bc 069c 9b3d db68 ce3d 16e2 9abd
000001e0: e13d 803d c6bb e53d 52c9 fa3d ffb1 b53d
000001f0: 4ed5 de3d 1610 103e 17a7 dabc 5724 c73d
00000200: 5f94 25bd e3e7 b73d 19bb b33d d8a4 a9bc
00000210: 35e4 f5bd b5ff 2f3c 3d00 f4bd 2e2e 9939
00000220: 5e5e 22bd a62b acbd dbe0 df3c e74e be3a
00000230: d846 26bd 18c9 e73d fda8 11be c0b5 9abd
00000240: 69d6 243d d2d6 b4bd 3d06 0bbd 6ebf 6c3c
00000250: 8671 86bd 6d6c 03be 577b d43d 243b 7abc
00000260: 622e ed3d 773c 493a 776b 85bc 9c50 5b3d
00000270: 9f61 663c b634 d23d b2bb c53d 1077 2bbd
00000280: 3bf0 003e 764e e1bd 28bd 90bd 6b32 ae3d
00000290: 98f7 e7bd 3abf 4f3d e2ae d03d 4593 f1bd
000002a0: affa 20bd 6ce3 883d 2093 d13d aad3 34bc
000002b0: 72d0 f63d a4f0 fdbd 74d4 bcbd 80da aebd
000002c0: 6a31 dfbc 9b67 093e 93df da3b 8145 82bc
000002d0: 6efc 65bd 20a0 42bc c0c1 913c 7e41 29bb
000002e0: 0d0a 063e 76d3 b2bc 987e cfbc a6a5 b4bd
000002f0: 3bcf f4bd 4bbc c33c db04 c1bd def9 79bd

gru.bias_hh_l0 f4 [192]
0.069325976 0.03722494 0.15887202 -0.017796276 0.040414937 0.07666447 -0.025673823 0.13530724
-0.041878074 -0.0013044581 0.087982826 -0.11009349 0.10816655 0.025466718 -0.08106228 -0.019437898
0.066794276 0.083875634 -0.059833903 0.17927857 -0.12114616 0.019340375 -0.040662166 -0.15038353
-0.011586841 -0.0065382295 0.015567412 0.04523252 -0.06775865 0.019223442 0.13267282 -0.10669818
0.08920165 -0.010980082 0.12183704 0.06499796 0.056915462 0.14017865 0.041507386 -0.13753618
0.045963135 -0.054250263 0.1316107 0.065562144 0.0009794892 0.00534211 -0.009622068 -0.061423555
0.11683153 0.0060701147 0.14564036 -0.10031239 -0.1142501 0.15200962 -0.035190847 -0.010789887
-0.0197441 0.016558625 0.051201627 0.017432887 0.16353406 0.05153684 0.122790016 0.06515717
-0.028088871 -0.0058927876 0.12367865 0.012212442 0.104590066 0.042709764 -0.022486603 -0.113175355
0.05577923 0.2636324 0.15746455 0.110203885 -0.08516727 -0.011038729 -0.041726016 0.19246934
0.058454443 0.04001782 -0.041845627 0.119253725 0.024250427 0.17605205 -0.19273442 -0.0045460947
0.024482321 -0.028767683 0.03417879 0.055907525 -0.1489654 -0.06522533 0.012834433 -0.0636625
-0.025381755 -0.08435293 -0.043630075 -0.071559064 -0.019471835 -0.17429213 -0.007713329 -0.29523757
0.05687229 0.029672442 0.16660722 0.018055527 0.016530242 -0.016648835 -0.08954581 0.16641583
0.009164372 0.039841697 0.17021506 0.07210947 0.0038010238 0.05303239 0.12479888 0.00059621333
-0.05247062 -0.07454914 0.08381602 0.07672906 -0.031517245 0.07805767 0.038977467 0.04869946
0.037527233 -0.09131461 0.087472856 -0.020855712 -0.052218 -0.113445856 -0.041126955 0.13882473
0.07131148 -0.09699205 0.0056878272 -0.09317063 0.081567556 -0.07868927 -0.09614872 0.04892611
-0.045755792 0.038606197 0.035216086 -0.061126713 0.11497216 0.11032081 0.043892458 -0.04436213
-0.04137859 0.0694304 0.11008245 0.054504253 0.027266886 -0.040822152 -0.0721366 -0.09722976
0.13296998 0.09571614 0.035445455 0.10493721 0.031530935 -0.032965582 -0.08202008 -0.06390842
0.10657243 -0.016921457 0.10064231 0.007916179 -0.0071773976 0.0335858 -0.06702746 -0.08463003
-0.10111484 -0.022616819 -0.0010744286 0.042775095 0.0058654547 0.077863276 -0.11804321 0.104853615
0.09780586 0.058460344 0.060031496 -0.027654475 0.013390714 0.12622447 -0.00863993 -0.0497042
00000000: c7fa 8d3d 2e79 183d 59af 223e 7fc9 91bc
00000010: 228a 253d 4302 9d3d e951 d2bc fb8d 0a3e
00000020: 5888 2bbd 5afa aaba 5730 b43d b278 e1bd
00000030: 6d86 dd3d 949f d03c fb03 a6bd 3a3c 9fbc
00000040: 70cb 883d fdc6 ab3d 6514 75bd cd94 373e
00000050: 7a1b f8bd b56f 9e3c 5f8d 26bd 24fe 19be
00000060: bcd6 3dbc a53e d6bb 750e 7f3c bc45 393d
00000070: 0cc5 8abd 7b7a 9d3c 62db 073e 9384 dabd
00000080: 5baf b63d cde5 33bc b385 f93d a71d 853d
00000090: 3020 693d fe8a 0f3e a603 2a3d 49d6 0cbe
000000a0: d743 3c3d 8635 5ebd f5c4 063e 7245 863d
000000b0: 3462 803a de0c af3b e1a5 1dbc 4497 7bbd
000000c0: 5f45 ef3d d0e7 c63b bf22 153e 9570 cdbd
000000d0: f5fb e9bd 69a8 1b3e 4724 10bd 11c8 30bc
000000e0: 61be a1bc f4a5 873c ccb8 513d 6acf 8e3c
000000f0: 7975 273e 4b18 533d 5579 fb3d 1f71 853d
00000100: a21a e6bc 4918 c1bb 3b4b fd3d b216 483c
00000110: 5133 d63d 6ff0 2e3d d335 b8bc 7bc8 e7bd
00000120: c378 643d d3fa 863e 633e 213e 93b2 e13d
00000130: 2d6c aebd c9db 34bc e6e8 2abd af16 453e
00000140: ed6d 6f3d bae9 233d 5266 2bbd 4c3b f43d
00000150: d5a8 c63c fd46 343e 2c5c 45be 68f7 94bb
00000160: 268f c83c 34aa ebbc 0fff 0b3d 4aff 643d
00000170: 638a 18be dc94 85bd 8347 523c 7c61 82bd
00000180: 66ed cfbc 3bc1 acbd 73b5 32bd 8f8d 92bd
00000190: 6683 9fbc a379 32be 18c0 fcbb 6129 97be
000001a0: ebf2 683d 9f13 f33c 159b 2a3e 2fe9 933c
000001b0: 6e6a 873c 2363 88bc cb63 b7bd e968 2a3e
000001c0: 2a26 163c 0c31 233d db4c 2e3e 21ae 933d
000001d0: 991a 793b 7e38 593d 8e96 ff3d 334b 1c3a
000001e0: 6feb 56bd 38ad 98bd bca7 ab3d 2024 9d3d
000001f0: 3a18 01bd b3dc 9f3d d6a6 1f3d 1679 473d
00000200: 28b6 193d 2703 bbbd f824 b33d 99d9 aabc
00000210: 8be2 55bd 4d56 e8bd bd74 28bd 1228 0e3e
00000220: c10b 923d c5a3 c6bd f460 ba3b 3ed0 bebd
00000230: e40c a73d d727 a1bd 9fe9 c4bd bf66 483d
00000240: 6d6a 3bbd 8821 1e3d be3e 103d 0160 7abd
00000250: 8676 eb3d e0ef e13d 94c8 333d 11b5 35bd
00000260: 997c 29bd 8731 8e3d e872 e13d da3f 5f3d
00000270: ce5e df3c 2135 27bd 5bbc 93bd 6520 c7bd
00000280: 4829 083e d306 c43d 412f 113d 52e9 d63d
00000290: 9526 013d eb06 07bd 25fa a7bd 6be2 82bd
000002a0: a542 da3d de9e 8abc 8e1d ce3d dcb2 013c
000002b0: 6030 ebbb 4491 093d b145 89bd 8252 adbd
000002c0: 4c15 cfbd e846 b9bc d7d3 8cba f034 2f3d
000002d0: 0033 c03b c876 9f3d a3c0 f1bd 7ebd d63d
000002e0: 704e c83d 1d74 6f3d 96e3 753d a38b e2bc
000002f0: ba64 5b3c fd40 013e 7e8e 0dbc a296 4bbd

head.0.weight f4 [64, 64]
0.11660977 0.15540686 -0.13009077 0.08622395 0.042578645 -0.046025563 -0.07022568 0.07098118
0.08333273 -0.044769038 0.035684895 -0.022576844 -0.062995 0.0609978 -0.053621486 -0.112119846
-0.07419509 0.07869326 -0.09394742 -0.057387333 -0.0389054 0.028927255 -0.053063117 0.097088605
0.09685137 -0.063410215 -0.05063501 0.07966961 0.053372744 0.10803593 -0.05378584 -0.049246542
-0.013904987 -0.009461607 0.057484906 0.044005092 -0.054195456 -0.025421241 0.05387769 0.19779603
0.1153507 0.019809226 -0.037972104 0.03909733 -0.066729285 0.05441063 0.045579907 0.13507187
-0.013168768 -0.060717355 -0.07250899 -0.004397789 0.007749837 0.01217172 -0.0024541782 0.02524204
-0.0052981065 -0.098815076 -0.086984344 0.04275322 0.07155385 0.028734645 0.089274794 0.04096519
-0.0064895134 0.14003229 -0.1448171 -0.115619026 -0.12514377 -0.16727108 -0.062232293 -0.09867382
0.0676786 -0.024413122 -0.120669514 0.15474959 0.07414444 -0.0405857 -0.023226574 0.11425061
-0.11071014 -0.026161395 -0.18379466 0.13784868 0.05000727 -0.0014163539 0.120662324 0.030509781
0.13961037 0.1092998 -0.0077702706 0.17220375 0.0074941553 0.0772867 -0.09653559 0.04189795
-0.055404954 0.016521007 0.16603939 0.107866496 0.073838755 -0.11416471 0.0036649532 -0.11899847
0.17406423 0.13669796 0.0014964426 -0.121078715 -0.010676577 -0.03341429 -0.08959543 -0.069480635
0.026466269 0.05418511 0.1001301 -0.090987325 0.01666578 -0.05582928 0.054781158 0.0882992
0.0026737805 0.0935337 -0.017368564 0.1811853 0.052996565 0.012432576 -0.12235786 -0.0024290825
-0.08010563 0.0044980217 0.033732906 -0.115099154 0.035877574 0.051985882 -0.046717785 -0.055744756
-0.07720723 0.07439083 0.06658127 0.043217536 0.013174645 0.019045614 -0.10943646 0.0018021584
-0.0838549 0.052644808 -0.001972436 -0.11356424 0.08051428 0.06983444 -0.0077058887 -0.036880314
-0.04161048 -0.03432089 -0.0722956 0.012305484 0.10249973 -0.06022106 -0.059159525 0.028349325
-0.07074179 0.05435143 0.091353364 0.10931052 0.10411746 -0.035680145 0.034172136 0.10530898
-0.122765236 0.106486835 -0.10268482 0.035102043 -0.12625062 0.054744218 0.010770668 0.027870903
-0.04128964 -0.03347178 0.07525122 0.100709654 -0.00041883282 -0.03976676 0.022483235 -0.11718714
-0.08436147 -0.11226588 -0.041640256 -0.07373283 -0.000522195 0.024176275 -0.053219043 -0.029458728
0.043206442 0.058962293 0.1379499 0.05768575 0.097163096 -0.071115874 0.01134913 0.08613031
-0.060955483 -0.07888117 0.14758721 -0.1373007 0.12320726 0.08866392 -0.10270283 -0.16839278
-0.046063803 0.012343539 0.08479884 0.07601232 0.11016836 0.04163412 -0.0150166815 -0.018551867
0.08559703 -0.059640363 0.0894407 0.0021073252 0.053221487 0.030889029 0.15496665 -0.06305689
0.014136864 -0.14832342 -0.09140601 0.07336257 -0.12433991 0.12102263 -0.029781565 -0.088698685
-0.055425536 -0.04982046 -0.06654801 0.04640712 -0.03077853 0.07453627 -0.0978908 0.020983094
-0.10787977 0.08990984 0.10081529 -0.010513391 -0.039421577 -0.074576385 0.01696834 -0.03697831
0.003014728 0.089174606 0.06856033 -0.11735226 -0.11241291 0.035048895 0.0645969 0.12592216
00000000: 1ad1 ee3d fa22 1f3e 8436 05be 2f96 b03d
00000010: f266 2e3d 4d85 3cbd 7bd2 8fbd 955e 913d
00000020: 5aaa aa3d bd5f 37bd 532a 123d 13f3 b8bc
00000030: 8603 81bd d4d8 793d 34a2 5bbd 179f e5bd
00000040: 98f3 97bd ef29 a13d 8167 c0bd fb0e 6bbd
00000050: 455b 1fbd daf8 ec3c b658 59bd 64d6 c63d
00000060: 035a c63d 37dd 81bd a866 4fbd d229 a33d
00000070: 619d 5a3d f141 dd3d 8a4e 5cbd beb6 49bd
00000080: bed1 63bc db04 1bbc 4b75 6b3d af3e 343d
00000090: 0efc 5dbd 3540 d0bc daae 5c3d 0b8b 4a3e
000000a0: fd3c ec3d f546 a23c a388 1bbd 8624 203d
000000b0: 5da9 88bd aedd 5e3d ffb1 3a3d 4850 0a3e
000000c0: d1c1 57bc c3b2 78bd 987f 94bd 541b 90bb
000000d0: 58f2 fd3b e56b 473c 47d6 20bb 65c8 ce3c
000000e0: bd9b adbb 8f5f cabd d924 b2bd 001e 2f3d
000000f0: d38a 923d eb64 eb3c b4d5 b63d 1dcb 273d
00000100: fca5 d4bb a064 0f3e ef4a 14be abc9 ecbd
00000110: b025 00be 1c49 2bbe 4ae7 7ebd 8015 cabd
00000120: 149b 8a3d 07fe c7bc 9421 f7bd ad76 1e3e
00000130: 0ad9 973d 313d 26bd a845 bebc 39fc e93d
00000140: ffbb e2bd 6c50 d6bc ab34 3cbe 3428 0d3e
00000150: 6cd4 4c3d f3a4 b9ba cf1d f73d a6ef f93c
00000160: 05f6 0e3e 93d8 df3d c19d febb 2e56 303e
00000170: 8891 f53b 7d48 9e3d 74b4 c5bd 2f9d 2b3d
00000180: 4ef0 62bd 1057 873c 3b06 2a3e 1ce9 dc3d
00000190: c638 973d 30cf e9bd b62f 703b 78b5 f3bd
000001a0: e53d 323e 8dfa 0b3e 4824 c43a 1ef8 f7bd
000001b0: cfec 2ebc 6cdd 08bd cf7d b7bd dd4b 8ebd
000001c0: cacf d83c 35f1 5d3d 0311 cd3d 9057 babd
000001d0: ad86 883c 3ead 64bd 3562 603d 36d6 b43d
000001e0: 983a 2f3b 998e bf3d 8548 8ebc a488 393e
000001f0: ed12 593d 01b2 4b3c c296 fabd 3e31 1fbb
00000200: 6c0e a4bd 2464 933b 842b 0a3d 1bb9 ebbd
00000210: 5df4 123d 26ef 543d 265b 3fbd 9d54 64bd
00000220: d31e 9ebd 385a 983d c35b 883d df04 313d
00000230: 77da 573c 8c05 9c3c 3920 e0bd 6736 ec3a
00000240: 1ebc abbd 15a2 573d fc43 01bb 5e94 e8bd
00000250: ace4 a43d 5c05 8f3d ae81 fcbb d00f 17bd
00000260: c06f 2abd 1094 0cbd b70f 94bd f19c 493c
00000270: 61eb d13d 5caa 76bd 4251 72bd d83c e83c
00000280: 12e1 90bd 9b9f 5e3d 7917 bb3d 32de df3d
00000290: 893b d53d 5825 12bd 15f8 0b3d 3cac d73d
000002a0: 576c fbbd c515 da3d 6b4c d2bd 29c7 0f3d
000002b0: d847 01be 793b 603d 7577 303c 8551 e43c
000002c0: 531f 29bd b519 09bd 501d 9a3d dd40 ce3d
000002d0: ca96 dbb9 78e2 22bd c32e b83c d0ff efbd
000002e0: b5c5 acbd a7eb e5bd f98e 2abd 3d01 97bd
000002f0: eae3 08ba 530d c63c 36fc 59bd 6e53 f1bc
00000300: 3df9 303d 7282 713d bd42 0d3e e547 6c3d
00000310: 72fd c63d 33a5 91bd b4f1 393c 1765 b03d
00000320: 75ac 79bd 738c a1bd 1a21 173e 8e98 0cbe
00000330: 1754 fc3d 6e95 b53d dd55 d2bd 286f 2cbe
00000340: 66ad 3cbd 8e3c 4a3c 04ab ad3d 59ac 9b3d
00000350: f39f e13d 8a88 2a3d 8708 76bc 16fa 97bc
00000360: 7f4d af3d 7449 74bd b02c b73d 0d1b 0a3b
00000370: c6fe 593d fd0a fd3c 94af 1e3e f923 81bd
00000380: 4e9e 673c 18e2 17be 1333 bbbd 1d3f 963d
00000390: eca5 febd b6da f73d 78f8 f3bc a8a7 b5bd
000003a0: e305 63bd 8a10 4cbd 534a 88bd 6415 3e3d
000003b0: 4123 fcbc 79a6 983d f97a c8bd bde4 ab3c
000003c0: 12f0 dcbd a622 b83d 3f78 ce3d 5c40 2cbc
000003d0: 8578 21bd 81bb 98bd 3001 8b3c 9276 17bd
000003e0: be92 453b 2da1 b63d 5c69 8c3d 6256 f0bd
000003f0: bd38 e6bd 6e8f 0f3d 614b 843d bdf1 003e

head.0.bias f4 [64]
-0.15953468 -0.030489983 -0.103802994 0.08491543 -0.1416862 -0.1254189 0.123728946 0.045389175
-0.08284747 -0.09563364 -0.03441985 0.057423748 0.04528152 0.013219702 0.059650548 0.051335044
0.01977754 0.10904927 -0.07268205 -0.098303154 -0.019904532 0.12235039 -0.09238831 -0.06771355
0.007065443 -0.067592196 0.08368933 -0.076003 -0.016744107 0.115159065 0.032727107 -0.09445741
-0.012780699 -0.074175395 -0.093113735 0.1424694 0.02974476 0.013897309 0.029316947 -0.10348654
0.10040225 -0.0019396743 0.0397743 -0.10324156 0.02037213 0.033171717 -0.008611833 0.07834262
-0.0975805 -0.068597175 0.13954292 0.10838902 -0.016922148 0.065372564 -0.13180861 -0.11103566
-0.034360666 0.11785859 -0.09985873 0.044023145 -0.06726759 0.05649138 -0.11092367 -0.040544644
00000000: 0f5d 23be 21c6 f9bc aa96 d4bd 24e8 ad3d
00000010: 3016 11be d06d 00be 9a65 fd3d 00ea 393d
00000020: efab a9bd 92db c3bd d4fb 0cbd 2a35 6b3d
00000030: 1d79 393d 7397 583c 2254 743d b244 523d
00000040: 8204 a23c 3955 df3d 54da 94bd 2a53 c9bd
00000050: d40e a3bc d792 fa3d 1536 bdbd 67ad 8abd
00000060: 3b85 e73b c76d 8abd 5065 ab3d 76a7 9bbd
00000070: f02a 89bc 84d8 eb3d dc0c 063d e372 c1bd
00000080: 2366 51bc 45e9 97bd 6ab2 bebd 80e3 113e
00000090: 48ab f33c 8ab1 633c 182a f03c c0f0 d3bd
000000a0: b29f cd3d ab3c feba 60ea 223d 5070 d3bd
000000b0: 74e3 a63c 11df 073d a518 0dbc 1872 a03d
000000c0: 49d8 c7bd ad7c 8cbd 57e4 0e3e 10fb dd3d
000000d0: 51a0 8abc 0de2 853d d6f8 06be aa66 e3bd
000000e0: c5bd 0cbd d85f f13d bc82 ccbd 9d51 343d
000000f0: 97c3 89bd 8163 673d f32b e3bd 2412 26bd

head.2.weight f4 [1, 64]
-0.056164294 -0.05169195 -0.0026303686 0.08931856 -0.08103334 -0.076858945 0.087632455 -0.09405018
0.08785567 0.09526266 0.042990547 0.084802076 0.05809495 0.11312571 -0.05941909 -0.0088874
0.04642562 0.06986629 0.080596186 -0.078422345 0.09581028 -0.09104653 0.10966162 0.06969413
0.10655619 0.017112236 -0.0744316 -0.15567017 -0.0939136 -0.068685524 -0.10355331 0.10449704
-0.07842551 0.06622553 -0.09710983 0.032637827 -0.06464443 -0.023088614 0.13023686 -0.05698539
-0.041431755 -0.06701938 -0.0054230834 -0.05813638 0.09632283 -0.06667137 -0.017821232 -0.10819935
0.10717631 0.033707593 -0.105736814 0.11110882 0.050255995 -0.1691877 -0.0020871647 -0.08454564
0.0921385 0.07452545 0.0014846638 0.04993184 0.0062088827 0.039110027 0.075594634 0.021354638
00000000: 880c 66bd f0ba 53bd 4362 2cbb a6ec b63d
00000010: cff4 a5bd 3968 9dbd a578 b33d 619d c0bd
00000020: aced b33d 1219 c33d db16 303d b6ac ad3d
00000030: f8f4 6d3d 74ae e73d 6f61 73bd 759c 11bc
00000040: ca28 3e3d 0f16 8f3d 9d0f a53d e59b a0bd
00000050: 2e38 c43d 9a76 babd 4596 e03d ccbb 8e3d
00000060: 223a da3d f62e 8c3c 986f 98bd 0068 1fbe
00000070: c655 c0bd ffaa 8cbd c213 d4bd 8b02 d63d
00000080: 8e9d a0bd 40a1 873d 85e1 c6bd 3eaf 053d
00000090: 4d64 84bd 5524 bdbc d05c 053e 8369 69bd
000000a0: 58b4 29bd 7541 89bd 1fb4 b1bb 6a20 6ebd
000000b0: e744 c53d 008b 88bd d5fd 91bc 9f97 ddbd
000000c0: 417f db3d f910 0a3d 8b8c d8bd 058d e33d
000000d0: 3bd9 4d3d 8a3f 2dbe d0c8 08bb 4426 adbd
000000e0: 1cb3 bc3d cda0 983d 0d99 c23a 5485 4c3d
000000f0: e273 cb3b d631 203d 5cd1 9a3d ecef ae3c
