outputs/exp_0003_20251213_123043/runs/seed0/h1/OnlineSGD/model_final.pt (torch, 71493 bytes, 7 tensors)

gru.weight_ih_l0 f4 [192, 1]
-0.028978301 0.10399641 -0.111541405 -0.1438514 -0.13291499 0.021736944 0.016076954 0.11022311
0.03333793 0.10135099 -0.060901098 -0.10358594 -0.109975666 -0.086621165 -0.044587903 0.020842083
-0.03533643 0.06559168 -0.20940219 -0.062404078 0.117311314 0.06458315 0.008809676 0.12749426
0.04035313 -0.025556548 0.12721333 -0.23213993 -0.015966147 0.028877823 -0.10492897 0.06898143
-0.020605754 0.025363969 -0.021590475 -0.05553169 -0.013534649 0.07342578 0.0176654 -0.0020011594
-0.02494766 0.0040274076 0.06614861 -0.095325634 -0.03498059 -0.12037265 0.12837604 0.013572307
-0.04448761 0.061702024 0.11611775 0.12866315 0.046962325 -0.054608162 0.12642409 -0.098063245
0.034903616 -0.07889488 -0.12627438 -0.028981917 0.13776243 0.01375215 -0.04670703 -0.0070628943
-0.009305767 -0.063699335 0.00859314 0.012968552 0.006672708 0.11106442 -0.1694197 -0.10957967
0.009885631 0.08006046 0.12506716 0.06469266 -0.028272096 -0.16112225 -0.03998222 -0.13345948
-0.17367226 0.031233512 0.041539047 -0.110684544 -0.019343952 -0.07912647 -0.01847131 -0.09207267
0.065736376 -0.09264276 0.076211825 0.05083023 0.14275025 0.03901546 -0.19046053 -0.13956328
0.052950244 0.07252468 -0.06621428 -0.046294674 0.13637944 0.07807121 -0.065391734 -0.10216838
-0.13978034 0.055847593 -0.11101432 -0.07194023 0.017698191 -0.023825722 -0.105483755 0.02175312
-0.1047398 0.14582805 0.026154887 -0.12779762 -0.106209844 -0.055771705 -0.08261507 -0.015891382
-0.029478477 0.021193504 -0.116318904 0.017373288 -0.11843624 -0.11950605 -0.061193254 -0.090005636
-0.13727485 -0.15358801 -0.01366181 0.06072287 -0.15093452 -0.10089509 0.13151097 -0.08510096
-0.0031015743 0.031612076 -0.003943586 0.09745109 0.14813395 0.11525924 0.18205655 -0.07533425
-0.16635776 -0.14759259 0.13905428 -0.059100576 -0.14063025 -0.1552791 -0.124830276 -0.13310385
-0.05242158 0.12347936 0.05882149 -0.14291961 0.074681774 -0.13078584 -0.09051668 -0.14654134
-0.012276221 -0.05155724 -0.10520549 -0.10875788 -0.03701191 0.043856464 -0.10919705 0.12165512
-0.16506651 0.0077927844 0.15551311 -0.04859392 0.13401031 0.11606389 -0.1809748 0.1462274
-0.07854656 -0.014650669 0.16063316 -0.17245336 0.05893876 -0.09744614 0.16265395 0.09030647
0.10232433 0.04199795 -0.10061351 -0.112468965 -0.14318198 0.008310723 0.12385062 0.014207169
00000000: e763 edbc 12fc d43d d26f e4bd c84d 13be
00000010: de1a 08be ad11 b23c d1b3 833c a7bc e13d
00000020: 5a8d 083d 1c91 cf3d 6e73 79bd de24 d4bd
00000030: ec3a e1bd 7066 b1bd cea1 36bd 04bd aa3c
00000040: efbc 10bd ee54 863d 876d 56be 6b9b 7fbd
00000050: ea40 f03d 2c44 843d 7656 103c db8d 023e
00000060: 5349 253d f75b d1bc 3644 023e 17b6 6dbe
00000070: 70cb 82bc 2f91 ec3c 00e5 d6bd 2346 8d3d
00000080: 66cd a8bc 19c8 cf3c 82de b0bc 3375 63bd
00000090: 6fc0 5dbc 4160 963d 07b7 903c e225 03bb
000000a0: 095f ccbc 58f8 833b ec78 873d 163a c3bd
000000b0: cf47 0fbd f085 f6bd 0275 033e 625e 5e3c
000000c0: a438 36bd 43bb 7c3d 25cf ed3d 46c0 033e
000000d0: 915b 403d cfac 5fbd 5175 013e 62d5 c8bd
000000e0: 18f7 0e3d a493 a1bd 124e 01be 7c6b edbc
000000f0: 9811 0d3e b350 613c df4f 3fbd da6f e7bb
00000100: 3777 18bc cc74 82bd 3eca 0c3c 0d7a 543c
00000110: bba6 da3b be75 e33d 5c7c 2dbe 4e6b e0bd
00000120: 57f7 213c bdf6 a33d 9b11 003e 967d 843d
00000130: e29a e7bc 3bfd 24be 65c4 23bd 9aa9 08be
00000140: 24d7 31be 6cdd ff3c d924 2a3d 94ae e2bd
00000150: 3577 9ebc 0f0d a2bd 2551 97bc 9990 bcbd
00000160: cba0 863d 7dbb bdbd f214 9c3d 5c33 503d
00000170: 1f2d 123e adce 1f3d 1608 43be ade9 0ebe
00000180: 5be2 583d d287 943d 5a9b 87bd 7c9f 3dbd
00000190: 0da7 0b3e cce3 9f3d 1aec 85bd a83d d1bd
000001a0: 9422 0fbe 72c0 643d 7a5b e3bd 6655 93bd
000001b0: ccfb 903c 292e c3bc de07 d8bd 9933 b23c
000001c0: d281 d6bd f353 153e c642 d63c 61dd 02be
000001d0: 8c84 d9bd df70 64bd 1732 a9bd a52e 82bc
000001e0: d97c f1bc 009e ad3c 9b38 eebd 6d52 8e3c
000001f0: b38e f2bd 97bf f4bd c7a5 7abd e054 b8bd
00000200: c791 0cbe 2d46 1dbe c9d5 5fbc 8bb8 783d
00000210: 948e 1abe 16a2 cebd d0aa 063e 6a49 aebd
00000220: c843 4bbb aa7b 013d 3239 81bb 7094 c73d
00000230: 6db0 173e 090d ec3d 086d 3a3e d848 9abd
00000240: b059 2abe 8322 17be 3f64 0e3e 7213 72bd
00000250: 6001 10be 7c01 1fbe 04a7 ffbd 604c 08be
00000260: 03b8 56bd bfe2 fc3d cdee 703d 8559 12be
00000270: c2f2 983d b9ec 05be cf60 b9bd ef0e 16be
00000280: 3422 49bc af2d 53bd fa75 d7bd 74bc debd
00000290: cd99 17bd d6a2 333d b4a2 dfbd 5226 f93d
000002a0: 3207 29be 9d5a ff3b d43e 1f3e 6b0a 47bd
000002b0: 003a 093e e8b2 ed3d 7551 39be a3bc 153e
000002c0: 05dd a0bd 5c09 70bc 057d 243e 9d97 30be
000002d0: c569 713d d891 c7bd c28e 263e 99f2 b83d
000002e0: 6b8f d13d 0b06 2c3d 750e cebd 2156 e6bd
000002f0: 4c9e 12be b329 083c 65a5 fd3d 30c5 683c

gru.weight_hh_l0 f4 [192, 64]
-0.08344025 -0.030172758 -0.057699606 -0.035572246 -0.082340665 0.012569532 -0.047914904 0.00026112463
-0.0008348736 0.1179561 -0.121482976 -0.0799297 -0.06263683 0.089244954 -0.011632689 0.09762315
0.01794904 -0.02333307 0.006384388 -0.05308117 0.014086843 -0.010556465 -0.057842705 -0.005983726
-0.11381256 -0.07141617 0.12469019 -0.12178625 0.020952538 0.092435345 0.011611788 -0.049638618
-0.078499794 -0.0006688527 -0.10551477 -0.09833207 -0.04758353 0.022886656 -0.025032237 0.1215554
-0.019918509 0.06557675 0.08092341 -0.06478609 0.086198956 -0.07713806 -0.10663247 0.07292601
-0.0045930822 0.083718866 -0.010602155 -0.030510455 0.07657088 -0.12718558 0.14575338 -0.09267702
-0.0005730961 -0.010319048 -0.07926599 0.00025072918 0.068541534 -0.08020406 -0.07005906 -0.064026594
-0.16599134 0.03748617 -0.06084129 -0.04370093 -0.1190666 0.042192806 0.10074369 0.048001554
0.0120449895 -0.016290734 -0.05046583 0.08223437 0.13213396 0.08238659 -0.028996257 -0.086265005
-0.16132303 -0.006418658 0.016351366 -0.14615418 0.064064406 -0.15440884 -0.108238034 -0.023969369
9.092998e-05 -0.044400122 -0.040324256 0.06382741 0.07420876 0.06175759 -0.07900246 0.018244615
-0.029771892 -0.090166174 -0.11047226 -0.018274136 0.0069042346 0.021964105 -0.064361356 -0.035215013
0.046277575 -0.14480945 0.11610663 0.0017529518 -0.008219078 0.05592668 -0.087631226 0.068983264
-0.0010842136 -0.11580132 0.05893578 0.017278219 0.060036473 -0.07327038 -0.080251575 0.03428601
0.08702636 -0.0068212654 0.010535635 0.052239038 -0.10817286 0.019060913 0.093204536 0.052365568
0.031836715 -0.007619157 -0.086866416 0.025636332 0.08555166 0.13205783 0.080114864 0.03914189
0.08149074 0.015517506 -0.14279982 -0.101882316 0.13892673 0.06916231 -0.06308676 0.082590036
0.07222004 0.10476339 0.089214966 0.114451855 -0.01522758 -0.016528327 0.032879412 0.09403991
-0.093177415 0.105275854 0.13311906 0.05712274 -0.061725 -0.0025442222 -0.05191571 0.05594713
0.07635102 -0.07376615 0.007252105 -0.014792518 -0.062860616 0.07581854 -0.065622404 0.027255002
-0.1030254 -0.21379513 -0.11476365 0.09980484 0.1250068 0.11143252 0.058530763 -0.073491685
-0.105239004 -0.064736344 -0.03715612 0.07124117 -0.054335672 -0.053076524 -0.08053507 -0.090762764
0.10846914 0.17797616 0.08940641 0.13580163 0.07974846 -0.05625105 -0.008294759 0.10787217
0.04913082 0.14748274 0.11209286 0.0008905255 -0.033465885 0.031675283 0.029960848 -0.028142182
-0.088492684 -0.10750801 -0.026364742 0.020753821 0.035679422 -0.00460278 -0.058819328 0.0749596
0.070731096 -0.000723698 -0.08258295 0.07606243 0.048401747 -0.062613934 0.22265486 0.14605229
0.0005093037 0.03503731 -0.15289965 0.09050177 0.0068539293 0.07998626 -0.12067628 -0.07055383
-0.045365136 0.08013726 0.07114506 0.20095132 0.086468466 -0.053589385 -0.01734497 0.07429376
0.118386865 -0.050234083 -0.09617263 -0.0742246 -0.13191178 0.045009386 -0.06147237 -0.022022864
0.12299476 0.069965705 -0.12710263 -0.04496265 -0.00023522187 -0.075374655 0.047113184 -0.099616
-0.12805763 -0.17597839 -0.043576855 0.061367225 -0.05094897 0.05124193 -0.046923935 -0.020589087
00000000: b9e2 aabd dc2c f7bc 6c56 6cbd 34b4 11bd
00000010: 39a2 a8bd 70f0 4d3c 6b42 44bd 8ee7 8839
00000020: 6bdb 5aba f892 f13d 11cc f8bd 2fb2 a3bd
00000030: bd47 80bd 0fc6 b63d 0997 3ebc a5ee c73d
00000040: dd09 933c ff24 bfbc 2134 d13b a46b 59bd
00000050: 80cc 663c 06f5 2cbc 79ec 6cbd 2213 c4bb
00000060: 8f16 e9bd a442 92bd 925d ff3d 126b f9bd
00000070: a8a4 ab3c be4e bd3d 5e3f 3e3c dd51 4bbd
00000080: 80c4 a0bd f255 2fba 2118 d8bd 5362 c9bd
00000090: f3e6 42bd cc7c bb3c 6810 cdbc 0af2 f83d
000000a0: 242c a3bc 1a4d 863d 2cbb a53d 92ae 84bd
000000b0: 1489 b03d 8ffa 9dbd 2062 dabd 3b5a 953d
000000c0: 9181 96bb cc74 ab3d a9b4 2dbc 10f1 f9bc
000000d0: 32d1 9c3d f03c 02be 6040 153e 73cd bdbd
000000e0: d43b 16ba 3911 29bc 3556 a2bd 4d74 8339
000000f0: 815f 8c3d 0742 a4bd 207b 8fbd 6020 83bd
00000100: a2f9 29be 198b 193d b734 79bd bfff 32bd
00000110: 31d9 f3bd 5dd2 2c3d b552 ce3d 479d 443d
00000120: 5958 453c 2574 85bc 42b5 4ebd 7e6a a83d
00000130: 204e 073e 4dba a83d 8f89 edbc b5ab b0bd
00000140: dd31 25be 9b53 d2bb 4df3 853c 71a9 15be
00000150: 3334 833d 5a1d 1ebe e7ab ddbd 695b c4bc
00000160: a9b1 be38 e7dc 35bd 0c2b 25bd f2b7 823d
00000170: c3fa 973d 87f5 7c3d 0bcc a1bd bb75 953c
00000180: 2fe4 f3bc 0ba9 b8bd 483f e2bd a4b3 95bc
00000190: eb3c e23b 11ee b33c e3cf 83bd 9e3d 10bd
000001a0: 8e8d 3d3d ee48 14be 50c9 ed3d 4dc3 e53a
000001b0: 50a9 06bc 6013 653d 0078 b3bd 1947 8d3d
000001c0: 2c1c 8eba 3e29 edbd a566 713d 0d8b 8d3c
000001d0: cee8 753d c80e 96bd f05a a4bd 7d6f 0c3d
000001e0: e03a b23d ec84 dfbb a89d 2c3c 9af8 553d
000001f0: bc89 ddbd a225 9c3c 05e2 be3d 477d 563d
00000200: 3767 023d 1faa f9bb 05e7 b1bd 4903 d23c
00000210: b535 af3d 2b3a 073e 4313 a43d 3f53 203d
00000220: 9ee4 a63d 233d 7e3c 1e3a 12be ada7 d0bd
00000230: cf42 0e3e f8a4 8d3d a233 81bd f724 a93d
00000240: 1ae8 933d 308e d63d 56b6 b63d bc65 ea3d
00000250: 1a7d 79bc 6a66 87bc 90ac 063d ff97 c03d
00000260: cdd3 bebd de9a d73d 5d50 083e 89f9 693d
00000270: 5bd3 7cbd f7bc 26bb 91a5 54bd d128 653d
00000280: ec5d 9c3d b512 97bd 11a3 ed3b 515c 72bc
00000290: 11bd 80bd c046 9b3d 0a65 86bd e245 df3c
000002a0: fbfe d2bd 1ced 5abe 3409 ebbd 7b66 cc3d
000002b0: c801 003e bc36 e43d f4bd 6f3d cf82 96bd
000002c0: 8c87 d7bd 7d94 84bd 0431 18bd e4e6 913d
000002d0: 158f 5ebd c566 59bd 92ef a4bd d4e1 b9bd
000002e0: 1225 de3d 623f 363e b51a b73d 950f 0b3e
000002f0: 2953 a33d 8067 66bd bee6 07bc 16ec dc3d
00000300: 663d 493d b705 173e f190 e53d 2872 693a
00000310: 8613 09bd f1bd 013d 7470 f53c 6f8a e6bc
00000320: a73b b5bd 292d dcbd dffa d7bc eb03 aa3c
00000330: 9624 123d ebd2 96bb 89ec 70bd 6b84 993d
00000340: 77db 903d 8db6 3dba 4021 a9bd 9fc6 9b3d
00000350: e940 463d bc3b 80bd a3ff 633e bb8e 153e
00000360: cb82 053a 4883 0f3d ba91 1cbe fe58 b93d
00000370: ed96 e03b d6cf a33d 2025 f7bd 877e 90bd
00000380: cbd0 39bd 011f a43d 80b4 913d 2fc6 4d3e
00000390: 6116 b13d 8b80 5bbd 0a17 8ebc 5427 983d
000003a0: d074 f23d 41c2 4dbd 28f6 c4bd 1103 98bd
000003b0: e213 07be c35b 383d 74ca 7bbd 4b69 b4bc
000003c0: ade4 fb3d 2e4a 8f3d 3127 02be c12a 38bd
000003d0: e4a5 76b9 075e 9abd c1f9 403d 7903 ccbd
000003e0: 8a21 03be ae33 34be a57d 32bd 335c 7b3d
000003f0: deaf 50bd 0fe3 513d 5033 40bd 72aa a8bc

gru.bias_ih_l0 f4 [192]
0.037178203 0.102460414 0.018850144 0.018065749 -0.16823584 -0.010639781 -0.03235289 -0.10875064
0.063549705 0.1323668 0.04013505 -0.14592817 0.087895446 0.12942258 0.0102158915 -0.057166632
-0.060811576 0.12358572 -0.06425661 0.00083196105 0.061183415 0.11166939 0.043822803 0.06218835
-0.02598468 0.042034034 -0.07814163 -0.055694483 0.16764325 -0.059807483 -0.060521353 0.12448212
0.11500194 0.024323937 -0.08371674 0.122162946 0.10406052 -0.012737206 0.02393652 0.090458736
0.05103521 -0.055713374 -0.025760774 0.046735942 0.05064878 0.097747155 0.053089783 -0.0044598547
0.11651792 -0.09619299 -0.016234823 -0.059556562 -0.01891328 0.009714955 -0.029681107 -0.07991464
-0.0936926 0.15685172 -0.074400775 0.08974095 -0.026950946 0.033383984 0.1114151 -0.020427333
0.18231829 -0.11168053 0.08683018 -0.05199248 -0.0144898705 0.18153362 0.006497685 0.15532237
-0.002107259 0.06034764 -0.029684016 0.14208424 -0.023249224 0.043824214 0.19669122 0.009788869
0.07452673 0.051724672 0.20285574 0.044801436 0.0074687176 -0.025581928 0.118321456 0.21330921
0.06461783 0.008621038 -0.10306286 -0.044319823 0.1896021 0.073920704 -0.08873575 0.14656806
0.049921572 0.16738899 0.19542944 0.13299274 -0.060400896 -0.08764944 -0.004572678 0.11242397
0.08623323 0.18492901 0.16789828 0.112136625 0.18229762 -0.0019078376 0.09461135 0.074225605
0.034019567 -0.13669702 -0.06393876 0.16134775 -0.010285963 0.1829738 -0.071506895 0.051830415
0.060189173 0.14554955 0.06878493 0.08065493 0.10957554 0.09097489 0.06482243 0.1755983
0.07849491 -0.059434425 0.023135021 0.11006881 -0.003605547 0.043019447 0.07662348 0.11763997
-0.03743704 0.11227005 -0.08609883 -0.11500509 0.07308045 0.037753854 0.06169692 -0.11091723
-0.09741122 -0.0045194845 0.035862472 -0.058198888 -0.105262734 -0.106745616 -0.105781704 0.09159515
0.04490664 0.160448 0.16393122 0.051581223 -0.016471222 -0.15230504 -0.09417311 -0.09065232
0.11416869 -0.121933095 0.039793964 -0.047686983 -0.14169697 0.013353366 0.024983538 0.011986048
0.001617733 -0.13059446 -0.106413335 0.12337216 0.072578974 0.0016544664 0.03827806 0.012328429
0.0065031443 -0.16218928 -0.053257406 0.028402165 0.037807416 -0.05442529 0.010454664 0.059950374
0.15163328 0.113182664 -0.08509377 -0.006617112 -0.06462903 -0.024129843 -0.027528282 -0.008071676
00000000: 2c48 183d c4d6 d13d 9e6b 9a3c 9ffe 933c
00000010: 0446 2cbe 7a52 2ebc 7784 04bd a8b8 debd
00000020: 5926 823d 2a8b 073e a664 243d 326e 15be
00000030: 8702 b43d 5a87 043e 8e60 273c 8f27 6abd
00000040: 8f15 79bd 831a fd3d f898 83bd f617 5a3a
00000050: 769b 7a3d ecb2 e43d 8a7f 333d 36b9 7e3d
00000060: d3dd d4bc e12b 2c3d b808 a0bd e61f 64bd
00000070: acaa 2b3e b1f8 74bd 3de5 77bd 7bf0 fe3d
00000080: 2386 eb3d fe42 c73c af73 abbd 9130 fa3d
00000090: af1d d53d b7af 50bc 8516 c43c 6e42 b93d
000000a0: 4c0a 513d b533 64bd 4208 d3bc 306e 3f3d
000000b0: 1875 4f3d a92f c83d ac74 593d f923 92bb
000000c0: f2a0 ee3d d500 c5bd e4fe 84bc 95f1 73bd
000000d0: 06f0 9abc 7a2b 1f3c cb25 f3bc 49aa a3bd
000000e0: e8e1 bfbd bd9d 203e 6f5f 98bd 1aca b73d
000000f0: 3bc8 dcbc a5bd 083d 9a2d e43d 3957 a7bc
00000100: a5b1 3a3e c3b8 e4bd 05d4 b13d 11f6 54bd
00000110: ec66 6dbc f3e3 393e 88ea d43b d40c 1f3e
00000120: f019 0abb 162f 773d e52b f3bc 887e 113e
00000130: 2875 bebc 0581 333d 6c69 493e 7e61 203c
00000140: 78a1 983d 40dd 533d 6ab9 4f3e b681 373d
00000150: 25bc f43b 3191 d1bc 8552 f23d bb6d 5a3e
00000160: 5a56 843d 413f 0d3c 9f12 d3bd b488 35bd
00000170: 0e27 423e bd63 973d 17bb b5bd f015 163e
00000180: 907a 4c3d 0568 2b3e a81e 483e 402f 083e
00000190: ee66 77bd 8d81 b3bd 67d6 95bb 8a3e e63d
000001a0: 0c9b b03d 085e 3d3e 87ed 2b3e e3a7 e53d
000001b0: 3aac 3a3e 6810 faba 98c3 c13d 9803 983d
000001c0: 1a58 0b3d 4efa 0bbe 53f2 82bd 5838 253e
000001d0: 7586 28bc 7c5d 3b3e 3572 92bd 214c 543d
000001e0: ec88 763d f10a 153e 1ddf 8c3d 692e a53d
000001f0: 2469 e03d 0b51 ba3d 9fc1 843d 0ad0 333e
00000200: f0c1 a03d 8371 73bd a885 bd3c c26b e13d
00000210: 0a4b 6cbb 2935 303d c5ec 9c3d 39ed f03d
00000220: 9557 19bd d7ed e53d 9554 b0bd ca87 ebbd
00000230: 34ab 953d c9a3 1a3d e9b5 7c3d 9328 e3bd
00000240: 897f c7bd 2f18 94bb 87e4 123d f561 6ebd
00000250: fd93 d7bd 729d dabd 14a4 d8bd 3d96 bb3d
00000260: 06f0 373d 7b4c 243e 96dd 273e d546 533d
00000270: a8ee 86bc daf5 1bbe d5dd c0bd eca7 b9bd
00000280: 46d1 e93d 0fb8 f9bd fffe 223d 6d53 43bd
00000290: 0319 11be 14c8 5a3c 47aa cc3c 2161 443c
000002a0: 1d0a d43a 8eba 05be 3cef d9bd 8baa fc3d
000002b0: 49a4 943d aeda d83a 74c9 1c3d 2efd 493c
000002c0: 5418 d53b f214 26be 7024 5abd a8ab e83c
000002d0: f3db 1a3d 0eed 5ebd 0a4a 2b3c 868e 753d
000002e0: c145 1b3e 50cc e73d a445 aebd 5cd4 d8bb
000002f0: 3a5c 84bd f3ab c5bc fe82 e1bc 103f 04bc

gru.bias_hh_l0 f4 [192]
0.088863134 -0.074786514 0.16428986 0.088031776 0.023940768 0.17873988 0.048655767 -0.10576435
0.11707505 -0.07386012 0.037454918 0.09696869 0.05392798 0.02830739 -0.08942546 -0.050400086
-0.017666435 0.048576187 -0.06275531 0.110683225 -0.021687966 -0.05705717 0.067179605 -0.15861069
0.15233734 -0.111730345 0.13156472 0.08519229 0.14209218 -0.086008124 0.1199244 0.104486935
-0.12960753 0.16916457 0.1424275 0.1067067 -0.098650984 0.03484808 0.07572565 0.14275268
-0.08407365 -0.047994584 0.06318274 0.06556145 2.5153866e-05 -0.099364586 -0.027675217 0.060983796
0.13917297 0.018673727 -0.11108893 -0.01992696 0.15471762 -0.043624014 0.037001207 0.11001126
-0.12075172 -0.069982454 -0.055593003 -0.017754054 -0.001614103 0.19381592 0.045464605 0.19467956
-0.04026767 0.111864716 0.065121695 -0.048264008 0.16677906 0.058910523 0.018195465 0.15752749
0.026717229 0.05155337 0.092584565 0.1553749 0.043733712 0.054563146 0.054437846 0.10621535
0.17036964 0.11927267 0.057445716 -0.026499182 0.16711411 -0.026053475 -0.026513834 0.05469612
0.09399285 0.016391395 0.05017111 0.09184959 0.24351577 0.03287447 0.04594599 0.25816846
0.08747582 0.04324969 0.2571018 0.20533645 0.08665359 0.09282471 0.068083435 0.10552
0.084248625 0.060667526 0.016801469 -0.116782956 0.17501228 0.07120099 0.12092755 -0.09481119
0.14674534 0.032089088 0.022321306 -0.06535791 0.07070662 0.026783668 -0.03313135 0.059025694
0.04345423 -0.005068437 0.04407714 0.07157528 0.06276813 0.008209754 0.057848793 0.048080966
-0.03466481 -0.15373969 0.14648332 -0.059704904 0.0833843 0.053857673 -0.0616031 -0.102324404
-0.0543204 0.16159925 0.0744538 0.06272199 0.17204192 0.10239191 0.057955924 0.109754995
0.0773954 -0.002013877 0.025966406 0.05659057 -0.0641029 0.035072077 0.016012887 0.079774246
0.05502308 0.16157705 0.08244725 -0.06461973 0.089320496 0.03231837 -0.10251707 -0.07974597
-0.0818187 -0.11270997 0.093558595 0.050910067 -0.07898434 -0.08521304 0.07885535 0.04475818
-0.03752127 -0.0860654 0.13360281 0.027772114 -0.07350425 0.10614304 -0.05456059 -0.057197835
-0.13075587 -0.07608357 -0.034602128 -0.10674582 0.090731926 -0.044626404 -0.043701604 5.244275e-05
-0.07468556 0.12322286 -0.12334471 -0.042517122 -0.061415356 -0.11695699 -0.13065036 -0.11056646
00000000: e0fd b53d ac29 99bd 9a3b 283e 014a b43d
00000010: 6e1f c43c 9607 373e 454b 473d fb9a d8bd
00000020: 0bc5 ef3d f943 97bd 546a 193d 8597 c63d
00000030: 96e3 5c3d e6e4 e73c b224 b7bd 5270 4ebd
00000040: 33b9 90bc d3f7 463d db85 80bd e3ad e23d
00000050: f6aa b1bc c7b4 69bd 7695 893d d76a 22be
00000060: 52fe 1b3e e1d2 e4bd e7b8 063e 4c79 ae3d
00000070: 9d80 113e 0725 b0bd ec9a f53d 3ffd d53d
00000080: d6b7 04be 7a39 2d3e 84d8 113e 0b89 da3d
00000090: 8709 cabd dcbc 0e3d 0d16 9b3d c22d 123e
000000a0: ce2e acbd f895 44bd f465 813d 1545 863d
000000b0: 8401 d337 a97f cbbd 23b7 e2bc 25ca 793d
000000c0: 5c83 0e3e a5f9 983c 9882 e3bd dd3d a3bc
000000d0: 4c6e 1e3e 18af 32bd 948e 173d 954d e13d
000000e0: ae4c f7bd f652 8fbd 7db5 63bd f370 91bc
000000f0: 4f90 d3ba ae77 463e 1839 3a3d 145a 473e
00000100: b6ef 24bd 5419 e53d 865e 853d 7bb0 45bd
00000110: 21c8 2a3e 294c 713d a80e 953c e34e 213e
00000120: 17de da3c a029 533d fa9c bd3d 991a 1f3e
00000130: 1f22 333d 9b7d 5f3d 38fa 5e3d 6f87 d93d
00000140: 6175 2e3e 3b45 f43d 334c 6b3d d014 d9bc
00000150: f61f 2b3e 196e d5bc 8a33 d9bc 0a09 603d
00000160: 537f c03d 3f47 863c 3980 4d3d a31b bc3d
00000170: 335c 793e 61a7 063d dd31 3c3d a82e 843e
00000180: 8626 b33d 9626 313d d9a2 833e b843 523e
00000190: 7077 b13d e21a be3d 546f 8b3d df1a d83d
000001a0: 8b8a ac3d 837e 783d 3ca3 893c e72b efbd
000001b0: 6b36 333e d3d1 913d dda8 f73d 5f2c c2bd
000001c0: 6944 163e d96f 033d 2cdb b63c 5eda 85bd
000001d0: a2ce 903d 6c69 db3c bdb4 07bd edc4 713d
000001e0: 10fd 313d 2215 a6bb 3b8a 343d 0f96 923d
000001f0: 948c 803d 3482 063c dbf2 6c3d 8cf0 443d
00000200: b0fc 0dbd f06d 1dbe b9ff 153e 218d 74bd
00000210: 63c5 aa3d dd99 5c3d 8853 7cbd 758f d1bd
00000220: 117f 5ebd 467a 253e 3c7b 983d 6374 803d
00000230: c22b 303e dab2 d13d 3163 6d3d 3ac7 e03d
00000240: 7b81 9e3d 40fb 03bb 80b7 d43c 83cb 673d
00000250: 6248 83bd bda7 0f3d 752d 833c ae60 a33d
00000260: e25f 613d 7474 253e 1bda a83d 5957 84bd
00000270: aaed b63d 4460 043d 78f4 d1bd db51 a3bd
00000280: 9090 a7bd 7cd4 e6bd a69b bf3d 1387 503d
00000290: 8bc2 a1bd 2d84 aebd ea7e a13d 5a54 373d
000002a0: e7af 19bd 0e43 b0bd 2dcf 083e 5882 e33c
000002b0: 6589 96bd 8661 d93d ed7a 5fbd 4748 6abd
000002c0: dee4 05be b4d1 9bbd f6ba 0dbd 8d9d dabd
000002d0: a9d1 b93d 2dca 36bd 7400 33bd f9f5 5b38
000002e0: bef4 98bd 445c fc3d 279c fcbd 6f26 2ebd
000002f0: ab8e 7bbd 2587 efbd 35c9 05be ab70 e2bd

head.0.weight f4 [64, 64]
-0.040280666 0.07915212 0.013128817 -0.14549792 0.07357304 -0.0020856669 0.03229507 0.014459826
0.09151303 -0.024596872 0.004574392 -0.00500722 0.0102007985 0.015517055 -0.020794332 0.096071504
0.07698432 0.14916146 -0.12706944 -0.020773593 0.041127656 0.11668919 -0.10248816 0.07065797
0.09809574 0.03363925 0.08099096 -0.022754405 0.033252634 0.13754968 -0.02180503 0.04243561
-0.09349854 0.10789222 -0.0070707845 -0.09287889 0.12522638 0.041471504 0.03717753 0.05340991
-0.07066621 0.01292216 -0.0072463043 -0.0072495667 0.08930398 -0.0155578805 0.16163978 -0.08589237
0.091317974 0.09211735 -0.11094346 -0.0022895252 -0.11623616 0.007773577 -0.11509078 0.0372634
-0.112736955 -0.01441218 0.0012206477 0.1198105 0.03231786 -0.063801914 -0.03858304 -0.057805497
0.018262548 0.10393306 0.06791654 0.04767978 -0.08730762 -0.039940603 0.091969736 -0.01227958
-0.16556238 -0.060498647 -0.11726622 0.016275836 0.04600826 0.10225881 0.09175669 -0.12079284
0.018243682 0.09729956 -0.025876582 -0.17025226 -0.058475222 -0.06280059 0.09057362 0.090746336
0.14377025 0.07663882 0.010759926 -0.06821253 0.017712872 -0.014810596 -0.08600578 -0.13647506
0.11672903 -0.15391423 -0.019851875 0.0192729 -0.0770951 0.006993178 -0.15166135 0.062532075
0.104782976 0.038621377 -0.011564162 0.13086279 0.09662601 0.109808244 -0.059016306 0.05216457
0.013082708 0.024109999 0.0946276 -0.070094004 -0.0756686 0.040673118 0.045553144 -0.016185682
0.076290086 -0.0041361973 0.10126595 -0.14494161 -0.053630136 0.024758372 -0.06551048 -0.027378833
0.042947687 0.122302756 -0.121229604 -0.15765129 -0.034022015 0.037532184 -0.034583595 -0.0098715555
-0.089525044 0.04039669 -0.039820023 -0.16629057 -0.07540144 -0.15967819 -0.07438637 0.022347387
0.114596635 0.04096926 0.04195047 -0.021252368 0.07379029 -0.018974578 0.05148731 0.18425012
0.12184929 -0.038155153 -0.083795846 0.06076041 -0.14222932 0.100327246 0.13630795 0.019240178
-0.0706062 0.12153104 -0.014016233 0.04518378 -0.05849291 0.067460045 0.048377234 -0.15423428
0.19886835 0.029960506 -0.04905723 0.13665292 0.01770974 -0.091498 0.027089847 -0.031205336
-0.02685599 0.12139903 -0.15764365 0.14738809 -0.030520087 0.15458407 -0.12512022 0.008707257
0.06988813 0.019702163 0.0051622107 -0.051566355 -0.0035159865 0.005708042 0.05955088 -0.09263531
-0.058668807 -0.0155980615 -0.023517491 -0.07057507 0.046676055 -0.023986302 -0.07614478 0.11603355
-0.027559351 -0.14810376 0.01739507 -0.08734896 -0.0953974 -0.16271296 -0.12223634 0.056053616
0.07942394 -0.021469904 -0.15958543 -0.07526621 0.07117544 0.09719402 -0.014492 0.04699957
0.0033457063 0.020698206 0.007928231 0.020393906 -0.0558388 0.01853218 0.14926088 0.106364794
-0.08249501 0.091813385 0.043525804 -0.07455494 0.052599788 0.038221937 0.06915392 -0.048016295
0.0008525898 0.074423335 -0.0041901697 -0.10570379 0.121342674 0.049105704 -0.05524663 -0.1004829
-0.030438296 -0.030083407 -0.0077970605 -0.10391318 -0.068464674 0.057933986 -0.008939011 -0.057235066
-0.03151597 0.00198044 0.16099389 0.032616235 0.00753572 -0.16020533 -0.13848451 -0.10379543
00000000: 57fd 24bd 821a a23d 401a 573c 68fd 14be
00000010: 76ad 963d afaf 08bb d647 043d e8e8 6c3c
00000020: 2f6b bb3d 617f c9bc c8e4 953b 9b13 a4bb
00000030: 4021 273c 3f3b 7e3c e058 aabc 23c1 c43d
00000040: f5a9 9d3d c8bd 183e 7e1e 02be 622d aabc
00000050: 7975 283d befa ee3d 50e5 d1bd 20b5 903d
00000060: 6be6 c83d 4fc9 093d 97de a53d 7267 babc
00000070: ea33 083d d3d9 0c3e 76a0 b2bc f6d0 2d3d
00000080: 2a7c bfbd 99f6 dc3d 0ab2 e7bb 4a37 bebd
00000090: 583b 003e 06de 293d 7747 183d 5ac4 5a3d
000000a0: 72b9 90bd 78b7 533c 6872 edbb c68d edbb
000000b0: 01e5 b63d 7be6 7ebc e684 253e 57e8 afbd
000000c0: eb04 bb3d 05a8 bc3d 5336 e3bd dc0b 16bb
000000d0: 390d eebd 7db9 fe3b b7b4 ebbd 82a1 183d
000000e0: a2e2 e6bd 1021 6cbc 24fe 9f3a 355f f53d
000000f0: bb5f 043d 94aa 82bd 4009 1ebd 75c5 6cbd
00000100: 579b 953c dbda d43d d417 8b3d df4b 433d
00000110: 56ce b2bd c298 23bd a15a bc3d 4b30 49bc
00000120: 2f89 29be 6ecd 77bd 4629 f0bd e754 853c
00000130: 2873 3c3d 116d d13d eeea bb3d 3d62 f7bd
00000140: c673 953c fe44 c73d 20fb d3bc 9c56 2ebe
00000150: b783 6fbd 999d 80bd a97e b93d 37d9 b93d
00000160: 8238 133e d0f4 9c3d 674a 303c 03b3 8bbd
00000170: 961a 913c 24a8 72bc cc23 b0bd 1ec0 0bbe
00000180: a10f ef3d b19b 1dbe 66a0 a2bc 33e2 9d3c
00000190: 09e4 9dbd 0727 e53b 1d4d 1bbe d110 803d
000001a0: 7598 d63d 7331 1e3d 9c77 3dbc e500 063e
000001b0: dce3 c53d 25e3 e03d 15bb 71bd 84aa 553d
000001c0: db58 563c 5582 c53c 1dcc c13d 728d 8fbd
000001d0: 24f8 9abd db98 263d ef95 3a3d d697 84bc
000001e0: fa3d 9c3d f088 87bb 8664 cf3d 936b 14be
000001f0: 46ab 5bbd 12d2 ca3c 5c2a 86bd 9349 e0bc
00000200: eae9 2f3d de79 fa3d 3a47 f8bd 576f 21be
00000210: ab5a 0bbd 59bb 193d 87a7 0dbd 4ebc 21bc
00000220: e858 b7bd 0077 253d 521a 23bd 1348 2abe
00000230: 126c 9abd ae82 23be e257 98bd de11 b73c
00000240: a4b1 ea3d 62cf 273d 42d4 2b3d 7219 aebc
00000250: 5d1f 973d 9370 9bbc 5ce4 523d 10ac 3c3e
00000260: 1f8c f93d 9448 1cbd 289d abbd e8df 783d
00000270: 90a4 11be 5f78 cd3d 5094 0b3e 949d 9d3c
00000280: fc99 90bd 44e5 f83d 58a4 65bc a112 393d
00000290: 4396 6fbd 7e28 8a3d 3527 463d 97ef 1dbe
000002a0: 25a4 4b3e bc6f f53c 3cf0 48bd beee 0b3e
000002b0: 0414 913c 4e63 bbbd 87eb dd3c 55a2 ffbc
000002c0: 1801 dcbc 0ea0 f83d 566d 21be e7ec 163e
000002d0: 4305 fabc 494b 1e3e 841f 00be e2a8 0e3c
000002e0: 8221 8f3d 6e66 a13c c327 a93b 3e37 53bd
000002f0: 776c 66bb 870a bb3b a0eb 733d 95b7 bdbd
00000300: b44e 70bd 038f 7fbc c1a7 c0bc aa89 90bd
00000310: 642f 3f3d ec7e c4bc cbf1 9bbd ffa2 ed3d
00000320: 26c4 e1bc 83a8 17be 1b80 8e3c 03e4 b2bd
00000330: b65f c3bd 3a9e 26be 0c57 fabd 7a98 653d
00000340: 05a9 a23d a7e1 afbc 5d6a 23be 2c25 9abd
00000350: 6ec4 913d a90d c73d db6f 6dbc 9f82 403d
00000360: a343 5b3b 498f a93c 69e5 013c 1f11 a73c
00000370: 3ab7 64bd ccd0 973c d8d7 183e c9d5 d93d
00000380: 25f3 a8bd a808 bc3d 1d48 323d 43b0 98bd
00000390: e072 573d 9b8e 1c3d 92a0 8d3d bcac 44bd
000003a0: 5580 5f3a 436b 983d b14d 89bb 3b7b d8bd
000003b0: 8282 f83d 1023 493d 4a4a 62bd fbc9 cdbd
000003c0: bc59 f9bc 7a71 f6bc 7c7e ffbb 6fd0 d4bd
000003d0: 3537 8cbd 304c 6d3d ee74 12bc 516f 6abd
000003e0: e416 01bd 45ca 013b 95db 243e 9a98 053d
000003f0: 33ee f63b de0c 24be e2ce 0dbe b392 d4bd

head.0.bias f4 [64]
0.060358793 0.119328134 0.08134997 -0.07581957 0.0412634 0.052682135 -0.14717616 -0.050225563
0.055690203 0.12587535 0.10193138 -0.010123439 0.0060290894 0.11339697 0.11504598 -0.028620165
0.12770963 -0.05961134 -0.025067657 -0.029861448 0.11189259 -0.06860708 0.038775057 -0.06454145
-0.04687174 0.100677125 -0.09411233 -0.024711613 0.025797645 0.058817618 0.033938974 -0.007196225
0.009372424 0.07183283 0.12086364 0.0016963508 0.05376558 0.051620297 -0.0022346845 0.017495237
-0.06640872 -0.045697078 0.06261606 0.026797492 -0.038638115 -0.047198504 0.0919018 -0.058388546
0.088923685 -0.01298275 0.052049052 0.01424706 -0.06869883 -0.00414799 -0.077299364 -0.039490785
-0.14166704 0.02259795 -0.033390354 -0.03684724 -0.034260172 0.005625456 0.09753508 0.10991
00000000: c83a 773d 4f62 f43d d09a a63d 4a47 9bbd
00000010: d003 293d 39c9 573d 59b5 16be 52b9 4dbd
00000020: 691b 643d 78e5 003e 66c1 d03d c8dc 25bc
00000030: ab8f c53b ac3c e83d 3a9d eb3d d674 eabc
00000040: 50c6 023e 052b 74bd b05a cdbc ff9f f4bc
00000050: f127 e53d de81 8cbd 98d2 1e3d 4f2e 84bd
00000060: 95fc 3fbd cf2f ce3d f7bd c0bd 0270 cabc
00000070: 9555 d33c beea 703d 9803 0b3d 50ce ebbb
00000080: cc8e 193c 171d 933d 5b87 f73d 1658 de3a
00000090: 4c39 5c3d ce6f 533d c973 12bb 2c52 8f3c
000000a0: 4c01 88bd dc2c 3bbd d93c 803d 6a86 db3c
000000b0: 0043 1ebd 3853 41bd 0337 bc3d d428 6fbd
000000c0: 9f1d b63d 9ab5 54bc 6331 553d 806c 693c
000000d0: f9b1 8cbd ddeb 87bb 214f 9ebd 17c1 21bd
000000e0: 2a11 11be 561f b93c 53c4 08bd 22ed 16bd
000000f0: 6554 0cbd bf55 b83b 79c0 c73d 7e18 e13d

head.2.weight f4 [1, 64]
-0.023518149 0.13408403 -0.119888246 -0.037499107 0.061778486 -0.1056157 0.07099379 0.037196837
0.099168666 0.08798994 0.090614356 -0.13521625 0.11747216 -0.12460126 0.037902825 -0.1452937
-0.042752277 -0.017900094 -0.12973948 -0.06013372 -0.061599128 -0.08926525 -0.13522346 -0.1016513
0.06663695 0.12171774 -0.0285468 0.09274166 0.040401764 -0.13266437 -0.10295463 0.08719225
0.009277571 -0.06939959 -0.06630498 0.04615664 -0.11702063 0.008845516 -0.021228759 0.090426035
-0.051272977 -0.059774697 -0.12662242 -0.0035345925 -0.07962699 0.083814755 -0.06901113 -0.033592157
-0.1597483 -0.0074700657 0.11746015 -0.16541705 -0.00096827594 0.07777671 0.08954452 -0.098014146
-0.042883318 0.14072175 -0.12598264 0.00513668 -0.11616993 0.02999753 -0.08725049 -0.09703163
00000000: 22a9 c0bc 534d 093e f887 f5bd aa98 19bd
00000010: 700b 7d3d 0b4d d8bd 3165 913d b65b 183d
00000020: f118 cb3d 1234 b43d 0594 b93d 2176 0abe
00000030: 3e95 f03d f22e ffbd fe3f 1b3d dfc7 14be
00000040: 031d 2fbd 38a3 92bc 6dda 04be c74e 76bd
00000050: 5e4f 7cbd b3d0 b6bd 0578 0abe 8f2e d0bd
00000060: f478 883d 2747 f93d fbda e9bc 57ef bd3d
00000070: 527c 253d 2bd9 07be e1d9 d2bd da91 b23d
00000080: f400 183c 5f21 8ebd e8ca 87bd bf0e 3d3d
00000090: 83a8 efbd c8ec 103c efe7 adbc 4931 b93d
000000a0: 9d03 52bd 50d6 74bd 4fa9 01be 9fa4 67bb
000000b0: 7a13 a3bd 12a7 ab3d b555 8dbd ee97 09bd
000000c0: 0f95 23be 74c7 f4bb f28e f03d 1663 29be
000000d0: e6d3 7dba 6549 9f3d 1e63 b73d a4bb c8bd
000000e0: 6ba6 2fbd 5d19 103e 9801 01be 9851 a83b
000000f0: 80ea edbd 61bd f53c 63b0 b2bd 85b8 c6bd
