outputs/exp_0002_20251212_235529/runs/seed1/h5/SlidingWindowSGD/model_final.pt (torch, 71493 bytes, 7 tensors)

gru.weight_ih_l0 f4 [192, 1]
00000000: 5c56 e83d c853 39bc 7c2f 9cbd dc88 493d
00000010: 19c0 2fbe f1bc a73d 0709 293d 07b2 9d3c
00000020: b45c 913d 9745 42bc 0fdc 63bd aa96 133d
00000030: 32d0 4f3d 21a4 07be f6b7 92bd 284e 6dbb
00000040: dfeb 593d 5266 2b3d 2cbb d23d 7a4b b73d
00000050: e20f e7bb f23b 6fbd 5211 eb3b 17d6 1a3d
00000060: 13d8 5b3d 40e7 f63b 8436 b6bd 5269 5a3e
00000070: d801 b2bd efdb 083e 4f2b aebc 8bdd 1e3e
00000080: 9af8 173e 78eb 19be adba 16be d752 68be
00000090: 9608 77bc 5a2b 5ebd 8ad4 473d 3e3e 323c
000000a0: 02cb b33d 46f6 2dbc 6b63 213e 59a0 863c
000000b0: c95b 65bc 1e5f 233e 0c7f e6bc 2102 c43d
000000c0: 638e a8bd b745 293a 372f 75be 0be1 c23b
000000d0: 1667 d73d 6edc a93c 4f7b 293e f2c2 363d
000000e0: 8236 88bd 141b 97bd f0e4 b43d 9f46 c6bc
000000f0: 8a36 c4bc e596 083d 6e6a eb3d cd8b 0e3e
00000100: 2895 03be 518a afbd 6239 b3bd c3ab f23a
00000110: d682 15be f012 bb3c 0f19 92ba b540 fabd
00000120: a177 863d 8785 33be d854 eebc c8a3 acbd
00000130: 540f 93bc 5f2e 033e 8b36 41be 5070 a63d
00000140: a816 01be df70 c4bd b2c6 62bd a73f 84bc
00000150: dcd1 a23c 9478 98bd 39b4 93bd 5196 5f3d
00000160: bf69 e63d 69b0 a23d b260 473e c4f6 c1bd
00000170: 40f3 ac3c 80ba e43d 57c4 9fbe 31f8 783d
00000180: 813c 933d 84ec 093e 5a46 1dbe 0374 64bd
00000190: 7182 893e 45d4 a8bd 754e b53d fe5e 493e
000001a0: f4ca 6b38 56c8 e5bd 44be d63d dc24 cbbd
000001b0: d1a0 8e3d d9cb 393d 7597 d8bc 8312 b93e
000001c0: 6f16 7e3d e69f 9cbc 80ba 9ebd 84f3 8a3d
000001d0: 9f09 ca3d 1e58 833d 76b3 37be 76d2 1fbe
000001e0: ebb5 dcbd eaad b9bd fb75 c13b f833 0abe
000001f0: 0262 9b3d 9a05 c5bd 5f21 c93c 39b6 223c
00000200: aa2f f43d 977d 283e b1bd 14be a42b 3c3c
00000210: b145 3b3e aaf6 533e 4565 e83d 5087 7f3e
00000220: 0b0d ba3d 30cd 7d3d a085 23be 1fb4 ebbd
00000230: dc38 f3bd f913 513d ff90 febd 0819 093e
00000240: 1d79 923d 3904 fbbc 0d9d 9d3d d885 543d
00000250: b69c dc3d 4212 1e3e e107 41bd b60a 263e
00000260: 05be 8e3b 7c2d 0dbd 6cbc 57be 75f2 81bd
00000270: c66c fbbd 7af0 94bd ac32 173e 1750 9c3c
00000280: 3dff 04be 106c 563c 5934 e63d 1ea4 213e
00000290: 051d c4bd fbc2 b13d 1ba8 4bbd 8fed 81bd
000002a0: bf43 d2bd b266 89bd 1732 82bd c21e 913d
000002b0: 8f8d 3e3c f28c d13d 5ac0 193e 9a9e fb3d
000002c0: 912f 0d3e bf99 09bc 39b4 0ebe 8bf3 893d
000002d0: 80d3 4cbd 8ec6 dcbc a877 31be e848 65bd
000002e0: dd81 2ebe b018 313e df0b 21be eb8c 11be
000002f0: baa3 c73c 2255 b3bd 2205 ba3b 460b f2bc
0.11344597 -0.011311479 -0.076262444 0.049202785 -0.17163123 0.081903346 0.041268375 0.01924993
0.0709776 -0.011857412 -0.055629786 0.036032356 0.05073566 -0.13246204 -0.07163994 -0.0036209915
0.05320346 0.041845627 0.102896065 0.08949943 -0.007051454 -0.058406778 0.0071736956 0.03780183
0.05367286 0.0075348914 -0.08897117 0.21329239 -0.08691758 0.13365148 -0.021260886 0.155142
0.14840928 -0.1503123 -0.14719649 -0.22687851 -0.015077731 -0.054240562 0.048786677 0.0108790975
0.08778955 -0.010617798 0.15760581 0.016433882 -0.013998934 0.15954253 -0.028136753 0.095707186
-0.08230283 0.00064572267 -0.23943792 0.0059472374 0.10517709 0.020734992 0.16550945 0.044619508
-0.066510215 -0.073782116 0.08832729 -0.024203597 -0.023951788 0.03334703 0.11494909 0.13920517
-0.12849867 -0.08571304 -0.08751179 0.0018514324 -0.14600691 0.022836179 -0.0011146384 -0.12219373
0.06565786 -0.17531405 -0.029093191 -0.08429676 -0.017951645 0.12810658 -0.18868463 0.08126891
-0.12606299 -0.09591841 -0.055365272 -0.016143633 0.01987546 -0.074448735 -0.07212109 0.054586712
0.11250638 0.07943804 0.1947048 -0.09470895 0.021112084 0.111683846 -0.31204483 0.06078357
0.071892746 0.1346913 -0.15358868 -0.0557747 0.2685733 -0.08243612 0.08852855 0.19665143
5.621738e-05 -0.11219852 0.10485509 -0.0991914 0.06964267 0.04536042 -0.026439408 0.36146936
0.062033113 -0.019119214 -0.07750416 0.06784728 0.09865116 0.064132914 -0.17939553 -0.15607628
-0.107768856 -0.090663746 0.005903957 -0.13496387 0.07587053 -0.09620209 0.024552045 0.009931141
0.11923154 0.16454159 -0.14525487 0.011485014 0.18288304 0.20699564 0.11347441 0.24953961
0.09084519 0.06196326 -0.15968943 -0.11508965 -0.118760794 0.051044438 -0.124299996 0.13388455
0.07152007 -0.030641662 0.07695971 0.051885456 0.10772078 0.15436652 -0.047126655 0.16215023
0.004356148 -0.034467205 -0.21067971 -0.06345073 -0.12276606 -0.0727243 0.14765424 0.019081159
-0.1298799 0.013087288 0.11240453 0.15785262 -0.095758475 0.08679768 -0.049720865 -0.06344139
-0.10266828 -0.06709041 -0.0635721 0.07085945 0.01163043 0.10231961 0.15014783 0.1228611
0.13787676 -0.008398472 -0.13935937 0.06735905 -0.05000639 -0.026950147 -0.17330801 -0.055977732
-0.17041726 0.17294574 -0.15727185 -0.14213912 0.024370063 -0.08756472 0.0056768814 -0.029546391

gru.weight_hh_l0 f4 [192, 64]
00000000: 6800 553c 730d e93c 8f5f be3d 9d47 58bd
00000010: 69b5 ed3d 4bd8 bb3d e787 6a3e 0c46 97bd
00000020: 4b9c 963d 8e72 30bc 476f 283d a5a8 25be
00000030: 8bf4 f2bc 3269 bdba 20b2 98bd 1870 8a3d
00000040: 52b5 053d b1d2 88bc 5c95 9d3d 9d54 e03d
00000050: 1b7a 5ebd 0f18 243e 4662 0c3d 5fca 323e
00000060: edf6 053e d11d 6abd 452c 95bd 4423 bb3d
00000070: 4eaf 3cbe adfd 433e b8d8 f3bc 7105 88bd
00000080: ac40 adbb 4ae0 04be 653f ac3b a767 1a3e
00000090: 9fce c23d 6758 053e 58db 5bbc a24c 1a3a
000000a0: 5c40 b63d a4f3 babd 2455 fabd dfd9 c23d
000000b0: 6341 4cbb 4978 bc3d aa72 233e 8fcf 0cbe
000000c0: 6d1f 81bc 7e60 013d 611d 49bc e218 f7bb
000000d0: 8196 19be b298 a3bd d3c4 3dbe 2d94 eebd
000000e0: 9233 d4bd 3090 d43d d29b cf3d b8c1 1bbd
000000f0: c796 8c3d 5e7d ab3c 3ee5 43bd 5965 18be
00000100: e8f0 953d e8bb 363d d163 9cbc 53bb 20bd
00000110: 056a a43d f26b bc3b 8125 bbbd d091 803d
00000120: a9c2 cd3d aaf0 44bd 929c fa3d c9e8 e2bd
00000130: 9153 253e d852 1bbe 99b2 453d d562 643d
00000140: be1e a13d 6743 9e3d a3f3 5abd 41f1 513b
00000150: 0c00 46bd a3b4 33bd 80a0 6fbd 8fa2 b43b
00000160: 3d8a 6737 b48f b03c 6112 6f3e c23e 88bd
00000170: aa5d 82bd 02f2 60bb 3d68 04be 42c0 293e
00000180: f768 4dbd 1930 e93c ba28 c1bd 1703 a9bd
00000190: d050 8b3d cfa5 ad3d 8a2e e1bc 7e1c cebc
000001a0: c4b9 033d 3463 5fbd e817 bcbd 4d03 e1bb
000001b0: 90b1 a33c 27e9 a83d 00d6 093d 6755 82bd
000001c0: d99b 91bc 1e35 5bbd b8ea a9bd 0122 b83d
000001d0: cf9b 163b 9b7d bb3d fac6 a1bc b2f1 2bbd
000001e0: b784 27bd f9d0 96bd f70b 043e 7854 04be
000001f0: c5a4 203c 8558 5a3d c265 743d f165 1b3d
00000200: 3b23 a7bc bdc2 b3bd e8f0 ec3d 2ea1 1fbe
00000210: 9ba9 ba3c 6ee5 2fbe 7975 abbd d944 09bd
00000220: c90f b5bc 0659 afbc 1a77 893e ea10 633d
00000230: aa81 4b3e eacd 20be efea 923c 7945 32bd
00000240: c8e7 b9bd 8062 bbbd 159d b23c 4bbe 243d
00000250: c330 cfbc 36d7 06be a4a8 bfbd f36c 153e
00000260: 0cfd 85bc 6112 10be 2411 dc3d 5321 c5b9
00000270: daf0 00be 7fd3 38bd 89ec d23c 51ce 9dbd
00000280: 4734 86bd 4930 af3c 4ef2 99bd d93c 833d
00000290: 2008 0c3e ff82 81bb bd7c 26bd 7fe3 3f3a
000002a0: 83ac 87bd e5a5 2fbe 543c 6e3d 20eb 673c
000002b0: 55ba 803d e31b d9bd f175 efbd 5e84 cfbd
000002c0: 7cd1 ba3c 8e38 11be 05ef aebd e7b0 5dbd
000002d0: ce9a 8cbc 853c 6fbd f02b 6d3d d81d 8d3d
000002e0: d3a5 b43b eb56 583d cea9 db3d c354 223e
000002f0: 3424 d63b 8548 90bd 772d c73d 7677 29bd
00000300: dfb5 4dbd c981 533d 1321 063e e81d 0abe
00000310: 6f82 c2bc 5695 95bc f7d8 2f3d 5448 893c
00000320: 84ce 1b3e cab1 16bc bd84 893e c7be 61bc
00000330: 4d05 4a3e b9d0 f03c daf6 b43d 7049 c73d
00000340: e423 fbbc 0e77 efba d773 4a3c 5ea8 c8bc
00000350: dce9 ab3d bf67 6dbd a2b8 b8bd 67ae f43b
00000360: 93b9 003e 36e9 45be 5594 59bd ddde c53c
00000370: ab01 063c 7f69 f0ba daf5 143c 20cc 0c3d
00000380: 8bd4 21be 9abb 253e ad21 1fbe 98e3 733c
00000390: 7b51 3abe 868e d03d 9cd7 19be 3082 213e
000003a0: 6714 44bd ad45 5ebd ff4a fabd 8399 26bb
000003b0: aef2 983d 551c 02bd 9379 c83c 4691 08be
000003c0: 7d2a 6abb 7c50 09be 59ff 893d 09ff 74be
000003d0: 4b01 1ab9 219e 96bd 8c78 903d 0ae0 eb3d
000003e0: 1e11 05be 1458 133e 7e22 06be 0485 393e
000003f0: aef7 c63d 28cc 823d 337f b3bd 29b5 a83c
0.013000585 0.028448796 0.0929557 -0.05280267 0.11606867 0.09172114 0.22903405 -0.07386407
0.07354029 -0.0107694995 0.041121747 -0.16177614 -0.029657623 -0.0014450906 -0.0745585 0.067596614
0.032643624 -0.016702028 0.07694504 0.10953639 -0.054315668 0.16024803 0.03427341 0.17460011
0.13082476 -0.05715734 -0.07283834 0.09137586 -0.18426248 0.19139738 -0.029766425 -0.06641663
-0.0052872505 -0.12976184 0.0052565807 0.15078603 0.09512066 0.13022004 -0.013418995 0.0005886053
0.08898994 -0.09128502 -0.122232705 0.09514212 -0.0031166903 0.0920263 0.1596171 -0.13751052
-0.015762055 0.031586163 -0.012275071 -0.007540808 -0.14998819 -0.07988109 -0.18532114 -0.11649356
-0.10361399 0.10379064 0.10137142 -0.03802654 0.06864696 0.020933803 -0.047826044 -0.14882411
0.0732134 0.044612795 -0.019090565 -0.039241146 0.08028034 0.005750173 -0.09138013 0.062778115
0.10046894 -0.048081078 0.12236895 -0.110795565 0.1614516 -0.15168321 0.048266027 0.055758316
0.07867192 0.077277 -0.053455006 0.0032034668 -0.04833989 -0.04387344 -0.058502674 0.0055125426
1.3800859e-05 0.021552898 0.23346855 -0.06652595 -0.06365521 -0.0034323935 -0.12930389 0.16577247
-0.05014893 0.028465318 -0.09431596 -0.082525425 0.06802523 0.08478891 -0.027488012 -0.02516007
0.03215958 -0.054537967 -0.09184247 -0.0068668486 0.01998213 0.08247595 0.033651352 -0.063639455
-0.01777451 -0.053517453 -0.08296722 0.08990861 0.0022981053 0.09154817 -0.0197482 -0.041978545
-0.04089805 -0.07364077 0.12895189 -0.12922847 0.009804909 0.053307075 0.059667356 0.037939016
-0.020402541 -0.08777378 0.11569387 -0.15588829 0.022785952 -0.17177364 -0.083720155 -0.033512924
-0.022102254 -0.021404754 0.2684868 0.055436052 0.19873682 -0.1570355 0.01793429 -0.043523286
-0.09077412 -0.09149647 0.021803418 0.04022054 -0.025291806 -0.13168034 -0.093583375 0.14592342
-0.016356014 -0.14069511 0.10745457 -0.00037599597 -0.12591878 -0.045123573 0.025747554 -0.07705367
-0.0655294 0.021385329 -0.07516919 0.0640809 0.13674974 -0.0039523835 -0.040646303 0.00073199713
-0.06624701 -0.17153127 0.058163002 0.014155179 0.0628554 -0.10601022 -0.116924174 -0.10132669
0.022804968 -0.1418173 -0.08541683 -0.054123785 -0.01716366 -0.058407325 0.05790323 0.06890458
0.005512932 0.052817266 0.10725747 0.15852647 0.0065350775 -0.07045082 0.097254686 -0.041373692
-0.050222274 0.051637445 0.13098554 -0.13487971 -0.023743836 -0.018259685 0.042931523 0.016758122
0.15215498 -0.009197662 0.26859084 -0.013778395 0.19728585 0.029396402 0.08836146 0.09730804
-0.030656762 -0.0018269734 0.01235672 -0.024494346 0.083942145 -0.057960268 -0.09019591 0.0074670794
0.12570791 -0.19327244 -0.053119976 0.024154121 0.008179109 -0.0018341987 0.009091819 0.034374356
-0.15803735 0.16184846 -0.1554019 0.014885806 -0.18195145 0.10183434 -0.15023655 0.15772319
-0.04787102 -0.054265667 -0.122213356 -0.002542109 0.074681625 -0.0317653 0.024472034 -0.13336667
-0.0035730891 -0.13409609 0.06738157 -0.23925413 -0.00014687066 -0.073543794 0.070542425 0.115173414
-0.12994811 0.14389068 -0.13099095 0.18117148 0.0971521 0.06386596 -0.08764496 0.020594196

gru.bias_ih_l0 f4 [192]
00000000: ce45 acbc add6 9f3d 59bd 54bc 828f 8f3d
00000010: f49e ee3d b31d 453d 5019 68bd 004c 643d
00000020: 907f 94bc a6b8 1b3e 754f a6bc dbd5 2a3e
00000030: 3e5e ab3d daa7 103e 537a 02bd f839 2cbd
00000040: f8f8 143e 2451 ec3d 37c8 2cbd 4be5 453c
00000050: 285c 9b3d b9e5 0dbe 238f 1f3e 24e8 ea3d
00000060: 7155 043d 981c 3a3d bfbf cd3d b7bd d0bd
00000070: dcfb 973d b6f8 1f3e ea1d c93d fec2 263e
00000080: 14db 8cbb 2518 a73d 346b 893d 7a0c 0e3e
00000090: 80f3 f43d 4cf5 063c 9dbd 0c3d 8bad 1c3e
000000a0: 15de 283e ee9f b13d 293e 613d caaa 9b3d
000000b0: e840 af3d c9fc 1a3e 7b09 d03d 5938 8d3d
000000c0: fd47 123e f10d 3e3d 7269 0f3c 9752 e83d
000000d0: a0c6 023e 4694 be3d fbaa 083e 8e0f b5bc
000000e0: 904c 703d 2a69 26bc 4134 ae3d 2063 eebc
000000f0: f882 1fbc 0e8b ca3d ed70 eb3c 0242 64bd
00000100: 36b6 88bd 5b71 eabc 7499 a93d c903 0b3e
00000110: 1103 953d 19d3 b0be 46a1 da3c f70a 05bf
00000120: 2b37 783d 231c 42be b7d6 013e 2e86 ddbd
00000130: 7b80 943d 45c6 edbc 2edf 8fbd 9c2b 8cbd
00000140: 38bd 9cbd 48f6 f03d 9b49 a23d 5bd8 f23c
00000150: 1371 67bc 34ef 6dbb 24d8 70bb 3a42 50bd
00000160: f97b 0ebe 9f49 a63d b5f8 60be 2359 083e
00000170: e26c 1cbc 4233 21b9 7d96 e23d 541e e33c
00000180: a198 4c3c 0d9a febb f321 5bbc 88fe 02bf
00000190: ad1f a5be c62b 9cbc 7e05 d9bc 2bd4 80bd
000001a0: 418c 923d 59b8 153e ccf4 8e3c a105 db3c
000001b0: 3844 ea3d 147c 703d 4438 de3d c147 c63d
000001c0: 8c02 22bd d5dd be3d 0c62 e93c 7ffe 643e
000001d0: d375 a9bb fa0d b13d 8b87 82bd abea 013d
000001e0: fdd8 2fbd 8624 01be 9c87 77bd 8794 7a3d
000001f0: 6fb9 c63d 82e8 273e e454 ad3d c2f6 473d
00000200: 1044 cd3d 3af1 803d 97a2 9dbd c39b 0f3e
00000210: 30b2 5f3d 4b8e df3c ef6c 81bc 7d58 d5bd
00000220: e6d7 0e3d 950c 233d 580c 5f3d 3983 8f3c
00000230: 8237 a23d e103 0dbe b9b6 13be 2a2c 063e
00000240: 6cb3 7dbb 3fe5 b53d c250 193e 3603 c43c
00000250: b728 1fbc a082 11bd c6e1 67bc 85e0 05be
00000260: 8825 cd3d 5bee fd3d 31f5 17be d24e f73b
00000270: ccc2 82bd f3ff 7c3d 5a66 80bd fa04 0e3e
00000280: 9c57 b5bd 0794 60bd 0c89 17b9 4266 45bd
00000290: 4f07 8d3c 24a9 1d3e 1950 b63c d26d dc3d
000002a0: 5db8 053e 8a88 80bb 96de 873d 4986 103e
000002b0: 412c c03d 5bf4 0a3e d0db 60bd 1a8a 3cbe
000002c0: 5efd 1e3e 27a8 183e 0f01 60bc 4f6c 303d
000002d0: 1890 adbd 7f40 f5bc e0b6 92bd d2ed 14be
000002e0: bc8c 263d 3375 033e 7261 e6bd f9c8 0bbe
000002f0: 8bb5 003e d54c 65bd 3189 12be 6647 91bd
-0.02102938 0.07804618 -0.012984597 0.07009794 0.11651412 0.048124027 -0.056664765 0.05573654
-0.018127233 0.15207157 -0.02030156 0.16683142 0.08367585 0.1412653 -0.03185494 -0.04204747
0.14548099 0.11538914 -0.042183127 0.0120785935 0.07585937 -0.13857163 0.15581946 0.114700586
0.032308046 0.045437425 0.10046338 -0.10192435 0.07421085 0.1562222 0.09820159 0.16285321
-0.004298577 0.08158902 0.067099005 0.13871947 0.119605064 0.008237194 0.034360517 0.15300576
0.16490968 0.08673082 0.05499092 0.07600935 0.08557302 0.15135492 0.10158058 0.06895513
0.14285274 0.046400014 0.008753167 0.11343878 0.12771082 0.09305625 0.13346474 -0.022102144
0.058666766 -0.010156909 0.085060604 -0.0291 -0.009735815 0.09889804 0.02874037 -0.055727012
-0.06675379 -0.028618505 0.08281222 0.13575663 0.072759755 -0.34536055 0.02668823 -0.51969856
0.060599487 -0.18956046 0.12679563 -0.10816608 0.07251068 -0.029025206 -0.0702499 -0.06844255
-0.07653278 0.117657244 0.079241954 0.029644182 -0.01412608 -0.0036305906 -0.0036749924 -0.05084441
-0.1391448 0.08119511 -0.21969874 0.13315253 -0.009547444 -0.00015373252 0.110638596 0.027724423
0.012487561 -0.007769829 -0.013374793 -0.51169634 -0.3225073 -0.019063842 -0.026491877 -0.06290468
0.071556576 0.14621104 0.017450713 0.026736083 0.11438793 0.05871208 0.108505756 0.09681655
-0.03955321 0.09319655 0.028489135 0.22362708 -0.0051715164 0.08645244 -0.06373509 0.031717937
-0.042931546 -0.12611589 -0.06043206 0.061176803 0.097033374 0.16397288 0.08463457 0.04881931
0.100227475 0.0629601 -0.07697027 0.14024262 0.054613292 0.02728953 -0.015799014 -0.104172684
0.034873866 0.03980692 0.05445513 0.017518627 0.079207435 -0.13771011 -0.14425172 0.13102785
-0.003871168 0.08881616 0.14972213 0.023927312 -0.009714297 -0.035524964 -0.01415295 -0.13073929
0.10016924 0.12398978 -0.14839627 0.007547238 -0.06384811 0.06176753 -0.06269522 0.13869086
-0.08854601 -0.05482867 -0.00014451536 -0.048193224 0.0172154 0.15396553 0.02225499 0.10763134
0.1305861 -0.0039225267 0.06634252 0.14113726 0.09383441 0.13569777 -0.05489713 -0.18412057
0.1552634 0.14907895 -0.013672127 0.04307204 -0.08474749 -0.02993798 -0.07163787 -0.14543846
0.04066156 0.12837677 -0.11249055 -0.13650884 0.12569253 -0.055981476 -0.14310147 -0.07093696

gru.bias_hh_l0 f4 [192]
00000000: 148d 0c3e 7e21 503e 25f9 fa3c 06f9 513d
00000010: 497e 403d 56b4 223d 977e 4e3c 213c 333d
00000020: 4309 1a3b d69e 043e 1bb4 113e b924 213c
00000030: efc0 cf3d 2e42 013e 9cc2 963d 3f53 cd3b
00000040: d9c0 173e ae9e b8bd 491d 2c3e 39b6 4b3d
00000050: d50f 13bd b895 f5bc 2a68 9bbd 84e4 693c
00000060: 0c18 fc3c 3039 053e 9d34 edbc bb89 51bd
00000070: 64e9 153e e972 113e 6d10 5d3d 0150 033e
00000080: bb5f b1bb 45be 373e 12e7 093e d30c 473e
00000090: b855 8a3d a990 993d b7bc ec3d 5858 81bd
000000a0: 3269 9cbd aead 143e b1e0 82bd d729 a2bc
000000b0: 62c1 003e c7cf 323d 487f 093e 5deb 9c3d
000000c0: d990 a23c 525a 3abd 4fbc 733d ea2e 203e
000000d0: 4163 6dbd 576a 17bc 4767 e73b 71c4 b23d
000000e0: 7972 fabd 006b 933d bbec 223d b756 0c3c
000000f0: 168a 173e b95b 233d 8b9b de3c 221c 233c
00000100: 0170 a53b 19cf c33c 73f1 0c3b ec78 3abd
00000110: aa17 9cbc e220 d9be be10 cabc d599 08bf
00000120: b090 dc3d 4c9e 9abc 962a 82bd 7620 04bd
00000130: 4e1c ee3c 02c8 3ebe 869a af3d 97d7 1d3d
00000140: 7eec 51bd c19d 5e3c 4015 733d c096 a03d
00000150: 907e af3a 147f c1bd 0e44 aabd d61f d9bd
00000160: dee9 1ebd 11ed 423d c2fc 30be a3f3 e23d
00000170: c213 133d c583 3cbd 5920 e93c ad56 c03d
00000180: 7792 2ebd 7604 a83d 4269 163d 2593 33bf
00000190: bd4b 9bbe 65aa de3d 519f 8c3d 3d84 b6bd
000001a0: 4122 99ba dca1 23bd c264 823b e985 b2bd
000001b0: 3e9e 9fbd 8a3a 0a3e b5c2 f3bc 582e ab3d
000001c0: db27 70bd 2fd2 683d e3d4 103e bd42 b33d
000001d0: a891 e43d 8056 cfbd 8890 38be 6802 c3bd
000001e0: fd37 32be 951f f2bc 6043 cabd ffa8 01bd
000001f0: 90ac 13bc d454 ac3d dfce 0c3d 1356 03bd
00000200: 3105 563d b967 d63d 4fd9 11bd 0986 c3bd
00000210: 2d91 573d eaa3 aaba 0464 80bd d6d8 64bd
00000220: ee11 ffbd 6797 da3d c646 e73c eebf 153d
00000230: 73aa ce3d 836e 1e3d 9af6 7b3d 184d 983d
00000240: a61b df3d 8cf5 0abe b6b1 023e e404 c73d
00000250: 779f 1c3e 3004 a13d 2922 e4bd a21b c8bd
00000260: 0bc1 083e 0690 0dbd 149b a53d ba59 3c3d
00000270: 6323 08bd 7bc3 273e 2863 98bc df60 833c
00000280: 328c 4b3d 793b 00bc f151 4fbc 1bfa 57bd
00000290: 7ad8 19be 02aa 1f3e a03f 7e3d a7ec b0bd
000002a0: d7cd b83d e428 e13c 2e13 8abd 4245 dbbc
000002b0: b0a1 7dbd a62a 903d a2cd 253e 0660 f8bd
000002c0: 2e9a fabc b826 8abd 6033 713d c7df 02bd
000002d0: e8a5 9a3d 48dc 7f3d f0b5 12be 8585 9bbb
000002e0: 12a3 343d 7251 da3d 020f 1a3d e662 3f3d
000002f0: 0389 f83d b082 c33b c76a 14be a708 89bd
0.13725692 0.20325276 0.03063638 0.051262878 0.046995435 0.039722763 0.012603424 0.043758515
0.0023504056 0.12951216 0.14228861 0.0098354155 0.10144221 0.12622902 0.073613375 0.006266027
0.1481966 -0.09014641 0.16808046 0.049734328 -0.03590377 -0.029978618 -0.07588227 0.014275674
0.030773185 0.13010097 -0.028955752 -0.05115674 0.14639813 0.14203991 0.053970743 0.12823488
-0.0054130233 0.17943676 0.13467053 0.19438486 0.06754631 0.07498295 0.11559432 -0.06315678
-0.07637252 0.14519379 -0.06390513 -0.019795341 0.1257377 0.043655183 0.1342746 0.076620795
0.01984446 -0.045496292 0.059505757 0.15642896 -0.057955984 -0.009241662 0.007061872 0.087288745
-0.12228865 0.07198143 0.039776545 0.008565596 0.1479877 0.039882395 0.027173778 0.009955438
0.0050487523 0.023902463 0.002150622 -0.045525476 -0.019054253 -0.424079 -0.024666186 -0.5335973
0.107697845 -0.01887431 -0.06355779 -0.03225752 0.029066231 -0.18630984 0.08574395 0.03853568
-0.051250927 0.013587416 0.059346437 0.07841253 0.0013389159 -0.09448066 -0.08313762 -0.10601775
-0.038797252 0.047589365 -0.1728392 0.11081626 0.035907514 -0.046024103 0.028457807 0.09391532
-0.04262015 0.08203976 0.036721475 -0.701464 -0.3033122 0.10872344 0.06866325 -0.08911941
-0.0011683182 -0.039949283 0.0039792964 -0.087169476 -0.07793854 0.13498893 -0.02975593 0.08358449
-0.05863176 0.05684107 0.1414371 0.08752964 0.11160594 -0.101239204 -0.18023884 -0.09521943
-0.1740417 -0.029556075 -0.09876132 -0.031655308 -0.00901331 0.08414617 0.034376975 -0.03206451
0.052251045 0.10469002 -0.035607632 -0.095470496 0.052628685 -0.0013018821 -0.062690765 -0.055870853
-0.12454592 0.10673409 0.02823199 0.03655999 0.10091104 0.03867961 0.061514474 0.074365795
0.108939454 -0.13570231 0.12763104 0.0971773 0.15295206 0.07862127 -0.11139328 -0.097708955
0.1335489 -0.03456118 0.080862194 0.045984007 -0.033236872 0.16383164 -0.018601969 0.016037403
0.049694248 -0.007826679 -0.012653814 -0.052728754 -0.15023986 0.15592197 0.062072396 -0.08638888
0.09023636 0.027485318 -0.067419395 -0.026766423 -0.061921775 0.070393845 0.16191724 -0.1212769
-0.030591097 -0.06745666 0.058886886 -0.031951692 0.07551175 0.062465936 -0.14327216 -0.0047461414
0.04410083 0.10660066 0.03761197 0.046725176 0.12135508 0.005966507 -0.14493857 -0.066911034

head.0.weight f4 [64, 64]
00000000: 2ea2 083e 12ad 983d 434f dfbc ff8f e7bb
00000010: 8d3d d2bd c802 103e 9454 49bd 73c3 fe3d
00000020: 1da3 1ebd ad2b d93d 67bf b1bd 7442 a43d
00000030: 1071 c53d cd61 853c f6c5 00be cfe6 9a3d
00000040: f919 7ebd 12b8 8fbd 4113 37bd b2e2 d63d
00000050: 82ab 9c3d bd64 743d 84fc f83d 85a9 68bc
00000060: bb0e 3d3c 6398 903d 4a51 2e3c c041 d63d
00000070: 8202 12be f503 923d db2a 513d f3bc 043d
00000080: c7ba 843c c5d6 3e3e 8337 5b3d dee8 223e
00000090: 7fb3 9bbd 9648 df3d a9a1 abbd 2a50 de3d
000000a0: 6ee9 7abd a1ab 773d 481f 08be 8e0c 033e
000000b0: 1753 0abd 99b2 e3bd 1228 26bd 33e8 d53d
000000c0: 33d9 df3d f1cf 85bd 5ab8 00be 53a3 84bc
000000d0: 6b1e 8dbd e0de 12be c668 5939 8a63 edbb
000000e0: 489b 7dbd b7e5 88bd 5522 3fbc 8704 f53d
000000f0: efb9 e63d c4f5 b53d 33c1 173d d2da b6bd
00000100: 5ee7 be3d 11ea 6b3d 6829 c0bd c781 683d
00000110: 0825 f5bc 603d 1fbe 1a42 06be ae6f a1bd
00000120: ef4c 09bb 52e4 d0bd 943e 623c cb88 013e
00000130: b6f4 b7bb 1e0d 183e e024 1d3d c7f0 173d
00000140: 4d24 823d 3ec5 f83d 5382 7d3d ef7e 89bc
00000150: 6b82 c23d 3fc7 31bc f622 e63c fc1b 10be
00000160: 37e3 8cbd 3ce0 e3bd 7159 f73d d6a7 23be
00000170: cc1a 96bd cb9b f03d e5e6 7a3d ab3e a33b
00000180: 7963 20bd df31 503d cb24 39be aeab 1fbe
00000190: 5945 02bd bdbd 9d3d f2fd 88bd 5ebc a73c
000001a0: b6f6 a43d e968 0bbd a180 4dbd 7249 a03d
000001b0: ee55 b2bd 16e3 963d 6762 9cbd 5ab9 9dbb
000001c0: 9719 7c3d 4610 863d 8595 5bbd 67ed 6b3c
000001d0: 5370 5b3c cbc3 dabc 6ce4 04be 7e12 10be
000001e0: a320 b63d 770a 8abd 4a12 813d b2e6 25bd
000001f0: 22a6 0f3e 4e93 d8bd 2405 06bb d466 59bd
00000200: d1ba 99bd 74fd 913c e321 1fbe 0971 2a3e
00000210: 4076 8b3c a02f b4bd 262a 013e 916b 45bd
00000220: 99a4 b4bd f707 2ebd 590b 363c 8102 d5bd
00000230: 0e70 c3bd d856 2f3e e000 993d c75a fe3c
00000240: c2b3 223e d059 3cbc 38c3 8e3a a110 c03d
00000250: 265a bcbd 749f 1bbd 11f0 3a3d 975b 43be
00000260: 302c cb3d b639 323e d2db 4ebc fde7 77bd
00000270: 8217 80bd 3ee6 983d aa05 e13b 9bfe 2f3e
00000280: f39f 483d bf71 04be 6e34 af3b 8c44 23be
00000290: fb3b 2f3e 57fb a23d 155f 523e 104f 9ebd
000002a0: ded3 1d3d d4b4 183e 9795 a63d 8139 9c3d
000002b0: 1537 d0bd 987b e33d 4e74 d1bd bab7 e1bb
000002c0: f75d 88bd 537e a83d c5a2 323c 4827 66bb
000002d0: 3e30 a3bd b16b ac3d ad38 ffb9 f7af 3a3d
000002e0: 834c 73bd 5e3a 4e3d a7f5 09bd 0f34 84bd
000002f0: 29e0 283c 43c9 80bd 3807 313c b9fb 6d3d
00000300: db8e dabd 9a5b 7fbd fabe 91bb 7d3e d2bd
00000310: d43c 28bb b163 d7bd a7ce 04be 34b0 c1bd
00000320: 12a1 ae3c 3e7e 1c3d 8519 103e f144 e93d
00000330: bd5c 523d 8192 d63d d5c9 293d 67ed 7c3d
00000340: e00f 8cbd f5e7 e23d 3a52 2b3d 8c07 ce3d
00000350: 68f8 0a3d f7b5 14bd 795d b0bd f1a0 aa3d
00000360: 6e59 d93d 8744 8ebd 397c 8b3c d12b 19be
00000370: 15d6 a0bd 7c02 e2bd 98e0 05be eb45 34bd
00000380: 7ec8 48bd c865 38bc 1cb2 c5bc b2e3 4fbe
00000390: b4a4 b43d d20c cabd fd4e 5ebc ed7f 183d
000003a0: e1f6 44bd 0e5b f1bb a74d e5bd d01b 363c
000003b0: 1e64 c03d 3779 5c3e eefb f93c b2ac a5bd
000003c0: 26de a93d be04 3ebe 9122 f03d 9d11 e6bd
000003d0: b688 893d 9cbc 7e3c 215e cdbd 4b9c ae3d
000003e0: 888f 053e a4c5 bfba 33f2 08bd cfd9 ff3d
000003f0: 62e3 de3d e8b7 8bbc 2c1d 87bd 16e5 ac3b
0.13343117 0.074548855 -0.027259475 -0.007066726 -0.10265646 0.14063561 -0.049152926 0.12439623
-0.038729776 0.106040336 -0.08679085 0.080204874 0.096407056 0.016281987 -0.12575516 0.075635545
-0.06203649 -0.070175305 -0.044696096 0.104924574 0.076499 0.059666384 0.121575385 -0.014200573
0.011539157 0.070603155 0.010639498 0.104617596 -0.14258769 0.07129661 0.05106626 0.03240676
0.016202344 0.18636616 0.053519737 0.15909144 -0.076025955 0.109025165 -0.083804436 0.10855134
-0.061257772 0.060466412 -0.13293183 0.12797758 -0.033770647 -0.11118049 -0.040565558 0.10444679
0.10930099 -0.06533802 -0.12570325 -0.01619116 -0.068905674 -0.14342833 0.00020733764 -0.007244532
-0.061915666 -0.0668444 -0.0116659 0.11963754 0.11265933 0.08884767 0.037049484 -0.089284554
0.093214735 0.05759627 -0.093828976 0.05676439 -0.029924884 -0.15550756 -0.13111153 -0.07882629
-0.0020950397 -0.10199799 0.013808865 0.12649839 -0.0056138886 0.14848754 0.038365245 0.037094858
0.0635458 0.12146996 0.061891865 -0.01678416 0.094975315 -0.010850727 0.028092843 -0.14073175
-0.06879275 -0.11126754 0.120776065 -0.15981993 -0.0732933 0.11748465 0.061255354 0.004981836
-0.039157365 0.05082881 -0.18080442 -0.15592834 -0.031804416 0.07702205 -0.06689061 0.020475563
0.08054869 -0.034035597 -0.0501715 0.078265086 -0.08707796 0.07367532 -0.07635956 -0.0048133554
0.061547842 0.06546073 -0.05360939 0.014399863 0.013393479 -0.02670469 -0.12977761 -0.14069554
0.08892944 -0.06740277 0.063023165 -0.04050321 0.14028218 -0.10574971 -0.0020449841 -0.05307658
-0.075063355 0.017821051 -0.1554027 0.16644682 0.01702416 -0.08798146 0.12613735 -0.048198286
-0.08820457 -0.042488065 0.011111104 -0.10400868 -0.09542857 0.17122972 0.0747087 0.031049145
0.15888885 -0.011496022 0.001089192 0.09378172 -0.09196882 -0.037993863 0.0456391 -0.19077908
0.099205375 0.17404827 -0.012625651 -0.060523976 -0.06254484 0.0746579 0.0068671303 0.17186968
0.048980664 -0.12934016 0.0053468263 -0.15944117 0.17112724 0.079580955 0.20544083 -0.07729924
0.03853213 0.1491273 0.08134001 0.076281555 -0.10166756 0.11107558 -0.102272615 -0.006888357
-0.06658547 0.082272194 0.010903065 -0.0035118628 -0.07968186 0.08418978 -0.00048679617 0.04557797
-0.05939914 0.050348632 -0.033681538 -0.06455242 0.01030735 -0.062883876 0.010804944 0.05810139
-0.10671779 -0.062343217 -0.004447815 -0.10265825 -0.0025671022 -0.105170615 -0.12969457 -0.09457436
0.021317039 0.03820633 0.14072235 0.11390103 0.051357973 0.10477162 0.041452248 0.061749842
-0.068389654 0.110793985 0.041826464 0.10060033 0.033928305 -0.036306348 -0.086115785 0.083314784
0.106127605 -0.06946664 0.017027007 -0.14958121 -0.07853333 -0.1103563 -0.13073957 -0.04401199
-0.04901933 -0.011254735 -0.02413278 -0.20301703 0.08820477 -0.098657265 -0.013568637 0.037231375
-0.048087005 -0.007365591 -0.11196452 0.011115029 0.09394096 0.21530615 0.030515637 -0.0808958
0.082943246 -0.18556497 0.11725343 -0.11233828 0.06715529 0.015547898 -0.10027719 0.08525904
0.13043034 -0.0014631045 -0.033434104 0.124927156 0.108832136 -0.017055467 -0.06597361 0.0052763326

head.0.bias f4 [64]
00000000: c02b bb3d 42da 4d3d 9ced 3a3d 9d22 fb3d
00000010: 2cb9 b6bc b25c 2dbc ad32 3a3d ca34 e63c
00000020: 7e9d dfbd 687e 28bc 12b0 e23b 5bda 1e3e
00000030: 220d afbb 5673 973d 5382 fc3c dcf3 353e
00000040: f51d aebd 029a c13d 370d 43bd 33a7 8cbd
00000050: 70c9 d53c 58b5 dbbd e43d 4e3c e10c 8dbd
00000060: cfec aabd e342 4fbd f9bc cdbd e197 f2bd
00000070: 6fec 903d 8118 e6bd 4825 49bc 45c5 853d
00000080: 671b b13d 9e40 f63d 4134 8f3d cd51 3b3d
00000090: af59 debc d831 aabd 53b4 d13b 2565 03bd
000000a0: d4b8 e33d 82d8 8c3d 2400 82bd dbae a7bd
000000b0: 815d c2bd fc64 eebc b18a f5bd d39e 33bd
000000c0: 115c 90bd f4d9 043d 254c fc3d 5547 80bb
000000d0: c1ee 8dbb 38c6 c23d 49d8 753d 3cee 183d
000000e0: 3cb9 7f3d 5fbb 513c 682b d23d 7200 0dbb
000000f0: 0372 053e c82d 3d3a 9e4e a4b9 ac23 67bc
0.09139204 0.050256975 0.04563676 0.12262461 -0.022305094 -0.010581182 0.045458484 0.028101344
-0.10918711 -0.010284044 0.006917962 0.15512984 -0.0053421417 0.073950455 0.030823862 0.17768806
-0.085018076 0.09453203 -0.047620025 -0.06867828 0.02609703 -0.10727948 0.012587998 -0.06887222
-0.08345949 -0.050600898 -0.10045809 -0.11845375 0.07076346 -0.112351425 -0.012276955 0.06531767
0.08647805 0.120240435 0.069923885 0.04573231 -0.027142374 -0.08310288 0.00639967 -0.03207888
0.111192375 0.06877233 -0.06347683 -0.08187648 -0.09490491 -0.029100887 -0.11989344 -0.04385264
-0.0704881 0.03243442 0.12319211 -0.0039147534 -0.00433144 0.095104635 0.06002072 0.037336573
0.062432513 0.01280102 0.10262185 -0.0021515158 0.13031773 0.00072166 -0.00031339092 -0.014107626

head.2.weight f4 [1, 64]
00000000: 1b00 bb3d e74e a9bd 3861 94bd 40da 09be
00000010: eb8c 94bd 7d7a 3f3e f1ee 063e a799 9d3d
00000020: f1ea ca3d 08db 2c3e 8fe4 50bd 13a0 28be
00000030: 7eae 703d 7266 233e 5b90 b23d 1105 a0bd
00000040: 02ef ca3d 2d9c 23be db15 10be 33b2 e6bd
00000050: 99d9 343e 0524 883b 25a0 b0bd c8f4 2c3e
00000060: 3f99 e73d 1396 fe3d a7c1 893d fba6 3cbd
00000070: 5c11 2f3d 89b0 153e 835a 24be 92f2 02be
00000080: a23e 9d3d 149f ba3d 81b8 2bbd 2608 af3c
00000090: c0a9 1bbe f84b 0f3e c37f 35be df8a 1f3e
000000a0: b146 d93d ee51 1abe 78f1 14be d740 5bbe
000000b0: ecc3 5ebe 3ca3 1b3e a603 efbb 9b92 fd3d
000000c0: b17f 133e 1bba a9bd 4c08 ea3d 7cc4 593d
000000d0: 9703 173e 3c01 b93d 5d40 c53d 9c52 093e
000000e0: 8a0a 00bd 0141 d13d 2cce 7c3d 1e50 51be
000000f0: e5af ab3d 3fd2 d9bd 6704 be3d efdf 203e
0.091308795 -0.082670026 -0.072451055 -0.13462162 -0.072534405 0.1869907 0.13177086 0.076953225
0.09908093 0.16880429 -0.05099922 -0.16467313 0.05876016 0.15957049 0.0871894 -0.07813466
0.09908868 -0.15977545 -0.14070837 -0.112644576 0.17661132 0.0041546845 -0.08624295 0.16890252
0.11308526 0.12430968 0.067263894 -0.046057682 0.042741165 0.14618124 -0.16050152 -0.12787846
0.07677962 0.09112373 -0.041924004 0.02136619 -0.15201473 0.13993824 -0.17724518 0.15580319
0.106091864 -0.15070316 -0.14545238 -0.21411453 -0.21754426 0.15198988 -0.007294136 0.123814784
0.14404179 -0.0828745 0.11427364 0.053165898 0.14747463 0.090334386 0.09631417 0.13410419
-0.03126005 0.10217477 0.06172006 -0.20440719 0.083831586 -0.106358044 0.092781834 0.15710424
