outputs/exp_0003_20251213_123043/runs/seed1/h10/ReservoirReplay/model_final.pt (torch, 71493 bytes, 7 tensors)

gru.weight_ih_l0 f4 [192, 1]
0	0x3e6d6040	0.23181248
1	0xbd760287	-0.060061004
2	0xbdd7b7fa	-0.105331376
3	0xbd176895	-0.03696497
4	0xbec2cbbb	-0.3804606
5	0x3e37648f	0.17909454
6	0x3cef90a5	0.029243777
7	0x3e6cb729	0.23116745
8	0x3d2ea4b5	0.042637546
9	0xba8ed4cd	-0.001089716
10	0xbdb1fe1b	-0.08691045
11	0x3ca7ae9f	0.020469008
12	0x3cc97d31	0.024595829
13	0xbe5a0c5d	-0.21293779
14	0xbcfee856	-0.031116646
15	0x3af3f87c	0.0018613483
16	0xb839c411	-4.429004e-05
17	0xbd2fd493	-0.042927336
18	0x3dfa3bbe	0.12218426
19	0x3d876cb6	0.06612532
20	0x3d397f2d	0.0452873
21	0x3d9459ab	0.07243665
22	0xbd6ac1f3	-0.05731387
23	0xbdc24c4f	-0.09487211
24	0xbcb97dc1	-0.022642972
25	0x3dede14e	0.11615239
26	0x3f0793c4	0.5295985
27	0xbde5f89f	-0.11229061
28	0xbe6ef9d5	-0.23337491
29	0x3e5b80a0	0.21435785
30	0x3dd9cde3	0.10634973
31	0x3e2ab5fd	0.16670986
32	0x3e450bc5	0.19242771
33	0xbd987b2b	-0.074453674
34	0xbe45446d	-0.19264384
35	0x3ccd9441	0.025095107
36	0x3e1ed8e0	0.15512419
37	0xbe23c0cc	-0.15991515
38	0x3e23b9ee	0.15988895
39	0xbdd8c2b8	-0.10584015
40	0x3e0fb2aa	0.14032999
41	0x3941b304	0.00018472603
42	0x3e0b9c41	0.13633825
43	0x3dc7afa9	0.097503014
44	0x3cb41f3b	0.021987548
45	0x3e1341f8	0.14380634
46	0xbda85f31	-0.08221281
47	0x3c1b78bc	0.009489235
48	0x3ba47497	0.0050187814
49	0x3d8957d6	0.067062065
50	0xbcbd0b3f	-0.023076652
51	0xbd92e1b7	-0.07171958
52	0x3d9aa0d3	0.07550206
53	0x3a115dd1	0.0005545291
54	0x3e7034ec	0.23457688
55	0x3e15d751	0.14632918
56	0x3df61792	0.120162144
57	0xbddfa438	-0.10919994
58	0x3e9be84c	0.30450666
59	0x3de1d470	0.11026847
60	0xbdcd4a82	-0.10023977
61	0x3e2252e2	0.1585193
62	0x3d90ae74	0.07064524
63	0x3ddfe32b	0.10932001
64	0xbc989b70	-0.018628806
65	0x3eade994	0.33967268
66	0x3e0c99b1	0.13730504
67	0x3e44b9f4	0.1921156
68	0x3e9a0027	0.3007824
69	0x3d9f0a37	0.0776562
70	0x3e1173a8	0.14204276
71	0x3d18a4af	0.03726643
72	0x3e0dfdfd	0.1386642
73	0x3ddf221c	0.10895178
74	0xbdd2571b	-0.1027052
75	0x3c49ca73	0.012316334
76	0xbba67e64	-0.005080985
77	0x3dbc6b96	0.09200208
78	0xbd1b1355	-0.037860233
79	0x3e875a57	0.2643611
80	0xbe2dd24c	-0.16974753
81	0xbc885e26	-0.016646456
82	0x3d963211	0.07333768
83	0x3d99130d	0.07474337
84	0x3e882065	0.26587215
85	0xbe212d49	-0.15739931
86	0x3c1acbed	0.009448034
87	0x3d936fca	0.071990564
88	0x3da6b61c	0.08140203
89	0x3e2cca38	0.16874015
90	0x3ee7acba	0.45248967
91	0x3d1b3052	0.03788788
92	0x3de4b0f1	0.111665614
93	0x3c9b4c71	0.018957349
94	0xbaec2547	-0.0018016481
95	0xbcc4daad	-0.024030054
96	0x3e1b206c	0.15149087
97	0x3d6761a6	0.05648961
98	0x3dce06b6	0.10059874
99	0x3c121650	0.0089164525
100	0x3e192464	0.14955288
101	0xbd2a78bf	-0.04161906
102	0x3e040e68	0.1289612
103	0xbdafc2ab	-0.08582052
104	0xbd842389	-0.0645209
105	0xbd11bb51	-0.03557903
106	0x3e8f3499	0.27969816
107	0x3dfc2b14	0.12312904
108	0x3e1a60ec	0.15076035
109	0x3e0f6888	0.1400472
110	0x3ed7e6c7	0.42168257
111	0x3e134913	0.14383344
112	0x3e8113de	0.2521047
113	0x3dae155d	0.085001685
114	0x3e60808b	0.21924035
115	0x3d8ac0ee	0.0677508
116	0x3e188ef3	0.14898281
117	0xbd4463f8	-0.0479469
118	0xbd367ade	-0.04455077
119	0x3cbd55a0	0.023112118
120	0x3d6fdf8b	0.058562797
121	0x3b2907e2	0.0025792052
122	0x3f3739b6	0.71572435
123	0x3db79766	0.08964424
124	0xbd1df8ca	-0.038567342
125	0x3d885414	0.06656662
126	0xbc87b32c	-0.016564928
127	0x3dd8a156	0.105776474
128	0x3e02701a	0.12738076
129	0x3e880b6b	0.2657121
130	0xbd87d949	-0.06633241
131	0x3c19f1bf	0.009396016
132	0x3e754a01	0.23954011
133	0x3eb027e0	0.34405422
134	0x3d838cd1	0.06423343
135	0x3e0288f9	0.12747563
136	0x3d9a3529	0.07529671
137	0x3de8d368	0.113684475
138	0xbe40c85b	-0.1882643
139	0xbe66534e	-0.22492716
140	0xbe065a4c	-0.13120383
141	0xbbb0be36	-0.0053937687
142	0xbe2ed55c	-0.17073578
143	0x3e5839d7	0.21115814
144	0x3d4daaed	0.050211836
145	0xbbd4b9f8	-0.0064918958
146	0x3d5b2f4e	0.05351191
147	0xbbde181f	-0.006777778
148	0x3e465e44	0.19371897
149	0x3e73579f	0.23763894
150	0xbe300825	-0.17190607
151	0x3e607d1c	0.21922725
152	0xbd452e12	-0.04813964
153	0xbd30ee8f	-0.043196257
154	0xbec2eca0	-0.38071156
155	0xbe068cbd	-0.13139625
156	0xbe2002f3	-0.15626125
157	0xbd95f6cf	-0.07322466
158	0x3d49bff1	0.049255315
159	0xbde11c0b	-0.10991677
160	0xbe30cc28	-0.1726538
161	0x3d6d7a55	0.057977993
162	0x3dcb627c	0.09930894
163	0x3e2641cd	0.16236039
164	0xbd492ab7	-0.049113
165	0x3d901bbb	0.07036539
166	0xbdb272fd	-0.087133385
167	0xbbb7e8a4	-0.0056124497
168	0xbe429e40	-0.1900568
169	0xbe12c29f	-0.14332055
170	0xbe0ec3f6	-0.1394194
171	0x3e3153b2	0.17317083
172	0x3ca73f5c	0.020415954
173	0xbbb38014	-0.0054779146
174	0x3e7c002c	0.2460944
175	0x3e430d03	0.19047932
176	0x3df2c5f6	0.11854164
177	0xbdaf8ebf	-0.085721485
178	0xbdf3bf70	-0.11901748
179	0x3e2f100f	0.1709597
180	0x3c2b35c2	0.010449829
181	0x3d4d60dc	0.0501412
182	0xbe2a81e4	-0.16651112
183	0xbd0b274d	-0.033973027
184	0xbd4d83f7	-0.05017468
185	0x3e641c69	0.22276463
186	0xbeb916c8	-0.36150193
187	0xbd823723	-0.06358173
188	0x3cfb096a	0.030644137
189	0xbd6c5485	-0.05769779
190	0x3d32a6ac	0.043615982
191	0xbdc5a01d	-0.0964968

gru.weight_hh_l0 f4 [192, 64]
0	0x3d05354d	0.032521535
1	0x3d4a7e16	0.04943665
2	0x3da6e5a2	0.08149268
3	0xbda3018b	-0.07959279
4	0x3d73ebc1	0.059551004
5	0x3e16d0ab	0.14728038
6	0x3e11a93b	0.14224713
7	0xbe263098	-0.16229475
8	0x3da43e07	0.08019643
9	0xbd9ca3cc	-0.07648429
10	0x3d3c2626	0.04593482
11	0xbcf9c816	-0.030490916
12	0x3df6d266	0.12051849
13	0x3d27bfe1	0.040954474
14	0xbdc096eb	-0.09403785
15	0x3da99355	0.082800545
16	0x3c9a271e	0.01881748
17	0xbcbcf95b	-0.02306812
18	0x3db806d5	0.08985678
19	0x3dfe8486	0.124276206
20	0xbe03b757	-0.12862907
21	0x3dc852eb	0.0978144
22	0x3df04916	0.1173269
23	0x3d8759f2	0.066089526
24	0x3e3df48d	0.1855032
25	0xbda631fd	-0.08115003
26	0xbe2b1191	-0.1670592
27	0x3d2c1bb7	0.04201862
28	0xbe02d193	-0.12775259
29	0x3e495512	0.19661358
30	0xbcb03c27	-0.021513058
31	0xbdbdf89a	-0.092759326
32	0xbca6216d	-0.02027961
33	0xbe001f41	-0.12511922
34	0x3cd4f855	0.02599732
35	0x3ddb04c6	0.1069427
36	0x3a16ebf1	0.0005757204
37	0x3e0eeb5e	0.13956973
38	0xbd2e7491	-0.042591635
39	0xbc990894	-0.018680848
40	0x3dc22681	0.0948
41	0xbda6f5d5	-0.081523575
42	0xbdf3145f	-0.1186912
43	0x3e459fb6	0.19299206
44	0xbc5ebd54	-0.013594944
45	0x3dea7c30	0.11449468
46	0x3e33c4a5	0.17555483
47	0xbe2ca1c4	-0.16858584
48	0xbd65d68f	-0.056112822
49	0xbd6af73c	-0.057364687
50	0x3d3f6ff8	0.04673764
51	0x3c994023	0.01870734
52	0xbdfcad63	-0.123377584
53	0xbd2badfe	-0.04191398
54	0xbe269ec5	-0.16271503
55	0xbe1bbe70	-0.15209365
56	0xbe0c21cb	-0.13684766
57	0x3e1253e4	0.14289814
58	0xbb930f87	-0.004487935
59	0xbda7207f	-0.08160495
60	0x3d8caa43	0.06868412
61	0xbd044fa5	-0.032302517
62	0xbd883342	-0.06650402
63	0xbde49ca0	-0.11162686
64	0x3e07d97a	0.13266554
65	0x3d52274a	0.051307
66	0xbe264672	-0.1623781
67	0x3dac5dd5	0.084163345
68	0x3e462227	0.19348966
69	0xbda20d64	-0.0791271
70	0xbca7051b	-0.020388177
71	0x3bc43dfa	0.0059888335
72	0x3d07101b	0.032974344
73	0x3d67482d	0.056465317
74	0x3e294eba	0.16533938
75	0xbd656c5d	-0.056011546
76	0x3e839fc7	0.25707838
77	0xbe458620	-0.19289446
78	0x3d8ddd67	0.06926995
79	0x3db79211	0.08963407
80	0x3d05eb7b	0.032695275
81	0x3d00546f	0.031330522
82	0x3d3887e6	0.045051478
83	0x3d2fefb8	0.042953223
84	0xbcf6672b	-0.030078491
85	0xbd9459f1	-0.072437175
86	0xbe4e7130	-0.20160365
87	0xbdd85917	-0.105638675
88	0x3d12c736	0.035834514
89	0x3dab63f2	0.083686724
90	0x3e8969f5	0.2683865
91	0x3d03c85e	0.032173507
92	0xbe013cc2	-0.12620834
93	0x3c7b5d3a	0.015342051
94	0xbcf3d78e	-0.02976587
95	0x3daa8767	0.08326607
96	0xbdf02b57	-0.117270164
97	0xbbcaf4b6	-0.0061937226
98	0x3dbaff7a	0.091307595
99	0xbdffe90b	-0.12495621
100	0x3ad87622	0.0016514699
101	0x3e21f9b3	0.15817909
102	0x3d98259e	0.0742905
103	0x39c98ef1	0.00038444207
104	0x3dd36ab2	0.10323085
105	0x3db9dc38	0.090752065
106	0x3ba60308	0.0050662793
107	0xbe82b696	-0.25529927
108	0x3d3afb35	0.045649726
109	0xbd5f2322	-0.054476865
110	0x3c8d518b	0.017250797
111	0xbdb09fe6	-0.08624248
112	0x3cf704df	0.03015369
113	0x3c6b6fd9	0.014369928
114	0xbe2eb324	-0.17060524
115	0x3e113df0	0.14183784
116	0xbd9bb1b1	-0.07602251
117	0x3dbfe508	0.09369856
118	0xbd88110b	-0.06643876
119	0xbd98d5f0	-0.0746268
120	0xbd395d24	-0.04525484
121	0xbc5c230a	-0.013436088
122	0x3e36fdc9	0.17870249
123	0xbe35c0b6	-0.17749295
124	0x3c938364	0.018006988
125	0x3c66830b	0.014069329
126	0xbc948a99	-0.018132495
127	0x3d8c0291	0.06836427
128	0x3c7c887d	0.015413401
129	0x3c0bf32e	0.008541865
130	0x3e0cf836	0.1376656
131	0xbbfce30a	-0.007717495
132	0x3d7c19c5	0.061548013
133	0x3d82e93c	0.06392142
134	0x3d9b765e	0.07590936
135	0xbd52545a	-0.051349975
136	0x3c8d9e34	0.017287351
137	0x3dcc0e5d	0.09963677
138	0x3e37ef40	0.1796236
139	0x3d5c60a3	0.053803097
140	0x3e8e1729	0.27752045
141	0xbe37dec0	-0.17956066
142	0x3da64686	0.0811892
143	0x3cfbf49c	0.030756287
144	0xbdbd1068	-0.09231645
145	0xbe3080d8	-0.1723665
146	0x3dd8a87d	0.105790116
147	0x3de2053a	0.11036153
148	0x3ce8272f	0.028338997
149	0xbce40b05	-0.027837286
150	0xbe813546	-0.25235957
151	0xbb0ab1df	-0.0021163148
152	0x3d5f0810	0.05445105
153	0xbe192be7	-0.14958154
154	0xbdaf86ff	-0.0857067
155	0xbd6ff62e	-0.058584385
156	0xbe4bdb53	-0.19907884
157	0xbd37418d	-0.04474025
158	0x3e29a366	0.16566238
159	0x3c7d480c	0.015459072
160	0xbdd74c66	-0.10512619
161	0xbd724ab4	-0.059153274
162	0x3d6e3827	0.05815902
163	0x3dd25d57	0.102717094
164	0x3d3ac200	0.04559517
165	0x3e0d394f	0.13791393
166	0xbcf68993	-0.030094897
167	0x3d5953ff	0.05305862
168	0x3e369978	0.17831981
169	0xbe4504f2	-0.19240168
170	0x3c2d8ff2	0.010593401
171	0xbdfe21c0	-0.12408781
172	0x3dc5225b	0.096256934
173	0xbdabc97d	-0.0838804
174	0xbd54842e	-0.05188387
175	0xbe3c0dc4	-0.18364626
176	0x3d9661ad	0.07342849
177	0xbe0376d9	-0.12838306
178	0xbe18131f	-0.14851044
179	0x3d0cb68a	0.03435377
180	0xbe01a3d6	-0.12660155
181	0xbd7deb30	-0.06199187
182	0x3c3f7182	0.011684777
183	0xbb51f643	-0.0032037653
184	0xbd99e3f4	-0.07514182
185	0x3e1b77ae	0.15182373
186	0x3e2db813	0.1696475
187	0x3d8cc036	0.06872599
188	0x3d37f859	0.044914577
189	0xbe3a406b	-0.18188636
190	0x3d1670d3	0.03672869
191	0xbde28035	-0.1105961
192	0xbdf79f80	-0.12090969
193	0x3d58334c	0.052783296
194	0x3e276ca2	0.16350034
195	0x3d2b61cc	0.041841313
196	0xbe5df5ba	-0.21675768
197	0x3c8af9bd	0.016964788
198	0xbc137838	-0.00900083
199	0x3dcdfbe4	0.1005781
200	0x3d31d19f	0.0434128
201	0xbdcccb50	-0.09999716
202	0x3e498073	0.19677906
203	0x3d01f37e	0.031726353
204	0x3e3d3e66	0.18480834
205	0x3c900cb0	0.017584175
206	0x3e6b1fd0	0.22961354
207	0x3d22568e	0.039633326
208	0xbdfe01b2	-0.12402667
209	0x3e16bd63	0.14720683
210	0xbaeabf83	-0.0017909858
211	0xbe00365c	-0.12520736
212	0xbdb58eb2	-0.088651076
213	0xbdb0ee8e	-0.08639251
214	0xbc2e296a	-0.010629991
215	0xbe74383c	-0.23849577
216	0x3dc65d08	0.09685713
217	0xbd9321c1	-0.071841724
218	0xbe091fca	-0.13391033
219	0x3e4f4852	0.20242432
220	0x3e0524ff	0.13002394
221	0xbdd5ab16	-0.10433023
222	0xbc82d73a	-0.015971769
223	0x3d919410	0.07108319
224	0xbcb00153	-0.021485006
225	0x3e1590d5	0.1460603
226	0xbe5f6e54	-0.2181943
227	0xbd908c41	-0.07058001
228	0xbdaa30c9	-0.08310086
229	0x3df54066	0.11975174
230	0xbd05b719	-0.03264532
231	0x3dc78634	0.09742394
232	0x3e06a84d	0.13150139
233	0x3d70ea90	0.058817446
234	0xbce37998	-0.027767941
235	0xbdb74c7d	-0.08950136
236	0xbc79c536	-0.015244773
237	0xbe0a2f84	-0.13494688
238	0xbe38fe55	-0.1806577
239	0xbe395325	-0.18098123
240	0xbd5325d1	-0.051549736
241	0x3d03c4b4	0.032170013
242	0x3e51bf58	0.20483148
243	0xbdf81b80	-0.1211462
244	0x3d950404	0.072761565
245	0x3d283aa2	0.04107154
246	0x3e0b6359	0.13612117
247	0x3dd2d126	0.10293798
248	0xbd413a63	-0.047174823
249	0x3dcf0e78	0.101101816
250	0xbe294ecb	-0.16533963
251	0x3de373f7	0.11106103
252	0xbbe377bb	-0.006941763
253	0x3de48649	0.11158425
254	0xbd84f087	-0.064911895
255	0x3d0af31e	0.03392326

gru.bias_ih_l0 f4 [192]
0	0x3d1abe70	0.03777927
1	0x3d4309e0	0.04761684
2	0x3d5ad029	0.053421173
3	0x3d946f89	0.07247836
4	0x3dede699	0.11616249
5	0xbb58900c	-0.0033044843
6	0xbb8669cc	-0.0041019674
7	0x3ddf1062	0.10891797
8	0xbcfdcffd	-0.030982966
9	0x3e172a47	0.14762221
10	0x3de19cbe	0.11016224
11	0x3e844a47	0.2583792
12	0x3e2a3ea8	0.16625464
13	0x3e390166	0.1806694
14	0x3ce22af3	0.02760837
15	0xbbf45ccf	-0.0074573527
16	0x3e2f5d20	0.17125368
17	0x3dae59bd	0.0851321
18	0xbd9f47e1	-0.07777382
19	0x3c03ccaa	0.008044401
20	0x3d9170c3	0.07101586
21	0xbd765c25	-0.06014647
22	0x3e241043	0.16021828
23	0x3e147734	0.14498597
24	0x3c76748c	0.015042435
25	0x3d812a4a	0.06306894
26	0x3d31527e	0.04329156
27	0xbd6b59df	-0.057458755
28	0x3d9289a9	0.07155163
29	0x3e351bf0	0.17686439
30	0x3e0bcd24	0.13652474
31	0x3e65d172	0.22443178
32	0x3b042797	0.00201652
33	0x3d913e13	0.07091918
34	0x3e0b4f66	0.13604507
35	0x3a85ac23	0.0010198395
36	0x3daedb01	0.085378654
37	0x3cfb09aa	0.030644257
38	0x3dbac81f	0.09120201
39	0x3e307485	0.17231949
40	0x3e4f1ff6	0.20227036
41	0x3dbb07e0	0.091323614
42	0x3d8b005a	0.067871764
43	0x3e5661cf	0.20935749
44	0x3e5c19ed	0.21494265
45	0x3e4aa433	0.197892
46	0x3e329581	0.17439844
47	0x3b97f13c	0.0046369117
48	0x3e2abcfb	0.16673653
49	0x3d0eab12	0.034831114
50	0x3db658cf	0.08903658
51	0x3e2ffa9c	0.17185444
52	0x3e20ed11	0.15715434
53	0x3de5619d	0.11200259
54	0x3e100c0b	0.14067094
55	0x3c33c6ea	0.010972718
56	0x3e04ce35	0.12969287
57	0x3d1b13d9	0.037860725
58	0x3ddc6d3a	0.10763021
59	0x3db1322e	0.08652149
60	0xbb88c530	-0.004173897
61	0x3e04d547	0.12971984
62	0x3d56925c	0.052385673
63	0xbd773b91	-0.06035954
64	0xbe01113d	-0.12604232
65	0xbe1f2961	-0.15543129
66	0x3d90313b	0.0704064
67	0x3d234f5a	0.039870597
68	0xbc695b67	-0.014242983
69	0x3dc3ce98	0.09560889
70	0x3d2dc727	0.042426255
71	0xbd81720a	-0.06320579
72	0x3c8996e6	0.016795587
73	0xbe47b16e	-0.19501278
74	0x3ded8e78	0.115994394
75	0xbdc47c79	-0.09594054
76	0x3dfb1d1f	0.12261414
77	0x3d6f241a	0.05838404
78	0xbe825e5d	-0.25462618
79	0xbdcd9329	-0.10037834
80	0xbdb3282d	-0.08747897
81	0x3dad4193	0.08459773
82	0x3d82e529	0.06391365
83	0x3b5ea98d	0.0033975572
84	0xbdc1147b	-0.094277345
85	0x3d3672be	0.04454302
86	0xbd9fa738	-0.07795566
87	0xbdbba7d2	-0.091628686
88	0xbd8cd477	-0.06876462
89	0x3cb0e1e7	0.021592094
90	0x3d3d8ec2	0.046278723
91	0xbad222c1	-0.0016032086
92	0xbd005f5b	-0.031340938
93	0xbd65436e	-0.05597251
94	0x3e01e46c	0.12684792
95	0x3ca0a977	0.019612057
96	0xbd09963d	-0.033590544
97	0x3bae69e2	0.005322681
98	0xbda16149	-0.07879884
99	0x3dbbcbfe	0.09169768
100	0x3d16a133	0.036774825
101	0xbd722bf5	-0.059123952
102	0xbd885dad	-0.06658492
103	0xbd38c01c	-0.045105085
104	0x3df812be	0.1211295
105	0x3df61d8b	0.120173536
106	0x3b9988b8	0.0046854876
107	0x3e64f4cc	0.22359008
108	0x3d859808	0.06523138
109	0x3d93a720	0.07209611
110	0x3dba1e9b	0.09087869
111	0x3d3424df	0.043980476
112	0xbd9e2594	-0.07722011
113	0x3b76140c	0.003754857
114	0xbc883c34	-0.01663027
115	0x3de7fb8a	0.11327274
116	0xbcb7dfb8	-0.022445545
117	0xbd574b9e	-0.05256235
118	0xbd934e56	-0.07192676
119	0x3cddd6c4	0.027079947
120	0x3dd6de12	0.10491575
121	0xbe07c72a	-0.13259569
122	0xbdf666c8	-0.12031323
123	0x3c80f7d2	0.01574317
124	0x3d8b99bc	0.06816432
125	0x3e1ec125	0.15503366
126	0x3df7a59b	0.120921336
127	0x3db2dfa0	0.08734059
128	0x3b85d43d	0.0040841387
129	0x3cc77aeb	0.024350604
130	0xbdd18d63	-0.102320455
131	0x3e2da35a	0.16956845
132	0x3d53a2f7	0.051669087
133	0xbd70a099	-0.058746908
134	0xbe346af1	-0.1761892
135	0xbd420727	-0.047370102
136	0xbc9dc1b7	-0.01925741
137	0xbc2f03e2	-0.010682078
138	0x3dae2f55	0.085051216
139	0x3deebb80	0.116568565
140	0x3d92d813	0.07170119
141	0xbe03662c	-0.12831944
142	0xbe2cfd04	-0.16893393
143	0x3dbc02ed	0.091802455
144	0xbbbbb74c	-0.005728638
145	0x3e50db44	0.20396143
146	0x3d623dd4	0.055234745
147	0xbe1ec124	-0.15503365
148	0xbd8fc087	-0.070191436
149	0xbe0f1511	-0.1397288
150	0x3d35672a	0.044287838
151	0xbe2fea25	-0.17179163
152	0xbc867465	-0.016412923
153	0x3e2be661	0.16787101
154	0xbca74222	-0.020417277
155	0x3c7e3205	0.015514855
156	0xbc4183a4	-0.011811171
157	0x3c1c42d3	0.0095374165
158	0xbe361237	-0.17780386
159	0x3e102481	0.14076425
160	0xbccdb15f	-0.025108991
161	0xbd99fa90	-0.07518494
162	0xbc9b2c06	-0.01894189
163	0xbdb6fe0f	-0.089351766
164	0x3e15fe70	0.14647841
165	0x3e208de3	0.15679125
166	0x3daaa6c5	0.0833259
167	0x3e2f13a1	0.17097332
168	0x3e1b2235	0.15149768
169	0x3d2867c1	0.041114572
170	0x3e073caa	0.13206735
171	0x3e31f908	0.17380154
172	0x3c610b4d	0.0137356045
173	0x3e369ec9	0.17834009
174	0xbdf21d58	-0.11822003
175	0xbe0e166e	-0.13875744
176	0x3cfacf94	0.03061656
177	0x3e43fe78	0.19140041
178	0x3dccb5f0	0.09995639
179	0xba7c7327	-0.0009630196
180	0x3d467a9d	0.048456777
181	0x3cae2e9a	0.021262456
182	0xbcfb6552	-0.030687962
183	0xbe004e32	-0.12529829
184	0x3df5aa0e	0.11995326
185	0x3e2a2efb	0.16619484
186	0xbd87acf0	-0.06624782
187	0xbe34bf3e	-0.17651078
188	0x3dfd6547	0.12372833
189	0x3d66876a	0.056281485
190	0xbdd47185	-0.10373215
191	0x3bc68894	0.006058762

gru.bias_hh_l0 f4 [192]
0	0x3e48c59a	0.19606629
1	0x3e30f8fe	0.17282483
2	0x3dc6be09	0.09704215
3	0x3d5bb8eb	0.05364315
4	0x3d3f0d53	0.046643566
5	0xbc3fc949	-0.011705705
6	0x3d8575ed	0.06516633
7	0x3dc68864	0.09693983
8	0xbc2c1d6c	-0.010505062
9	0x3e001063	0.12506251
10	0x3e8ba64c	0.27275312
11	0x3dcfa2bf	0.10138463
12	0x3e3c7000	0.184021
13	0x3e299be4	0.16563374
14	0x3e084519	0.13307609
15	0x3d2758e3	0.040856253
16	0x3e32250f	0.17396949
17	0xbdf695f2	-0.120403185
18	0x3e07ab33	0.13248901
19	0x3d3b301f	0.04570019
20	0xbd26e6f7	-0.04074761
21	0x3d4670ab	0.048447292
22	0xbd9265df	-0.071483366
23	0x3d3685be	0.04456114
24	0x3c5d4ed0	0.01350756
25	0x3e17472c	0.14773244
26	0xbdb063a1	-0.08612753
27	0xbbdb4146	-0.006691131
28	0x3e133061	0.14373924
29	0x3e26960f	0.1626818
30	0x3dbd04de	0.09229444
31	0x3e425e66	0.18981323
32	0x3a6c7997	0.0009020804
33	0x3e2cd134	0.1687668
34	0x3e5080eb	0.20361678
35	0x3d682f17	0.056685533
36	0x3d087a5d	0.03331982
37	0x3dc7741b	0.09738942
38	0x3e30932c	0.17243642
39	0xbd3393a8	-0.043841988
40	0xbd1fcbd4	-0.039012745
41	0x3e19618e	0.1497862
42	0xbd50ff13	-0.051024508
43	0x3de88e63	0.11355283
44	0x3e829d8d	0.25510827
45	0x3db8b6bc	0.09019229
46	0x3e540fee	0.20709202
47	0x3c4990c5	0.012302582
48	0x3d331ca2	0.04372848
49	0xbd69bd12	-0.057065077
50	0x3e0f24cb	0.13978879
51	0x3e5c0056	0.21484503
52	0xbce9920a	-0.02851202
53	0x3c1efe84	0.009704236
54	0x3c69c748	0.014268704
55	0x3df6814a	0.12036379
56	0xbd51f8b2	-0.051262565
57	0x3df5c252	0.11999954
58	0x3d7f5ecf	0.062346276
59	0x3dfe55c9	0.12418706
60	0x3e1d3c35	0.15354998
61	0x3d90cddc	0.070705146
62	0x3d50278f	0.050818976
63	0x3bae683c	0.0053224843
64	0xbd5e2a1c	-0.054239377
65	0xbdd2c2b8	-0.10291046
66	0xbc280309	-0.01025463
67	0xbe10ce98	-0.1414131
68	0xbdd93441	-0.1060567
69	0x3c8a5d59	0.016890215
70	0xbc1247cc	-0.0089282505
71	0xbd9de8a5	-0.07710389
72	0x3d82dab8	0.063893735
73	0xbcc7459d	-0.024325186
74	0xbd984978	-0.07435888
75	0xbca419df	-0.020031868
76	0x3da223b6	0.079169676
77	0xbdca8be4	-0.09889963
78	0xbdc9fed3	-0.09863057
79	0x3bd84118	0.0065995567
80	0xbd7ec255	-0.06219705
81	0xbc9f8412	-0.019472156
82	0x3d344c9a	0.044018365
83	0x3d55ac23	0.052166115
84	0xbda16865	-0.0788124
85	0xbd3dad31	-0.046307746
86	0xbe213255	-0.15741856
87	0xbe165342	-0.14680198
88	0x3d015ce6	0.031582735
89	0xbc44d28b	-0.012013088
90	0x3dbebf34	0.09313813
91	0xbcc41c84	-0.023939379
92	0x3c673f23	0.014114174
93	0xbdd092eb	-0.101842724
94	0x3d36f569	0.044667635
95	0x3dafb92c	0.085802406
96	0xbdb5a799	-0.08869857
97	0x3dc2d4c1	0.09513236
98	0xbceb2135	-0.028702358
99	0xbdc8d735	-0.098066725
100	0x3d654061	0.0559696
101	0x3d8c9f5a	0.068663314
102	0x3cea0c6f	0.028570382
103	0xbd920fed	-0.07131944
104	0x3d464371	0.04840416
105	0xbd8723d0	-0.065986276
106	0xbc0ff3d4	-0.0087861605
107	0x3de0a261	0.10968471
108	0xbe022566	-0.12709579
109	0x3e17ef4d	0.1483738
110	0xbd421459	-0.047382686
111	0x3cfbe3d8	0.030748293
112	0xbdc5386b	-0.096299015
113	0xbd058870	-0.03260082
114	0x3dc5424a	0.09631784
115	0xbcbaf9a5	-0.022824118
116	0x3dc130f0	0.09433162
117	0xbe760511	-0.2402537
118	0xbe40f3e9	-0.18843044
119	0xbdcc8233	-0.09985771
120	0xbcd69442	-0.026193742
121	0xbd139a9f	-0.03603613
122	0xbe22735b	-0.15864317
123	0xbd9de0d1	-0.07708896
124	0xbd1b2a56	-0.03788217
125	0x3d9a055b	0.07520553
126	0x3d90b7ff	0.070663445
127	0x3bd3933e	0.0064567616
128	0xbd0be024	-0.034149304
129	0x3d977884	0.073960334
130	0xbd7306f9	-0.05933282
131	0xbd224c56	-0.03962358
132	0x3cbed769	0.023296075
133	0xbc85461a	-0.016268779
134	0xbe466167	-0.19373094
135	0xbc36fd0b	-0.011168729
136	0xbe1e15ff	-0.15438078
137	0x3dcb8958	0.099383056
138	0x3da748f7	0.08168214
139	0x3e06a980	0.13150597
140	0x3dcf1629	0.101116486
141	0x3d34de31	0.04415721
142	0x3c1cf04a	0.009578774
143	0x3d8f38a7	0.069932275
144	0x3de5ab63	0.1121433
145	0xbd120013	-0.035644602
146	0x3d1d10d1	0.038346115
147	0xbd64ce08	-0.05586055
148	0x3dd030c1	0.10165549
149	0x3aa990a2	0.0012936781
150	0xbe09f932	-0.13473967
151	0xbe2116c2	-0.15731338
152	0x3d34d02c	0.04414384
153	0xbc25173e	-0.010076342
154	0x3d87abe2	0.06624581
155	0x3d833500	0.06406593
156	0x3cad619e	0.021164712
157	0x3dffa39d	0.12482379
158	0xbdfa3875	-0.122177996
159	0xbb380f28	-0.0028085206
160	0x3dbad5a6	0.091227815
161	0xbd1e49cc	-0.038644597
162	0xbc7186da	-0.014741624
163	0xbdbf6613	-0.09345641
164	0xbcdbcf8e	-0.026832368
165	0x3e5fe4e4	0.21864659
166	0x3ddc5bb6	0.1075968
167	0xbd0512c5	-0.032488603
168	0x3dea46a6	0.11439256
169	0x3d727fcc	0.059203908
170	0xbd159cfc	-0.036526665
171	0xbbd7ced1	-0.0065859337
172	0xbe16784d	-0.14694329
173	0x3da44789	0.08021457
174	0x3dcaee51	0.099087365
175	0xbd8f41cb	-0.06994971
176	0xbe0d25d4	-0.13783962
177	0xbd3db925	-0.046319146
178	0x3e175174	0.14777166
179	0xbd99916e	-0.07498442
180	0x3e4f4b7c	0.20243639
181	0x3ddc1932	0.10746993
182	0xbde4e122	-0.11175753
183	0x3bbe5b62	0.0058092335
184	0x3dd500e9	0.10400564
185	0x3e0e1a89	0.1387731
186	0x3c9da0de	0.019241747
187	0x3cefac7e	0.029257055
188	0x3df24be3	0.118308805
189	0x3df219c3	0.1182132
190	0xbddd9d50	-0.108210206
191	0xbc56e577	-0.013116232

head.0.weight f4 [64, 64]
0	0x3e0fb5d9	0.14034213
1	0x3dcfab62	0.101401106
2	0xbdf8b508	-0.12143904
3	0x3caf912a	0.021431524
4	0x3d57f69b	0.052725416
5	0x3d6038c3	0.054741632
6	0xbd07b250	-0.033129036
7	0xbc199267	-0.009373284
8	0xbd1dd895	-0.038536627
9	0x3d8c1a8b	0.06841
10	0xbcf94598	-0.030428693
11	0x3e162a44	0.1466456
12	0xbc6c51be	-0.014423786
13	0xbd2fe574	-0.042943433
14	0xbe4bfd5c	-0.19920868
15	0x3d1e1c25	0.03860106
16	0xbd58372d	-0.052786995
17	0xbd91ea9d	-0.07124827
18	0xbd2dcafc	-0.04242991
19	0x3df5d461	0.12003399
20	0x3d6ccefc	0.057814583
21	0x3ddf46a8	0.109021485
22	0x3e120103	0.14258198
23	0xbdf6b89c	-0.1204693
24	0x3d82a468	0.06379014
25	0x3d90fb62	0.070791975
26	0xbc19748f	-0.009366169
27	0x3d7ade6f	0.061247285
28	0xbe15e08b	-0.14636438
29	0x3d189ca6	0.037258767
30	0x3d86f79a	0.06590195
31	0x3dac86a2	0.08424117
32	0x3cbbfd37	0.02294789
33	0x3dd66186	0.1046782
34	0x3da00ab5	0.07814542
35	0xbc6bb970	-0.014387473
36	0xbc5d849c	-0.013520386
37	0x3e1df944	0.15427119
38	0xbcb5f0a1	-0.022209467
39	0x3ddb07a7	0.10694819
40	0xbd13e625	-0.036108155
41	0x3dc08e5c	0.09402153
42	0xbe05a4cf	-0.1305115
43	0x3e13dca8	0.14439642
44	0xbd03798c	-0.032098338
45	0x3dd96817	0.10615557
46	0x3d23d511	0.039998118
47	0x3db226a9	0.0869878
48	0x3dfff413	0.12497725
49	0xbda8630d	-0.082220174
50	0xbe2154f5	-0.15755065
51	0xbd0a8226	-0.033815525
52	0xbdbd0d43	-0.09231045
53	0xbe00039e	-0.1250138
54	0x3c02b743	0.007978263
55	0xbc5a05c3	-0.013307038
56	0xbdd07e10	-0.101802945
57	0xbd07b638	-0.03313276
58	0xbea63a0a	-0.32466155
59	0x3dad8d74	0.08474246
60	0x3dd16177	0.10223668
61	0x3d609a4b	0.054834645
62	0x3cdd67e6	0.027027082
63	0xbdcb8ff7	-0.099395685
64	0x3c3a1d86	0.011359578
65	0x3cf5ebbd	0.030019635
66	0xbcf648d7	-0.03006403
67	0x3dcbf93e	0.099596485
68	0xbe281c29	-0.16416992
69	0xbd169450	-0.036762536
70	0xbdcfc9ed	-0.10145936
71	0x3d0fa2a3	0.03506721
72	0x3d47464f	0.048651036
73	0xbdb976f5	-0.090558924
74	0xbd5490af	-0.051895794
75	0x3d4e3e7f	0.05035257
76	0xbca4e8a3	-0.020130461
77	0x3e0ea823	0.13931327
78	0x3c668904	0.014070753
79	0x3de2be4b	0.11071452
80	0x3d2a0bb9	0.041515086
81	0x3ddabe56	0.10680835
82	0x3d44c81d	0.048042405
83	0xbc654e13	-0.013995665
84	0x3db4160d	0.08793268
85	0x3b7210a3	0.0036936186
86	0x3d2c1f6a	0.042022146
87	0xbc64e612	-0.013970869
88	0xbde3f694	-0.111310154
89	0xbe3eb5ec	-0.18624085
90	0x3e205655	0.15657933
91	0xbda67c20	-0.08129144
92	0xbd69587d	-0.056969155
93	0x3d4e7c9f	0.050411817
94	0x3dde887c	0.10865876
95	0xbce07b2e	-0.027402487
96	0x3d2cc8fb	0.042183857
97	0x3e018509	0.12648405
98	0xbe63036a	-0.22169271
99	0x3de63188	0.11239916
100	0xbdc2944a	-0.0950094
101	0x3daf8fe1	0.085723646
102	0xbe2a9d7d	-0.1666164
103	0x3d68f4f3	0.056874227
104	0xbb9bfc48	-0.004760299
105	0xbddba490	-0.10724747
106	0xbdeba4fb	-0.11506077
107	0x3e2087ea	0.15676847
108	0xbdef56d8	-0.11686486
109	0xbdf2acd2	-0.11849369
110	0xbdc4c12a	-0.096071556
111	0xbb1b08fc	-0.0023656478
112	0x3d30cb96	0.043162905
113	0xbc267f28	-0.010162152
114	0x3d119b01	0.035548214
115	0x3d0edfc6	0.034881376
116	0xbcfb2a39	-0.030659782
117	0x3d4a4bbc	0.049388632
118	0xbdb34400	-0.08753204
119	0xbdf7230d	-0.12067232
120	0x3e17ec9d	0.14836355
121	0xbe06c11b	-0.13159601
122	0x3e7ebc86	0.24876603
123	0xbc7e0ba0	-0.015505701
124	0x3e13a202	0.1441727
125	0xbe1156e1	-0.14193298
126	0x3cf72f14	0.030173816
127	0xbe096d4b	-0.13420598
128	0xbd71e41d	-0.059055436
129	0xbe1762d0	-0.14783788
130	0x3d908ba8	0.07057887
131	0x3dc4790a	0.09593399
132	0xbe43adb1	-0.19109227
133	0xbdfd32d1	-0.12363208
134	0xbc8dc996	-0.017308038
135	0x3cde09e9	0.027104335
136	0xbd4f8f37	-0.05067369
137	0xbdb75edb	-0.08953639
138	0xbced158d	-0.02894094
139	0xbc796edf	-0.015224188
140	0xbd36c73a	-0.04462359
141	0x3e54e2a8	0.20789587
142	0x3d171ff2	0.0368957
143	0x3d618e61	0.055067424
144	0x3e2dad18	0.16960561
145	0x3c0e1099	0.008670949
146	0xbd7ca7f2	-0.061683603
147	0x3d9eda21	0.077564485
148	0xbda3bc66	-0.079949185
149	0xbdc8715f	-0.09787249
150	0x3df3af01	0.11898614
151	0xbe446dcc	-0.19182509
152	0x3d514422	0.051090367
153	0x3e37a3e9	0.1793362
154	0x3d2fb982	0.042901523
155	0xbdd356dc	-0.103193015
156	0x3c550971	0.013002739
157	0x3e315434	0.17317277
158	0xbc48e338	-0.012261204
159	0x3e67689e	0.22598502
160	0x3d7de298	0.061983675
161	0xbe23292a	-0.15933672
162	0xbd645d38	-0.055752963
163	0xbbfe30fe	-0.007757305
164	0x3d9507dc	0.0727689
165	0x3ce6e09f	0.02818328
166	0x3e113bb6	0.14182934
167	0xbcce231b	-0.025163224
168	0xbd0dd11d	-0.034623254
169	0x3ba7df04	0.005123021
170	0x3d7bfe94	0.06152208
171	0x3debcdfb	0.11513897
172	0xbd70b5a6	-0.058766983
173	0x3e1f2c4c	0.15544242
174	0xbe587cc4	-0.21141344
175	0x3adb8184	0.0016746973
176	0xbd05c6d8	-0.032660335
177	0xbbee691e	-0.0072757145
178	0x3d038749	0.03211144
179	0xbe335b1b	-0.17515223
180	0xbc8832bf	-0.01662576
181	0x3d34492a	0.044015087
182	0xbbb9f0c2	-0.0056744525
183	0x3d94e0db	0.0726945
184	0x3d106be0	0.035259128
185	0x3bc74f6a	0.006082465
186	0x3de579d9	0.11204881
187	0x3d2a20b8	0.04153511
188	0x3d845259	0.06461019
189	0xbdb72db4	-0.08944264
190	0x3d7be31a	0.061495878
191	0x3df25ab1	0.11833704
192	0xbe4c964a	-0.19979206
193	0xbe3dee9e	-0.18548056
194	0x3e3ace9e	0.1824288
195	0xbd9c95f4	-0.07645789
196	0xbdd2fb06	-0.10301785
197	0xbcd2a18a	-0.025711793
198	0xbe0e1207	-0.13874064
199	0x3d11e528	0.03561893
200	0x3d71b07c	0.0590062
201	0xbcb596be	-0.022166606
202	0x3dd67595	0.10471646
203	0x3d67afe8	0.05656424
204	0x3d190269	0.037355814
205	0x3d9286bb	0.07154604
206	0x3d9e25ff	0.07722091
207	0x3deabfeb	0.11462387
208	0xbe014e16	-0.12627444
209	0x3dd4f292	0.10397829
210	0x3d88a1f7	0.06671517
211	0x3dee7e37	0.11645167
212	0x3c9a521b	0.018837979
213	0xbd9d8090	-0.07690537
214	0x3caedebc	0.021346442
215	0x3def1b12	0.11675085
216	0x3db88697	0.09010046
217	0xbdbab5ff	-0.09116744
218	0x3dc182ff	0.09448814
219	0xbd956fe8	-0.07296735
220	0xbc16d1a7	-0.009205258
221	0xbe2c1c8e	-0.16807768
222	0xbd2e274e	-0.042517953
223	0xbdc2739a	-0.094947055
224	0x3da2ef7d	0.07955835
225	0x3dfad422	0.122474924
226	0xbe317a9c	-0.17331928
227	0xbce630c2	-0.028099421
228	0x3d07315b	0.033006053
229	0xbd9f5948	-0.07780701
230	0xbd6bdfbe	-0.057586424
231	0x3d68f55e	0.056874625
232	0xbd56462b	-0.05231301
233	0xbd310fda	-0.043228008
234	0xbe0b6a82	-0.13614848
235	0x3d076b50	0.033061326
236	0x3d1f4f16	0.03889378
237	0x3d450de7	0.04810896
238	0x3d2c3424	0.042041913
239	0xbdf130fb	-0.117769204
240	0x3d84f0df	0.06491255
241	0xbe571159	-0.21002711
242	0x3e6a4946	0.22879514
243	0xbd5a58f5	-0.053307492
244	0x3cd1a90d	0.025593305
245	0x3e05486c	0.13015908
246	0xbd8392fa	-0.06424518
247	0x3dba17bd	0.09086559
248	0x3e5850e4	0.21124607
249	0xbdaa6a0a	-0.083210066
250	0x3e715156	0.23566183
251	0x3e4cc438	0.19996727
252	0x3e0ffc97	0.14061199
253	0xbd8053e9	-0.062660046
254	0xbd8e59f7	-0.06950753
255	0xbcfc610a	-0.03080799

head.0.bias f4 [64]
0	0x3db80399	0.08985061
1	0x3d95626b	0.07294162
2	0x3db5a776	0.08869831
3	0x3e35ad88	0.17741978
4	0xbe055330	-0.13020015
5	0xbc5d79ab	-0.013517777
6	0xbe1b0f84	-0.15142637
7	0xbd9bb258	-0.07602376
8	0xbdc71440	-0.09720659
9	0x3d5b0c1b	0.05347834
10	0x3b1dfdfd	0.0024107688
11	0x3e0cb047	0.1373912
12	0xbb979ca6	-0.0046268282
13	0x3db5bad1	0.08873523
14	0x3d4504df	0.04810035
15	0x3e22f2ea	0.15912977
16	0xbe7a3200	-0.24433136
17	0x3dce8a8c	0.100850195
18	0x3d1d0374	0.03833337
19	0xbd0f45bb	-0.03497861
20	0x3d1a8aa3	0.03772987
21	0xbde7b657	-0.113140754
22	0x3d48c60c	0.049016997
23	0xbdc33af6	-0.0953273
24	0xbe4ca532	-0.19984892
25	0xbe40c928	-0.18826735
26	0xbe334407	-0.17506419
27	0xbe3ce9b2	-0.18448523
28	0x3d98e4b3	0.07465496
29	0xbe709538	-0.23494422
30	0x3d2f5646	0.042806886
31	0x3e062d6f	0.13103269
32	0x3d027510	0.03184992
33	0x3df05e45	0.117367305
34	0x3cb25c9e	0.021772679
35	0x3d61b8ca	0.05510787
36	0xbddc20bf	-0.10748433
37	0xbdccca8a	-0.09999569
38	0xbbf5662f	-0.007488988
39	0xbddc4ccf	-0.107568376
40	0x3dbaeef0	0.09127605
41	0x3e29331e	0.16523406
42	0xbd99aa08	-0.07503134
43	0x3b264e44	0.002537624
44	0xbd02d4ca	-0.031941213
45	0xbbad5569	-0.0052897227
46	0xbdb5352e	-0.08848034
47	0x3ca672c6	0.0203184
48	0xbdd3d09f	-0.10342526
49	0x3c9119de	0.01771253
50	0x3dfc529c	0.12320444
51	0x3d0a2ec5	0.03373601
52	0xbe1b69b4	-0.15177041
53	0x3e048fbd	0.12945457
54	0x3d94a3e0	0.07257819
55	0x3d599bbb	0.05312703
56	0x3df89caf	0.1213926
57	0x3ca25ef5	0.01982067
58	0x3db9aa4c	0.09065685
59	0xbd3fcda0	-0.04682696
60	0x3e1d04b8	0.15333831
61	0x3d4d2797	0.050086584
62	0xbd3067af	-0.04306763
63	0xbd76e828	-0.060279995

head.2.weight f4 [1, 64]
0	0x3dc80396	0.09766309
1	0xbe223d68	-0.15843737
2	0xbdf86c96	-0.12130086
3	0xbe58e80b	-0.21182267
4	0xbea61565	-0.32438198
5	0x3e599987	0.21249972
6	0x3eaea465	0.34109798
7	0x3eb9a0bb	0.3625544
8	0x3df9b0a2	0.12191893
9	0x3f195e77	0.59909767
10	0xbe184e0d	-0.14873524
11	0xbea56c59	-0.32309225
12	0x3df5c6c6	0.12000804
13	0x3e29e710	0.1659205
14	0x3e183d97	0.14867245
15	0xbe32396a	-0.17404714
16	0x3eb28c3d	0.34872618
17	0xbebb4b43	-0.36580858
18	0xbe6417bd	-0.2227468
19	0xbee66d4a	-0.45005256
20	0x3e3bbef2	0.18334559
21	0xbece1b42	-0.4025517
22	0xbe6e3101	-0.23260881
23	0x3e8092af	0.2511191
24	0x3ef68a4a	0.4815238
25	0x3eb84550	0.3599038
26	0x3e60a722	0.21938756
27	0xbf15f07d	-0.5857008
28	0x3d960514	0.07325187
29	0x3ea250fa	0.31702405
30	0xbeb48fbe	-0.35265917
31	0xbe475c06	-0.19468698
32	0x3e09d760	0.13461065
33	0x3ddc0843	0.10743763
34	0xbe282450	-0.16420102
35	0x3dae6f47	0.08517318
36	0xbe934b33	-0.2876831
37	0x3ebf03c3	0.37307557
38	0xbe70143a	-0.23445216
39	0x3eebe0fd	0.4607009
40	0x3e142229	0.14466156
41	0xbe4e4769	-0.20144428
42	0xbe36921a	-0.17829171
43	0xbeb0c5ec	-0.34526002
44	0xbebdbf75	-0.37060133
45	0x3e15f8b1	0.1464565
46	0xbe10d1ab	-0.14142482
47	0x3e1ac0f8	0.15112674
48	0x3d08c575	0.033391435
49	0xbe5714c3	-0.21004014
50	0x3e0d130d	0.13776799
51	0x3d788e15	0.060682375
52	0x3ebd5d53	0.36985263
53	0x3e5c2b0f	0.215008
54	0x3dd48ee5	0.103788175
55	0x3e18d2b1	0.14924122
56	0xbe13780a	-0.1440126
57	0x3de87bf6	0.11351769
58	0x3dda124a	0.106480196
59	0xbe20f955	-0.15720113
60	0x3dc06bdb	0.09395572
61	0xbeb948be	-0.3618831
62	0x3da90eb5	0.08254758
63	0x3e884406	0.26614398
