outputs/exp_0002_20251212_235529/runs/seed3/h5/SlidingWindowSGD/model_final.pt (torch, 71493 bytes, 7 tensors)

gru.weight_ih_l0 f4 [192, 1]
00000000: 1134 2cbe f16f ecbd 9f12 82bc 6aaa 17be
00000010: dfa6 aabc 2ec9 69bd 94a6 f33d d960 da3d
00000020: 6efc b63d 3bd2 ac3d 0815 96bb 0c8f c43d
00000030: 1c67 dfbd 8c61 4f3b 0c4d 09be 773c a4bc
00000040: b21f f3bd 1c2d 293e 924f db3d 4782 8a3e
00000050: 203f 953d b978 eebc a936 7c3d 06fb 2abd
00000060: b786 18be dcf8 e7bd 67c9 d7bc 758c 0b3e
00000070: 4dc4 65be 9ec8 14be 6952 e53c 8c7b ba3d
00000080: b005 debd 8f0e 4bbe a886 adbd 2069 3dbe
00000090: b720 003d f452 c5bd f0ca d5bc e9db 8c3d
000000a0: dad8 13bd 7b0a a3bc 73b3 503d 609e 15bc
000000b0: 3f3d 383d c5e6 8c3d 6f9a 21be 6b3a b43c
000000c0: cb97 51bd 899f 0e3e b535 f23c 2032 12be
000000d0: 2167 003d 739a 2bbd 7f5f 3e3e b61d aebb
000000e0: e510 673d d579 623d 3df7 e63d 9eff 0abe
000000f0: c456 113e 30cd 16bd b496 83bc bcfc cfbd
00000100: 1677 4ebe 3ba7 cebd ff05 033d b9b0 d5bd
00000110: b9a2 2dbe f561 33bc c363 b93b 63b9 b23d
00000120: 1323 4dbe 0fb8 08bd 69d8 f13d eb0e 133d
00000130: 0dbb 393d 9b8a 923d dd97 cabc 8bc7 ec3c
00000140: 0725 08be 6deb f0bd c141 f0bd c470 afbb
00000150: 0ca6 a83d 550a 7ebd 5fde 2c3d da67 2ebe
00000160: 873b e7bd 2393 13bd c647 c0bd 334e ac3d
00000170: f67c 1dbe fca7 953d fe96 d03c d28d 993c
00000180: 2b3d b3bd 8901 853d 39aa 61be 6d4f 3ebe
00000190: ba1c 903d 227d 56bd 021f 05bd 1883 dbbb
000001a0: 5d94 9e3d c47d 8bbd 53c3 70bd 04c8 a9bd
000001b0: 1170 103e e6ae fbbd f9fc 7cbc 6b0f 153e
000001c0: 8ed6 d9bd 31e1 88bd 52c3 febd 767c a4bd
000001d0: 3376 0d3e 2f8a cd3c 9e38 22be 660e b33d
000001e0: 8e0f 29be 0707 6fbe 0a7c b8bd 4acb 8cbd
000001f0: c23e 57be 213d e3bd 6033 e6bc 0cf4 9abb
00000200: 01b9 84bd 80bc babd 5acf 2f3e 33fb 953d
00000210: 4b8d 2d3e 142c 9dbd 9788 05bc 7b52 f63d
00000220: 5933 e33d 140e 063e ecdd 6abe 8983 c13b
00000230: e57f 32be b1a8 803d 22f8 a4bd 54e2 c03d
00000240: 198a e9bd d97f 30bd 3af6 a43d 203c 37be
00000250: 3aef 003e 71c8 173e 2f4e ecbd a546 133e
00000260: b956 8e3d 1fee 333e 9acc 203e ae8d 2ebe
00000270: 3852 4c3e 2da9 5d3c 8ce0 d73d 8d2c d9bd
00000280: cd31 14be c2d9 963c b832 aa3d e303 1e3b
00000290: 3a02 6abe 3920 2cbe d426 343e 2d45 69bd
000002a0: 2b65 813d deef b0bd e28d 7c3d 8821 8b3d
000002b0: fab3 46be 7cf7 ae3d d296 abbc 1c9c 7a3e
000002c0: 843a d7bd 5a64 083e 3eb5 fa3d 3fc6 2dbe
000002d0: a68e 4f3e b55d 3f3c 28b7 a83d 1f53 203e
000002e0: 5959 5d3e a106 fe3d 5e69 443d a431 4a3e
000002f0: 8074 42be 5ce5 063d c3da 1b3e 8355 92bd
-0.16816737 -0.11544789 -0.01587802 -0.14811102 -0.020831523 -0.057076626 0.11897007 0.106630035
0.08934866 0.08438536 -0.004580144 0.095975965 -0.109083384 0.0031643836 -0.13408297 -0.020048363
-0.1187128 0.16521114 0.10708536 0.2705252 0.07287431 -0.0291103 0.061575565 -0.0417433
-0.1489514 -0.11326763 -0.026341153 0.13627799 -0.22438164 -0.14529654 0.027993398 0.09105596
-0.108409286 -0.19829772 -0.08472949 -0.18497133 0.0312812 -0.09634963 -0.026097745 0.06877882
-0.036095478 -0.019902458 0.050952386 -0.009131998 0.044980284 0.06879953 -0.15781568 0.022000512
-0.05117015 0.13928045 0.029566625 -0.14276934 0.03134835 -0.04189534 0.18591116 -0.0053136004
0.056412596 0.05529197 0.11277626 -0.13574073 0.14193255 -0.036816776 -0.016063072 -0.10155627
-0.20162615 -0.100904904 0.03198814 -0.10434098 -0.16956605 -0.010948648 0.0056576445 0.08726766
-0.20032911 -0.033378657 0.11808855 0.0359029 0.0453444 0.07155343 -0.024730617 0.028903743
-0.13295375 -0.11763654 -0.117312916 -0.005354019 0.08234796 -0.062021572 0.042204257 -0.17031804
-0.11290651 -0.036028992 -0.0938869 0.08413353 -0.153797 0.07307431 0.025462624 0.018744383
-0.08751901 0.064944334 -0.22037591 -0.18584986 0.07036729 -0.05236543 -0.032500274 -0.006698977
0.07743142 -0.06811097 -0.058780026 -0.08290103 0.1410525 -0.122892186 -0.015441173 0.14556663
-0.10636626 -0.06683577 -0.12439598 -0.080315515 0.1381462 0.025090305 -0.1584191 0.08742981
-0.1650984 -0.23342524 -0.090080336 -0.06874712 -0.21020034 -0.11095644 -0.02810067 -0.0047287997
-0.06480599 -0.09117985 0.17168942 0.07323303 0.1694843 -0.07674423 -0.008150241 0.12027451
0.11093778 0.13091308 -0.22936219 0.005905573 -0.174316 0.06282175 -0.0805514 0.09418169
-0.11403293 -0.043090675 0.080547765 -0.1789403 0.12591258 0.14822556 -0.1153835 0.14382418
0.06950135 0.17571305 0.1570305 -0.17046234 0.19953239 0.013529104 0.10540876 -0.106042005
-0.14472122 0.018414382 0.08310455 0.0024111203 -0.22852412 -0.16809167 0.17592937 -0.056950737
0.063181244 -0.08639501 0.061658747 0.06793505 -0.19404593 0.08543298 -0.02094594 0.24473614
-0.10509208 0.13319531 0.122416005 -0.16970156 0.2026926 0.011680056 0.08238059 0.15656708
0.21616115 0.12403608 0.04795205 0.19745499 -0.18989754 0.032933578 0.1522017 -0.07145216

gru.weight_hh_l0 f4 [192, 64]
00000000: 6f1f d4bd 6466 443d f14c 2f3c 4ebf 873c
00000010: db81 d23d eea5 52bd 3056 423d bcce 3c3d
00000020: d769 a5bd 4369 ce3d 5a1d 563d b13b 2c3e
00000030: 1cbb 173e 3019 18bd 0371 523e 6c85 febd
00000040: f56e 523e 5295 4e3b 21e9 a5bd fc0f a2bd
00000050: b5c9 94ba 0138 66bd 5d8f 4ebd 57cd f8bd
00000060: ca4e d8bd 7e8d 8fbd 212e 083d 8cda d53d
00000070: b374 1fbe 5aa7 2bbe 3538 b1bd c145 4d3e
00000080: 8642 b13d 13c8 c43d 3d2f a83c 5be9 4e3d
00000090: ec50 b33d 4995 c9bd 3da7 673d e2cc 2b3d
000000a0: e36a f03d b993 5c3e 1931 b33d 92c5 2e3e
000000b0: 8ba2 f7bd 5c60 da3d 5238 e3bc fea6 70bd
000000c0: 3ce5 993d d90c cf3d 36b0 35be 3884 8f3d
000000d0: 3c24 a23c ef2c c13c 56f6 9d3d 48de c33d
000000e0: de1d 27bd 33d9 2d3c 5ab1 703d aedb 2a3d
000000f0: d87b 063e 26e9 59be c7fa 323d b3a7 95bd
00000100: f2be 1a3e 5971 3a3d f33f 123e c7e1 cebc
00000110: c21d 43be b385 04be 2dfe 013c 552c 153e
00000120: cbd0 b13d c3de 5fbd c3ef 3b3d 1652 0b3d
00000130: ddf2 37bd e93b 0b3e 01b4 9a3c 9261 aa3c
00000140: 7cd2 c4bd ff78 2d3b 671b c73c 5a86 12be
00000150: ce8c 8dbd 3d1f 8fbd 4889 2fbd c654 303d
00000160: fee6 51bd fb33 963d e1db 023d d8f5 2dbe
00000170: d686 c73d 2723 61bd 9d90 0c3d b941 e23d
00000180: c28f ff3c cb11 c13c ce78 953d 5945 10be
00000190: 46f9 c3bd e2ca 9ebd 9406 9c3c b5ea dfbd
000001a0: 36c6 7cbe 2551 f73d b76e e43d fa40 cf3d
000001b0: 0ba9 b5bd 7d46 bcbc 4aec e3bb 7e0d 59bd
000001c0: aadd dfbc 7d32 0b3d 404f 113d 9fac 07be
000001d0: 6116 063b 85db 39be 6079 a03d 61d3 183e
000001e0: 83ea 923c 27df d73c 7304 d1bd 8201 053d
000001f0: 483f c7bd 638e ea3d e493 a73c e75f d23c
00000200: 57ea 253e bc81 f5bd 1ad0 ddbd 4621 49bc
00000210: 0730 6d3e 5193 1a3d 5003 86bd b684 5f3d
00000220: d9e5 c2bc fe77 3fbe 9c7a 7cbd 36bc 9bbd
00000230: c7a0 00be 6c90 dfbd 94c8 59bd 5f50 cf3d
00000240: 396e ccbd c2fd 843c 1f0d de3c fca2 d93d
00000250: 5844 98bc 8063 b1bc 3d9f 0cbd 835a 8fbd
00000260: c6b8 6e3d 1b1a e0bc 7ac5 d9bd e056 fd3a
00000270: e036 68bd 359f d33d 10cf ae3d e16e 01be
00000280: 7896 08bd 6212 f0bd 9086 78bc e9e6 0b3e
00000290: a886 30bd c247 91bc 0c73 c53c 6f65 6f3b
000002a0: 096c 15bd 3ab2 e5bd c2cc 44be 0d7e dcbd
000002b0: c6e5 2a3e c7a4 6ebe e35b 2e3e 195a 303a
000002c0: 508e e1bd dd9e 90bc 4411 dbbc 02aa e8bc
000002d0: f739 743d c07e 9c3d d443 ffbd 813f 493d
000002e0: 8087 35be 3510 01be 5fa5 6c3e 736b aa3c
000002f0: 5b4c 06bd 16d6 4ebd d390 82be 005a 0dbe
00000300: 3b76 d2bd f63d afbc a7d5 dc3b 1f46 333d
00000310: 3713 5d3d c037 07be 7b21 293e 3ea9 233d
00000320: aa92 4dbd 1c35 3fbd 0428 8bbd 17aa 0cbe
00000330: 315e e73b 4e4c b3bd 3ee8 d2bc d90c 12bd
00000340: dae3 7f3d 69f6 c4bc 66ff c0bd 78a6 c9bc
00000350: e319 7d3d 52a3 66bc 4cc2 8cbd defd ddbd
00000360: 5b29 29be 0009 7ebd 9012 973d 0219 783e
00000370: 2d29 1bbd 3cfb c03d 4720 d0bc 694a 913d
00000380: 403f df3d d58e 17bd a7a8 373c 422a b6bd
00000390: 27ec cebd 2842 373e 0e33 113d 43db 5d3e
000003a0: d407 ad3d 2b7a debd 7109 a8bd ca7d 71bd
000003b0: fc7d 20be 46ed cd3d 7056 2cbe bfe3 493e
000003c0: 61de 71bd 7fd1 5dbd fffc 263d 66c5 bdbd
000003d0: 7e2f d7bd a1ea 8ebd 9ce8 9fbd 8749 cfbd
000003e0: 83bc 063e 1092 2d3e 6971 0c3e 6e61 b53c
000003f0: 96f9 f83d f86a dbbd d033 533d 8268 3bbd
-0.10357558 0.04794921 0.010699497 0.016570713 0.10278674 -0.051427774 0.047445476 0.046095595
-0.08076828 0.10078671 0.052274086 0.16819645 0.1481747 -0.037133396 0.20550923 -0.12427792
0.20550139 0.0031522107 -0.081011064 -0.07913205 -0.0011351617 -0.056205753 -0.05042969 -0.121485405
-0.10561903 -0.07009409 0.033247117 0.10442075 -0.15571861 -0.16763058 -0.08653299 0.2004614
0.086552665 0.09608474 0.020530337 0.050515514 0.08755669 -0.09842927 0.056555975 0.04194344
0.11739137 0.21540727 0.08749599 0.17067555 -0.120915495 0.1066291 -0.027736817 -0.058753006
0.07514426 0.10109872 -0.17743 0.070076406 0.019792669 0.023580996 0.077130005 0.09563881
-0.040799968 0.010610866 0.058762886 0.04171341 0.1313318 -0.21280345 0.04369619 -0.07307377
0.15111902 0.045518253 0.14282207 -0.025254143 -0.1905432 -0.12941627 0.007934135 0.14567693
0.08682402 -0.0546558 0.04588295 0.03401383 -0.044909347 0.13597073 0.01888466 0.020798478
-0.09610459 0.0026469824 0.024305059 -0.14309064 -0.06911622 -0.0698838 -0.04285553 0.043049596
-0.051245682 0.07334133 0.031947974 -0.16988313 0.09742515 -0.054965165 0.0343176 0.11047692
0.031196479 0.023568055 0.07298432 -0.14088954 -0.095690295 -0.077535406 0.019046105 -0.10933439
-0.24684986 0.12076024 0.1115393 0.10119815 -0.08870133 -0.02298283 -0.006955658 -0.052991383
-0.027327377 0.033983696 0.03547597 -0.13249443 0.0020460116 -0.18150146 0.078356504 0.14924385
0.01793409 0.026351525 -0.10205927 0.03247214 -0.09728867 0.11452939 0.020456262 0.025680495
0.16202675 -0.119876355 -0.10830708 -0.012275999 0.23162852 0.037738148 -0.065436006 0.054569922
-0.02379124 -0.18698117 -0.061640367 -0.07604258 -0.12561332 -0.10916218 -0.0531698 0.101227514
-0.09981961 0.016234282 0.027105866 0.1062679 -0.018587276 -0.02165389 -0.03433155 -0.069996856
0.058281682 -0.027356198 -0.10633369 0.0019328259 -0.056692958 0.10333101 0.08535588 -0.12639953
-0.033346623 -0.11722256 -0.015168801 0.13662304 -0.04309717 -0.017734412 0.02410271 0.0036528965
-0.036479983 -0.11215635 -0.19218734 -0.1076623 0.16689214 -0.23305045 0.1702724 0.0006727293
-0.11013472 -0.017653877 -0.026741631 -0.028401379 0.059625592 0.07641363 -0.12464109 0.049132828
-0.1772747 -0.12603839 0.23109959 0.020803189 -0.032787662 -0.050497137 -0.25501117 -0.13803864
-0.10276457 -0.02139185 0.0067393365 0.043768045 0.053973403 -0.1320486 0.16516678 0.039956324
-0.050188698 -0.04668151 -0.06794742 -0.13736759 0.007060789 -0.08754788 -0.025745507 -0.035656784
0.062473156 -0.024043279 -0.094237134 -0.024615511 0.061792266 -0.014077025 -0.06872997 -0.10839437
-0.16519682 -0.0620203 0.073765874 0.2422829 -0.037881065 0.09422919 -0.025406016 0.07094271
0.10900736 -0.03700145 0.011209643 -0.08894779 -0.10103636 0.1789633 0.03544908 0.21665673
0.08448759 -0.108631454 -0.08204926 -0.058957852 -0.15673059 0.10055022 -0.16829848 0.19715784
-0.059049968 -0.05415487 0.04076862 -0.092661664 -0.10507105 -0.06978346 -0.078080386 -0.10121446
0.13157849 0.1695025 0.13715138 0.022141185 0.1215698 -0.10713762 0.051563084 -0.045753963

gru.bias_ih_l0 f4 [192]
00000000: c0e8 953b c792 91bc 100d f03c 8c47 8e3d
00000010: 6bc8 993c 289f fbbd f5e3 1ebc 6fff ccbc
00000020: fb3a 0f3e 0f4a a1bc 741d 64bd 051a 1e3e
00000030: db21 22bd d7fd c33d 0047 3ebd 120a 08bd
00000040: 05db 2abc 280f 12bd e89f 87ba 149e 9a3d
00000050: ff97 b13d f1b2 613c b9d0 a43d eb30 ac3d
00000060: 8e00 aabd 5d22 193e e4b8 48bd ae52 323e
00000070: 6149 07bd 62ee da3c f9ba 6dbd 4a3d f13c
00000080: dddf 3b3e aa5a 963c e1d0 033d 2808 373d
00000090: cd32 d63d e695 d33d a94f 11bd 047a 803d
000000a0: 15d4 bcbd 1cb1 a73d 553f 983d 875c 903d
000000b0: be54 3cbd 0070 6d3d 3f9a 763d 323a 3e3b
000000c0: 8de7 59bd c73e 1bbd b6ba 703d 7d54 03bd
000000d0: eb76 9ebb 6491 083d 994a 37bd 0245 b93c
000000e0: bdf3 3a3e afbe d6bc b603 1d3d 52f8 213e
000000f0: 5a19 1e3d d91c 7f3d 15fd f23d 8141 b03d
00000100: c882 c23d 1229 c13d a96a d7bd 1dcd 1fbd
00000110: 53d0 babc d7c8 c7bb ed96 c53d b591 e23d
00000120: 63f8 6a3d 29ca d9bd 1e20 083d 5ba3 de3d
00000130: 8421 673c a8fc d33d bf06 ab3d 4b4a c33d
00000140: ef3b 9dbd 58b8 e33d 5d50 2e3e ec05 583d
00000150: 1ba1 a0bd 530e fd3d 4916 053e 3448 ce3d
00000160: bab9 2e3e bf66 31bd a33f 01bd c3e2 23be
00000170: 1487 a43d b083 963d b3f8 023e 78c5 ae3d
00000180: e5e1 c5bc a6c8 81bd df99 3c3e 0a06 32bd
00000190: 59ec c5bc cae6 96bc 7c26 8e3d 4ded 143e
000001a0: 9af0 c63b 9922 4a3d 9fa8 75bd 13fd c2bc
000001b0: 9a46 e9bc 8188 5f3e 80ef 723d 2091 93bd
000001c0: 2897 5bbc 74a2 8abc fbcf fe3c 99c4 d83d
000001d0: 28d1 8b3d a425 36bd 6198 fa3d 92ea a83d
000001e0: 0dec 5dbe dca1 34bc 41b6 5a3e 72dd bf3d
000001f0: b371 cf3d 0195 7abc 04d4 1b3d 30d9 55bd
00000200: 2cdd 3d3d c93b a93c 7cc3 873c 2446 ea3d
00000210: bbb1 bc3d 0a17 9a3d eadc 843d 323c 98bc
00000220: 16eb 1ebe d81b 13bd 03be ae3c 885b efbd
00000230: e450 463c d27d c6bd 4240 903d 7b91 4bbc
00000240: 3357 64bc 1faa 00bd 89b6 f7bd 15ee ff3b
00000250: 966d b9bd 3731 abbd 47d5 79bc 87c3 aebd
00000260: 0135 833c e600 b4bb 1769 d1bc df0c cb3d
00000270: 5701 19bc b9a4 0a3e 36ff cabc d281 7abd
00000280: e041 a53d d4b3 783b 9584 17be a6b4 9dbc
00000290: 724e d9bd 00a7 f83d 94da 093e 9410 b23d
000002a0: 7418 b1bc 6ad5 91bd f3f3 0cbe 4f27 a8bd
000002b0: b5a3 193d 4bd8 4abd a62e 333d beeb 5d3d
000002c0: 0b45 9bbd 2e39 61bd 9006 6abd 6b2e 23be
000002d0: bd84 30bd dcf0 b8bb 1164 45bd a1cc 73bd
000002e0: a373 a3bc b51e ab3d b18f 853d fe45 223e
000002f0: 54f2 9f3d a569 443d ae97 86bd 1b63 9abd
0.004574865 -0.017770184 0.029303104 0.0694724 0.018772325 -0.12286216 -0.009697904 -0.025024144
0.13987343 -0.019688634 -0.05569215 0.15439613 -0.03958307 0.095699005 -0.04645443 -0.03321273
-0.010428195 -0.035658985 -0.0010347338 0.07549682 0.08671569 0.013775573 0.08047623 0.08407768
-0.08300887 0.14954515 -0.04900445 0.17414352 -0.033028964 0.026724998 -0.05803964 0.02944817
0.18347116 0.018353779 0.032181624 0.044685513 0.10458908 0.10331325 -0.03547636 0.06273273
-0.09220139 0.08188078 0.074339546 0.07048898 -0.045979254 0.05796814 0.060205694 0.0029026386
-0.05319934 -0.037901666 0.05877181 -0.032062996 -0.0048359535 0.03334178 -0.044748876 0.022615913
0.18257041 -0.026213972 0.038333617 0.15817383 0.038598396 0.06228337 0.11864678 0.08606244
0.09497601 0.09431662 -0.10518391 -0.03901397 -0.022804415 -0.00609694 0.096479274 0.11062948
0.057365786 -0.10634262 0.033233754 0.10871001 0.014107112 0.10350925 0.08350896 0.09535655
-0.07677447 0.11119145 0.17022844 0.052740023 -0.078432284 0.12356248 0.12996782 0.100723654
0.17063037 -0.043310877 -0.03155483 -0.16004471 0.080335766 0.07349336 0.12790184 0.08533758
-0.024155566 -0.06337099 0.18418072 -0.04346279 -0.02416055 -0.018420596 0.06940934 0.14543648
0.0060711624 0.0493494 -0.059975263 -0.023802316 -0.028476048 0.21829416 0.059310436 -0.07205415
-0.013402738 -0.016923167 0.031105032 0.10584373 0.06827003 -0.04446949 0.12236095 0.08247866
-0.21672077 -0.011024918 0.21358587 0.09368409 0.10129108 -0.015294314 0.03804399 -0.05220908
0.046353504 0.02065839 0.016572706 0.114391595 0.09213587 0.075239256 0.064874485 -0.01858339
-0.15519366 -0.035915226 0.021330839 -0.1168738 0.012104247 -0.09691967 0.07043506 -0.012424822
-0.013936806 -0.03141224 -0.12095363 0.007810364 -0.09054105 -0.08358996 -0.015248603 -0.08533388
0.016016485 -0.005493271 -0.025562806 0.09914564 -0.009338698 0.13539399 -0.024779897 -0.061158963
0.08069205 0.0037948983 -0.1479667 -0.019251179 -0.106106654 0.12141228 0.13462287 0.08694568
-0.021618105 -0.071207836 -0.13764934 -0.082106225 0.03750964 -0.04952268 0.04374566 0.0541799
-0.07581528 -0.05498617 -0.057135165 -0.15935676 -0.04309534 -0.005643947 -0.048191134 -0.05952132
-0.0199526 0.08355466 0.065215476 0.15847012 0.07809892 0.047952313 -0.06571899 -0.07538434

gru.bias_hh_l0 f4 [192]
00000000: e1cd b03d 1f8b 27be 7c0d ecbd 1a26 153e
00000010: d628 48bd 895b 0b3d 6cdb b73d 6664 7ebd
00000020: 8188 a4bd 39bd 3f3e be23 8b3d f2ea 303e
00000030: 764d cabd 9bda 173e 80de ae3d 48c1 0c3d
00000040: be8b 68bd 29dd 0e3e b391 d83c 1523 b33d
00000050: f82b ec3d d604 95bd 3d60 9abb 7dc4 05bc
00000060: aef4 b33d 9b4d 393e 0780 f33d 20c2 303e
00000070: 3757 ea3b 1d9a eb3d 06a5 b53c d7db f73d
00000080: 374e 923c 0252 06bd 8d8c 8d3d 0e32 423e
00000090: c400 3b3d 59fa 223e 3bc3 cabc b536 76bd
000000a0: 6fc0 adbd 74b1 133d e4c0 083d da8b c3bc
000000b0: 2bea ef3c 776a 3e3d b218 ffbc 4520 ed3c
000000c0: b303 e3bd d787 3ebd c33d 21bd 0111 643d
000000d0: da92 0e3e 5c2c ac3d 765c 7abc 8f4c 123e
000000e0: a6e9 a93d cb71 8b3d 1878 ca3d c259 6dbd
000000f0: fa9d 52bb fb26 dc3c 92bb 833d d2e1 5e3d
00000100: e336 ae3c 1f76 0bbe fd48 943b f80d 2c3e
00000110: 0765 babc 6ebf 613d e175 ee3d 60d7 ad3d
00000120: 7d1c 813c adef fe3d 57a2 213e ed36 1e3e
00000130: 17ff 3fbd 7633 cabd 5f10 cebd 180d a73d
00000140: f801 0e3e d328 e33b 2a5f c23d 0611 1bbd
00000150: b368 99bc 7a12 bb3c 7b6c 233d e7e0 033e
00000160: 321e 013e ef28 24bd a103 b63d d7c3 5ebb
00000170: 949e bc3d ec68 cc3b d72a 8dbd bcfd e03c
00000180: bd58 35bc 232d 583d 671c 373e f14e 1dbc
00000190: aebc 8d3d d643 993d d1d4 18be 2e39 ed3c
000001a0: 9653 bc3b 7175 1e3d 6bba 34bd bc9d 373e
000001b0: fc4b 12bd 03ef 3a3e 86b5 f93d 5106 a5bb
000001c0: c33d eb3d 6427 9a3d 1d28 e13c c634 223c
000001d0: 7a1f d6bd 153d 1d3d f6e2 f43c d92e 83bd
000001e0: 3be4 37be ff51 73bd 29d5 fc3c 28af 773c
000001f0: 96c3 03bd 10b5 4ebd a79b bc3d edd3 4cbd
00000200: 9dff 6cbd 8b72 08bd 80c2 69bd fdb1 413d
00000210: 5d59 bd3d bd36 23bc 648b 733d d93a 693d
00000220: c6c0 bfbd b9a1 d6bd 60b3 8dbd 151e d6bd
00000230: 5790 94bd e760 d73c e762 e2bd 9358 9f3d
00000240: 5170 973d 41ba 94bd 3583 f2bd 6cfb 16be
00000250: f586 b23c 67fc f33c 5657 90bd 0bfa a0bd
00000260: 302c 063d 952e 133e 5c9b f23c 108b 133e
00000270: be28 4bbd d190 de3c 8fa4 d93d 9f27 f0ba
00000280: dddf 253c 4b86 fabd c579 813d c856 923d
00000290: eb4b d2bd 769c df3d 4741 c1bd 029f bebc
000002a0: f273 8a3d 4f57 85bd 7ad2 683d 9b40 a33c
000002b0: 5c5d 48bd 4801 3f3d 5c9c 163d b22d 56bd
000002c0: 71cb 7b3d 326e 0bbc 7027 eebd 1ed3 253c
000002d0: 93e1 013e 88f3 d4bb c0c6 6ebd e18c 1fbc
000002e0: f353 453d 85d4 c4bd a076 1c3e 36f7 053d
000002f0: 7996 883d 6632 893c 0a77 83bc e43b 16bd
0.08633018 -0.16361664 -0.115260094 0.14565316 -0.04886707 0.03402284 0.08977398 -0.062107466
-0.080338486 0.18724526 0.06793927 0.17277125 -0.09878056 0.14829485 0.08538532 0.034364015
-0.056773894 0.13951553 0.026436662 0.08746926 0.11531824 -0.07276313 -0.0047111795 -0.008164522
0.08786903 0.1809601 0.11889654 0.17261553 0.00715151 0.11504004 0.022173416 0.12102478
0.017859561 -0.032793052 0.069115736 0.18964407 0.045655027 0.15915813 -0.024751296 -0.060110766
-0.084839694 0.036057904 0.03338708 -0.023870397 0.029286465 0.04648825 -0.031139705 0.028946051
-0.1108469 -0.046516266 -0.03936554 0.05568028 0.13923207 0.084068984 -0.0152808335 0.14287017
0.08296518 0.06808814 0.09886187 -0.057946928 -0.0032137618 0.026874056 0.064322606 0.054414578
0.021266406 -0.13619278 0.0045253024 0.16802204 -0.022753252 0.055114202 0.11643577 0.08488345
0.015760655 0.12448058 0.15784584 0.1545064 -0.046874132 -0.09873097 -0.10061716 0.08156794
0.13867939 0.006932357 0.09490807 -0.03785803 -0.018726682 0.022835959 0.039898377 0.12878762
0.12609175 -0.0400781 0.08887411 -0.0033991241 0.09209934 0.0062380936 -0.06892937 0.02746474
-0.01106852 0.05277742 0.17881928 -0.009601341 0.069207534 0.07483642 -0.14924933 0.02895793
0.005747269 0.03868622 -0.044123095 0.17931265 -0.035716996 0.18255238 0.12192826 -0.0050361534
0.114863895 0.075270444 0.027484948 0.0099002775 -0.104552224 0.03838833 0.02989338 -0.0640542
-0.17958157 -0.05940437 0.030863361 0.015117444 -0.032168947 -0.050465643 0.09209376 -0.050006796
-0.05786096 -0.03331236 -0.057070255 0.047288883 0.0924556 -0.009961781 0.059459105 0.056940887
-0.093629405 -0.10480065 -0.06918979 -0.104549564 -0.07254093 0.026291324 -0.110540204 0.07780566
0.073944695 -0.072620876 -0.11841432 -0.14744347 0.021792868 0.02978344 -0.07047908 -0.07860192
0.032756984 0.14373238 0.029615097 0.14408517 -0.0495994 0.027168663 0.1062709 -0.0018322355
0.010124174 -0.122326456 0.06322054 0.071454585 -0.102683865 0.109185144 -0.09436279 -0.02326918
0.06760396 -0.065107934 0.05684135 0.019928267 -0.04891716 0.04663208 0.03677021 -0.052289672
0.061473314 -0.008510159 -0.11628616 0.010121135 0.12683706 -0.0064987577 -0.05829501 -0.009738178
0.048175763 -0.096108474 0.15279627 0.03270646 0.066693254 0.016747665 -0.016047973 -0.03667821

head.0.weight f4 [64, 64]
00000000: cf58 87b9 c12d 2a3e 1801 b8bc 3589 53bd
00000010: 35b8 febc e42a 6f3d 53b7 e93d 11e5 463d
00000020: 6de1 5c3d 7094 c5bd f622 abbd f974 09be
00000030: 82ea 34bc a67e 22be 07ed 1abb 719d 96bd
00000040: a162 603d 94da eabc 16b5 593d ff47 ab3d
00000050: a26e babc 3e89 063d 1825 36bd e0ae 243c
00000060: 0b25 dcbd 63a2 02be fe3e 88bd c3b5 7fbc
00000070: 518d 853b e66f d03d 38a1 1e3d da0f f7ba
00000080: d88e 033c afa1 7dbb 46c8 8fbd 83e3 bebd
00000090: 40a3 d43d 41a9 7dbd 7d05 7f3c d6ef 223d
000000a0: 8207 1dbe a4be c1bd 406f 00be 2881 ffbd
000000b0: 83b0 4fbd 4508 a4bd 7ef6 2bbe 7ef5 0b3d
000000c0: ecce 83bd 2145 983c 2ae2 bb3d b006 b13d
000000d0: 69b8 323d 2a91 7b3c f37e 9b3c e4da 93bd
000000e0: 4f81 573d 52f0 bf3d 1be8 0abc 5e70 cabc
000000f0: f39e 973d 3f7d 333c 4916 c23b 952f 453d
00000100: ec2d 8c3d 3592 383b 44fc 283e cbf3 153e
00000110: f55b 80bc 9529 f13d a17c 163e dbb4 2a3e
00000120: 5220 063e c983 793d 56b2 8a3d 732f 603c
00000130: 6394 dabd 8a5d b3bd a953 cb3d da3f e33d
00000140: 2694 013d 0c4c afbd df48 14be df48 5abe
00000150: f2b8 19be 9649 b0bd 90ae 41bd d267 963d
00000160: 75f5 d13c 08ab 383e 4c8f 043e 905c 57bc
00000170: 5c3c 03bd 27de 5e3e 099b 873d 3a82 78b9
00000180: 4bab 8b3b 4d40 1b3d c4e0 803d edcb 13bd
00000190: 6d5a fcbd eb87 02be d3c1 b13c 80fa d9bd
000001a0: 2b42 9c3d 742f 30bd a11a 223d dd22 4cbd
000001b0: 1939 92ba 3fac e93d f9ee 383e c140 25be
000001c0: 1f5e 89bd ef68 3bbd 942a e03d 8b0b 05bd
000001d0: aefe fabc 52a1 f4bd a724 663d a8d2 293e
000001e0: 9c02 55bd 2bda 8fbd 33d9 91bd 7b0a 793e
000001f0: e10f f1bc 3e20 cebd bdd8 5f3d 80f4 52be
00000200: ed62 a93d d42e c33d ad8c a1bd c2f9 b13d
00000210: ea09 063e df46 083e b11f 61bd d1f6 e4bd
00000220: ee4f ca3b 3d87 5e3d 559a 1b3e 9cd7 59bd
00000230: f517 00bc 1786 76bd d449 91bd 31d4 863d
00000240: b977 c43d 9593 073e 819c 85bd 2643 823d
00000250: b99d 87bb a039 25be 80f1 d8bc 73ac 923d
00000260: 64ec c0bd 1d8f 83bd 09f7 34be f3e1 2dbc
00000270: f883 15be 3651 8a3d 5d3c 25bd c17f 0d3e
00000280: 7624 ae3d 591e adbd 2ef2 0f3d 6e31 0e3d
00000290: e663 9e3d f59d 0e3e 3193 9e3c 7be9 e93d
000002a0: 4047 723c 062e 223e a5d7 afbd 4eb7 923d
000002b0: b70b 9e3d d2d5 9bbd 3a84 853d 47f5 893d
000002c0: ca74 37bd 2679 c13d b67b 163d 1dc2 003e
000002d0: 3f59 38bd 033a a6bd e2be 4b3d fb3c 11be
000002e0: b030 2abb 5471 a63d 8e1b a6bd f1db d1bd
000002f0: 5fb6 1dbd ce1b a7bd 2caa 3bbd 2bca a1bd
00000300: fcf1 2dbd ca2b 3abb 6038 9f3d e362 efbc
00000310: 598b ef3a 9283 b63d d037 1cbd 5e23 153e
00000320: 37d1 8fbc 48b8 1d3d 6a87 b6bd 8328 f43d
00000330: e396 35be 33f1 a6bd c524 9f3d d605 1b3e
00000340: b9fd 11bc a8fc c2bc 49bf 223e dc6d f43c
00000350: dc14 d5bc 54bd a23c 9aa0 ff3c 570f bb3d
00000360: f732 e53c bced 10bc af90 d53d 1623 80bd
00000370: 6d73 aa3d f6cf 38bd 7a07 ef3c 798f e53b
00000380: dd46 81bc 69ff d53c ec14 edbd 5725 9d3e
00000390: cc0f cabd ecc7 86bd 2b8f e43d 0925 24be
000003a0: a9aa 083e 26cb cdbd 904c 8fbd 8a82 8a3d
000003b0: 176a 9bbc 4639 813c f549 6cbd d93e f2bd
000003c0: a033 aebc 58f5 e2bb 7d5d 433d 0ee7 f73d
000003d0: fcc4 783d 4d9f 83bb 590a 853d 5d9c 903d
000003e0: db9a 233e 8b94 47bd 4e51 bc3d 5a72 3fbd
000003f0: b395 883d 3d5c 99bd 6295 a4bd 251a ccbb
-0.00025815374 0.16619016 -0.022461459 -0.051644523 -0.031093696 0.058390513 0.114119194 0.0485583
0.05392592 -0.09647453 -0.08356278 -0.13423528 -0.011042239 -0.15868625 -0.0023639814 -0.07354248
0.05478156 -0.02866868 0.053151213 0.083633415 -0.022757832 0.032845728 -0.04446897 0.010051459
-0.10749253 -0.12757258 -0.0665264 -0.0156073 0.004075684 0.10177593 0.03872797 -0.0018849329
0.008029662 -0.0038701107 -0.07020621 -0.09320738 0.103827 -0.06192899 0.015565273 0.039779507
-0.15334895 -0.0946019 -0.12542439 -0.124758065 -0.050705444 -0.0800939 -0.16793248 0.034169666
-0.064359516 0.01858765 0.09173997 0.08643854 0.0436329 0.015354434 0.018981433 -0.072194844
0.052613553 0.09372009 -0.00847819 -0.024711784 0.07403364 0.010955154 0.0059230668 0.04814108
0.068446964 0.0028163318 0.16502482 0.14643781 -0.015668849 0.11775509 0.1469598 0.16670553
0.13098267 0.060916696 0.06772296 0.013683188 -0.10672834 -0.087580755 0.09928066 0.11096163
0.031635426 -0.08559427 -0.14480923 -0.2131686 -0.15011957 -0.086077854 -0.047285616 0.07344021
0.025629738 0.18033993 0.12945288 -0.013144627 -0.032039985 0.21764432 0.066213675 -0.00023699636
0.004262363 0.03790312 0.06292871 -0.03608315 -0.12321935 -0.12747161 0.021698868 -0.10643482
0.07629808 -0.043014005 0.039576177 -0.049837936 -0.0011155932 0.114098065 0.18059911 -0.16137983
-0.06707405 -0.04575437 0.10945621 -0.03248171 -0.030639019 -0.11944832 0.0561873 0.16584265
-0.05200444 -0.07024034 -0.071215056 0.24320404 -0.029426517 -0.100647435 0.054650057 -0.20601082
0.08270822 0.09530416 -0.0788816 0.08690216 0.1308972 0.13308285 -0.054961864 -0.11179889
0.006174079 0.054328192 0.15195592 -0.053184137 -0.007818212 -0.06018647 -0.0709416 0.06583441
0.09593148 0.13239892 -0.065239914 0.06360464 -0.004138675 -0.16135263 -0.026482344 0.07161798
-0.09420088 -0.06423781 -0.17672361 -0.0106129525 -0.14601123 0.06753771 -0.04034077 0.13818265
0.08503048 -0.08453054 0.03514307 0.03471511 0.07733898 0.13927443 0.019357296 0.11421486
0.014787495 0.15837869 -0.08586053 0.07163869 0.07717078 -0.07609142 0.06519361 0.06736236
-0.044789113 0.09446935 0.036739074 0.12574048 -0.045006987 -0.081165336 0.049742587 -0.14183418
-0.0025968961 0.081270844 -0.081107244 -0.102470286 -0.038504 -0.081596 -0.045816585 -0.078998886
-0.042467102 -0.0028407448 0.077744246 -0.029221958 0.0018275782 0.08911814 -0.038139164 0.14564273
-0.017555816 0.038505822 -0.08912547 0.119217895 -0.1773334 -0.08151474 0.07770685 0.15138945
-0.00891059 -0.023802117 0.15893282 0.029837541 -0.026010923 0.01986567 0.03120451 0.09133785
0.027978403 -0.008845743 0.10427987 -0.06256692 0.08322797 -0.045120202 0.02917837 0.0070056287
-0.01578086 0.026122766 -0.11576256 0.3069255 -0.09866294 -0.06581101 0.111601196 -0.16029753
0.13346352 -0.10048513 -0.06997025 0.067631796 -0.018971486 0.01577438 -0.05768772 -0.118283935
-0.021264851 -0.00692622 0.04769658 0.12104617 0.060734734 -0.004016793 0.06496114 0.07061074
0.15977041 -0.048725646 0.09195195 -0.046739914 0.06669178 -0.07488296 -0.08036305 -0.0062287026

head.0.bias f4 [64]
00000000: 8347 de3d 79d7 473c a72a aebd ad7e dd3c
00000010: 3ccd 29be c5b5 ab3d 62f7 b1bc f74e da3d
00000020: 8cb9 86bd a734 a73d e0df ad3d 9f05 f03d
00000030: f4f9 093e 2819 d23d b417 c3bd 27aa 9cbd
00000040: 9093 a53d 4fa0 7a3d cd9e 0a3e f408 7b3d
00000050: c73e a13c 3437 73bb 9639 4a3e 274d 03be
00000060: 3e22 8e3c d4c4 a5bc 2f51 b6ba 98e2 c53c
00000070: a062 fc3d 34d9 c8bd 4906 503d 45a4 e63d
00000080: 44e7 1b3e 519c 853d 8ce2 06be 445c e23d
00000090: 982b 093e 6be7 433e 3b4b e73d e125 81bd
000000a0: 8d6f fe3d 6b0d 69bd 5a8b 1bbe 1161 d5bc
000000b0: b24e bebd 83b0 d03d bc46 103e f99f 2dbd
000000c0: 3a21 a83d bcb9 2c3e a458 743d 641a 923c
000000d0: b65e 423d 18c8 403c 5e5c d7bc fd47 5c3d
000000e0: 96a7 67bd f75d 9abd 3f3d 41be c95d 173e
000000f0: 8173 1abc a23a 343d 27c4 53be 6952 5f3c
0.108534835 0.012197369 -0.08504229 0.027037943 -0.16582197 0.08384279 -0.021724407 0.106595926
-0.06578359 0.081643395 0.084899664 0.11719822 0.13474256 0.102587044 -0.095260054 -0.076496415
0.08084786 0.06118804 0.1353714 0.061287835 0.019683255 -0.003711176 0.1974853 -0.128224
0.017350312 -0.020235457 -0.0013909693 0.0241559 0.12323499 -0.09807053 0.050787244 0.11261801
0.1522494 0.065239556 -0.13172358 0.110527545 0.13395536 0.19131248 0.11293646 -0.06306053
0.124236204 -0.056897562 -0.15189877 -0.026047261 -0.09292354 0.10189917 0.14089483 -0.04238889
0.082094625 0.16867727 0.059654847 0.01783485 0.047453605 0.011766456 -0.026289161 0.05377959
-0.056556307 -0.075374536 -0.1887102 0.1478187 -0.009426952 0.04400123 -0.20680295 0.013630488

head.2.weight f4 [1, 64]
00000000: 100a 4abd 0239 f83d a890 ad3d c93b ba3d
00000010: bf93 f5bd 4b92 88bd c08f 853d b53e 5d3d
00000020: 6fbc 353e a65b 53bd c0a8 aabd 49bb 56bd
00000030: ab04 16be b044 e13d 703a 023e 4095 ed3d
00000040: d1f6 563e 513a 0bbd 7f4d 073e 34b2 d73d
00000050: 92dd c1bd 3c86 013e 73db b83d 9ba0 583b
00000060: 27b2 c5bb 86ef 2e3e 194b 23be 5639 b5bd
00000070: 8ede d8bd d9f3 943d f16e 1dbd c642 1e3e
00000080: 80c0 283e ce9d 39bd 05bb ebbd 4e0b 91bd
00000090: 5fe3 ccbd 183d 973d 1a8f 823d b65d 6a3e
000000a0: 3ba2 5c3b 182b 253e 94cc 0b3e aad6 13be
000000b0: 742a 60bd f6f5 21be afaa b33d e0f7 e33d
000000c0: 44ee 8a3d 01d7 02be c88e 093d 312f f2bd
000000d0: 7f46 993d 5723 073e dd5d 553e 12d3 1ebe
000000e0: 11fc 463e 3a74 8fbd 2b2f 39be b640 e83d
000000f0: b70e 04be 11a8 2f3e 5fe4 f1bd 42a8 debd
-0.049326003 0.121202484 0.084748566 0.09093434 -0.11991071 -0.06668528 0.06521559 0.05401488
0.17747663 -0.051601075 -0.08332968 -0.052424703 -0.14650218 0.10999429 0.12717605 0.11600733
0.2099259 -0.03399116 0.13213156 0.105320364 -0.09466089 0.12648863 0.090262316 0.0033054713
-0.0060332003 0.17083558 -0.15946616 -0.088488266 -0.10589324 0.07273073 -0.03843588 0.1545516
0.16479683 -0.04531651 -0.115102805 -0.07082234 -0.10004305 0.073846996 0.06374951 0.2288731
0.0033666033 0.1612972 0.13652259 -0.14437357 -0.054727986 -0.15816483 0.0877279 0.11131263
0.06783727 -0.1277733 0.033583432 -0.11825407 0.07484149 0.13197075 0.20836587 -0.15510204
0.19432093 -0.0700459 -0.180844 0.11340468 -0.12896238 0.17153956 -0.118111365 -0.108719364
